…
I0109 16:57:00.343142 16010 net.cpp:294] The NetState phase (0) differed from the phase (1) specified by a rule in layer accuracy
I0109 16:57:00.343475 16010 net.cpp:51] Initializing net from parameters: 
name: "CaffeNet"
state {
  phase: TRAIN
  level: 0
  stage: ""
}
layer {
  name: "data"
  type: "Data"
  top: "data"
  top: "label"
  include {
    phase: TRAIN
  }
  transform_param {
    scale: 0.0078125
    mirror: true
    mean_value: 127
  }
  data_param {
    source: "/home/lc/gender/school/data_2/train.lmdb"
    batch_size: 128
    backend: LMDB
  }
}
layer {
  name: "conv1"
  type: "Convolution"
  bottom: "data"
  top: "conv1"
  param {
    lr_mult: 1
  }
  param {
    lr_mult: 2
  }
  convolution_param {
    num_output: 96
    kernel_size: 11
    stride: 4
    weight_filler {
      type: "xavier"
    }
    bias_filler {
      type: "constant"
    }
  }
}
layer {
  name: "relu1"
  type: "ReLU"
  bottom: "conv1"
  top: "conv1"
}
layer {
  name: "pool1"
  type: "Pooling"
  bottom: "conv1"
  top: "pool1"
  pooling_param {
    pool: MAX
    kernel_size: 3
    stride: 2
  }
}
layer {
  name: "norm1"
  type: "LRN"
  bottom: "pool1"
  top: "norm1"
  lrn_param {
    local_size: 5
    alpha: 0.0001
    beta: 0.75
  }
}
layer {
  name: "conv2"
  type: "Convolution"
  bottom: "norm1"
  top: "conv2"
  param {
    lr_mult: 1
  }
  param {
    lr_mult: 2
  }
  convolution_param {
    num_output: 256
    pad: 2
    kernel_size: 5
    group: 2
    weight_filler {
      type: "xavier"
    }
    bias_filler {
      type: "constant"
    }
  }
}
layer {
  name: "relu2"
  type: "ReLU"
  bottom: "conv2"
  top: "conv2"
}
layer {
  name: "pool2"
  type: "Pooling"
  bottom: "conv2"
  top: "pool2"
  pooling_param {
    pool: MAX
    kernel_size: 3
    stride: 2
  }
}
layer {
  name: "norm2"
  type: "LRN"
  bottom: "pool2"
  top: "norm2"
  lrn_param {
    local_size: 5
    alpha: 0.0001
    beta: 0.75
  }
}
layer {
  name: "conv3"
  type: "Convolution"
  bottom: "norm2"
  top: "conv3"
  param {
    lr_mult: 1
  }
  param {
    lr_mult: 2
  }
  convolution_param {
    num_output: 384
    pad: 1
    kernel_size: 3
    weight_filler {
      type: "xavier"
    }
    bias_filler {
      type: "constant"
    }
  }
}
layer {
  name: "relu3"
  type: "ReLU"
  bottom: "conv3"
  top: "conv3"
}
layer {
  name: "conv4"
  type: "Convolution"
  bottom: "conv3"
  top: "conv4"
  param {
    lr_mult: 1
  }
  param {
    lr_mult: 2
  }
  convolution_param {
    num_output: 384
    pad: 1
    kernel_size: 3
    group: 2
    weight_filler {
      type: "xavier"
    }
    bias_filler {
      type: "constant"
    }
  }
}
layer {
  name: "relu4"
  type: "ReLU"
  bottom: "conv4"
  top: "conv4"
}
layer {
  name: "conv5"
  type: "Convolution"
  bottom: "conv4"
  top: "conv5"
  param {
    lr_mult: 1
  }
  param {
    lr_mult: 2
  }
  convolution_param {
    num_output: 256
    pad: 1
    kernel_size: 3
    group: 2
    weight_filler {
      type: "xavier"
    }
    bias_filler {
      type: "constant"
    }
  }
}
layer {
  name: "relu5"
  type: "ReLU"
  bottom: "conv5"
  top: "conv5"
}
layer {
  name: "pool5"
  type: "Pooling"
  bottom: "conv5"
  top: "pool5"
  pooling_param {
    pool: MAX
    kernel_size: 3
    stride: 2
  }
}
layer {
  name: "fc6"
  type: "InnerProduct"
  bottom: "pool5"
  top: "fc6"
  param {
    lr_mult: 1
  }
  param {
    lr_mult: 2
  }
  inner_product_param {
    num_output: 256
    weight_filler {
      type: "xavier"
    }
    bias_filler {
      type: "constant"
    }
  }
}
layer {
  name: "relu6"
  type: "ReLU"
  bottom: "fc6"
  top: "fc6"
}
layer {
  name: "drop6"
  type: "Dropout"
  bottom: "fc6"
  top: "fc6"
  dropout_param {
    dropout_ratio: 0.5
  }
}
layer {
  name: "fc7"
  type: "InnerProduct"
  bottom: "fc6"
  top: "fc7"
  param {
    lr_mult: 1
  }
  param {
    lr_mult: 2
  }
  inner_product_param {
    num_output: 256
    weight_filler {
      type: "xavier"
    }
    bias_filler {
      type: "constant"
    }
  }
}
layer {
  name: "relu7"
  type: "ReLU"
  bottom: "fc7"
  top: "fc7"
}
layer {
  name: "drop7"
  type: "Dropout"
  bottom: "fc7"
  top: "fc7"
  dropout_param {
    dropout_ratio: 0.5
  }
}
layer {
  name: "fc8"
  type: "InnerProduct"
  bottom: "fc7"
  top: "fc8"
  param {
    lr_mult: 1
  }
  param {
    lr_mult: 2
  }
  inner_product_param {
    num_output: 2
    weight_filler {
      type: "xavier"
    }
    bias_filler {
      type: "constant"
    }
  }
}
layer {
  name: "loss"
  type: "WeightedSoftmaxWithLoss"
  bottom: "fc8"
  bottom: "label"
  top: "loss"
  softmax_param {
    pos_mult: 1.3
    pos_cid: 1
  }
}
I0109 16:57:00.343639 16010 layer_factory.hpp:77] Creating layer data
I0109 16:57:00.465056 16010 db_lmdb.cpp:35] Opened lmdb /home/lc/gender/school/data_2/train.lmdb
I0109 16:57:00.602053 16010 net.cpp:84] Creating Layer data
I0109 16:57:00.602092 16010 net.cpp:380] data -> data
I0109 16:57:00.602150 16010 net.cpp:380] data -> label
I0109 16:57:00.665901 16010 data_layer.cpp:45] output data size: 128,3,200,200
I0109 16:57:00.856611 16010 net.cpp:122] Setting up data
I0109 16:57:00.856662 16010 net.cpp:129] Top shape: 128 3 200 200 (15360000)
I0109 16:57:00.856668 16010 net.cpp:129] Top shape: 128 (128)
I0109 16:57:00.856673 16010 net.cpp:137] Memory required for data: 61440512
I0109 16:57:00.856685 16010 layer_factory.hpp:77] Creating layer conv1
I0109 16:57:00.856712 16010 net.cpp:84] Creating Layer conv1
I0109 16:57:00.856721 16010 net.cpp:406] conv1 <- data
I0109 16:57:00.856740 16010 net.cpp:380] conv1 -> conv1
I0109 16:57:03.178019 16010 net.cpp:122] Setting up conv1
I0109 16:57:03.178072 16010 net.cpp:129] Top shape: 128 96 48 48 (28311552)
I0109 16:57:03.178081 16010 net.cpp:137] Memory required for data: 174686720
I0109 16:57:03.178141 16010 layer_factory.hpp:77] Creating layer relu1
I0109 16:57:03.178170 16010 net.cpp:84] Creating Layer relu1
I0109 16:57:03.178179 16010 net.cpp:406] relu1 <- conv1
I0109 16:57:03.178191 16010 net.cpp:367] relu1 -> conv1 (in-place)
I0109 16:57:03.178704 16010 net.cpp:122] Setting up relu1
I0109 16:57:03.178726 16010 net.cpp:129] Top shape: 128 96 48 48 (28311552)
I0109 16:57:03.178733 16010 net.cpp:137] Memory required for data: 287932928
I0109 16:57:03.178740 16010 layer_factory.hpp:77] Creating layer pool1
I0109 16:57:03.178756 16010 net.cpp:84] Creating Layer pool1
I0109 16:57:03.178766 16010 net.cpp:406] pool1 <- conv1
I0109 16:57:03.178774 16010 net.cpp:380] pool1 -> pool1
I0109 16:57:03.178869 16010 net.cpp:122] Setting up pool1
I0109 16:57:03.178881 16010 net.cpp:129] Top shape: 128 96 24 24 (7077888)
I0109 16:57:03.178889 16010 net.cpp:137] Memory required for data: 316244480
I0109 16:57:03.178894 16010 layer_factory.hpp:77] Creating layer norm1
I0109 16:57:03.178915 16010 net.cpp:84] Creating Layer norm1
I0109 16:57:03.178923 16010 net.cpp:406] norm1 <- pool1
I0109 16:57:03.178934 16010 net.cpp:380] norm1 -> norm1
I0109 16:57:03.179105 16010 net.cpp:122] Setting up norm1
I0109 16:57:03.179119 16010 net.cpp:129] Top shape: 128 96 24 24 (7077888)
I0109 16:57:03.179126 16010 net.cpp:137] Memory required for data: 344556032
I0109 16:57:03.179133 16010 layer_factory.hpp:77] Creating layer conv2
I0109 16:57:03.179154 16010 net.cpp:84] Creating Layer conv2
I0109 16:57:03.179162 16010 net.cpp:406] conv2 <- norm1
I0109 16:57:03.179172 16010 net.cpp:380] conv2 -> conv2
I0109 16:57:03.194802 16010 net.cpp:122] Setting up conv2
I0109 16:57:03.194829 16010 net.cpp:129] Top shape: 128 256 24 24 (18874368)
I0109 16:57:03.194836 16010 net.cpp:137] Memory required for data: 420053504
I0109 16:57:03.194854 16010 layer_factory.hpp:77] Creating layer relu2
I0109 16:57:03.194866 16010 net.cpp:84] Creating Layer relu2
I0109 16:57:03.194873 16010 net.cpp:406] relu2 <- conv2
I0109 16:57:03.194882 16010 net.cpp:367] relu2 -> conv2 (in-place)
I0109 16:57:03.195314 16010 net.cpp:122] Setting up relu2
I0109 16:57:03.195335 16010 net.cpp:129] Top shape: 128 256 24 24 (18874368)
I0109 16:57:03.195341 16010 net.cpp:137] Memory required for data: 495550976
I0109 16:57:03.195348 16010 layer_factory.hpp:77] Creating layer pool2
I0109 16:57:03.195358 16010 net.cpp:84] Creating Layer pool2
I0109 16:57:03.195364 16010 net.cpp:406] pool2 <- conv2
I0109 16:57:03.195374 16010 net.cpp:380] pool2 -> pool2
I0109 16:57:03.195438 16010 net.cpp:122] Setting up pool2
I0109 16:57:03.195449 16010 net.cpp:129] Top shape: 128 256 12 12 (4718592)
I0109 16:57:03.195456 16010 net.cpp:137] Memory required for data: 514425344
I0109 16:57:03.195462 16010 layer_factory.hpp:77] Creating layer norm2
I0109 16:57:03.195473 16010 net.cpp:84] Creating Layer norm2
I0109 16:57:03.195480 16010 net.cpp:406] norm2 <- pool2
I0109 16:57:03.195489 16010 net.cpp:380] norm2 -> norm2
I0109 16:57:03.195641 16010 net.cpp:122] Setting up norm2
I0109 16:57:03.195657 16010 net.cpp:129] Top shape: 128 256 12 12 (4718592)
I0109 16:57:03.195667 16010 net.cpp:137] Memory required for data: 533299712
I0109 16:57:03.195677 16010 layer_factory.hpp:77] Creating layer conv3
I0109 16:57:03.195703 16010 net.cpp:84] Creating Layer conv3
I0109 16:57:03.195714 16010 net.cpp:406] conv3 <- norm2
I0109 16:57:03.195730 16010 net.cpp:380] conv3 -> conv3
I0109 16:57:03.210095 16010 net.cpp:122] Setting up conv3
I0109 16:57:03.210120 16010 net.cpp:129] Top shape: 128 384 12 12 (7077888)
I0109 16:57:03.210127 16010 net.cpp:137] Memory required for data: 561611264
I0109 16:57:03.210142 16010 layer_factory.hpp:77] Creating layer relu3
I0109 16:57:03.210156 16010 net.cpp:84] Creating Layer relu3
I0109 16:57:03.210163 16010 net.cpp:406] relu3 <- conv3
I0109 16:57:03.210171 16010 net.cpp:367] relu3 -> conv3 (in-place)
I0109 16:57:03.210520 16010 net.cpp:122] Setting up relu3
I0109 16:57:03.210539 16010 net.cpp:129] Top shape: 128 384 12 12 (7077888)
I0109 16:57:03.210546 16010 net.cpp:137] Memory required for data: 589922816
I0109 16:57:03.210551 16010 layer_factory.hpp:77] Creating layer conv4
I0109 16:57:03.210567 16010 net.cpp:84] Creating Layer conv4
I0109 16:57:03.210575 16010 net.cpp:406] conv4 <- conv3
I0109 16:57:03.210587 16010 net.cpp:380] conv4 -> conv4
I0109 16:57:03.220139 16010 net.cpp:122] Setting up conv4
I0109 16:57:03.220172 16010 net.cpp:129] Top shape: 128 384 12 12 (7077888)
I0109 16:57:03.220180 16010 net.cpp:137] Memory required for data: 618234368
I0109 16:57:03.220196 16010 layer_factory.hpp:77] Creating layer relu4
I0109 16:57:03.220212 16010 net.cpp:84] Creating Layer relu4
I0109 16:57:03.220221 16010 net.cpp:406] relu4 <- conv4
I0109 16:57:03.220239 16010 net.cpp:367] relu4 -> conv4 (in-place)
I0109 16:57:03.220590 16010 net.cpp:122] Setting up relu4
I0109 16:57:03.220609 16010 net.cpp:129] Top shape: 128 384 12 12 (7077888)
I0109 16:57:03.220614 16010 net.cpp:137] Memory required for data: 646545920
I0109 16:57:03.220620 16010 layer_factory.hpp:77] Creating layer conv5
I0109 16:57:03.220638 16010 net.cpp:84] Creating Layer conv5
I0109 16:57:03.220643 16010 net.cpp:406] conv5 <- conv4
I0109 16:57:03.220651 16010 net.cpp:380] conv5 -> conv5
I0109 16:57:03.229374 16010 net.cpp:122] Setting up conv5
I0109 16:57:03.229398 16010 net.cpp:129] Top shape: 128 256 12 12 (4718592)
I0109 16:57:03.229403 16010 net.cpp:137] Memory required for data: 665420288
I0109 16:57:03.229418 16010 layer_factory.hpp:77] Creating layer relu5
I0109 16:57:03.229429 16010 net.cpp:84] Creating Layer relu5
I0109 16:57:03.229434 16010 net.cpp:406] relu5 <- conv5
I0109 16:57:03.229444 16010 net.cpp:367] relu5 -> conv5 (in-place)
I0109 16:57:03.229557 16010 net.cpp:122] Setting up relu5
I0109 16:57:03.229570 16010 net.cpp:129] Top shape: 128 256 12 12 (4718592)
I0109 16:57:03.229575 16010 net.cpp:137] Memory required for data: 684294656
I0109 16:57:03.229581 16010 layer_factory.hpp:77] Creating layer pool5
I0109 16:57:03.229590 16010 net.cpp:84] Creating Layer pool5
I0109 16:57:03.229598 16010 net.cpp:406] pool5 <- conv5
I0109 16:57:03.229610 16010 net.cpp:380] pool5 -> pool5
I0109 16:57:03.229665 16010 net.cpp:122] Setting up pool5
I0109 16:57:03.229676 16010 net.cpp:129] Top shape: 128 256 6 6 (1179648)
I0109 16:57:03.229681 16010 net.cpp:137] Memory required for data: 689013248
I0109 16:57:03.229688 16010 layer_factory.hpp:77] Creating layer fc6
I0109 16:57:03.229704 16010 net.cpp:84] Creating Layer fc6
I0109 16:57:03.229710 16010 net.cpp:406] fc6 <- pool5
I0109 16:57:03.229719 16010 net.cpp:380] fc6 -> fc6
I0109 16:57:03.253054 16010 net.cpp:122] Setting up fc6
I0109 16:57:03.253070 16010 net.cpp:129] Top shape: 128 256 (32768)
I0109 16:57:03.253074 16010 net.cpp:137] Memory required for data: 689144320
I0109 16:57:03.253085 16010 layer_factory.hpp:77] Creating layer relu6
I0109 16:57:03.253093 16010 net.cpp:84] Creating Layer relu6
I0109 16:57:03.253099 16010 net.cpp:406] relu6 <- fc6
I0109 16:57:03.253108 16010 net.cpp:367] relu6 -> fc6 (in-place)
I0109 16:57:03.253439 16010 net.cpp:122] Setting up relu6
I0109 16:57:03.253454 16010 net.cpp:129] Top shape: 128 256 (32768)
I0109 16:57:03.253458 16010 net.cpp:137] Memory required for data: 689275392
I0109 16:57:03.253463 16010 layer_factory.hpp:77] Creating layer drop6
I0109 16:57:03.253474 16010 net.cpp:84] Creating Layer drop6
I0109 16:57:03.253479 16010 net.cpp:406] drop6 <- fc6
I0109 16:57:03.253485 16010 net.cpp:367] drop6 -> fc6 (in-place)
I0109 16:57:03.253515 16010 net.cpp:122] Setting up drop6
I0109 16:57:03.253523 16010 net.cpp:129] Top shape: 128 256 (32768)
I0109 16:57:03.253527 16010 net.cpp:137] Memory required for data: 689406464
I0109 16:57:03.253532 16010 layer_factory.hpp:77] Creating layer fc7
I0109 16:57:03.253545 16010 net.cpp:84] Creating Layer fc7
I0109 16:57:03.253551 16010 net.cpp:406] fc7 <- fc6
I0109 16:57:03.253558 16010 net.cpp:380] fc7 -> fc7
I0109 16:57:03.254178 16010 net.cpp:122] Setting up fc7
I0109 16:57:03.254189 16010 net.cpp:129] Top shape: 128 256 (32768)
I0109 16:57:03.254192 16010 net.cpp:137] Memory required for data: 689537536
I0109 16:57:03.254202 16010 layer_factory.hpp:77] Creating layer relu7
I0109 16:57:03.254209 16010 net.cpp:84] Creating Layer relu7
I0109 16:57:03.254212 16010 net.cpp:406] relu7 <- fc7
I0109 16:57:03.254223 16010 net.cpp:367] relu7 -> fc7 (in-place)
I0109 16:57:03.254312 16010 net.cpp:122] Setting up relu7
I0109 16:57:03.254321 16010 net.cpp:129] Top shape: 128 256 (32768)
I0109 16:57:03.254325 16010 net.cpp:137] Memory required for data: 689668608
I0109 16:57:03.254333 16010 layer_factory.hpp:77] Creating layer drop7
I0109 16:57:03.254341 16010 net.cpp:84] Creating Layer drop7
I0109 16:57:03.254346 16010 net.cpp:406] drop7 <- fc7
I0109 16:57:03.254354 16010 net.cpp:367] drop7 -> fc7 (in-place)
I0109 16:57:03.254377 16010 net.cpp:122] Setting up drop7
I0109 16:57:03.254384 16010 net.cpp:129] Top shape: 128 256 (32768)
I0109 16:57:03.254390 16010 net.cpp:137] Memory required for data: 689799680
I0109 16:57:03.254395 16010 layer_factory.hpp:77] Creating layer fc8
I0109 16:57:03.254402 16010 net.cpp:84] Creating Layer fc8
I0109 16:57:03.254407 16010 net.cpp:406] fc8 <- fc7
I0109 16:57:03.254416 16010 net.cpp:380] fc8 -> fc8
I0109 16:57:03.254542 16010 net.cpp:122] Setting up fc8
I0109 16:57:03.254551 16010 net.cpp:129] Top shape: 128 2 (256)
I0109 16:57:03.254556 16010 net.cpp:137] Memory required for data: 689800704
I0109 16:57:03.254565 16010 layer_factory.hpp:77] Creating layer loss
I0109 16:57:03.254577 16010 net.cpp:84] Creating Layer loss
I0109 16:57:03.254583 16010 net.cpp:406] loss <- fc8
I0109 16:57:03.254588 16010 net.cpp:406] loss <- label
I0109 16:57:03.254595 16010 net.cpp:380] loss -> loss
I0109 16:57:03.254616 16010 layer_factory.hpp:77] Creating layer loss
…
I0109 16:57:03.255651 16010 solver.cpp:172] Creating test net (#0) specified by net file: weighted_train_val.prototxt
I0109 16:57:03.255697 16010 net.cpp:294] The NetState phase (1) differed from the phase (0) specified by a rule in layer data
I0109 16:57:03.255898 16010 net.cpp:51] Initializing net from parameters: 
name: "CaffeNet"
state {
  phase: TEST
}
layer {
  name: "data"
  type: "Data"
  top: "data"
  top: "label"
  include {
    phase: TEST
  }
  transform_param {
    scale: 0.0078125
    mirror: true
    mean_value: 127
  }
  data_param {
    source: "/home/lc/gender/school/data_2/val.lmdb"
    batch_size: 128
    backend: LMDB
  }
}
layer {
  name: "conv1"
  type: "Convolution"
  bottom: "data"
  top: "conv1"
  param {
    lr_mult: 1
  }
  param {
    lr_mult: 2
  }
  convolution_param {
    num_output: 96
    kernel_size: 11
    stride: 4
    weight_filler {
      type: "xavier"
    }
    bias_filler {
      type: "constant"
    }
  }
}
layer {
  name: "relu1"
  type: "ReLU"
  bottom: "conv1"
  top: "conv1"
}
layer {
  name: "pool1"
  type: "Pooling"
  bottom: "conv1"
  top: "pool1"
  pooling_param {
    pool: MAX
    kernel_size: 3
    stride: 2
  }
}
layer {
  name: "norm1"
  type: "LRN"
  bottom: "pool1"
  top: "norm1"
  lrn_param {
    local_size: 5
    alpha: 0.0001
    beta: 0.75
  }
}
layer {
  name: "conv2"
  type: "Convolution"
  bottom: "norm1"
  top: "conv2"
  param {
    lr_mult: 1
  }
  param {
    lr_mult: 2
  }
  convolution_param {
    num_output: 256
    pad: 2
    kernel_size: 5
    group: 2
    weight_filler {
      type: "xavier"
    }
    bias_filler {
      type: "constant"
    }
  }
}
layer {
  name: "relu2"
  type: "ReLU"
  bottom: "conv2"
  top: "conv2"
}
layer {
  name: "pool2"
  type: "Pooling"
  bottom: "conv2"
  top: "pool2"
  pooling_param {
    pool: MAX
    kernel_size: 3
    stride: 2
  }
}
layer {
  name: "norm2"
  type: "LRN"
  bottom: "pool2"
  top: "norm2"
  lrn_param {
    local_size: 5
    alpha: 0.0001
    beta: 0.75
  }
}
layer {
  name: "conv3"
  type: "Convolution"
  bottom: "norm2"
  top: "conv3"
  param {
    lr_mult: 1
  }
  param {
    lr_mult: 2
  }
  convolution_param {
    num_output: 384
    pad: 1
    kernel_size: 3
    weight_filler {
      type: "xavier"
    }
    bias_filler {
      type: "constant"
    }
  }
}
layer {
  name: "relu3"
  type: "ReLU"
  bottom: "conv3"
  top: "conv3"
}
layer {
  name: "conv4"
  type: "Convolution"
  bottom: "conv3"
  top: "conv4"
  param {
    lr_mult: 1
  }
  param {
    lr_mult: 2
  }
  convolution_param {
    num_output: 384
    pad: 1
    kernel_size: 3
    group: 2
    weight_filler {
      type: "xavier"
    }
    bias_filler {
      type: "constant"
    }
  }
}
layer {
  name: "relu4"
  type: "ReLU"
  bottom: "conv4"
  top: "conv4"
}
layer {
  name: "conv5"
  type: "Convolution"
  bottom: "conv4"
  top: "conv5"
  param {
    lr_mult: 1
  }
  param {
    lr_mult: 2
  }
  convolution_param {
    num_output: 256
    pad: 1
    kernel_size: 3
    group: 2
    weight_filler {
      type: "xavier"
    }
    bias_filler {
      type: "constant"
    }
  }
}
layer {
  name: "relu5"
  type: "ReLU"
  bottom: "conv5"
  top: "conv5"
}
layer {
  name: "pool5"
  type: "Pooling"
  bottom: "conv5"
  top: "pool5"
  pooling_param {
    pool: MAX
    kernel_size: 3
    stride: 2
  }
}
layer {
  name: "fc6"
  type: "InnerProduct"
  bottom: "pool5"
  top: "fc6"
  param {
    lr_mult: 1
  }
  param {
    lr_mult: 2
  }
  inner_product_param {
    num_output: 256
    weight_filler {
      type: "xavier"
    }
    bias_filler {
      type: "constant"
    }
  }
}
layer {
  name: "relu6"
  type: "ReLU"
  bottom: "fc6"
  top: "fc6"
}
layer {
  name: "drop6"
  type: "Dropout"
  bottom: "fc6"
  top: "fc6"
  dropout_param {
    dropout_ratio: 0.5
  }
}
layer {
  name: "fc7"
  type: "InnerProduct"
  bottom: "fc6"
  top: "fc7"
  param {
    lr_mult: 1
  }
  param {
    lr_mult: 2
  }
  inner_product_param {
    num_output: 256
    weight_filler {
      type: "xavier"
    }
    bias_filler {
      type: "constant"
    }
  }
}
layer {
  name: "relu7"
  type: "ReLU"
  bottom: "fc7"
  top: "fc7"
}
layer {
  name: "drop7"
  type: "Dropout"
  bottom: "fc7"
  top: "fc7"
  dropout_param {
    dropout_ratio: 0.5
  }
}
layer {
  name: "fc8"
  type: "InnerProduct"
  bottom: "fc7"
  top: "fc8"
  param {
    lr_mult: 1
  }
  param {
    lr_mult: 2
  }
  inner_product_param {
    num_output: 2
    weight_filler {
      type: "xavier"
    }
    bias_filler {
      type: "constant"
    }
  }
}
layer {
  name: "accuracy"
  type: "Accuracy"
  bottom: "fc8"
  bottom: "label"
  top: "accuracy"
  include {
    phase: TEST
  }
}
layer {
  name: "loss"
  type: "WeightedSoftmaxWithLoss"
  bottom: "fc8"
  bottom: "label"
  top: "loss"
  softmax_param {
    pos_mult: 1.3
    pos_cid: 1
  }
}
I0109 16:57:03.256026 16010 layer_factory.hpp:77] Creating layer data
I0109 16:57:03.375936 16010 db_lmdb.cpp:35] Opened lmdb /home/lc/gender/school/data_2/val.lmdb
I0109 16:57:03.423624 16010 net.cpp:84] Creating Layer data
I0109 16:57:03.423676 16010 net.cpp:380] data -> data
I0109 16:57:03.423703 16010 net.cpp:380] data -> label
I0109 16:57:03.425254 16010 data_layer.cpp:45] output data size: 128,3,200,200
I0109 16:57:03.615521 16010 net.cpp:122] Setting up data
I0109 16:57:03.615562 16010 net.cpp:129] Top shape: 128 3 200 200 (15360000)
I0109 16:57:03.615569 16010 net.cpp:129] Top shape: 128 (128)
I0109 16:57:03.615572 16010 net.cpp:137] Memory required for data: 61440512
I0109 16:57:03.615581 16010 layer_factory.hpp:77] Creating layer label_data_1_split
I0109 16:57:03.615597 16010 net.cpp:84] Creating Layer label_data_1_split
I0109 16:57:03.615603 16010 net.cpp:406] label_data_1_split <- label
I0109 16:57:03.615614 16010 net.cpp:380] label_data_1_split -> label_data_1_split_0
I0109 16:57:03.615633 16010 net.cpp:380] label_data_1_split -> label_data_1_split_1
I0109 16:57:03.615695 16010 net.cpp:122] Setting up label_data_1_split
I0109 16:57:03.615703 16010 net.cpp:129] Top shape: 128 (128)
I0109 16:57:03.615708 16010 net.cpp:129] Top shape: 128 (128)
I0109 16:57:03.615713 16010 net.cpp:137] Memory required for data: 61441536
I0109 16:57:03.615717 16010 layer_factory.hpp:77] Creating layer conv1
I0109 16:57:03.615733 16010 net.cpp:84] Creating Layer conv1
I0109 16:57:03.615738 16010 net.cpp:406] conv1 <- data
I0109 16:57:03.615746 16010 net.cpp:380] conv1 -> conv1
I0109 16:57:03.617290 16010 net.cpp:122] Setting up conv1
I0109 16:57:03.617310 16010 net.cpp:129] Top shape: 128 96 48 48 (28311552)
I0109 16:57:03.617314 16010 net.cpp:137] Memory required for data: 174687744
I0109 16:57:03.617332 16010 layer_factory.hpp:77] Creating layer relu1
I0109 16:57:03.617342 16010 net.cpp:84] Creating Layer relu1
I0109 16:57:03.617347 16010 net.cpp:406] relu1 <- conv1
I0109 16:57:03.617354 16010 net.cpp:367] relu1 -> conv1 (in-place)
I0109 16:57:03.617453 16010 net.cpp:122] Setting up relu1
I0109 16:57:03.617465 16010 net.cpp:129] Top shape: 128 96 48 48 (28311552)
I0109 16:57:03.617468 16010 net.cpp:137] Memory required for data: 287933952
I0109 16:57:03.617473 16010 layer_factory.hpp:77] Creating layer pool1
I0109 16:57:03.617482 16010 net.cpp:84] Creating Layer pool1
I0109 16:57:03.617487 16010 net.cpp:406] pool1 <- conv1
I0109 16:57:03.617494 16010 net.cpp:380] pool1 -> pool1
I0109 16:57:03.617537 16010 net.cpp:122] Setting up pool1
I0109 16:57:03.617545 16010 net.cpp:129] Top shape: 128 96 24 24 (7077888)
I0109 16:57:03.617550 16010 net.cpp:137] Memory required for data: 316245504
I0109 16:57:03.617554 16010 layer_factory.hpp:77] Creating layer norm1
I0109 16:57:03.617563 16010 net.cpp:84] Creating Layer norm1
I0109 16:57:03.617568 16010 net.cpp:406] norm1 <- pool1
I0109 16:57:03.617573 16010 net.cpp:380] norm1 -> norm1
I0109 16:57:03.618188 16010 net.cpp:122] Setting up norm1
I0109 16:57:03.618204 16010 net.cpp:129] Top shape: 128 96 24 24 (7077888)
I0109 16:57:03.618209 16010 net.cpp:137] Memory required for data: 344557056
I0109 16:57:03.618216 16010 layer_factory.hpp:77] Creating layer conv2
I0109 16:57:03.618227 16010 net.cpp:84] Creating Layer conv2
I0109 16:57:03.618233 16010 net.cpp:406] conv2 <- norm1
I0109 16:57:03.618243 16010 net.cpp:380] conv2 -> conv2
I0109 16:57:03.628973 16010 net.cpp:122] Setting up conv2
I0109 16:57:03.629002 16010 net.cpp:129] Top shape: 128 256 24 24 (18874368)
I0109 16:57:03.629006 16010 net.cpp:137] Memory required for data: 420054528
I0109 16:57:03.629026 16010 layer_factory.hpp:77] Creating layer relu2
I0109 16:57:03.629042 16010 net.cpp:84] Creating Layer relu2
I0109 16:57:03.629048 16010 net.cpp:406] relu2 <- conv2
I0109 16:57:03.629055 16010 net.cpp:367] relu2 -> conv2 (in-place)
I0109 16:57:03.629374 16010 net.cpp:122] Setting up relu2
I0109 16:57:03.629391 16010 net.cpp:129] Top shape: 128 256 24 24 (18874368)
I0109 16:57:03.629396 16010 net.cpp:137] Memory required for data: 495552000
I0109 16:57:03.629400 16010 layer_factory.hpp:77] Creating layer pool2
I0109 16:57:03.629412 16010 net.cpp:84] Creating Layer pool2
I0109 16:57:03.629417 16010 net.cpp:406] pool2 <- conv2
I0109 16:57:03.629424 16010 net.cpp:380] pool2 -> pool2
I0109 16:57:03.629477 16010 net.cpp:122] Setting up pool2
I0109 16:57:03.629487 16010 net.cpp:129] Top shape: 128 256 12 12 (4718592)
I0109 16:57:03.629492 16010 net.cpp:137] Memory required for data: 514426368
I0109 16:57:03.629496 16010 layer_factory.hpp:77] Creating layer norm2
I0109 16:57:03.629508 16010 net.cpp:84] Creating Layer norm2
I0109 16:57:03.629514 16010 net.cpp:406] norm2 <- pool2
I0109 16:57:03.629521 16010 net.cpp:380] norm2 -> norm2
I0109 16:57:03.629635 16010 net.cpp:122] Setting up norm2
I0109 16:57:03.629647 16010 net.cpp:129] Top shape: 128 256 12 12 (4718592)
I0109 16:57:03.629652 16010 net.cpp:137] Memory required for data: 533300736
I0109 16:57:03.629657 16010 layer_factory.hpp:77] Creating layer conv3
I0109 16:57:03.629669 16010 net.cpp:84] Creating Layer conv3
I0109 16:57:03.629674 16010 net.cpp:406] conv3 <- norm2
I0109 16:57:03.629683 16010 net.cpp:380] conv3 -> conv3
I0109 16:57:03.638967 16010 net.cpp:122] Setting up conv3
I0109 16:57:03.638986 16010 net.cpp:129] Top shape: 128 384 12 12 (7077888)
I0109 16:57:03.638993 16010 net.cpp:137] Memory required for data: 561612288
I0109 16:57:03.639004 16010 layer_factory.hpp:77] Creating layer relu3
I0109 16:57:03.639014 16010 net.cpp:84] Creating Layer relu3
I0109 16:57:03.639020 16010 net.cpp:406] relu3 <- conv3
I0109 16:57:03.639026 16010 net.cpp:367] relu3 -> conv3 (in-place)
I0109 16:57:03.639124 16010 net.cpp:122] Setting up relu3
I0109 16:57:03.639135 16010 net.cpp:129] Top shape: 128 384 12 12 (7077888)
I0109 16:57:03.639140 16010 net.cpp:137] Memory required for data: 589923840
I0109 16:57:03.639145 16010 layer_factory.hpp:77] Creating layer conv4
I0109 16:57:03.639159 16010 net.cpp:84] Creating Layer conv4
I0109 16:57:03.639164 16010 net.cpp:406] conv4 <- conv3
I0109 16:57:03.639171 16010 net.cpp:380] conv4 -> conv4
I0109 16:57:03.648681 16010 net.cpp:122] Setting up conv4
I0109 16:57:03.648702 16010 net.cpp:129] Top shape: 128 384 12 12 (7077888)
I0109 16:57:03.648707 16010 net.cpp:137] Memory required for data: 618235392
I0109 16:57:03.648717 16010 layer_factory.hpp:77] Creating layer relu4
I0109 16:57:03.648730 16010 net.cpp:84] Creating Layer relu4
I0109 16:57:03.648736 16010 net.cpp:406] relu4 <- conv4
I0109 16:57:03.648741 16010 net.cpp:367] relu4 -> conv4 (in-place)
I0109 16:57:03.648838 16010 net.cpp:122] Setting up relu4
I0109 16:57:03.648849 16010 net.cpp:129] Top shape: 128 384 12 12 (7077888)
I0109 16:57:03.648854 16010 net.cpp:137] Memory required for data: 646546944
I0109 16:57:03.648859 16010 layer_factory.hpp:77] Creating layer conv5
I0109 16:57:03.648871 16010 net.cpp:84] Creating Layer conv5
I0109 16:57:03.648877 16010 net.cpp:406] conv5 <- conv4
I0109 16:57:03.648886 16010 net.cpp:380] conv5 -> conv5
I0109 16:57:03.654628 16010 net.cpp:122] Setting up conv5
I0109 16:57:03.654646 16010 net.cpp:129] Top shape: 128 256 12 12 (4718592)
I0109 16:57:03.654654 16010 net.cpp:137] Memory required for data: 665421312
I0109 16:57:03.654666 16010 layer_factory.hpp:77] Creating layer relu5
I0109 16:57:03.654678 16010 net.cpp:84] Creating Layer relu5
I0109 16:57:03.654683 16010 net.cpp:406] relu5 <- conv5
I0109 16:57:03.654690 16010 net.cpp:367] relu5 -> conv5 (in-place)
I0109 16:57:03.654994 16010 net.cpp:122] Setting up relu5
I0109 16:57:03.655009 16010 net.cpp:129] Top shape: 128 256 12 12 (4718592)
I0109 16:57:03.655014 16010 net.cpp:137] Memory required for data: 684295680
I0109 16:57:03.655017 16010 layer_factory.hpp:77] Creating layer pool5
I0109 16:57:03.655035 16010 net.cpp:84] Creating Layer pool5
I0109 16:57:03.655040 16010 net.cpp:406] pool5 <- conv5
I0109 16:57:03.655047 16010 net.cpp:380] pool5 -> pool5
I0109 16:57:03.655102 16010 net.cpp:122] Setting up pool5
I0109 16:57:03.655110 16010 net.cpp:129] Top shape: 128 256 6 6 (1179648)
I0109 16:57:03.655114 16010 net.cpp:137] Memory required for data: 689014272
I0109 16:57:03.655119 16010 layer_factory.hpp:77] Creating layer fc6
I0109 16:57:03.655129 16010 net.cpp:84] Creating Layer fc6
I0109 16:57:03.655134 16010 net.cpp:406] fc6 <- pool5
I0109 16:57:03.655143 16010 net.cpp:380] fc6 -> fc6
I0109 16:57:03.676231 16010 net.cpp:122] Setting up fc6
I0109 16:57:03.676264 16010 net.cpp:129] Top shape: 128 256 (32768)
I0109 16:57:03.676268 16010 net.cpp:137] Memory required for data: 689145344
I0109 16:57:03.676281 16010 layer_factory.hpp:77] Creating layer relu6
I0109 16:57:03.676295 16010 net.cpp:84] Creating Layer relu6
I0109 16:57:03.676301 16010 net.cpp:406] relu6 <- fc6
I0109 16:57:03.676309 16010 net.cpp:367] relu6 -> fc6 (in-place)
I0109 16:57:03.676427 16010 net.cpp:122] Setting up relu6
I0109 16:57:03.676437 16010 net.cpp:129] Top shape: 128 256 (32768)
I0109 16:57:03.676441 16010 net.cpp:137] Memory required for data: 689276416
I0109 16:57:03.676446 16010 layer_factory.hpp:77] Creating layer drop6
I0109 16:57:03.676455 16010 net.cpp:84] Creating Layer drop6
I0109 16:57:03.676460 16010 net.cpp:406] drop6 <- fc6
I0109 16:57:03.676468 16010 net.cpp:367] drop6 -> fc6 (in-place)
I0109 16:57:03.676491 16010 net.cpp:122] Setting up drop6
I0109 16:57:03.676497 16010 net.cpp:129] Top shape: 128 256 (32768)
I0109 16:57:03.676502 16010 net.cpp:137] Memory required for data: 689407488
I0109 16:57:03.676506 16010 layer_factory.hpp:77] Creating layer fc7
I0109 16:57:03.676517 16010 net.cpp:84] Creating Layer fc7
I0109 16:57:03.676522 16010 net.cpp:406] fc7 <- fc6
I0109 16:57:03.676528 16010 net.cpp:380] fc7 -> fc7
I0109 16:57:03.677119 16010 net.cpp:122] Setting up fc7
I0109 16:57:03.677127 16010 net.cpp:129] Top shape: 128 256 (32768)
I0109 16:57:03.677131 16010 net.cpp:137] Memory required for data: 689538560
I0109 16:57:03.677142 16010 layer_factory.hpp:77] Creating layer relu7
I0109 16:57:03.677151 16010 net.cpp:84] Creating Layer relu7
I0109 16:57:03.677157 16010 net.cpp:406] relu7 <- fc7
I0109 16:57:03.677162 16010 net.cpp:367] relu7 -> fc7 (in-place)
I0109 16:57:03.677503 16010 net.cpp:122] Setting up relu7
I0109 16:57:03.677523 16010 net.cpp:129] Top shape: 128 256 (32768)
I0109 16:57:03.677529 16010 net.cpp:137] Memory required for data: 689669632
I0109 16:57:03.677533 16010 layer_factory.hpp:77] Creating layer drop7
I0109 16:57:03.677542 16010 net.cpp:84] Creating Layer drop7
I0109 16:57:03.677547 16010 net.cpp:406] drop7 <- fc7
I0109 16:57:03.677559 16010 net.cpp:367] drop7 -> fc7 (in-place)
I0109 16:57:03.677585 16010 net.cpp:122] Setting up drop7
I0109 16:57:03.677592 16010 net.cpp:129] Top shape: 128 256 (32768)
I0109 16:57:03.677597 16010 net.cpp:137] Memory required for data: 689800704
I0109 16:57:03.677601 16010 layer_factory.hpp:77] Creating layer fc8
I0109 16:57:03.677613 16010 net.cpp:84] Creating Layer fc8
I0109 16:57:03.677618 16010 net.cpp:406] fc8 <- fc7
I0109 16:57:03.677623 16010 net.cpp:380] fc8 -> fc8
I0109 16:57:03.677742 16010 net.cpp:122] Setting up fc8
I0109 16:57:03.677750 16010 net.cpp:129] Top shape: 128 2 (256)
I0109 16:57:03.677754 16010 net.cpp:137] Memory required for data: 689801728
I0109 16:57:03.677763 16010 layer_factory.hpp:77] Creating layer fc8_fc8_0_split
I0109 16:57:03.677774 16010 net.cpp:84] Creating Layer fc8_fc8_0_split
I0109 16:57:03.677779 16010 net.cpp:406] fc8_fc8_0_split <- fc8
I0109 16:57:03.677788 16010 net.cpp:380] fc8_fc8_0_split -> fc8_fc8_0_split_0
I0109 16:57:03.677796 16010 net.cpp:380] fc8_fc8_0_split -> fc8_fc8_0_split_1
I0109 16:57:03.677831 16010 net.cpp:122] Setting up fc8_fc8_0_split
I0109 16:57:03.677839 16010 net.cpp:129] Top shape: 128 2 (256)
I0109 16:57:03.677845 16010 net.cpp:129] Top shape: 128 2 (256)
I0109 16:57:03.677847 16010 net.cpp:137] Memory required for data: 689803776
I0109 16:57:03.677853 16010 layer_factory.hpp:77] Creating layer accuracy
I0109 16:57:03.677865 16010 net.cpp:84] Creating Layer accuracy
I0109 16:57:03.677870 16010 net.cpp:406] accuracy <- fc8_fc8_0_split_0
I0109 16:57:03.677875 16010 net.cpp:406] accuracy <- label_data_1_split_0
I0109 16:57:03.677884 16010 net.cpp:380] accuracy -> accuracy
…
