…
I0110 10:11:21.284344  7196 net.cpp:294] The NetState phase (0) differed from the phase (1) specified by a rule in layer accuracy
I0110 10:11:21.284672  7196 net.cpp:51] Initializing net from parameters: 
name: "CaffeNet"
state {
  phase: TRAIN
  level: 0
  stage: ""
}
layer {
  name: "data"
  type: "Data"
  top: "data"
  top: "label"
  include {
    phase: TRAIN
  }
  transform_param {
    scale: 0.0078125
    mirror: true
    mean_value: 127
  }
  data_param {
    source: "/home/lc/gender/school/data_3/train.lmdb"
    batch_size: 128
    backend: LMDB
  }
}
layer {
  name: "conv1"
  type: "Convolution"
  bottom: "data"
  top: "conv1"
  param {
    lr_mult: 1
  }
  param {
    lr_mult: 2
  }
  convolution_param {
    num_output: 96
    kernel_size: 11
    stride: 4
    weight_filler {
      type: "xavier"
    }
    bias_filler {
      type: "constant"
    }
  }
}
layer {
  name: "relu1"
  type: "ReLU"
  bottom: "conv1"
  top: "conv1"
}
layer {
  name: "pool1"
  type: "Pooling"
  bottom: "conv1"
  top: "pool1"
  pooling_param {
    pool: MAX
    kernel_size: 3
    stride: 2
  }
}
layer {
  name: "norm1"
  type: "LRN"
  bottom: "pool1"
  top: "norm1"
  lrn_param {
    local_size: 5
    alpha: 0.0001
    beta: 0.75
  }
}
layer {
  name: "conv2"
  type: "Convolution"
  bottom: "norm1"
  top: "conv2"
  param {
    lr_mult: 1
  }
  param {
    lr_mult: 2
  }
  convolution_param {
    num_output: 256
    pad: 2
    kernel_size: 5
    group: 2
    weight_filler {
      type: "xavier"
    }
    bias_filler {
      type: "constant"
    }
  }
}
layer {
  name: "relu2"
  type: "ReLU"
  bottom: "conv2"
  top: "conv2"
}
layer {
  name: "pool2"
  type: "Pooling"
  bottom: "conv2"
  top: "pool2"
  pooling_param {
    pool: MAX
    kernel_size: 3
    stride: 2
  }
}
layer {
  name: "norm2"
  type: "LRN"
  bottom: "pool2"
  top: "norm2"
  lrn_param {
    local_size: 5
    alpha: 0.0001
    beta: 0.75
  }
}
layer {
  name: "conv3"
  type: "Convolution"
  bottom: "norm2"
  top: "conv3"
  param {
    lr_mult: 1
  }
  param {
    lr_mult: 2
  }
  convolution_param {
    num_output: 384
    pad: 1
    kernel_size: 3
    weight_filler {
      type: "xavier"
    }
    bias_filler {
      type: "constant"
    }
  }
}
layer {
  name: "relu3"
  type: "ReLU"
  bottom: "conv3"
  top: "conv3"
}
layer {
  name: "conv4"
  type: "Convolution"
  bottom: "conv3"
  top: "conv4"
  param {
    lr_mult: 1
  }
  param {
    lr_mult: 2
  }
  convolution_param {
    num_output: 384
    pad: 1
    kernel_size: 3
    group: 2
    weight_filler {
      type: "xavier"
    }
    bias_filler {
      type: "constant"
    }
  }
}
layer {
  name: "relu4"
  type: "ReLU"
  bottom: "conv4"
  top: "conv4"
}
layer {
  name: "conv5"
  type: "Convolution"
  bottom: "conv4"
  top: "conv5"
  param {
    lr_mult: 1
  }
  param {
    lr_mult: 2
  }
  convolution_param {
    num_output: 256
    pad: 1
    kernel_size: 3
    group: 2
    weight_filler {
      type: "xavier"
    }
    bias_filler {
      type: "constant"
    }
  }
}
layer {
  name: "relu5"
  type: "ReLU"
  bottom: "conv5"
  top: "conv5"
}
layer {
  name: "pool5"
  type: "Pooling"
  bottom: "conv5"
  top: "pool5"
  pooling_param {
    pool: MAX
    kernel_size: 3
    stride: 2
  }
}
layer {
  name: "fc6"
  type: "InnerProduct"
  bottom: "pool5"
  top: "fc6"
  param {
    lr_mult: 1
  }
  param {
    lr_mult: 2
  }
  inner_product_param {
    num_output: 256
    weight_filler {
      type: "xavier"
    }
    bias_filler {
      type: "constant"
    }
  }
}
layer {
  name: "relu6"
  type: "ReLU"
  bottom: "fc6"
  top: "fc6"
}
layer {
  name: "drop6"
  type: "Dropout"
  bottom: "fc6"
  top: "fc6"
  dropout_param {
    dropout_ratio: 0.5
  }
}
layer {
  name: "fc7"
  type: "InnerProduct"
  bottom: "fc6"
  top: "fc7"
  param {
    lr_mult: 1
  }
  param {
    lr_mult: 2
  }
  inner_product_param {
    num_output: 256
    weight_filler {
      type: "xavier"
    }
    bias_filler {
      type: "constant"
    }
  }
}
layer {
  name: "relu7"
  type: "ReLU"
  bottom: "fc7"
  top: "fc7"
}
layer {
  name: "drop7"
  type: "Dropout"
  bottom: "fc7"
  top: "fc7"
  dropout_param {
    dropout_ratio: 0.5
  }
}
layer {
  name: "fc8"
  type: "InnerProduct"
  bottom: "fc7"
  top: "fc8"
  param {
    lr_mult: 1
  }
  param {
    lr_mult: 2
  }
  inner_product_param {
    num_output: 2
    weight_filler {
      type: "xavier"
    }
    bias_filler {
      type: "constant"
    }
  }
}
layer {
  name: "loss"
  type: "WeightedSoftmaxWithLoss"
  bottom: "fc8"
  bottom: "label"
  top: "loss"
  softmax_param {
    pos_mult: 1.3
    pos_cid: 1
  }
}
I0110 10:11:21.284857  7196 layer_factory.hpp:77] Creating layer data
I0110 10:11:21.702003  7196 db_lmdb.cpp:35] Opened lmdb /home/lc/gender/school/data_3/train.lmdb
I0110 10:11:21.844873  7196 net.cpp:84] Creating Layer data
I0110 10:11:21.844920  7196 net.cpp:380] data -> data
I0110 10:11:21.844980  7196 net.cpp:380] data -> label
I0110 10:11:21.848526  7196 data_layer.cpp:45] output data size: 128,3,200,200
I0110 10:11:22.058831  7196 net.cpp:122] Setting up data
I0110 10:11:22.058915  7196 net.cpp:129] Top shape: 128 3 200 200 (15360000)
I0110 10:11:22.058924  7196 net.cpp:129] Top shape: 128 (128)
I0110 10:11:22.058928  7196 net.cpp:137] Memory required for data: 61440512
I0110 10:11:22.058943  7196 layer_factory.hpp:77] Creating layer conv1
I0110 10:11:22.058990  7196 net.cpp:84] Creating Layer conv1
I0110 10:11:22.059000  7196 net.cpp:406] conv1 <- data
I0110 10:11:22.059020  7196 net.cpp:380] conv1 -> conv1
I0110 10:11:24.318199  7196 net.cpp:122] Setting up conv1
I0110 10:11:24.318250  7196 net.cpp:129] Top shape: 128 96 48 48 (28311552)
I0110 10:11:24.318256  7196 net.cpp:137] Memory required for data: 174686720
I0110 10:11:24.318321  7196 layer_factory.hpp:77] Creating layer relu1
I0110 10:11:24.318348  7196 net.cpp:84] Creating Layer relu1
I0110 10:11:24.318357  7196 net.cpp:406] relu1 <- conv1
I0110 10:11:24.318367  7196 net.cpp:367] relu1 -> conv1 (in-place)
I0110 10:11:24.318792  7196 net.cpp:122] Setting up relu1
I0110 10:11:24.318815  7196 net.cpp:129] Top shape: 128 96 48 48 (28311552)
I0110 10:11:24.318820  7196 net.cpp:137] Memory required for data: 287932928
I0110 10:11:24.318826  7196 layer_factory.hpp:77] Creating layer pool1
I0110 10:11:24.318837  7196 net.cpp:84] Creating Layer pool1
I0110 10:11:24.318842  7196 net.cpp:406] pool1 <- conv1
I0110 10:11:24.318851  7196 net.cpp:380] pool1 -> pool1
I0110 10:11:24.318923  7196 net.cpp:122] Setting up pool1
I0110 10:11:24.318935  7196 net.cpp:129] Top shape: 128 96 24 24 (7077888)
I0110 10:11:24.318941  7196 net.cpp:137] Memory required for data: 316244480
I0110 10:11:24.318946  7196 layer_factory.hpp:77] Creating layer norm1
I0110 10:11:24.318965  7196 net.cpp:84] Creating Layer norm1
I0110 10:11:24.318972  7196 net.cpp:406] norm1 <- pool1
I0110 10:11:24.318980  7196 net.cpp:380] norm1 -> norm1
I0110 10:11:24.319136  7196 net.cpp:122] Setting up norm1
I0110 10:11:24.319154  7196 net.cpp:129] Top shape: 128 96 24 24 (7077888)
I0110 10:11:24.319159  7196 net.cpp:137] Memory required for data: 344556032
I0110 10:11:24.319165  7196 layer_factory.hpp:77] Creating layer conv2
I0110 10:11:24.319182  7196 net.cpp:84] Creating Layer conv2
I0110 10:11:24.319190  7196 net.cpp:406] conv2 <- norm1
I0110 10:11:24.319197  7196 net.cpp:380] conv2 -> conv2
I0110 10:11:24.335029  7196 net.cpp:122] Setting up conv2
I0110 10:11:24.335063  7196 net.cpp:129] Top shape: 128 256 24 24 (18874368)
I0110 10:11:24.335072  7196 net.cpp:137] Memory required for data: 420053504
I0110 10:11:24.335094  7196 layer_factory.hpp:77] Creating layer relu2
I0110 10:11:24.335114  7196 net.cpp:84] Creating Layer relu2
I0110 10:11:24.335121  7196 net.cpp:406] relu2 <- conv2
I0110 10:11:24.335132  7196 net.cpp:367] relu2 -> conv2 (in-place)
I0110 10:11:24.335641  7196 net.cpp:122] Setting up relu2
I0110 10:11:24.335664  7196 net.cpp:129] Top shape: 128 256 24 24 (18874368)
I0110 10:11:24.335669  7196 net.cpp:137] Memory required for data: 495550976
I0110 10:11:24.335675  7196 layer_factory.hpp:77] Creating layer pool2
I0110 10:11:24.335685  7196 net.cpp:84] Creating Layer pool2
I0110 10:11:24.335691  7196 net.cpp:406] pool2 <- conv2
I0110 10:11:24.335702  7196 net.cpp:380] pool2 -> pool2
I0110 10:11:24.335769  7196 net.cpp:122] Setting up pool2
I0110 10:11:24.335781  7196 net.cpp:129] Top shape: 128 256 12 12 (4718592)
I0110 10:11:24.335786  7196 net.cpp:137] Memory required for data: 514425344
I0110 10:11:24.335791  7196 layer_factory.hpp:77] Creating layer norm2
I0110 10:11:24.335809  7196 net.cpp:84] Creating Layer norm2
I0110 10:11:24.335815  7196 net.cpp:406] norm2 <- pool2
I0110 10:11:24.335824  7196 net.cpp:380] norm2 -> norm2
I0110 10:11:24.335984  7196 net.cpp:122] Setting up norm2
I0110 10:11:24.336001  7196 net.cpp:129] Top shape: 128 256 12 12 (4718592)
I0110 10:11:24.336007  7196 net.cpp:137] Memory required for data: 533299712
I0110 10:11:24.336014  7196 layer_factory.hpp:77] Creating layer conv3
I0110 10:11:24.336030  7196 net.cpp:84] Creating Layer conv3
I0110 10:11:24.336036  7196 net.cpp:406] conv3 <- norm2
I0110 10:11:24.336045  7196 net.cpp:380] conv3 -> conv3
I0110 10:11:24.349803  7196 net.cpp:122] Setting up conv3
I0110 10:11:24.349830  7196 net.cpp:129] Top shape: 128 384 12 12 (7077888)
I0110 10:11:24.349836  7196 net.cpp:137] Memory required for data: 561611264
I0110 10:11:24.349856  7196 layer_factory.hpp:77] Creating layer relu3
I0110 10:11:24.349867  7196 net.cpp:84] Creating Layer relu3
I0110 10:11:24.349872  7196 net.cpp:406] relu3 <- conv3
I0110 10:11:24.349882  7196 net.cpp:367] relu3 -> conv3 (in-place)
I0110 10:11:24.350245  7196 net.cpp:122] Setting up relu3
I0110 10:11:24.350270  7196 net.cpp:129] Top shape: 128 384 12 12 (7077888)
I0110 10:11:24.350275  7196 net.cpp:137] Memory required for data: 589922816
I0110 10:11:24.350281  7196 layer_factory.hpp:77] Creating layer conv4
I0110 10:11:24.350296  7196 net.cpp:84] Creating Layer conv4
I0110 10:11:24.350303  7196 net.cpp:406] conv4 <- conv3
I0110 10:11:24.350314  7196 net.cpp:380] conv4 -> conv4
I0110 10:11:24.359833  7196 net.cpp:122] Setting up conv4
I0110 10:11:24.359860  7196 net.cpp:129] Top shape: 128 384 12 12 (7077888)
I0110 10:11:24.359867  7196 net.cpp:137] Memory required for data: 618234368
I0110 10:11:24.359879  7196 layer_factory.hpp:77] Creating layer relu4
I0110 10:11:24.359889  7196 net.cpp:84] Creating Layer relu4
I0110 10:11:24.359894  7196 net.cpp:406] relu4 <- conv4
I0110 10:11:24.359902  7196 net.cpp:367] relu4 -> conv4 (in-place)
I0110 10:11:24.360270  7196 net.cpp:122] Setting up relu4
I0110 10:11:24.360291  7196 net.cpp:129] Top shape: 128 384 12 12 (7077888)
I0110 10:11:24.360296  7196 net.cpp:137] Memory required for data: 646545920
I0110 10:11:24.360303  7196 layer_factory.hpp:77] Creating layer conv5
I0110 10:11:24.360318  7196 net.cpp:84] Creating Layer conv5
I0110 10:11:24.360324  7196 net.cpp:406] conv5 <- conv4
I0110 10:11:24.360334  7196 net.cpp:380] conv5 -> conv5
I0110 10:11:24.369082  7196 net.cpp:122] Setting up conv5
I0110 10:11:24.369107  7196 net.cpp:129] Top shape: 128 256 12 12 (4718592)
I0110 10:11:24.369112  7196 net.cpp:137] Memory required for data: 665420288
I0110 10:11:24.369129  7196 layer_factory.hpp:77] Creating layer relu5
I0110 10:11:24.369141  7196 net.cpp:84] Creating Layer relu5
I0110 10:11:24.369146  7196 net.cpp:406] relu5 <- conv5
I0110 10:11:24.369153  7196 net.cpp:367] relu5 -> conv5 (in-place)
I0110 10:11:24.369277  7196 net.cpp:122] Setting up relu5
I0110 10:11:24.369294  7196 net.cpp:129] Top shape: 128 256 12 12 (4718592)
I0110 10:11:24.369300  7196 net.cpp:137] Memory required for data: 684294656
I0110 10:11:24.369305  7196 layer_factory.hpp:77] Creating layer pool5
I0110 10:11:24.369314  7196 net.cpp:84] Creating Layer pool5
I0110 10:11:24.369321  7196 net.cpp:406] pool5 <- conv5
I0110 10:11:24.369328  7196 net.cpp:380] pool5 -> pool5
I0110 10:11:24.369386  7196 net.cpp:122] Setting up pool5
I0110 10:11:24.369397  7196 net.cpp:129] Top shape: 128 256 6 6 (1179648)
I0110 10:11:24.369405  7196 net.cpp:137] Memory required for data: 689013248
I0110 10:11:24.369410  7196 layer_factory.hpp:77] Creating layer fc6
I0110 10:11:24.369426  7196 net.cpp:84] Creating Layer fc6
I0110 10:11:24.369431  7196 net.cpp:406] fc6 <- pool5
I0110 10:11:24.369442  7196 net.cpp:380] fc6 -> fc6
I0110 10:11:24.392506  7196 net.cpp:122] Setting up fc6
I0110 10:11:24.392525  7196 net.cpp:129] Top shape: 128 256 (32768)
I0110 10:11:24.392529  7196 net.cpp:137] Memory required for data: 689144320
I0110 10:11:24.392540  7196 layer_factory.hpp:77] Creating layer relu6
I0110 10:11:24.392549  7196 net.cpp:84] Creating Layer relu6
I0110 10:11:24.392554  7196 net.cpp:406] relu6 <- fc6
I0110 10:11:24.392561  7196 net.cpp:367] relu6 -> fc6 (in-place)
I0110 10:11:24.392904  7196 net.cpp:122] Setting up relu6
I0110 10:11:24.392920  7196 net.cpp:129] Top shape: 128 256 (32768)
I0110 10:11:24.392923  7196 net.cpp:137] Memory required for data: 689275392
I0110 10:11:24.392928  7196 layer_factory.hpp:77] Creating layer drop6
I0110 10:11:24.392937  7196 net.cpp:84] Creating Layer drop6
I0110 10:11:24.392942  7196 net.cpp:406] drop6 <- fc6
I0110 10:11:24.392951  7196 net.cpp:367] drop6 -> fc6 (in-place)
I0110 10:11:24.392980  7196 net.cpp:122] Setting up drop6
I0110 10:11:24.392989  7196 net.cpp:129] Top shape: 128 256 (32768)
I0110 10:11:24.392992  7196 net.cpp:137] Memory required for data: 689406464
I0110 10:11:24.392997  7196 layer_factory.hpp:77] Creating layer fc7
I0110 10:11:24.393007  7196 net.cpp:84] Creating Layer fc7
I0110 10:11:24.393013  7196 net.cpp:406] fc7 <- fc6
I0110 10:11:24.393019  7196 net.cpp:380] fc7 -> fc7
I0110 10:11:24.393610  7196 net.cpp:122] Setting up fc7
I0110 10:11:24.393620  7196 net.cpp:129] Top shape: 128 256 (32768)
I0110 10:11:24.393623  7196 net.cpp:137] Memory required for data: 689537536
I0110 10:11:24.393635  7196 layer_factory.hpp:77] Creating layer relu7
I0110 10:11:24.393646  7196 net.cpp:84] Creating Layer relu7
I0110 10:11:24.393651  7196 net.cpp:406] relu7 <- fc7
I0110 10:11:24.393657  7196 net.cpp:367] relu7 -> fc7 (in-place)
I0110 10:11:24.393748  7196 net.cpp:122] Setting up relu7
I0110 10:11:24.393759  7196 net.cpp:129] Top shape: 128 256 (32768)
I0110 10:11:24.393762  7196 net.cpp:137] Memory required for data: 689668608
I0110 10:11:24.393767  7196 layer_factory.hpp:77] Creating layer drop7
I0110 10:11:24.393774  7196 net.cpp:84] Creating Layer drop7
I0110 10:11:24.393779  7196 net.cpp:406] drop7 <- fc7
I0110 10:11:24.393786  7196 net.cpp:367] drop7 -> fc7 (in-place)
I0110 10:11:24.393810  7196 net.cpp:122] Setting up drop7
I0110 10:11:24.393816  7196 net.cpp:129] Top shape: 128 256 (32768)
I0110 10:11:24.393821  7196 net.cpp:137] Memory required for data: 689799680
I0110 10:11:24.393824  7196 layer_factory.hpp:77] Creating layer fc8
I0110 10:11:24.393832  7196 net.cpp:84] Creating Layer fc8
I0110 10:11:24.393836  7196 net.cpp:406] fc8 <- fc7
I0110 10:11:24.393844  7196 net.cpp:380] fc8 -> fc8
I0110 10:11:24.393955  7196 net.cpp:122] Setting up fc8
I0110 10:11:24.393963  7196 net.cpp:129] Top shape: 128 2 (256)
I0110 10:11:24.393967  7196 net.cpp:137] Memory required for data: 689800704
I0110 10:11:24.393975  7196 layer_factory.hpp:77] Creating layer loss
I0110 10:11:24.393985  7196 net.cpp:84] Creating Layer loss
I0110 10:11:24.393991  7196 net.cpp:406] loss <- fc8
I0110 10:11:24.393996  7196 net.cpp:406] loss <- label
I0110 10:11:24.394006  7196 net.cpp:380] loss -> loss
I0110 10:11:24.394026  7196 layer_factory.hpp:77] Creating layer loss
…
I0110 10:11:24.395098  7196 solver.cpp:172] Creating test net (#0) specified by net file: weighted_train_val.prototxt
I0110 10:11:24.395146  7196 net.cpp:294] The NetState phase (1) differed from the phase (0) specified by a rule in layer data
I0110 10:11:24.395352  7196 net.cpp:51] Initializing net from parameters: 
name: "CaffeNet"
state {
  phase: TEST
}
layer {
  name: "data"
  type: "Data"
  top: "data"
  top: "label"
  include {
    phase: TEST
  }
  transform_param {
    scale: 0.0078125
    mirror: true
    mean_value: 127
  }
  data_param {
    source: "/home/lc/gender/school/data_3/val.lmdb"
    batch_size: 128
    backend: LMDB
  }
}
layer {
  name: "conv1"
  type: "Convolution"
  bottom: "data"
  top: "conv1"
  param {
    lr_mult: 1
  }
  param {
    lr_mult: 2
  }
  convolution_param {
    num_output: 96
    kernel_size: 11
    stride: 4
    weight_filler {
      type: "xavier"
    }
    bias_filler {
      type: "constant"
    }
  }
}
layer {
  name: "relu1"
  type: "ReLU"
  bottom: "conv1"
  top: "conv1"
}
layer {
  name: "pool1"
  type: "Pooling"
  bottom: "conv1"
  top: "pool1"
  pooling_param {
    pool: MAX
    kernel_size: 3
    stride: 2
  }
}
layer {
  name: "norm1"
  type: "LRN"
  bottom: "pool1"
  top: "norm1"
  lrn_param {
    local_size: 5
    alpha: 0.0001
    beta: 0.75
  }
}
layer {
  name: "conv2"
  type: "Convolution"
  bottom: "norm1"
  top: "conv2"
  param {
    lr_mult: 1
  }
  param {
    lr_mult: 2
  }
  convolution_param {
    num_output: 256
    pad: 2
    kernel_size: 5
    group: 2
    weight_filler {
      type: "xavier"
    }
    bias_filler {
      type: "constant"
    }
  }
}
layer {
  name: "relu2"
  type: "ReLU"
  bottom: "conv2"
  top: "conv2"
}
layer {
  name: "pool2"
  type: "Pooling"
  bottom: "conv2"
  top: "pool2"
  pooling_param {
    pool: MAX
    kernel_size: 3
    stride: 2
  }
}
layer {
  name: "norm2"
  type: "LRN"
  bottom: "pool2"
  top: "norm2"
  lrn_param {
    local_size: 5
    alpha: 0.0001
    beta: 0.75
  }
}
layer {
  name: "conv3"
  type: "Convolution"
  bottom: "norm2"
  top: "conv3"
  param {
    lr_mult: 1
  }
  param {
    lr_mult: 2
  }
  convolution_param {
    num_output: 384
    pad: 1
    kernel_size: 3
    weight_filler {
      type: "xavier"
    }
    bias_filler {
      type: "constant"
    }
  }
}
layer {
  name: "relu3"
  type: "ReLU"
  bottom: "conv3"
  top: "conv3"
}
layer {
  name: "conv4"
  type: "Convolution"
  bottom: "conv3"
  top: "conv4"
  param {
    lr_mult: 1
  }
  param {
    lr_mult: 2
  }
  convolution_param {
    num_output: 384
    pad: 1
    kernel_size: 3
    group: 2
    weight_filler {
      type: "xavier"
    }
    bias_filler {
      type: "constant"
    }
  }
}
layer {
  name: "relu4"
  type: "ReLU"
  bottom: "conv4"
  top: "conv4"
}
layer {
  name: "conv5"
  type: "Convolution"
  bottom: "conv4"
  top: "conv5"
  param {
    lr_mult: 1
  }
  param {
    lr_mult: 2
  }
  convolution_param {
    num_output: 256
    pad: 1
    kernel_size: 3
    group: 2
    weight_filler {
      type: "xavier"
    }
    bias_filler {
      type: "constant"
    }
  }
}
layer {
  name: "relu5"
  type: "ReLU"
  bottom: "conv5"
  top: "conv5"
}
layer {
  name: "pool5"
  type: "Pooling"
  bottom: "conv5"
  top: "pool5"
  pooling_param {
    pool: MAX
    kernel_size: 3
    stride: 2
  }
}
layer {
  name: "fc6"
  type: "InnerProduct"
  bottom: "pool5"
  top: "fc6"
  param {
    lr_mult: 1
  }
  param {
    lr_mult: 2
  }
  inner_product_param {
    num_output: 256
    weight_filler {
      type: "xavier"
    }
    bias_filler {
      type: "constant"
    }
  }
}
layer {
  name: "relu6"
  type: "ReLU"
  bottom: "fc6"
  top: "fc6"
}
layer {
  name: "drop6"
  type: "Dropout"
  bottom: "fc6"
  top: "fc6"
  dropout_param {
    dropout_ratio: 0.5
  }
}
layer {
  name: "fc7"
  type: "InnerProduct"
  bottom: "fc6"
  top: "fc7"
  param {
    lr_mult: 1
  }
  param {
    lr_mult: 2
  }
  inner_product_param {
    num_output: 256
    weight_filler {
      type: "xavier"
    }
    bias_filler {
      type: "constant"
    }
  }
}
layer {
  name: "relu7"
  type: "ReLU"
  bottom: "fc7"
  top: "fc7"
}
layer {
  name: "drop7"
  type: "Dropout"
  bottom: "fc7"
  top: "fc7"
  dropout_param {
    dropout_ratio: 0.5
  }
}
layer {
  name: "fc8"
  type: "InnerProduct"
  bottom: "fc7"
  top: "fc8"
  param {
    lr_mult: 1
  }
  param {
    lr_mult: 2
  }
  inner_product_param {
    num_output: 2
    weight_filler {
      type: "xavier"
    }
    bias_filler {
      type: "constant"
    }
  }
}
layer {
  name: "accuracy"
  type: "Accuracy"
  bottom: "fc8"
  bottom: "label"
  top: "accuracy"
  include {
    phase: TEST
  }
}
layer {
  name: "loss"
  type: "WeightedSoftmaxWithLoss"
  bottom: "fc8"
  bottom: "label"
  top: "loss"
  softmax_param {
    pos_mult: 1.3
    pos_cid: 1
  }
}
I0110 10:11:24.395484  7196 layer_factory.hpp:77] Creating layer data
I0110 10:11:24.557775  7196 db_lmdb.cpp:35] Opened lmdb /home/lc/gender/school/data_3/val.lmdb
I0110 10:11:24.855619  7196 net.cpp:84] Creating Layer data
I0110 10:11:24.855660  7196 net.cpp:380] data -> data
I0110 10:11:24.855682  7196 net.cpp:380] data -> label
I0110 10:11:24.857035  7196 data_layer.cpp:45] output data size: 128,3,200,200
I0110 10:11:25.068706  7196 net.cpp:122] Setting up data
I0110 10:11:25.068753  7196 net.cpp:129] Top shape: 128 3 200 200 (15360000)
I0110 10:11:25.068759  7196 net.cpp:129] Top shape: 128 (128)
I0110 10:11:25.068763  7196 net.cpp:137] Memory required for data: 61440512
I0110 10:11:25.068771  7196 layer_factory.hpp:77] Creating layer label_data_1_split
I0110 10:11:25.068791  7196 net.cpp:84] Creating Layer label_data_1_split
I0110 10:11:25.068796  7196 net.cpp:406] label_data_1_split <- label
I0110 10:11:25.068807  7196 net.cpp:380] label_data_1_split -> label_data_1_split_0
I0110 10:11:25.068821  7196 net.cpp:380] label_data_1_split -> label_data_1_split_1
I0110 10:11:25.068883  7196 net.cpp:122] Setting up label_data_1_split
I0110 10:11:25.068892  7196 net.cpp:129] Top shape: 128 (128)
I0110 10:11:25.068897  7196 net.cpp:129] Top shape: 128 (128)
I0110 10:11:25.068900  7196 net.cpp:137] Memory required for data: 61441536
I0110 10:11:25.068904  7196 layer_factory.hpp:77] Creating layer conv1
I0110 10:11:25.068920  7196 net.cpp:84] Creating Layer conv1
I0110 10:11:25.068926  7196 net.cpp:406] conv1 <- data
I0110 10:11:25.068934  7196 net.cpp:380] conv1 -> conv1
I0110 10:11:25.070868  7196 net.cpp:122] Setting up conv1
I0110 10:11:25.070888  7196 net.cpp:129] Top shape: 128 96 48 48 (28311552)
I0110 10:11:25.070892  7196 net.cpp:137] Memory required for data: 174687744
I0110 10:11:25.070910  7196 layer_factory.hpp:77] Creating layer relu1
I0110 10:11:25.070920  7196 net.cpp:84] Creating Layer relu1
I0110 10:11:25.070924  7196 net.cpp:406] relu1 <- conv1
I0110 10:11:25.070931  7196 net.cpp:367] relu1 -> conv1 (in-place)
I0110 10:11:25.071036  7196 net.cpp:122] Setting up relu1
I0110 10:11:25.071049  7196 net.cpp:129] Top shape: 128 96 48 48 (28311552)
I0110 10:11:25.071053  7196 net.cpp:137] Memory required for data: 287933952
I0110 10:11:25.071058  7196 layer_factory.hpp:77] Creating layer pool1
I0110 10:11:25.071070  7196 net.cpp:84] Creating Layer pool1
I0110 10:11:25.071075  7196 net.cpp:406] pool1 <- conv1
I0110 10:11:25.071082  7196 net.cpp:380] pool1 -> pool1
I0110 10:11:25.071126  7196 net.cpp:122] Setting up pool1
I0110 10:11:25.071135  7196 net.cpp:129] Top shape: 128 96 24 24 (7077888)
I0110 10:11:25.071139  7196 net.cpp:137] Memory required for data: 316245504
I0110 10:11:25.071143  7196 layer_factory.hpp:77] Creating layer norm1
I0110 10:11:25.071151  7196 net.cpp:84] Creating Layer norm1
I0110 10:11:25.071156  7196 net.cpp:406] norm1 <- pool1
I0110 10:11:25.071162  7196 net.cpp:380] norm1 -> norm1
I0110 10:11:25.071590  7196 net.cpp:122] Setting up norm1
I0110 10:11:25.071606  7196 net.cpp:129] Top shape: 128 96 24 24 (7077888)
I0110 10:11:25.071611  7196 net.cpp:137] Memory required for data: 344557056
I0110 10:11:25.071616  7196 layer_factory.hpp:77] Creating layer conv2
I0110 10:11:25.071632  7196 net.cpp:84] Creating Layer conv2
I0110 10:11:25.071636  7196 net.cpp:406] conv2 <- norm1
I0110 10:11:25.071645  7196 net.cpp:380] conv2 -> conv2
I0110 10:11:25.081188  7196 net.cpp:122] Setting up conv2
I0110 10:11:25.081209  7196 net.cpp:129] Top shape: 128 256 24 24 (18874368)
I0110 10:11:25.081214  7196 net.cpp:137] Memory required for data: 420054528
I0110 10:11:25.081228  7196 layer_factory.hpp:77] Creating layer relu2
I0110 10:11:25.081235  7196 net.cpp:84] Creating Layer relu2
I0110 10:11:25.081239  7196 net.cpp:406] relu2 <- conv2
I0110 10:11:25.081248  7196 net.cpp:367] relu2 -> conv2 (in-place)
I0110 10:11:25.081569  7196 net.cpp:122] Setting up relu2
I0110 10:11:25.081585  7196 net.cpp:129] Top shape: 128 256 24 24 (18874368)
I0110 10:11:25.081589  7196 net.cpp:137] Memory required for data: 495552000
I0110 10:11:25.081594  7196 layer_factory.hpp:77] Creating layer pool2
I0110 10:11:25.081605  7196 net.cpp:84] Creating Layer pool2
I0110 10:11:25.081609  7196 net.cpp:406] pool2 <- conv2
I0110 10:11:25.081616  7196 net.cpp:380] pool2 -> pool2
I0110 10:11:25.081671  7196 net.cpp:122] Setting up pool2
I0110 10:11:25.081681  7196 net.cpp:129] Top shape: 128 256 12 12 (4718592)
I0110 10:11:25.081684  7196 net.cpp:137] Memory required for data: 514426368
I0110 10:11:25.081688  7196 layer_factory.hpp:77] Creating layer norm2
I0110 10:11:25.081697  7196 net.cpp:84] Creating Layer norm2
I0110 10:11:25.081704  7196 net.cpp:406] norm2 <- pool2
I0110 10:11:25.081710  7196 net.cpp:380] norm2 -> norm2
I0110 10:11:25.081827  7196 net.cpp:122] Setting up norm2
I0110 10:11:25.081840  7196 net.cpp:129] Top shape: 128 256 12 12 (4718592)
I0110 10:11:25.081845  7196 net.cpp:137] Memory required for data: 533300736
I0110 10:11:25.081848  7196 layer_factory.hpp:77] Creating layer conv3
I0110 10:11:25.081861  7196 net.cpp:84] Creating Layer conv3
I0110 10:11:25.081866  7196 net.cpp:406] conv3 <- norm2
I0110 10:11:25.081874  7196 net.cpp:380] conv3 -> conv3
I0110 10:11:25.091255  7196 net.cpp:122] Setting up conv3
I0110 10:11:25.091275  7196 net.cpp:129] Top shape: 128 384 12 12 (7077888)
I0110 10:11:25.091280  7196 net.cpp:137] Memory required for data: 561612288
I0110 10:11:25.091293  7196 layer_factory.hpp:77] Creating layer relu3
I0110 10:11:25.091301  7196 net.cpp:84] Creating Layer relu3
I0110 10:11:25.091305  7196 net.cpp:406] relu3 <- conv3
I0110 10:11:25.091313  7196 net.cpp:367] relu3 -> conv3 (in-place)
I0110 10:11:25.091416  7196 net.cpp:122] Setting up relu3
I0110 10:11:25.091428  7196 net.cpp:129] Top shape: 128 384 12 12 (7077888)
I0110 10:11:25.091432  7196 net.cpp:137] Memory required for data: 589923840
I0110 10:11:25.091437  7196 layer_factory.hpp:77] Creating layer conv4
I0110 10:11:25.091450  7196 net.cpp:84] Creating Layer conv4
I0110 10:11:25.091455  7196 net.cpp:406] conv4 <- conv3
I0110 10:11:25.091462  7196 net.cpp:380] conv4 -> conv4
I0110 10:11:25.101025  7196 net.cpp:122] Setting up conv4
I0110 10:11:25.101047  7196 net.cpp:129] Top shape: 128 384 12 12 (7077888)
I0110 10:11:25.101052  7196 net.cpp:137] Memory required for data: 618235392
I0110 10:11:25.101061  7196 layer_factory.hpp:77] Creating layer relu4
I0110 10:11:25.101069  7196 net.cpp:84] Creating Layer relu4
I0110 10:11:25.101073  7196 net.cpp:406] relu4 <- conv4
I0110 10:11:25.101083  7196 net.cpp:367] relu4 -> conv4 (in-place)
I0110 10:11:25.101187  7196 net.cpp:122] Setting up relu4
I0110 10:11:25.101200  7196 net.cpp:129] Top shape: 128 384 12 12 (7077888)
I0110 10:11:25.101204  7196 net.cpp:137] Memory required for data: 646546944
I0110 10:11:25.101209  7196 layer_factory.hpp:77] Creating layer conv5
I0110 10:11:25.101222  7196 net.cpp:84] Creating Layer conv5
I0110 10:11:25.101227  7196 net.cpp:406] conv5 <- conv4
I0110 10:11:25.101235  7196 net.cpp:380] conv5 -> conv5
I0110 10:11:25.107084  7196 net.cpp:122] Setting up conv5
I0110 10:11:25.107103  7196 net.cpp:129] Top shape: 128 256 12 12 (4718592)
I0110 10:11:25.107108  7196 net.cpp:137] Memory required for data: 665421312
I0110 10:11:25.107121  7196 layer_factory.hpp:77] Creating layer relu5
I0110 10:11:25.107129  7196 net.cpp:84] Creating Layer relu5
I0110 10:11:25.107136  7196 net.cpp:406] relu5 <- conv5
I0110 10:11:25.107143  7196 net.cpp:367] relu5 -> conv5 (in-place)
I0110 10:11:25.107452  7196 net.cpp:122] Setting up relu5
I0110 10:11:25.107468  7196 net.cpp:129] Top shape: 128 256 12 12 (4718592)
I0110 10:11:25.107472  7196 net.cpp:137] Memory required for data: 684295680
I0110 10:11:25.107476  7196 layer_factory.hpp:77] Creating layer pool5
I0110 10:11:25.107488  7196 net.cpp:84] Creating Layer pool5
I0110 10:11:25.107492  7196 net.cpp:406] pool5 <- conv5
I0110 10:11:25.107501  7196 net.cpp:380] pool5 -> pool5
I0110 10:11:25.107558  7196 net.cpp:122] Setting up pool5
I0110 10:11:25.107568  7196 net.cpp:129] Top shape: 128 256 6 6 (1179648)
I0110 10:11:25.107573  7196 net.cpp:137] Memory required for data: 689014272
I0110 10:11:25.107576  7196 layer_factory.hpp:77] Creating layer fc6
I0110 10:11:25.107587  7196 net.cpp:84] Creating Layer fc6
I0110 10:11:25.107594  7196 net.cpp:406] fc6 <- pool5
I0110 10:11:25.107599  7196 net.cpp:380] fc6 -> fc6
I0110 10:11:25.128567  7196 net.cpp:122] Setting up fc6
I0110 10:11:25.128584  7196 net.cpp:129] Top shape: 128 256 (32768)
I0110 10:11:25.128589  7196 net.cpp:137] Memory required for data: 689145344
I0110 10:11:25.128598  7196 layer_factory.hpp:77] Creating layer relu6
I0110 10:11:25.128607  7196 net.cpp:84] Creating Layer relu6
I0110 10:11:25.128610  7196 net.cpp:406] relu6 <- fc6
I0110 10:11:25.128621  7196 net.cpp:367] relu6 -> fc6 (in-place)
I0110 10:11:25.128718  7196 net.cpp:122] Setting up relu6
I0110 10:11:25.128731  7196 net.cpp:129] Top shape: 128 256 (32768)
I0110 10:11:25.128734  7196 net.cpp:137] Memory required for data: 689276416
I0110 10:11:25.128739  7196 layer_factory.hpp:77] Creating layer drop6
I0110 10:11:25.128748  7196 net.cpp:84] Creating Layer drop6
I0110 10:11:25.128756  7196 net.cpp:406] drop6 <- fc6
I0110 10:11:25.128760  7196 net.cpp:367] drop6 -> fc6 (in-place)
I0110 10:11:25.128783  7196 net.cpp:122] Setting up drop6
I0110 10:11:25.128789  7196 net.cpp:129] Top shape: 128 256 (32768)
I0110 10:11:25.128793  7196 net.cpp:137] Memory required for data: 689407488
I0110 10:11:25.128796  7196 layer_factory.hpp:77] Creating layer fc7
I0110 10:11:25.128804  7196 net.cpp:84] Creating Layer fc7
I0110 10:11:25.128808  7196 net.cpp:406] fc7 <- fc6
I0110 10:11:25.128815  7196 net.cpp:380] fc7 -> fc7
I0110 10:11:25.129375  7196 net.cpp:122] Setting up fc7
I0110 10:11:25.129384  7196 net.cpp:129] Top shape: 128 256 (32768)
I0110 10:11:25.129387  7196 net.cpp:137] Memory required for data: 689538560
I0110 10:11:25.129395  7196 layer_factory.hpp:77] Creating layer relu7
I0110 10:11:25.129400  7196 net.cpp:84] Creating Layer relu7
I0110 10:11:25.129405  7196 net.cpp:406] relu7 <- fc7
I0110 10:11:25.129412  7196 net.cpp:367] relu7 -> fc7 (in-place)
I0110 10:11:25.129739  7196 net.cpp:122] Setting up relu7
I0110 10:11:25.129753  7196 net.cpp:129] Top shape: 128 256 (32768)
I0110 10:11:25.129757  7196 net.cpp:137] Memory required for data: 689669632
I0110 10:11:25.129761  7196 layer_factory.hpp:77] Creating layer drop7
I0110 10:11:25.129771  7196 net.cpp:84] Creating Layer drop7
I0110 10:11:25.129776  7196 net.cpp:406] drop7 <- fc7
I0110 10:11:25.129781  7196 net.cpp:367] drop7 -> fc7 (in-place)
I0110 10:11:25.129812  7196 net.cpp:122] Setting up drop7
I0110 10:11:25.129819  7196 net.cpp:129] Top shape: 128 256 (32768)
I0110 10:11:25.129823  7196 net.cpp:137] Memory required for data: 689800704
I0110 10:11:25.129828  7196 layer_factory.hpp:77] Creating layer fc8
I0110 10:11:25.129835  7196 net.cpp:84] Creating Layer fc8
I0110 10:11:25.129840  7196 net.cpp:406] fc8 <- fc7
I0110 10:11:25.129848  7196 net.cpp:380] fc8 -> fc8
I0110 10:11:25.129963  7196 net.cpp:122] Setting up fc8
I0110 10:11:25.129972  7196 net.cpp:129] Top shape: 128 2 (256)
I0110 10:11:25.129976  7196 net.cpp:137] Memory required for data: 689801728
I0110 10:11:25.129983  7196 layer_factory.hpp:77] Creating layer fc8_fc8_0_split
I0110 10:11:25.129992  7196 net.cpp:84] Creating Layer fc8_fc8_0_split
I0110 10:11:25.129997  7196 net.cpp:406] fc8_fc8_0_split <- fc8
I0110 10:11:25.130005  7196 net.cpp:380] fc8_fc8_0_split -> fc8_fc8_0_split_0
I0110 10:11:25.130013  7196 net.cpp:380] fc8_fc8_0_split -> fc8_fc8_0_split_1
I0110 10:11:25.130048  7196 net.cpp:122] Setting up fc8_fc8_0_split
I0110 10:11:25.130055  7196 net.cpp:129] Top shape: 128 2 (256)
I0110 10:11:25.130060  7196 net.cpp:129] Top shape: 128 2 (256)
I0110 10:11:25.130064  7196 net.cpp:137] Memory required for data: 689803776
I0110 10:11:25.130069  7196 layer_factory.hpp:77] Creating layer accuracy
I0110 10:11:25.130077  7196 net.cpp:84] Creating Layer accuracy
I0110 10:11:25.130084  7196 net.cpp:406] accuracy <- fc8_fc8_0_split_0
I0110 10:11:25.130089  7196 net.cpp:406] accuracy <- label_data_1_split_0
I0110 10:11:25.130095  7196 net.cpp:380] accuracy -> accuracy
…
