…
I0107 16:57:41.570045 12869 net.cpp:294] The NetState phase (0) differed from the phase (1) specified by a rule in layer accuracy
I0107 16:57:41.570235 12869 net.cpp:51] Initializing net from parameters: 
name: "CaffeNet"
state {
  phase: TRAIN
  level: 0
  stage: ""
}
layer {
  name: "data"
  type: "Data"
  top: "data"
  top: "label"
  include {
    phase: TRAIN
  }
  transform_param {
    scale: 0.0078125
    mirror: true
    mean_value: 127
  }
  data_param {
    source: "/home/lc/gender/school/data/train.lmdb"
    batch_size: 128
    backend: LMDB
  }
}
layer {
  name: "conv1"
  type: "Convolution"
  bottom: "data"
  top: "conv1"
  param {
    lr_mult: 1
  }
  param {
    lr_mult: 2
  }
  convolution_param {
    num_output: 96
    kernel_size: 11
    stride: 4
    weight_filler {
      type: "xavier"
    }
    bias_filler {
      type: "constant"
    }
  }
}
layer {
  name: "relu1"
  type: "ReLU"
  bottom: "conv1"
  top: "conv1"
}
layer {
  name: "pool1"
  type: "Pooling"
  bottom: "conv1"
  top: "pool1"
  pooling_param {
    pool: MAX
    kernel_size: 3
    stride: 2
  }
}
layer {
  name: "norm1"
  type: "LRN"
  bottom: "pool1"
  top: "norm1"
  lrn_param {
    local_size: 5
    alpha: 0.0001
    beta: 0.75
  }
}
layer {
  name: "conv2"
  type: "Convolution"
  bottom: "norm1"
  top: "conv2"
  param {
    lr_mult: 1
  }
  param {
    lr_mult: 2
  }
  convolution_param {
    num_output: 256
    pad: 2
    kernel_size: 5
    group: 2
    weight_filler {
      type: "xavier"
    }
    bias_filler {
      type: "constant"
    }
  }
}
layer {
  name: "relu2"
  type: "ReLU"
  bottom: "conv2"
  top: "conv2"
}
layer {
  name: "pool2"
  type: "Pooling"
  bottom: "conv2"
  top: "pool2"
  pooling_param {
    pool: MAX
    kernel_size: 3
    stride: 2
  }
}
layer {
  name: "norm2"
  type: "LRN"
  bottom: "pool2"
  top: "norm2"
  lrn_param {
    local_size: 5
    alpha: 0.0001
    beta: 0.75
  }
}
layer {
  name: "conv3"
  type: "Convolution"
  bottom: "norm2"
  top: "conv3"
  param {
    lr_mult: 1
  }
  param {
    lr_mult: 2
  }
  convolution_param {
    num_output: 384
    pad: 1
    kernel_size: 3
    weight_filler {
      type: "xavier"
    }
    bias_filler {
      type: "constant"
    }
  }
}
layer {
  name: "relu3"
  type: "ReLU"
  bottom: "conv3"
  top: "conv3"
}
layer {
  name: "conv4"
  type: "Convolution"
  bottom: "conv3"
  top: "conv4"
  param {
    lr_mult: 1
  }
  param {
    lr_mult: 2
  }
  convolution_param {
    num_output: 384
    pad: 1
    kernel_size: 3
    group: 2
    weight_filler {
      type: "xavier"
    }
    bias_filler {
      type: "constant"
    }
  }
}
layer {
  name: "relu4"
  type: "ReLU"
  bottom: "conv4"
  top: "conv4"
}
layer {
  name: "conv5"
  type: "Convolution"
  bottom: "conv4"
  top: "conv5"
  param {
    lr_mult: 1
  }
  param {
    lr_mult: 2
  }
  convolution_param {
    num_output: 256
    pad: 1
    kernel_size: 3
    group: 2
    weight_filler {
      type: "xavier"
    }
    bias_filler {
      type: "constant"
    }
  }
}
layer {
  name: "relu5"
  type: "ReLU"
  bottom: "conv5"
  top: "conv5"
}
layer {
  name: "pool5"
  type: "Pooling"
  bottom: "conv5"
  top: "pool5"
  pooling_param {
    pool: MAX
    kernel_size: 3
    stride: 2
  }
}
layer {
  name: "fc6"
  type: "InnerProduct"
  bottom: "pool5"
  top: "fc6"
  param {
    lr_mult: 1
  }
  param {
    lr_mult: 2
  }
  inner_product_param {
    num_output: 256
    weight_filler {
      type: "xavier"
    }
    bias_filler {
      type: "constant"
    }
  }
}
layer {
  name: "relu6"
  type: "ReLU"
  bottom: "fc6"
  top: "fc6"
}
layer {
  name: "drop6"
  type: "Dropout"
  bottom: "fc6"
  top: "fc6"
  dropout_param {
    dropout_ratio: 0.5
  }
}
layer {
  name: "fc7"
  type: "InnerProduct"
  bottom: "fc6"
  top: "fc7"
  param {
    lr_mult: 1
  }
  param {
    lr_mult: 2
  }
  inner_product_param {
    num_output: 256
    weight_filler {
      type: "xavier"
    }
    bias_filler {
      type: "constant"
    }
  }
}
layer {
  name: "relu7"
  type: "ReLU"
  bottom: "fc7"
  top: "fc7"
}
layer {
  name: "drop7"
  type: "Dropout"
  bottom: "fc7"
  top: "fc7"
  dropout_param {
    dropout_ratio: 0.5
  }
}
layer {
  name: "fc8"
  type: "InnerProduct"
  bottom: "fc7"
  top: "fc8"
  param {
    lr_mult: 1
  }
  param {
    lr_mult: 2
  }
  inner_product_param {
    num_output: 2
    weight_filler {
      type: "xavier"
    }
    bias_filler {
      type: "constant"
    }
  }
}
layer {
  name: "loss"
  type: "WeightedSoftmaxWithLoss"
  bottom: "fc8"
  bottom: "label"
  top: "loss"
  softmax_param {
    pos_mult: 1.2
    pos_cid: 1
  }
}
I0107 16:57:41.570376 12869 layer_factory.hpp:77] Creating layer data
I0107 16:57:41.570592 12869 db_lmdb.cpp:35] Opened lmdb /home/lc/gender/school/data/train.lmdb
I0107 16:57:41.570649 12869 net.cpp:84] Creating Layer data
I0107 16:57:41.570664 12869 net.cpp:380] data -> data
I0107 16:57:41.570714 12869 net.cpp:380] data -> label
I0107 16:57:43.320865 12869 data_layer.cpp:45] output data size: 128,3,200,200
I0107 16:57:43.625418 12869 net.cpp:122] Setting up data
I0107 16:57:43.625813 12869 net.cpp:129] Top shape: 128 3 200 200 (15360000)
I0107 16:57:43.625893 12869 net.cpp:129] Top shape: 128 (128)
I0107 16:57:43.625953 12869 net.cpp:137] Memory required for data: 61440512
I0107 16:57:43.626075 12869 layer_factory.hpp:77] Creating layer conv1
I0107 16:57:43.626226 12869 net.cpp:84] Creating Layer conv1
I0107 16:57:43.626260 12869 net.cpp:406] conv1 <- data
I0107 16:57:43.626308 12869 net.cpp:380] conv1 -> conv1
I0107 16:57:44.652348 12869 net.cpp:122] Setting up conv1
I0107 16:57:44.652446 12869 net.cpp:129] Top shape: 128 96 48 48 (28311552)
I0107 16:57:44.652454 12869 net.cpp:137] Memory required for data: 174686720
I0107 16:57:44.652549 12869 layer_factory.hpp:77] Creating layer relu1
I0107 16:57:44.652633 12869 net.cpp:84] Creating Layer relu1
I0107 16:57:44.652648 12869 net.cpp:406] relu1 <- conv1
I0107 16:57:44.652665 12869 net.cpp:367] relu1 -> conv1 (in-place)
I0107 16:57:44.654199 12869 net.cpp:122] Setting up relu1
I0107 16:57:44.654260 12869 net.cpp:129] Top shape: 128 96 48 48 (28311552)
I0107 16:57:44.654327 12869 net.cpp:137] Memory required for data: 287932928
I0107 16:57:44.654340 12869 layer_factory.hpp:77] Creating layer pool1
I0107 16:57:44.654379 12869 net.cpp:84] Creating Layer pool1
I0107 16:57:44.654393 12869 net.cpp:406] pool1 <- conv1
I0107 16:57:44.654415 12869 net.cpp:380] pool1 -> pool1
I0107 16:57:44.654589 12869 net.cpp:122] Setting up pool1
I0107 16:57:44.654605 12869 net.cpp:129] Top shape: 128 96 24 24 (7077888)
I0107 16:57:44.654614 12869 net.cpp:137] Memory required for data: 316244480
I0107 16:57:44.654624 12869 layer_factory.hpp:77] Creating layer norm1
I0107 16:57:44.654702 12869 net.cpp:84] Creating Layer norm1
I0107 16:57:44.654713 12869 net.cpp:406] norm1 <- pool1
I0107 16:57:44.654727 12869 net.cpp:380] norm1 -> norm1
I0107 16:57:44.656610 12869 net.cpp:122] Setting up norm1
I0107 16:57:44.656664 12869 net.cpp:129] Top shape: 128 96 24 24 (7077888)
I0107 16:57:44.656672 12869 net.cpp:137] Memory required for data: 344556032
I0107 16:57:44.656687 12869 layer_factory.hpp:77] Creating layer conv2
I0107 16:57:44.656733 12869 net.cpp:84] Creating Layer conv2
I0107 16:57:44.656745 12869 net.cpp:406] conv2 <- norm1
I0107 16:57:44.656769 12869 net.cpp:380] conv2 -> conv2
I0107 16:57:44.677007 12869 net.cpp:122] Setting up conv2
I0107 16:57:44.677106 12869 net.cpp:129] Top shape: 128 256 24 24 (18874368)
I0107 16:57:44.677115 12869 net.cpp:137] Memory required for data: 420053504
I0107 16:57:44.677165 12869 layer_factory.hpp:77] Creating layer relu2
I0107 16:57:44.677199 12869 net.cpp:84] Creating Layer relu2
I0107 16:57:44.677211 12869 net.cpp:406] relu2 <- conv2
I0107 16:57:44.677232 12869 net.cpp:367] relu2 -> conv2 (in-place)
I0107 16:57:44.679332 12869 net.cpp:122] Setting up relu2
I0107 16:57:44.679389 12869 net.cpp:129] Top shape: 128 256 24 24 (18874368)
I0107 16:57:44.679395 12869 net.cpp:137] Memory required for data: 495550976
I0107 16:57:44.679416 12869 layer_factory.hpp:77] Creating layer pool2
I0107 16:57:44.679438 12869 net.cpp:84] Creating Layer pool2
I0107 16:57:44.679446 12869 net.cpp:406] pool2 <- conv2
I0107 16:57:44.679463 12869 net.cpp:380] pool2 -> pool2
I0107 16:57:44.679582 12869 net.cpp:122] Setting up pool2
I0107 16:57:44.679594 12869 net.cpp:129] Top shape: 128 256 12 12 (4718592)
I0107 16:57:44.679596 12869 net.cpp:137] Memory required for data: 514425344
I0107 16:57:44.679600 12869 layer_factory.hpp:77] Creating layer norm2
I0107 16:57:44.679620 12869 net.cpp:84] Creating Layer norm2
I0107 16:57:44.679625 12869 net.cpp:406] norm2 <- pool2
I0107 16:57:44.679632 12869 net.cpp:380] norm2 -> norm2
I0107 16:57:44.681339 12869 net.cpp:122] Setting up norm2
I0107 16:57:44.681406 12869 net.cpp:129] Top shape: 128 256 12 12 (4718592)
I0107 16:57:44.681411 12869 net.cpp:137] Memory required for data: 533299712
I0107 16:57:44.681421 12869 layer_factory.hpp:77] Creating layer conv3
I0107 16:57:44.681454 12869 net.cpp:84] Creating Layer conv3
I0107 16:57:44.681461 12869 net.cpp:406] conv3 <- norm2
I0107 16:57:44.681478 12869 net.cpp:380] conv3 -> conv3
I0107 16:57:44.704262 12869 net.cpp:122] Setting up conv3
I0107 16:57:44.704351 12869 net.cpp:129] Top shape: 128 384 12 12 (7077888)
I0107 16:57:44.704356 12869 net.cpp:137] Memory required for data: 561611264
I0107 16:57:44.704406 12869 layer_factory.hpp:77] Creating layer relu3
I0107 16:57:44.704433 12869 net.cpp:84] Creating Layer relu3
I0107 16:57:44.704442 12869 net.cpp:406] relu3 <- conv3
I0107 16:57:44.704455 12869 net.cpp:367] relu3 -> conv3 (in-place)
I0107 16:57:44.705297 12869 net.cpp:122] Setting up relu3
I0107 16:57:44.705312 12869 net.cpp:129] Top shape: 128 384 12 12 (7077888)
I0107 16:57:44.705318 12869 net.cpp:137] Memory required for data: 589922816
I0107 16:57:44.705372 12869 layer_factory.hpp:77] Creating layer conv4
I0107 16:57:44.705399 12869 net.cpp:84] Creating Layer conv4
I0107 16:57:44.705405 12869 net.cpp:406] conv4 <- conv3
I0107 16:57:44.705413 12869 net.cpp:380] conv4 -> conv4
I0107 16:57:44.724844 12869 net.cpp:122] Setting up conv4
I0107 16:57:44.724922 12869 net.cpp:129] Top shape: 128 384 12 12 (7077888)
I0107 16:57:44.724931 12869 net.cpp:137] Memory required for data: 618234368
I0107 16:57:44.724972 12869 layer_factory.hpp:77] Creating layer relu4
I0107 16:57:44.724999 12869 net.cpp:84] Creating Layer relu4
I0107 16:57:44.725008 12869 net.cpp:406] relu4 <- conv4
I0107 16:57:44.725028 12869 net.cpp:367] relu4 -> conv4 (in-place)
I0107 16:57:44.725505 12869 net.cpp:122] Setting up relu4
I0107 16:57:44.725522 12869 net.cpp:129] Top shape: 128 384 12 12 (7077888)
I0107 16:57:44.725528 12869 net.cpp:137] Memory required for data: 646545920
I0107 16:57:44.725536 12869 layer_factory.hpp:77] Creating layer conv5
I0107 16:57:44.725564 12869 net.cpp:84] Creating Layer conv5
I0107 16:57:44.725569 12869 net.cpp:406] conv5 <- conv4
I0107 16:57:44.725581 12869 net.cpp:380] conv5 -> conv5
I0107 16:57:44.744108 12869 net.cpp:122] Setting up conv5
I0107 16:57:44.744195 12869 net.cpp:129] Top shape: 128 256 12 12 (4718592)
I0107 16:57:44.744201 12869 net.cpp:137] Memory required for data: 665420288
I0107 16:57:44.744295 12869 layer_factory.hpp:77] Creating layer relu5
I0107 16:57:44.744325 12869 net.cpp:84] Creating Layer relu5
I0107 16:57:44.744334 12869 net.cpp:406] relu5 <- conv5
I0107 16:57:44.744354 12869 net.cpp:367] relu5 -> conv5 (in-place)
I0107 16:57:44.745834 12869 net.cpp:122] Setting up relu5
I0107 16:57:44.745872 12869 net.cpp:129] Top shape: 128 256 12 12 (4718592)
I0107 16:57:44.745877 12869 net.cpp:137] Memory required for data: 684294656
I0107 16:57:44.745887 12869 layer_factory.hpp:77] Creating layer pool5
I0107 16:57:44.745908 12869 net.cpp:84] Creating Layer pool5
I0107 16:57:44.745918 12869 net.cpp:406] pool5 <- conv5
I0107 16:57:44.745935 12869 net.cpp:380] pool5 -> pool5
I0107 16:57:44.746044 12869 net.cpp:122] Setting up pool5
I0107 16:57:44.746057 12869 net.cpp:129] Top shape: 128 256 6 6 (1179648)
I0107 16:57:44.746114 12869 net.cpp:137] Memory required for data: 689013248
I0107 16:57:44.746127 12869 layer_factory.hpp:77] Creating layer fc6
I0107 16:57:44.746160 12869 net.cpp:84] Creating Layer fc6
I0107 16:57:44.746165 12869 net.cpp:406] fc6 <- pool5
I0107 16:57:44.746178 12869 net.cpp:380] fc6 -> fc6
I0107 16:57:44.768767 12869 net.cpp:122] Setting up fc6
I0107 16:57:44.768833 12869 net.cpp:129] Top shape: 128 256 (32768)
I0107 16:57:44.768838 12869 net.cpp:137] Memory required for data: 689144320
I0107 16:57:44.768882 12869 layer_factory.hpp:77] Creating layer relu6
I0107 16:57:44.768951 12869 net.cpp:84] Creating Layer relu6
I0107 16:57:44.768962 12869 net.cpp:406] relu6 <- fc6
I0107 16:57:44.768985 12869 net.cpp:367] relu6 -> fc6 (in-place)
I0107 16:57:44.769860 12869 net.cpp:122] Setting up relu6
I0107 16:57:44.769876 12869 net.cpp:129] Top shape: 128 256 (32768)
I0107 16:57:44.769881 12869 net.cpp:137] Memory required for data: 689275392
I0107 16:57:44.769888 12869 layer_factory.hpp:77] Creating layer drop6
I0107 16:57:44.769909 12869 net.cpp:84] Creating Layer drop6
I0107 16:57:44.769915 12869 net.cpp:406] drop6 <- fc6
I0107 16:57:44.769927 12869 net.cpp:367] drop6 -> fc6 (in-place)
I0107 16:57:44.769968 12869 net.cpp:122] Setting up drop6
I0107 16:57:44.769979 12869 net.cpp:129] Top shape: 128 256 (32768)
I0107 16:57:44.769984 12869 net.cpp:137] Memory required for data: 689406464
I0107 16:57:44.769992 12869 layer_factory.hpp:77] Creating layer fc7
I0107 16:57:44.770009 12869 net.cpp:84] Creating Layer fc7
I0107 16:57:44.770015 12869 net.cpp:406] fc7 <- fc6
I0107 16:57:44.770025 12869 net.cpp:380] fc7 -> fc7
I0107 16:57:44.770579 12869 net.cpp:122] Setting up fc7
I0107 16:57:44.770589 12869 net.cpp:129] Top shape: 128 256 (32768)
I0107 16:57:44.770596 12869 net.cpp:137] Memory required for data: 689537536
I0107 16:57:44.770611 12869 layer_factory.hpp:77] Creating layer relu7
I0107 16:57:44.770620 12869 net.cpp:84] Creating Layer relu7
I0107 16:57:44.770627 12869 net.cpp:406] relu7 <- fc7
I0107 16:57:44.770637 12869 net.cpp:367] relu7 -> fc7 (in-place)
I0107 16:57:44.771416 12869 net.cpp:122] Setting up relu7
I0107 16:57:44.771430 12869 net.cpp:129] Top shape: 128 256 (32768)
I0107 16:57:44.771435 12869 net.cpp:137] Memory required for data: 689668608
I0107 16:57:44.771442 12869 layer_factory.hpp:77] Creating layer drop7
I0107 16:57:44.771456 12869 net.cpp:84] Creating Layer drop7
I0107 16:57:44.771461 12869 net.cpp:406] drop7 <- fc7
I0107 16:57:44.771472 12869 net.cpp:367] drop7 -> fc7 (in-place)
I0107 16:57:44.771500 12869 net.cpp:122] Setting up drop7
I0107 16:57:44.771508 12869 net.cpp:129] Top shape: 128 256 (32768)
I0107 16:57:44.771514 12869 net.cpp:137] Memory required for data: 689799680
I0107 16:57:44.771522 12869 layer_factory.hpp:77] Creating layer fc8
I0107 16:57:44.771535 12869 net.cpp:84] Creating Layer fc8
I0107 16:57:44.771541 12869 net.cpp:406] fc8 <- fc7
I0107 16:57:44.771551 12869 net.cpp:380] fc8 -> fc8
I0107 16:57:44.771656 12869 net.cpp:122] Setting up fc8
I0107 16:57:44.771667 12869 net.cpp:129] Top shape: 128 2 (256)
I0107 16:57:44.771672 12869 net.cpp:137] Memory required for data: 689800704
I0107 16:57:44.771687 12869 layer_factory.hpp:77] Creating layer loss
I0107 16:57:44.771708 12869 net.cpp:84] Creating Layer loss
I0107 16:57:44.771713 12869 net.cpp:406] loss <- fc8
I0107 16:57:44.771721 12869 net.cpp:406] loss <- label
I0107 16:57:44.771735 12869 net.cpp:380] loss -> loss
I0107 16:57:44.771771 12869 layer_factory.hpp:77] Creating layer loss
…
I0107 16:57:44.775032 12869 solver.cpp:172] Creating test net (#0) specified by net file: weighted_train_val.prototxt
I0107 16:57:44.775115 12869 net.cpp:294] The NetState phase (1) differed from the phase (0) specified by a rule in layer data
I0107 16:57:44.775339 12869 net.cpp:51] Initializing net from parameters: 
name: "CaffeNet"
state {
  phase: TEST
}
layer {
  name: "data"
  type: "Data"
  top: "data"
  top: "label"
  include {
    phase: TEST
  }
  transform_param {
    scale: 0.0078125
    mirror: true
    mean_value: 127
  }
  data_param {
    source: "/home/lc/gender/school/data/val.lmdb"
    batch_size: 128
    backend: LMDB
  }
}
layer {
  name: "conv1"
  type: "Convolution"
  bottom: "data"
  top: "conv1"
  param {
    lr_mult: 1
  }
  param {
    lr_mult: 2
  }
  convolution_param {
    num_output: 96
    kernel_size: 11
    stride: 4
    weight_filler {
      type: "xavier"
    }
    bias_filler {
      type: "constant"
    }
  }
}
layer {
  name: "relu1"
  type: "ReLU"
  bottom: "conv1"
  top: "conv1"
}
layer {
  name: "pool1"
  type: "Pooling"
  bottom: "conv1"
  top: "pool1"
  pooling_param {
    pool: MAX
    kernel_size: 3
    stride: 2
  }
}
layer {
  name: "norm1"
  type: "LRN"
  bottom: "pool1"
  top: "norm1"
  lrn_param {
    local_size: 5
    alpha: 0.0001
    beta: 0.75
  }
}
layer {
  name: "conv2"
  type: "Convolution"
  bottom: "norm1"
  top: "conv2"
  param {
    lr_mult: 1
  }
  param {
    lr_mult: 2
  }
  convolution_param {
    num_output: 256
    pad: 2
    kernel_size: 5
    group: 2
    weight_filler {
      type: "xavier"
    }
    bias_filler {
      type: "constant"
    }
  }
}
layer {
  name: "relu2"
  type: "ReLU"
  bottom: "conv2"
  top: "conv2"
}
layer {
  name: "pool2"
  type: "Pooling"
  bottom: "conv2"
  top: "pool2"
  pooling_param {
    pool: MAX
    kernel_size: 3
    stride: 2
  }
}
layer {
  name: "norm2"
  type: "LRN"
  bottom: "pool2"
  top: "norm2"
  lrn_param {
    local_size: 5
    alpha: 0.0001
    beta: 0.75
  }
}
layer {
  name: "conv3"
  type: "Convolution"
  bottom: "norm2"
  top: "conv3"
  param {
    lr_mult: 1
  }
  param {
    lr_mult: 2
  }
  convolution_param {
    num_output: 384
    pad: 1
    kernel_size: 3
    weight_filler {
      type: "xavier"
    }
    bias_filler {
      type: "constant"
    }
  }
}
layer {
  name: "relu3"
  type: "ReLU"
  bottom: "conv3"
  top: "conv3"
}
layer {
  name: "conv4"
  type: "Convolution"
  bottom: "conv3"
  top: "conv4"
  param {
    lr_mult: 1
  }
  param {
    lr_mult: 2
  }
  convolution_param {
    num_output: 384
    pad: 1
    kernel_size: 3
    group: 2
    weight_filler {
      type: "xavier"
    }
    bias_filler {
      type: "constant"
    }
  }
}
layer {
  name: "relu4"
  type: "ReLU"
  bottom: "conv4"
  top: "conv4"
}
layer {
  name: "conv5"
  type: "Convolution"
  bottom: "conv4"
  top: "conv5"
  param {
    lr_mult: 1
  }
  param {
    lr_mult: 2
  }
  convolution_param {
    num_output: 256
    pad: 1
    kernel_size: 3
    group: 2
    weight_filler {
      type: "xavier"
    }
    bias_filler {
      type: "constant"
    }
  }
}
layer {
  name: "relu5"
  type: "ReLU"
  bottom: "conv5"
  top: "conv5"
}
layer {
  name: "pool5"
  type: "Pooling"
  bottom: "conv5"
  top: "pool5"
  pooling_param {
    pool: MAX
    kernel_size: 3
    stride: 2
  }
}
layer {
  name: "fc6"
  type: "InnerProduct"
  bottom: "pool5"
  top: "fc6"
  param {
    lr_mult: 1
  }
  param {
    lr_mult: 2
  }
  inner_product_param {
    num_output: 256
    weight_filler {
      type: "xavier"
    }
    bias_filler {
      type: "constant"
    }
  }
}
layer {
  name: "relu6"
  type: "ReLU"
  bottom: "fc6"
  top: "fc6"
}
layer {
  name: "drop6"
  type: "Dropout"
  bottom: "fc6"
  top: "fc6"
  dropout_param {
    dropout_ratio: 0.5
  }
}
layer {
  name: "fc7"
  type: "InnerProduct"
  bottom: "fc6"
  top: "fc7"
  param {
    lr_mult: 1
  }
  param {
    lr_mult: 2
  }
  inner_product_param {
    num_output: 256
    weight_filler {
      type: "xavier"
    }
    bias_filler {
      type: "constant"
    }
  }
}
layer {
  name: "relu7"
  type: "ReLU"
  bottom: "fc7"
  top: "fc7"
}
layer {
  name: "drop7"
  type: "Dropout"
  bottom: "fc7"
  top: "fc7"
  dropout_param {
    dropout_ratio: 0.5
  }
}
layer {
  name: "fc8"
  type: "InnerProduct"
  bottom: "fc7"
  top: "fc8"
  param {
    lr_mult: 1
  }
  param {
    lr_mult: 2
  }
  inner_product_param {
    num_output: 2
    weight_filler {
      type: "xavier"
    }
    bias_filler {
      type: "constant"
    }
  }
}
layer {
  name: "accuracy"
  type: "Accuracy"
  bottom: "fc8"
  bottom: "label"
  top: "accuracy"
  include {
    phase: TEST
  }
}
layer {
  name: "loss"
  type: "WeightedSoftmaxWithLoss"
  bottom: "fc8"
  bottom: "label"
  top: "loss"
  softmax_param {
    pos_mult: 1.2
    pos_cid: 1
  }
}
I0107 16:57:44.775507 12869 layer_factory.hpp:77] Creating layer data
I0107 16:57:44.775715 12869 db_lmdb.cpp:35] Opened lmdb /home/lc/gender/school/data/val.lmdb
I0107 16:57:44.775769 12869 net.cpp:84] Creating Layer data
I0107 16:57:44.775784 12869 net.cpp:380] data -> data
I0107 16:57:44.775804 12869 net.cpp:380] data -> label
I0107 16:57:44.776136 12869 data_layer.cpp:45] output data size: 128,3,200,200
I0107 16:57:45.070470 12869 net.cpp:122] Setting up data
I0107 16:57:45.070574 12869 net.cpp:129] Top shape: 128 3 200 200 (15360000)
I0107 16:57:45.070586 12869 net.cpp:129] Top shape: 128 (128)
I0107 16:57:45.070593 12869 net.cpp:137] Memory required for data: 61440512
I0107 16:57:45.070612 12869 layer_factory.hpp:77] Creating layer label_data_1_split
I0107 16:57:45.070649 12869 net.cpp:84] Creating Layer label_data_1_split
I0107 16:57:45.070662 12869 net.cpp:406] label_data_1_split <- label
I0107 16:57:45.070685 12869 net.cpp:380] label_data_1_split -> label_data_1_split_0
I0107 16:57:45.070715 12869 net.cpp:380] label_data_1_split -> label_data_1_split_1
I0107 16:57:45.071039 12869 net.cpp:122] Setting up label_data_1_split
I0107 16:57:45.071061 12869 net.cpp:129] Top shape: 128 (128)
I0107 16:57:45.071072 12869 net.cpp:129] Top shape: 128 (128)
I0107 16:57:45.071082 12869 net.cpp:137] Memory required for data: 61441536
I0107 16:57:45.071094 12869 layer_factory.hpp:77] Creating layer conv1
I0107 16:57:45.071146 12869 net.cpp:84] Creating Layer conv1
I0107 16:57:45.071158 12869 net.cpp:406] conv1 <- data
I0107 16:57:45.071185 12869 net.cpp:380] conv1 -> conv1
I0107 16:57:45.080502 12869 net.cpp:122] Setting up conv1
I0107 16:57:45.080605 12869 net.cpp:129] Top shape: 128 96 48 48 (28311552)
I0107 16:57:45.080613 12869 net.cpp:137] Memory required for data: 174687744
I0107 16:57:45.080667 12869 layer_factory.hpp:77] Creating layer relu1
I0107 16:57:45.080701 12869 net.cpp:84] Creating Layer relu1
I0107 16:57:45.080713 12869 net.cpp:406] relu1 <- conv1
I0107 16:57:45.080734 12869 net.cpp:367] relu1 -> conv1 (in-place)
I0107 16:57:45.080982 12869 net.cpp:122] Setting up relu1
I0107 16:57:45.081003 12869 net.cpp:129] Top shape: 128 96 48 48 (28311552)
I0107 16:57:45.081012 12869 net.cpp:137] Memory required for data: 287933952
I0107 16:57:45.081022 12869 layer_factory.hpp:77] Creating layer pool1
I0107 16:57:45.081045 12869 net.cpp:84] Creating Layer pool1
I0107 16:57:45.081054 12869 net.cpp:406] pool1 <- conv1
I0107 16:57:45.081068 12869 net.cpp:380] pool1 -> pool1
I0107 16:57:45.081147 12869 net.cpp:122] Setting up pool1
I0107 16:57:45.081161 12869 net.cpp:129] Top shape: 128 96 24 24 (7077888)
I0107 16:57:45.081171 12869 net.cpp:137] Memory required for data: 316245504
I0107 16:57:45.081179 12869 layer_factory.hpp:77] Creating layer norm1
I0107 16:57:45.081200 12869 net.cpp:84] Creating Layer norm1
I0107 16:57:45.081209 12869 net.cpp:406] norm1 <- pool1
I0107 16:57:45.081223 12869 net.cpp:380] norm1 -> norm1
I0107 16:57:45.082692 12869 net.cpp:122] Setting up norm1
I0107 16:57:45.082762 12869 net.cpp:129] Top shape: 128 96 24 24 (7077888)
I0107 16:57:45.082770 12869 net.cpp:137] Memory required for data: 344557056
I0107 16:57:45.082784 12869 layer_factory.hpp:77] Creating layer conv2
I0107 16:57:45.082834 12869 net.cpp:84] Creating Layer conv2
I0107 16:57:45.082849 12869 net.cpp:406] conv2 <- norm1
I0107 16:57:45.082872 12869 net.cpp:380] conv2 -> conv2
I0107 16:57:45.100529 12869 net.cpp:122] Setting up conv2
I0107 16:57:45.100651 12869 net.cpp:129] Top shape: 128 256 24 24 (18874368)
I0107 16:57:45.100658 12869 net.cpp:137] Memory required for data: 420054528
I0107 16:57:45.100718 12869 layer_factory.hpp:77] Creating layer relu2
I0107 16:57:45.100770 12869 net.cpp:84] Creating Layer relu2
I0107 16:57:45.100785 12869 net.cpp:406] relu2 <- conv2
I0107 16:57:45.100813 12869 net.cpp:367] relu2 -> conv2 (in-place)
I0107 16:57:45.102600 12869 net.cpp:122] Setting up relu2
I0107 16:57:45.102738 12869 net.cpp:129] Top shape: 128 256 24 24 (18874368)
I0107 16:57:45.102754 12869 net.cpp:137] Memory required for data: 495552000
I0107 16:57:45.102779 12869 layer_factory.hpp:77] Creating layer pool2
I0107 16:57:45.102913 12869 net.cpp:84] Creating Layer pool2
I0107 16:57:45.102939 12869 net.cpp:406] pool2 <- conv2
I0107 16:57:45.102975 12869 net.cpp:380] pool2 -> pool2
I0107 16:57:45.103260 12869 net.cpp:122] Setting up pool2
I0107 16:57:45.103297 12869 net.cpp:129] Top shape: 128 256 12 12 (4718592)
I0107 16:57:45.103313 12869 net.cpp:137] Memory required for data: 514426368
I0107 16:57:45.103332 12869 layer_factory.hpp:77] Creating layer norm2
I0107 16:57:45.103380 12869 net.cpp:84] Creating Layer norm2
I0107 16:57:45.103404 12869 net.cpp:406] norm2 <- pool2
I0107 16:57:45.103435 12869 net.cpp:380] norm2 -> norm2
I0107 16:57:45.103886 12869 net.cpp:122] Setting up norm2
I0107 16:57:45.103947 12869 net.cpp:129] Top shape: 128 256 12 12 (4718592)
I0107 16:57:45.103963 12869 net.cpp:137] Memory required for data: 533300736
I0107 16:57:45.103979 12869 layer_factory.hpp:77] Creating layer conv3
I0107 16:57:45.104039 12869 net.cpp:84] Creating Layer conv3
I0107 16:57:45.104058 12869 net.cpp:406] conv3 <- norm2
I0107 16:57:45.104084 12869 net.cpp:380] conv3 -> conv3
I0107 16:57:45.124140 12869 net.cpp:122] Setting up conv3
I0107 16:57:45.124213 12869 net.cpp:129] Top shape: 128 384 12 12 (7077888)
I0107 16:57:45.124223 12869 net.cpp:137] Memory required for data: 561612288
I0107 16:57:45.124272 12869 layer_factory.hpp:77] Creating layer relu3
I0107 16:57:45.124301 12869 net.cpp:84] Creating Layer relu3
I0107 16:57:45.124313 12869 net.cpp:406] relu3 <- conv3
I0107 16:57:45.124336 12869 net.cpp:367] relu3 -> conv3 (in-place)
I0107 16:57:45.124516 12869 net.cpp:122] Setting up relu3
I0107 16:57:45.124534 12869 net.cpp:129] Top shape: 128 384 12 12 (7077888)
I0107 16:57:45.124543 12869 net.cpp:137] Memory required for data: 589923840
I0107 16:57:45.124552 12869 layer_factory.hpp:77] Creating layer conv4
I0107 16:57:45.124580 12869 net.cpp:84] Creating Layer conv4
I0107 16:57:45.124589 12869 net.cpp:406] conv4 <- conv3
I0107 16:57:45.124603 12869 net.cpp:380] conv4 -> conv4
I0107 16:57:45.143049 12869 net.cpp:122] Setting up conv4
I0107 16:57:45.143347 12869 net.cpp:129] Top shape: 128 384 12 12 (7077888)
I0107 16:57:45.143401 12869 net.cpp:137] Memory required for data: 618235392
I0107 16:57:45.143496 12869 layer_factory.hpp:77] Creating layer relu4
I0107 16:57:45.143575 12869 net.cpp:84] Creating Layer relu4
I0107 16:57:45.143630 12869 net.cpp:406] relu4 <- conv4
I0107 16:57:45.143689 12869 net.cpp:367] relu4 -> conv4 (in-place)
I0107 16:57:45.144208 12869 net.cpp:122] Setting up relu4
I0107 16:57:45.144279 12869 net.cpp:129] Top shape: 128 384 12 12 (7077888)
I0107 16:57:45.144322 12869 net.cpp:137] Memory required for data: 646546944
I0107 16:57:45.144364 12869 layer_factory.hpp:77] Creating layer conv5
I0107 16:57:45.144443 12869 net.cpp:84] Creating Layer conv5
I0107 16:57:45.144491 12869 net.cpp:406] conv5 <- conv4
I0107 16:57:45.144551 12869 net.cpp:380] conv5 -> conv5
I0107 16:57:45.157801 12869 net.cpp:122] Setting up conv5
I0107 16:57:45.157970 12869 net.cpp:129] Top shape: 128 256 12 12 (4718592)
I0107 16:57:45.157994 12869 net.cpp:137] Memory required for data: 665421312
I0107 16:57:45.158051 12869 layer_factory.hpp:77] Creating layer relu5
I0107 16:57:45.158090 12869 net.cpp:84] Creating Layer relu5
I0107 16:57:45.158114 12869 net.cpp:406] relu5 <- conv5
I0107 16:57:45.158140 12869 net.cpp:367] relu5 -> conv5 (in-place)
I0107 16:57:45.158818 12869 net.cpp:122] Setting up relu5
I0107 16:57:45.158860 12869 net.cpp:129] Top shape: 128 256 12 12 (4718592)
I0107 16:57:45.158880 12869 net.cpp:137] Memory required for data: 684295680
I0107 16:57:45.158900 12869 layer_factory.hpp:77] Creating layer pool5
I0107 16:57:45.158931 12869 net.cpp:84] Creating Layer pool5
I0107 16:57:45.158951 12869 net.cpp:406] pool5 <- conv5
I0107 16:57:45.158975 12869 net.cpp:380] pool5 -> pool5
I0107 16:57:45.159093 12869 net.cpp:122] Setting up pool5
I0107 16:57:45.159121 12869 net.cpp:129] Top shape: 128 256 6 6 (1179648)
I0107 16:57:45.159138 12869 net.cpp:137] Memory required for data: 689014272
I0107 16:57:45.159155 12869 layer_factory.hpp:77] Creating layer fc6
I0107 16:57:45.159188 12869 net.cpp:84] Creating Layer fc6
I0107 16:57:45.159206 12869 net.cpp:406] fc6 <- pool5
I0107 16:57:45.159231 12869 net.cpp:380] fc6 -> fc6
I0107 16:57:45.198154 12869 net.cpp:122] Setting up fc6
I0107 16:57:45.198379 12869 net.cpp:129] Top shape: 128 256 (32768)
I0107 16:57:45.198406 12869 net.cpp:137] Memory required for data: 689145344
I0107 16:57:45.198470 12869 layer_factory.hpp:77] Creating layer relu6
I0107 16:57:45.198521 12869 net.cpp:84] Creating Layer relu6
I0107 16:57:45.198551 12869 net.cpp:406] relu6 <- fc6
I0107 16:57:45.198590 12869 net.cpp:367] relu6 -> fc6 (in-place)
I0107 16:57:45.199013 12869 net.cpp:122] Setting up relu6
I0107 16:57:45.199049 12869 net.cpp:129] Top shape: 128 256 (32768)
I0107 16:57:45.199070 12869 net.cpp:137] Memory required for data: 689276416
I0107 16:57:45.199092 12869 layer_factory.hpp:77] Creating layer drop6
I0107 16:57:45.199131 12869 net.cpp:84] Creating Layer drop6
I0107 16:57:45.199198 12869 net.cpp:406] drop6 <- fc6
I0107 16:57:45.199230 12869 net.cpp:367] drop6 -> fc6 (in-place)
I0107 16:57:45.199309 12869 net.cpp:122] Setting up drop6
I0107 16:57:45.199338 12869 net.cpp:129] Top shape: 128 256 (32768)
I0107 16:57:45.199359 12869 net.cpp:137] Memory required for data: 689407488
I0107 16:57:45.199380 12869 layer_factory.hpp:77] Creating layer fc7
I0107 16:57:45.199420 12869 net.cpp:84] Creating Layer fc7
I0107 16:57:45.199443 12869 net.cpp:406] fc7 <- fc6
I0107 16:57:45.199476 12869 net.cpp:380] fc7 -> fc7
I0107 16:57:45.200556 12869 net.cpp:122] Setting up fc7
I0107 16:57:45.200620 12869 net.cpp:129] Top shape: 128 256 (32768)
I0107 16:57:45.200647 12869 net.cpp:137] Memory required for data: 689538560
I0107 16:57:45.200697 12869 layer_factory.hpp:77] Creating layer relu7
I0107 16:57:45.200736 12869 net.cpp:84] Creating Layer relu7
I0107 16:57:45.200764 12869 net.cpp:406] relu7 <- fc7
I0107 16:57:45.200796 12869 net.cpp:367] relu7 -> fc7 (in-place)
I0107 16:57:45.208288 12869 net.cpp:122] Setting up relu7
I0107 16:57:45.208457 12869 net.cpp:129] Top shape: 128 256 (32768)
I0107 16:57:45.208487 12869 net.cpp:137] Memory required for data: 689669632
I0107 16:57:45.208523 12869 layer_factory.hpp:77] Creating layer drop7
I0107 16:57:45.208575 12869 net.cpp:84] Creating Layer drop7
I0107 16:57:45.208606 12869 net.cpp:406] drop7 <- fc7
I0107 16:57:45.208649 12869 net.cpp:367] drop7 -> fc7 (in-place)
I0107 16:57:45.208772 12869 net.cpp:122] Setting up drop7
I0107 16:57:45.208807 12869 net.cpp:129] Top shape: 128 256 (32768)
I0107 16:57:45.208832 12869 net.cpp:137] Memory required for data: 689800704
I0107 16:57:45.208853 12869 layer_factory.hpp:77] Creating layer fc8
I0107 16:57:45.208884 12869 net.cpp:84] Creating Layer fc8
I0107 16:57:45.208907 12869 net.cpp:406] fc8 <- fc7
I0107 16:57:45.208935 12869 net.cpp:380] fc8 -> fc8
I0107 16:57:45.209242 12869 net.cpp:122] Setting up fc8
I0107 16:57:45.209281 12869 net.cpp:129] Top shape: 128 2 (256)
I0107 16:57:45.209306 12869 net.cpp:137] Memory required for data: 689801728
I0107 16:57:45.209353 12869 layer_factory.hpp:77] Creating layer fc8_fc8_0_split
I0107 16:57:45.209390 12869 net.cpp:84] Creating Layer fc8_fc8_0_split
I0107 16:57:45.209417 12869 net.cpp:406] fc8_fc8_0_split <- fc8
I0107 16:57:45.209450 12869 net.cpp:380] fc8_fc8_0_split -> fc8_fc8_0_split_0
I0107 16:57:45.209486 12869 net.cpp:380] fc8_fc8_0_split -> fc8_fc8_0_split_1
I0107 16:57:45.209573 12869 net.cpp:122] Setting up fc8_fc8_0_split
I0107 16:57:45.209605 12869 net.cpp:129] Top shape: 128 2 (256)
I0107 16:57:45.209632 12869 net.cpp:129] Top shape: 128 2 (256)
I0107 16:57:45.209657 12869 net.cpp:137] Memory required for data: 689803776
I0107 16:57:45.209683 12869 layer_factory.hpp:77] Creating layer accuracy
I0107 16:57:45.209719 12869 net.cpp:84] Creating Layer accuracy
I0107 16:57:45.209748 12869 net.cpp:406] accuracy <- fc8_fc8_0_split_0
I0107 16:57:45.209776 12869 net.cpp:406] accuracy <- label_data_1_split_0
I0107 16:57:45.209811 12869 net.cpp:380] accuracy -> accuracy
…
