I0114 09:27:05.486817  9523 caffe.cpp:218] Using GPUs 2
I0114 09:27:05.540735  9523 caffe.cpp:223] GPU 2: GeForce GTX 1080 Ti
I0114 09:27:06.160892  9523 solver.cpp:44] Initializing solver from parameters: 
test_iter: 13
test_interval: 400
base_lr: 0.001
display: 400
max_iter: 12000
lr_policy: "multistep"
gamma: 0.1
momentum: 0.9
weight_decay: 0.0005
snapshot: 400
snapshot_prefix: "snapshots/"
solver_mode: GPU
device_id: 2
net: "weighted_train_val.prototxt"
train_state {
  level: 0
  stage: ""
}
stepvalue: 3200
stepvalue: 5600
stepvalue: 9000
I0114 09:27:06.161614  9523 solver.cpp:87] Creating training net from net file: weighted_train_val.prototxt
I0114 09:27:06.163224  9523 net.cpp:294] The NetState phase (0) differed from the phase (1) specified by a rule in layer data
I0114 09:27:06.163254  9523 net.cpp:294] The NetState phase (0) differed from the phase (1) specified by a rule in layer accuracy
I0114 09:27:06.163444  9523 net.cpp:51] Initializing net from parameters: 
name: "CaffeNet"
state {
  phase: TRAIN
  level: 0
  stage: ""
}
layer {
  name: "data"
  type: "Data"
  top: "data"
  top: "label"
  include {
    phase: TRAIN
  }
  transform_param {
    scale: 0.0078125
    mirror: true
    mean_value: 127
  }
  data_param {
    source: "/home/lc/gender/school/data/train.lmdb"
    batch_size: 128
    backend: LMDB
  }
}
layer {
  name: "conv1"
  type: "Convolution"
  bottom: "data"
  top: "conv1"
  param {
    lr_mult: 1
  }
  param {
    lr_mult: 2
  }
  convolution_param {
    num_output: 96
    kernel_size: 11
    stride: 4
    weight_filler {
      type: "xavier"
    }
    bias_filler {
      type: "constant"
    }
  }
}
layer {
  name: "relu1"
  type: "ReLU"
  bottom: "conv1"
  top: "conv1"
}
layer {
  name: "pool1"
  type: "Pooling"
  bottom: "conv1"
  top: "pool1"
  pooling_param {
    pool: MAX
    kernel_size: 3
    stride: 2
  }
}
layer {
  name: "norm1"
  type: "LRN"
  bottom: "pool1"
  top: "norm1"
  lrn_param {
    local_size: 5
    alpha: 0.0001
    beta: 0.75
  }
}
layer {
  name: "conv2"
  type: "Convolution"
  bottom: "norm1"
  top: "conv2"
  param {
    lr_mult: 1
  }
  param {
    lr_mult: 2
  }
  convolution_param {
    num_output: 256
    pad: 2
    kernel_size: 5
    group: 2
    weight_filler {
      type: "xavier"
    }
    bias_filler {
      type: "constant"
    }
  }
}
layer {
  name: "relu2"
  type: "ReLU"
  bottom: "conv2"
  top: "conv2"
}
layer {
  name: "pool2"
  type: "Pooling"
  bottom: "conv2"
  top: "pool2"
  pooling_param {
    pool: MAX
    kernel_size: 3
    stride: 2
  }
}
layer {
  name: "norm2"
  type: "LRN"
  bottom: "pool2"
  top: "norm2"
  lrn_param {
    local_size: 5
    alpha: 0.0001
    beta: 0.75
  }
}
layer {
  name: "conv3"
  type: "Convolution"
  bottom: "norm2"
  top: "conv3"
  param {
    lr_mult: 1
  }
  param {
    lr_mult: 2
  }
  convolution_param {
    num_output: 384
    pad: 1
    kernel_size: 3
    weight_filler {
      type: "xavier"
    }
    bias_filler {
      type: "constant"
    }
  }
}
layer {
  name: "relu3"
  type: "ReLU"
  bottom: "conv3"
  top: "conv3"
}
layer {
  name: "conv4"
  type: "Convolution"
  bottom: "conv3"
  top: "conv4"
  param {
    lr_mult: 1
  }
  param {
    lr_mult: 2
  }
  convolution_param {
    num_output: 384
    pad: 1
    kernel_size: 3
    group: 2
    weight_filler {
      type: "xavier"
    }
    bias_filler {
      type: "constant"
    }
  }
}
layer {
  name: "relu4"
  type: "ReLU"
  bottom: "conv4"
  top: "conv4"
}
layer {
  name: "conv5"
  type: "Convolution"
  bottom: "conv4"
  top: "conv5"
  param {
    lr_mult: 1
  }
  param {
    lr_mult: 2
  }
  convolution_param {
    num_output: 256
    pad: 1
    kernel_size: 3
    group: 2
    weight_filler {
      type: "xavier"
    }
    bias_filler {
      type: "constant"
    }
  }
}
layer {
  name: "relu5"
  type: "ReLU"
  bottom: "conv5"
  top: "conv5"
}
layer {
  name: "pool5"
  type: "Pooling"
  bottom: "conv5"
  top: "pool5"
  pooling_param {
    pool: MAX
    kernel_size: 3
    stride: 2
  }
}
layer {
  name: "fc6"
  type: "InnerProduct"
  bottom: "pool5"
  top: "fc6"
  param {
    lr_mult: 1
  }
  param {
    lr_mult: 2
  }
  inner_product_param {
    num_output: 256
    weight_filler {
      type: "xavier"
    }
    bias_filler {
      type: "constant"
    }
  }
}
layer {
  name: "relu6"
  type: "ReLU"
  bottom: "fc6"
  top: "fc6"
}
layer {
  name: "drop6"
  type: "Dropout"
  bottom: "fc6"
  top: "fc6"
  dropout_param {
    dropout_ratio: 0.5
  }
}
layer {
  name: "fc7"
  type: "InnerProduct"
  bottom: "fc6"
  top: "fc7"
  param {
    lr_mult: 1
  }
  param {
    lr_mult: 2
  }
  inner_product_param {
    num_output: 256
    weight_filler {
      type: "xavier"
    }
    bias_filler {
      type: "constant"
    }
  }
}
layer {
  name: "relu7"
  type: "ReLU"
  bottom: "fc7"
  top: "fc7"
}
layer {
  name: "drop7"
  type: "Dropout"
  bottom: "fc7"
  top: "fc7"
  dropout_param {
    dropout_ratio: 0.5
  }
}
layer {
  name: "fc8"
  type: "InnerProduct"
  bottom: "fc7"
  top: "fc8"
  param {
    lr_mult: 1
  }
  param {
    lr_mult: 2
  }
  inner_product_param {
    num_output: 2
    weight_filler {
      type: "xavier"
    }
    bias_filler {
      type: "constant"
    }
  }
}
layer {
  name: "loss"
  type: "WeightedSoftmaxWithLoss"
  bottom: "fc8"
  bottom: "label"
  top: "loss"
  softmax_param {
    pos_mult: 1.3
    pos_cid: 1
  }
}
I0114 09:27:06.163553  9523 layer_factory.hpp:77] Creating layer data
I0114 09:27:06.163740  9523 db_lmdb.cpp:35] Opened lmdb /home/lc/gender/school/data/train.lmdb
I0114 09:27:06.163784  9523 net.cpp:84] Creating Layer data
I0114 09:27:06.163799  9523 net.cpp:380] data -> data
I0114 09:27:06.163841  9523 net.cpp:380] data -> label
I0114 09:27:06.166831  9523 data_layer.cpp:45] output data size: 128,3,200,200
I0114 09:27:06.390379  9523 net.cpp:122] Setting up data
I0114 09:27:06.390455  9523 net.cpp:129] Top shape: 128 3 200 200 (15360000)
I0114 09:27:06.390465  9523 net.cpp:129] Top shape: 128 (128)
I0114 09:27:06.390470  9523 net.cpp:137] Memory required for data: 61440512
I0114 09:27:06.390492  9523 layer_factory.hpp:77] Creating layer conv1
I0114 09:27:06.390537  9523 net.cpp:84] Creating Layer conv1
I0114 09:27:06.390550  9523 net.cpp:406] conv1 <- data
I0114 09:27:06.390576  9523 net.cpp:380] conv1 -> conv1
F0114 09:27:06.399646  9550 data_transformer.cpp:168] Check failed: height <= datum_height (200 vs. 144) 
*** Check failure stack trace: ***
    @     0x7f41fe8965cd  google::LogMessage::Fail()
    @     0x7f41fe898433  google::LogMessage::SendToLog()
    @     0x7f41fe89615b  google::LogMessage::Flush()
    @     0x7f41fe898e1e  google::LogMessageFatal::~LogMessageFatal()
    @     0x7f41feee995d  caffe::DataTransformer<>::Transform()
    @     0x7f41fefa0803  caffe::DataLayer<>::load_batch()
    @     0x7f41fefb6637  caffe::BasePrefetchingDataLayer<>::InternalThreadEntry()
    @     0x7f41feeb0915  caffe::InternalThread::entry()
    @     0x7f41feeb1a0e  boost::detail::thread_data<>::run()
    @     0x7f41f0cfe5d5  (unknown)
    @     0x7f41eb33d6ba  start_thread
    @     0x7f41fd5c041d  clone
    @              (nil)  (unknown)
