…
I0114 10:41:21.624265 28367 net.cpp:294] The NetState phase (0) differed from the phase (1) specified by a rule in layer accuracy
I0114 10:41:21.624573 28367 net.cpp:51] Initializing net from parameters: 
name: "CaffeNet"
state {
  phase: TRAIN
  level: 0
  stage: ""
}
layer {
  name: "data"
  type: "Data"
  top: "data"
  top: "label"
  include {
    phase: TRAIN
  }
  transform_param {
    scale: 0.0078125
    mirror: true
    mean_value: 127
  }
  data_param {
    source: "/home/lc/gender/school/data/train.lmdb"
    batch_size: 128
    backend: LMDB
  }
}
layer {
  name: "conv1"
  type: "Convolution"
  bottom: "data"
  top: "conv1"
  param {
    lr_mult: 1
  }
  param {
    lr_mult: 2
  }
  convolution_param {
    num_output: 96
    kernel_size: 11
    stride: 4
    weight_filler {
      type: "xavier"
    }
    bias_filler {
      type: "constant"
    }
  }
}
layer {
  name: "relu1"
  type: "ReLU"
  bottom: "conv1"
  top: "conv1"
}
layer {
  name: "pool1"
  type: "Pooling"
  bottom: "conv1"
  top: "pool1"
  pooling_param {
    pool: MAX
    kernel_size: 3
    stride: 2
  }
}
layer {
  name: "norm1"
  type: "LRN"
  bottom: "pool1"
  top: "norm1"
  lrn_param {
    local_size: 5
    alpha: 0.0001
    beta: 0.75
  }
}
layer {
  name: "conv2"
  type: "Convolution"
  bottom: "norm1"
  top: "conv2"
  param {
    lr_mult: 1
  }
  param {
    lr_mult: 2
  }
  convolution_param {
    num_output: 256
    pad: 2
    kernel_size: 5
    group: 2
    weight_filler {
      type: "xavier"
    }
    bias_filler {
      type: "constant"
    }
  }
}
layer {
  name: "relu2"
  type: "ReLU"
  bottom: "conv2"
  top: "conv2"
}
layer {
  name: "pool2"
  type: "Pooling"
  bottom: "conv2"
  top: "pool2"
  pooling_param {
    pool: MAX
    kernel_size: 3
    stride: 2
  }
}
layer {
  name: "norm2"
  type: "LRN"
  bottom: "pool2"
  top: "norm2"
  lrn_param {
    local_size: 5
    alpha: 0.0001
    beta: 0.75
  }
}
layer {
  name: "conv3"
  type: "Convolution"
  bottom: "norm2"
  top: "conv3"
  param {
    lr_mult: 1
  }
  param {
    lr_mult: 2
  }
  convolution_param {
    num_output: 384
    pad: 1
    kernel_size: 3
    weight_filler {
      type: "xavier"
    }
    bias_filler {
      type: "constant"
    }
  }
}
layer {
  name: "relu3"
  type: "ReLU"
  bottom: "conv3"
  top: "conv3"
}
layer {
  name: "conv4"
  type: "Convolution"
  bottom: "conv3"
  top: "conv4"
  param {
    lr_mult: 1
  }
  param {
    lr_mult: 2
  }
  convolution_param {
    num_output: 384
    pad: 1
    kernel_size: 3
    group: 2
    weight_filler {
      type: "xavier"
    }
    bias_filler {
      type: "constant"
    }
  }
}
layer {
  name: "relu4"
  type: "ReLU"
  bottom: "conv4"
  top: "conv4"
}
layer {
  name: "conv5"
  type: "Convolution"
  bottom: "conv4"
  top: "conv5"
  param {
    lr_mult: 1
  }
  param {
    lr_mult: 2
  }
  convolution_param {
    num_output: 256
    pad: 1
    kernel_size: 3
    group: 2
    weight_filler {
      type: "xavier"
    }
    bias_filler {
      type: "constant"
    }
  }
}
layer {
  name: "relu5"
  type: "ReLU"
  bottom: "conv5"
  top: "conv5"
}
layer {
  name: "pool5"
  type: "Pooling"
  bottom: "conv5"
  top: "pool5"
  pooling_param {
    pool: MAX
    kernel_size: 3
    stride: 2
  }
}
layer {
  name: "fc6"
  type: "InnerProduct"
  bottom: "pool5"
  top: "fc6"
  param {
    lr_mult: 1
  }
  param {
    lr_mult: 2
  }
  inner_product_param {
    num_output: 256
    weight_filler {
      type: "xavier"
    }
    bias_filler {
      type: "constant"
    }
  }
}
layer {
  name: "relu6"
  type: "ReLU"
  bottom: "fc6"
  top: "fc6"
}
layer {
  name: "drop6"
  type: "Dropout"
  bottom: "fc6"
  top: "fc6"
  dropout_param {
    dropout_ratio: 0.5
  }
}
layer {
  name: "fc7"
  type: "InnerProduct"
  bottom: "fc6"
  top: "fc7"
  param {
    lr_mult: 1
  }
  param {
    lr_mult: 2
  }
  inner_product_param {
    num_output: 256
    weight_filler {
      type: "xavier"
    }
    bias_filler {
      type: "constant"
    }
  }
}
layer {
  name: "relu7"
  type: "ReLU"
  bottom: "fc7"
  top: "fc7"
}
layer {
  name: "drop7"
  type: "Dropout"
  bottom: "fc7"
  top: "fc7"
  dropout_param {
    dropout_ratio: 0.5
  }
}
layer {
  name: "fc8"
  type: "InnerProduct"
  bottom: "fc7"
  top: "fc8"
  param {
    lr_mult: 1
  }
  param {
    lr_mult: 2
  }
  inner_product_param {
    num_output: 2
    weight_filler {
      type: "xavier"
    }
    bias_filler {
      type: "constant"
    }
  }
}
layer {
  name: "loss"
  type: "WeightedSoftmaxWithLoss"
  bottom: "fc8"
  bottom: "label"
  top: "loss"
  softmax_param {
    pos_mult: 1.3
    pos_cid: 1
  }
}
I0114 10:41:21.624728 28367 layer_factory.hpp:77] Creating layer data
I0114 10:41:21.624960 28367 db_lmdb.cpp:35] Opened lmdb /home/lc/gender/school/data/train.lmdb
I0114 10:41:21.625022 28367 net.cpp:84] Creating Layer data
I0114 10:41:21.625038 28367 net.cpp:380] data -> data
I0114 10:41:21.625085 28367 net.cpp:380] data -> label
I0114 10:41:21.627365 28367 data_layer.cpp:45] output data size: 128,3,200,200
I0114 10:41:21.831730 28367 net.cpp:122] Setting up data
I0114 10:41:21.831792 28367 net.cpp:129] Top shape: 128 3 200 200 (15360000)
I0114 10:41:21.831799 28367 net.cpp:129] Top shape: 128 (128)
I0114 10:41:21.831802 28367 net.cpp:137] Memory required for data: 61440512
I0114 10:41:21.831818 28367 layer_factory.hpp:77] Creating layer conv1
I0114 10:41:21.831853 28367 net.cpp:84] Creating Layer conv1
I0114 10:41:21.831862 28367 net.cpp:406] conv1 <- data
I0114 10:41:21.831884 28367 net.cpp:380] conv1 -> conv1
I0114 10:41:25.628032 28367 net.cpp:122] Setting up conv1
I0114 10:41:25.628159 28367 net.cpp:129] Top shape: 128 96 48 48 (28311552)
I0114 10:41:25.628165 28367 net.cpp:137] Memory required for data: 174686720
I0114 10:41:25.628326 28367 layer_factory.hpp:77] Creating layer relu1
I0114 10:41:25.628417 28367 net.cpp:84] Creating Layer relu1
I0114 10:41:25.628428 28367 net.cpp:406] relu1 <- conv1
I0114 10:41:25.628446 28367 net.cpp:367] relu1 -> conv1 (in-place)
I0114 10:41:25.629932 28367 net.cpp:122] Setting up relu1
I0114 10:41:25.629988 28367 net.cpp:129] Top shape: 128 96 48 48 (28311552)
I0114 10:41:25.629995 28367 net.cpp:137] Memory required for data: 287932928
I0114 10:41:25.630005 28367 layer_factory.hpp:77] Creating layer pool1
I0114 10:41:25.630046 28367 net.cpp:84] Creating Layer pool1
I0114 10:41:25.630056 28367 net.cpp:406] pool1 <- conv1
I0114 10:41:25.630072 28367 net.cpp:380] pool1 -> pool1
I0114 10:41:25.630251 28367 net.cpp:122] Setting up pool1
I0114 10:41:25.630264 28367 net.cpp:129] Top shape: 128 96 24 24 (7077888)
I0114 10:41:25.630272 28367 net.cpp:137] Memory required for data: 316244480
I0114 10:41:25.630278 28367 layer_factory.hpp:77] Creating layer norm1
I0114 10:41:25.630321 28367 net.cpp:84] Creating Layer norm1
I0114 10:41:25.630331 28367 net.cpp:406] norm1 <- pool1
I0114 10:41:25.630342 28367 net.cpp:380] norm1 -> norm1
I0114 10:41:25.630556 28367 net.cpp:122] Setting up norm1
I0114 10:41:25.630573 28367 net.cpp:129] Top shape: 128 96 24 24 (7077888)
I0114 10:41:25.630579 28367 net.cpp:137] Memory required for data: 344556032
I0114 10:41:25.630586 28367 layer_factory.hpp:77] Creating layer conv2
I0114 10:41:25.630626 28367 net.cpp:84] Creating Layer conv2
I0114 10:41:25.630635 28367 net.cpp:406] conv2 <- norm1
I0114 10:41:25.630646 28367 net.cpp:380] conv2 -> conv2
I0114 10:41:25.644979 28367 net.cpp:122] Setting up conv2
I0114 10:41:25.645109 28367 net.cpp:129] Top shape: 128 256 24 24 (18874368)
I0114 10:41:25.645128 28367 net.cpp:137] Memory required for data: 420053504
I0114 10:41:25.645196 28367 layer_factory.hpp:77] Creating layer relu2
I0114 10:41:25.645298 28367 net.cpp:84] Creating Layer relu2
I0114 10:41:25.645321 28367 net.cpp:406] relu2 <- conv2
I0114 10:41:25.645350 28367 net.cpp:367] relu2 -> conv2 (in-place)
I0114 10:41:25.646699 28367 net.cpp:122] Setting up relu2
I0114 10:41:25.646765 28367 net.cpp:129] Top shape: 128 256 24 24 (18874368)
I0114 10:41:25.646781 28367 net.cpp:137] Memory required for data: 495550976
I0114 10:41:25.646803 28367 layer_factory.hpp:77] Creating layer pool2
I0114 10:41:25.646836 28367 net.cpp:84] Creating Layer pool2
I0114 10:41:25.646857 28367 net.cpp:406] pool2 <- conv2
I0114 10:41:25.646891 28367 net.cpp:380] pool2 -> pool2
I0114 10:41:25.647111 28367 net.cpp:122] Setting up pool2
I0114 10:41:25.647140 28367 net.cpp:129] Top shape: 128 256 12 12 (4718592)
I0114 10:41:25.647156 28367 net.cpp:137] Memory required for data: 514425344
I0114 10:41:25.647172 28367 layer_factory.hpp:77] Creating layer norm2
I0114 10:41:25.647213 28367 net.cpp:84] Creating Layer norm2
I0114 10:41:25.647230 28367 net.cpp:406] norm2 <- pool2
I0114 10:41:25.647254 28367 net.cpp:380] norm2 -> norm2
I0114 10:41:25.647533 28367 net.cpp:122] Setting up norm2
I0114 10:41:25.647548 28367 net.cpp:129] Top shape: 128 256 12 12 (4718592)
I0114 10:41:25.647554 28367 net.cpp:137] Memory required for data: 533299712
I0114 10:41:25.647560 28367 layer_factory.hpp:77] Creating layer conv3
I0114 10:41:25.647595 28367 net.cpp:84] Creating Layer conv3
I0114 10:41:25.647603 28367 net.cpp:406] conv3 <- norm2
I0114 10:41:25.647612 28367 net.cpp:380] conv3 -> conv3
I0114 10:41:25.677503 28367 net.cpp:122] Setting up conv3
I0114 10:41:25.677588 28367 net.cpp:129] Top shape: 128 384 12 12 (7077888)
I0114 10:41:25.677595 28367 net.cpp:137] Memory required for data: 561611264
I0114 10:41:25.677631 28367 layer_factory.hpp:77] Creating layer relu3
I0114 10:41:25.677657 28367 net.cpp:84] Creating Layer relu3
I0114 10:41:25.677666 28367 net.cpp:406] relu3 <- conv3
I0114 10:41:25.677683 28367 net.cpp:367] relu3 -> conv3 (in-place)
I0114 10:41:25.678264 28367 net.cpp:122] Setting up relu3
I0114 10:41:25.678287 28367 net.cpp:129] Top shape: 128 384 12 12 (7077888)
I0114 10:41:25.678294 28367 net.cpp:137] Memory required for data: 589922816
I0114 10:41:25.678301 28367 layer_factory.hpp:77] Creating layer conv4
I0114 10:41:25.678333 28367 net.cpp:84] Creating Layer conv4
I0114 10:41:25.678341 28367 net.cpp:406] conv4 <- conv3
I0114 10:41:25.678354 28367 net.cpp:380] conv4 -> conv4
I0114 10:41:25.693941 28367 net.cpp:122] Setting up conv4
I0114 10:41:25.694023 28367 net.cpp:129] Top shape: 128 384 12 12 (7077888)
I0114 10:41:25.694031 28367 net.cpp:137] Memory required for data: 618234368
I0114 10:41:25.694068 28367 layer_factory.hpp:77] Creating layer relu4
I0114 10:41:25.694099 28367 net.cpp:84] Creating Layer relu4
I0114 10:41:25.694109 28367 net.cpp:406] relu4 <- conv4
I0114 10:41:25.694130 28367 net.cpp:367] relu4 -> conv4 (in-place)
I0114 10:41:25.695935 28367 net.cpp:122] Setting up relu4
I0114 10:41:25.695960 28367 net.cpp:129] Top shape: 128 384 12 12 (7077888)
I0114 10:41:25.695987 28367 net.cpp:137] Memory required for data: 646545920
I0114 10:41:25.696017 28367 layer_factory.hpp:77] Creating layer conv5
I0114 10:41:25.696045 28367 net.cpp:84] Creating Layer conv5
I0114 10:41:25.696054 28367 net.cpp:406] conv5 <- conv4
I0114 10:41:25.696070 28367 net.cpp:380] conv5 -> conv5
I0114 10:41:25.710302 28367 net.cpp:122] Setting up conv5
I0114 10:41:25.710381 28367 net.cpp:129] Top shape: 128 256 12 12 (4718592)
I0114 10:41:25.710388 28367 net.cpp:137] Memory required for data: 665420288
I0114 10:41:25.710427 28367 layer_factory.hpp:77] Creating layer relu5
I0114 10:41:25.710456 28367 net.cpp:84] Creating Layer relu5
I0114 10:41:25.710466 28367 net.cpp:406] relu5 <- conv5
I0114 10:41:25.710482 28367 net.cpp:367] relu5 -> conv5 (in-place)
I0114 10:41:25.710647 28367 net.cpp:122] Setting up relu5
I0114 10:41:25.710664 28367 net.cpp:129] Top shape: 128 256 12 12 (4718592)
I0114 10:41:25.710671 28367 net.cpp:137] Memory required for data: 684294656
I0114 10:41:25.710677 28367 layer_factory.hpp:77] Creating layer pool5
I0114 10:41:25.710705 28367 net.cpp:84] Creating Layer pool5
I0114 10:41:25.710713 28367 net.cpp:406] pool5 <- conv5
I0114 10:41:25.710722 28367 net.cpp:380] pool5 -> pool5
I0114 10:41:25.710801 28367 net.cpp:122] Setting up pool5
I0114 10:41:25.710813 28367 net.cpp:129] Top shape: 128 256 6 6 (1179648)
I0114 10:41:25.710821 28367 net.cpp:137] Memory required for data: 689013248
I0114 10:41:25.710827 28367 layer_factory.hpp:77] Creating layer fc6
I0114 10:41:25.710877 28367 net.cpp:84] Creating Layer fc6
I0114 10:41:25.710886 28367 net.cpp:406] fc6 <- pool5
I0114 10:41:25.710899 28367 net.cpp:380] fc6 -> fc6
I0114 10:41:25.749601 28367 net.cpp:122] Setting up fc6
I0114 10:41:25.749651 28367 net.cpp:129] Top shape: 128 256 (32768)
I0114 10:41:25.749658 28367 net.cpp:137] Memory required for data: 689144320
I0114 10:41:25.749689 28367 layer_factory.hpp:77] Creating layer relu6
I0114 10:41:25.749734 28367 net.cpp:84] Creating Layer relu6
I0114 10:41:25.749744 28367 net.cpp:406] relu6 <- fc6
I0114 10:41:25.749761 28367 net.cpp:367] relu6 -> fc6 (in-place)
I0114 10:41:25.750769 28367 net.cpp:122] Setting up relu6
I0114 10:41:25.750789 28367 net.cpp:129] Top shape: 128 256 (32768)
I0114 10:41:25.750795 28367 net.cpp:137] Memory required for data: 689275392
I0114 10:41:25.750803 28367 layer_factory.hpp:77] Creating layer drop6
I0114 10:41:25.750838 28367 net.cpp:84] Creating Layer drop6
I0114 10:41:25.750845 28367 net.cpp:406] drop6 <- fc6
I0114 10:41:25.750859 28367 net.cpp:367] drop6 -> fc6 (in-place)
I0114 10:41:25.750900 28367 net.cpp:122] Setting up drop6
I0114 10:41:25.750910 28367 net.cpp:129] Top shape: 128 256 (32768)
I0114 10:41:25.750916 28367 net.cpp:137] Memory required for data: 689406464
I0114 10:41:25.750923 28367 layer_factory.hpp:77] Creating layer fc7
I0114 10:41:25.750941 28367 net.cpp:84] Creating Layer fc7
I0114 10:41:25.750948 28367 net.cpp:406] fc7 <- fc6
I0114 10:41:25.750957 28367 net.cpp:380] fc7 -> fc7
I0114 10:41:25.751965 28367 net.cpp:122] Setting up fc7
I0114 10:41:25.751977 28367 net.cpp:129] Top shape: 128 256 (32768)
I0114 10:41:25.751983 28367 net.cpp:137] Memory required for data: 689537536
I0114 10:41:25.752017 28367 layer_factory.hpp:77] Creating layer relu7
I0114 10:41:25.752030 28367 net.cpp:84] Creating Layer relu7
I0114 10:41:25.752038 28367 net.cpp:406] relu7 <- fc7
I0114 10:41:25.752048 28367 net.cpp:367] relu7 -> fc7 (in-place)
I0114 10:41:25.752182 28367 net.cpp:122] Setting up relu7
I0114 10:41:25.752194 28367 net.cpp:129] Top shape: 128 256 (32768)
I0114 10:41:25.752199 28367 net.cpp:137] Memory required for data: 689668608
I0114 10:41:25.752208 28367 layer_factory.hpp:77] Creating layer drop7
I0114 10:41:25.752216 28367 net.cpp:84] Creating Layer drop7
I0114 10:41:25.752228 28367 net.cpp:406] drop7 <- fc7
I0114 10:41:25.752238 28367 net.cpp:367] drop7 -> fc7 (in-place)
I0114 10:41:25.752265 28367 net.cpp:122] Setting up drop7
I0114 10:41:25.752274 28367 net.cpp:129] Top shape: 128 256 (32768)
I0114 10:41:25.752280 28367 net.cpp:137] Memory required for data: 689799680
I0114 10:41:25.752287 28367 layer_factory.hpp:77] Creating layer fc8
I0114 10:41:25.752301 28367 net.cpp:84] Creating Layer fc8
I0114 10:41:25.752308 28367 net.cpp:406] fc8 <- fc7
I0114 10:41:25.752317 28367 net.cpp:380] fc8 -> fc8
I0114 10:41:25.752460 28367 net.cpp:122] Setting up fc8
I0114 10:41:25.752471 28367 net.cpp:129] Top shape: 128 2 (256)
I0114 10:41:25.752476 28367 net.cpp:137] Memory required for data: 689800704
I0114 10:41:25.752487 28367 layer_factory.hpp:77] Creating layer loss
I0114 10:41:25.752521 28367 net.cpp:84] Creating Layer loss
I0114 10:41:25.752528 28367 net.cpp:406] loss <- fc8
I0114 10:41:25.752535 28367 net.cpp:406] loss <- label
I0114 10:41:25.752552 28367 net.cpp:380] loss -> loss
I0114 10:41:25.752580 28367 layer_factory.hpp:77] Creating layer loss
…
I0114 10:41:25.754643 28367 solver.cpp:172] Creating test net (#0) specified by net file: weighted_train_val.prototxt
I0114 10:41:25.754719 28367 net.cpp:294] The NetState phase (1) differed from the phase (0) specified by a rule in layer data
I0114 10:41:25.755070 28367 net.cpp:51] Initializing net from parameters: 
name: "CaffeNet"
state {
  phase: TEST
}
layer {
  name: "data"
  type: "Data"
  top: "data"
  top: "label"
  include {
    phase: TEST
  }
  transform_param {
    scale: 0.0078125
    mirror: true
    mean_value: 127
  }
  data_param {
    source: "/home/lc/gender/school/data/val.lmdb"
    batch_size: 128
    backend: LMDB
  }
}
layer {
  name: "conv1"
  type: "Convolution"
  bottom: "data"
  top: "conv1"
  param {
    lr_mult: 1
  }
  param {
    lr_mult: 2
  }
  convolution_param {
    num_output: 96
    kernel_size: 11
    stride: 4
    weight_filler {
      type: "xavier"
    }
    bias_filler {
      type: "constant"
    }
  }
}
layer {
  name: "relu1"
  type: "ReLU"
  bottom: "conv1"
  top: "conv1"
}
layer {
  name: "pool1"
  type: "Pooling"
  bottom: "conv1"
  top: "pool1"
  pooling_param {
    pool: MAX
    kernel_size: 3
    stride: 2
  }
}
layer {
  name: "norm1"
  type: "LRN"
  bottom: "pool1"
  top: "norm1"
  lrn_param {
    local_size: 5
    alpha: 0.0001
    beta: 0.75
  }
}
layer {
  name: "conv2"
  type: "Convolution"
  bottom: "norm1"
  top: "conv2"
  param {
    lr_mult: 1
  }
  param {
    lr_mult: 2
  }
  convolution_param {
    num_output: 256
    pad: 2
    kernel_size: 5
    group: 2
    weight_filler {
      type: "xavier"
    }
    bias_filler {
      type: "constant"
    }
  }
}
layer {
  name: "relu2"
  type: "ReLU"
  bottom: "conv2"
  top: "conv2"
}
layer {
  name: "pool2"
  type: "Pooling"
  bottom: "conv2"
  top: "pool2"
  pooling_param {
    pool: MAX
    kernel_size: 3
    stride: 2
  }
}
layer {
  name: "norm2"
  type: "LRN"
  bottom: "pool2"
  top: "norm2"
  lrn_param {
    local_size: 5
    alpha: 0.0001
    beta: 0.75
  }
}
layer {
  name: "conv3"
  type: "Convolution"
  bottom: "norm2"
  top: "conv3"
  param {
    lr_mult: 1
  }
  param {
    lr_mult: 2
  }
  convolution_param {
    num_output: 384
    pad: 1
    kernel_size: 3
    weight_filler {
      type: "xavier"
    }
    bias_filler {
      type: "constant"
    }
  }
}
layer {
  name: "relu3"
  type: "ReLU"
  bottom: "conv3"
  top: "conv3"
}
layer {
  name: "conv4"
  type: "Convolution"
  bottom: "conv3"
  top: "conv4"
  param {
    lr_mult: 1
  }
  param {
    lr_mult: 2
  }
  convolution_param {
    num_output: 384
    pad: 1
    kernel_size: 3
    group: 2
    weight_filler {
      type: "xavier"
    }
    bias_filler {
      type: "constant"
    }
  }
}
layer {
  name: "relu4"
  type: "ReLU"
  bottom: "conv4"
  top: "conv4"
}
layer {
  name: "conv5"
  type: "Convolution"
  bottom: "conv4"
  top: "conv5"
  param {
    lr_mult: 1
  }
  param {
    lr_mult: 2
  }
  convolution_param {
    num_output: 256
    pad: 1
    kernel_size: 3
    group: 2
    weight_filler {
      type: "xavier"
    }
    bias_filler {
      type: "constant"
    }
  }
}
layer {
  name: "relu5"
  type: "ReLU"
  bottom: "conv5"
  top: "conv5"
}
layer {
  name: "pool5"
  type: "Pooling"
  bottom: "conv5"
  top: "pool5"
  pooling_param {
    pool: MAX
    kernel_size: 3
    stride: 2
  }
}
layer {
  name: "fc6"
  type: "InnerProduct"
  bottom: "pool5"
  top: "fc6"
  param {
    lr_mult: 1
  }
  param {
    lr_mult: 2
  }
  inner_product_param {
    num_output: 256
    weight_filler {
      type: "xavier"
    }
    bias_filler {
      type: "constant"
    }
  }
}
layer {
  name: "relu6"
  type: "ReLU"
  bottom: "fc6"
  top: "fc6"
}
layer {
  name: "drop6"
  type: "Dropout"
  bottom: "fc6"
  top: "fc6"
  dropout_param {
    dropout_ratio: 0.5
  }
}
layer {
  name: "fc7"
  type: "InnerProduct"
  bottom: "fc6"
  top: "fc7"
  param {
    lr_mult: 1
  }
  param {
    lr_mult: 2
  }
  inner_product_param {
    num_output: 256
    weight_filler {
      type: "xavier"
    }
    bias_filler {
      type: "constant"
    }
  }
}
layer {
  name: "relu7"
  type: "ReLU"
  bottom: "fc7"
  top: "fc7"
}
layer {
  name: "drop7"
  type: "Dropout"
  bottom: "fc7"
  top: "fc7"
  dropout_param {
    dropout_ratio: 0.5
  }
}
layer {
  name: "fc8"
  type: "InnerProduct"
  bottom: "fc7"
  top: "fc8"
  param {
    lr_mult: 1
  }
  param {
    lr_mult: 2
  }
  inner_product_param {
    num_output: 2
    weight_filler {
      type: "xavier"
    }
    bias_filler {
      type: "constant"
    }
  }
}
layer {
  name: "accuracy"
  type: "Accuracy"
  bottom: "fc8"
  bottom: "label"
  top: "accuracy"
  include {
    phase: TEST
  }
}
layer {
  name: "loss"
  type: "WeightedSoftmaxWithLoss"
  bottom: "fc8"
  bottom: "label"
  top: "loss"
  softmax_param {
    pos_mult: 1.3
    pos_cid: 1
  }
}
I0114 10:41:25.755285 28367 layer_factory.hpp:77] Creating layer data
I0114 10:41:25.755409 28367 db_lmdb.cpp:35] Opened lmdb /home/lc/gender/school/data/val.lmdb
I0114 10:41:25.755437 28367 net.cpp:84] Creating Layer data
I0114 10:41:25.755451 28367 net.cpp:380] data -> data
I0114 10:41:25.755468 28367 net.cpp:380] data -> label
I0114 10:41:25.755800 28367 data_layer.cpp:45] output data size: 128,3,200,200
I0114 10:41:25.976395 28367 net.cpp:122] Setting up data
I0114 10:41:25.976457 28367 net.cpp:129] Top shape: 128 3 200 200 (15360000)
I0114 10:41:25.976464 28367 net.cpp:129] Top shape: 128 (128)
I0114 10:41:25.976467 28367 net.cpp:137] Memory required for data: 61440512
I0114 10:41:25.976480 28367 layer_factory.hpp:77] Creating layer label_data_1_split
I0114 10:41:25.976505 28367 net.cpp:84] Creating Layer label_data_1_split
I0114 10:41:25.976526 28367 net.cpp:406] label_data_1_split <- label
I0114 10:41:25.976537 28367 net.cpp:380] label_data_1_split -> label_data_1_split_0
I0114 10:41:25.976554 28367 net.cpp:380] label_data_1_split -> label_data_1_split_1
I0114 10:41:25.976680 28367 net.cpp:122] Setting up label_data_1_split
I0114 10:41:25.976689 28367 net.cpp:129] Top shape: 128 (128)
I0114 10:41:25.976693 28367 net.cpp:129] Top shape: 128 (128)
I0114 10:41:25.976696 28367 net.cpp:137] Memory required for data: 61441536
I0114 10:41:25.976701 28367 layer_factory.hpp:77] Creating layer conv1
I0114 10:41:25.976719 28367 net.cpp:84] Creating Layer conv1
I0114 10:41:25.976724 28367 net.cpp:406] conv1 <- data
I0114 10:41:25.976732 28367 net.cpp:380] conv1 -> conv1
I0114 10:41:25.978610 28367 net.cpp:122] Setting up conv1
I0114 10:41:25.978648 28367 net.cpp:129] Top shape: 128 96 48 48 (28311552)
I0114 10:41:25.978652 28367 net.cpp:137] Memory required for data: 174687744
I0114 10:41:25.978674 28367 layer_factory.hpp:77] Creating layer relu1
I0114 10:41:25.978698 28367 net.cpp:84] Creating Layer relu1
I0114 10:41:25.978704 28367 net.cpp:406] relu1 <- conv1
I0114 10:41:25.978711 28367 net.cpp:367] relu1 -> conv1 (in-place)
I0114 10:41:25.978862 28367 net.cpp:122] Setting up relu1
I0114 10:41:25.978873 28367 net.cpp:129] Top shape: 128 96 48 48 (28311552)
I0114 10:41:25.978876 28367 net.cpp:137] Memory required for data: 287933952
I0114 10:41:25.978880 28367 layer_factory.hpp:77] Creating layer pool1
I0114 10:41:25.978890 28367 net.cpp:84] Creating Layer pool1
I0114 10:41:25.978895 28367 net.cpp:406] pool1 <- conv1
I0114 10:41:25.978901 28367 net.cpp:380] pool1 -> pool1
I0114 10:41:25.978945 28367 net.cpp:122] Setting up pool1
I0114 10:41:25.978952 28367 net.cpp:129] Top shape: 128 96 24 24 (7077888)
I0114 10:41:25.978955 28367 net.cpp:137] Memory required for data: 316245504
I0114 10:41:25.978960 28367 layer_factory.hpp:77] Creating layer norm1
I0114 10:41:25.978968 28367 net.cpp:84] Creating Layer norm1
I0114 10:41:25.978974 28367 net.cpp:406] norm1 <- pool1
I0114 10:41:25.978981 28367 net.cpp:380] norm1 -> norm1
I0114 10:41:25.984180 28367 net.cpp:122] Setting up norm1
I0114 10:41:25.984215 28367 net.cpp:129] Top shape: 128 96 24 24 (7077888)
I0114 10:41:25.984218 28367 net.cpp:137] Memory required for data: 344557056
I0114 10:41:25.984225 28367 layer_factory.hpp:77] Creating layer conv2
I0114 10:41:25.984244 28367 net.cpp:84] Creating Layer conv2
I0114 10:41:25.984254 28367 net.cpp:406] conv2 <- norm1
I0114 10:41:25.984266 28367 net.cpp:380] conv2 -> conv2
I0114 10:41:25.992187 28367 net.cpp:122] Setting up conv2
I0114 10:41:25.992233 28367 net.cpp:129] Top shape: 128 256 24 24 (18874368)
I0114 10:41:25.992236 28367 net.cpp:137] Memory required for data: 420054528
I0114 10:41:25.992260 28367 layer_factory.hpp:77] Creating layer relu2
I0114 10:41:25.992276 28367 net.cpp:84] Creating Layer relu2
I0114 10:41:25.992282 28367 net.cpp:406] relu2 <- conv2
I0114 10:41:25.992292 28367 net.cpp:367] relu2 -> conv2 (in-place)
I0114 10:41:25.992609 28367 net.cpp:122] Setting up relu2
I0114 10:41:25.992624 28367 net.cpp:129] Top shape: 128 256 24 24 (18874368)
I0114 10:41:25.992626 28367 net.cpp:137] Memory required for data: 495552000
I0114 10:41:25.992631 28367 layer_factory.hpp:77] Creating layer pool2
I0114 10:41:25.992645 28367 net.cpp:84] Creating Layer pool2
I0114 10:41:25.992650 28367 net.cpp:406] pool2 <- conv2
I0114 10:41:25.992656 28367 net.cpp:380] pool2 -> pool2
I0114 10:41:25.992717 28367 net.cpp:122] Setting up pool2
I0114 10:41:25.992725 28367 net.cpp:129] Top shape: 128 256 12 12 (4718592)
I0114 10:41:25.992728 28367 net.cpp:137] Memory required for data: 514426368
I0114 10:41:25.992733 28367 layer_factory.hpp:77] Creating layer norm2
I0114 10:41:25.992743 28367 net.cpp:84] Creating Layer norm2
I0114 10:41:25.992749 28367 net.cpp:406] norm2 <- pool2
I0114 10:41:25.992754 28367 net.cpp:380] norm2 -> norm2
I0114 10:41:25.992866 28367 net.cpp:122] Setting up norm2
I0114 10:41:25.992877 28367 net.cpp:129] Top shape: 128 256 12 12 (4718592)
I0114 10:41:25.992880 28367 net.cpp:137] Memory required for data: 533300736
I0114 10:41:25.992884 28367 layer_factory.hpp:77] Creating layer conv3
I0114 10:41:25.992898 28367 net.cpp:84] Creating Layer conv3
I0114 10:41:25.992902 28367 net.cpp:406] conv3 <- norm2
I0114 10:41:25.992911 28367 net.cpp:380] conv3 -> conv3
I0114 10:41:26.002553 28367 net.cpp:122] Setting up conv3
I0114 10:41:26.002594 28367 net.cpp:129] Top shape: 128 384 12 12 (7077888)
I0114 10:41:26.002599 28367 net.cpp:137] Memory required for data: 561612288
I0114 10:41:26.002624 28367 layer_factory.hpp:77] Creating layer relu3
I0114 10:41:26.002640 28367 net.cpp:84] Creating Layer relu3
I0114 10:41:26.002647 28367 net.cpp:406] relu3 <- conv3
I0114 10:41:26.002657 28367 net.cpp:367] relu3 -> conv3 (in-place)
I0114 10:41:26.002769 28367 net.cpp:122] Setting up relu3
I0114 10:41:26.002779 28367 net.cpp:129] Top shape: 128 384 12 12 (7077888)
I0114 10:41:26.002784 28367 net.cpp:137] Memory required for data: 589923840
I0114 10:41:26.002787 28367 layer_factory.hpp:77] Creating layer conv4
I0114 10:41:26.002800 28367 net.cpp:84] Creating Layer conv4
I0114 10:41:26.002805 28367 net.cpp:406] conv4 <- conv3
I0114 10:41:26.002812 28367 net.cpp:380] conv4 -> conv4
I0114 10:41:26.015089 28367 net.cpp:122] Setting up conv4
I0114 10:41:26.015130 28367 net.cpp:129] Top shape: 128 384 12 12 (7077888)
I0114 10:41:26.015136 28367 net.cpp:137] Memory required for data: 618235392
I0114 10:41:26.015156 28367 layer_factory.hpp:77] Creating layer relu4
I0114 10:41:26.015170 28367 net.cpp:84] Creating Layer relu4
I0114 10:41:26.015177 28367 net.cpp:406] relu4 <- conv4
I0114 10:41:26.015188 28367 net.cpp:367] relu4 -> conv4 (in-place)
I0114 10:41:26.015305 28367 net.cpp:122] Setting up relu4
I0114 10:41:26.015314 28367 net.cpp:129] Top shape: 128 384 12 12 (7077888)
I0114 10:41:26.015318 28367 net.cpp:137] Memory required for data: 646546944
I0114 10:41:26.015324 28367 layer_factory.hpp:77] Creating layer conv5
I0114 10:41:26.015342 28367 net.cpp:84] Creating Layer conv5
I0114 10:41:26.015347 28367 net.cpp:406] conv5 <- conv4
I0114 10:41:26.015355 28367 net.cpp:380] conv5 -> conv5
I0114 10:41:26.021536 28367 net.cpp:122] Setting up conv5
I0114 10:41:26.021580 28367 net.cpp:129] Top shape: 128 256 12 12 (4718592)
I0114 10:41:26.021584 28367 net.cpp:137] Memory required for data: 665421312
I0114 10:41:26.021610 28367 layer_factory.hpp:77] Creating layer relu5
I0114 10:41:26.021625 28367 net.cpp:84] Creating Layer relu5
I0114 10:41:26.021631 28367 net.cpp:406] relu5 <- conv5
I0114 10:41:26.021642 28367 net.cpp:367] relu5 -> conv5 (in-place)
I0114 10:41:26.021956 28367 net.cpp:122] Setting up relu5
I0114 10:41:26.021971 28367 net.cpp:129] Top shape: 128 256 12 12 (4718592)
I0114 10:41:26.021975 28367 net.cpp:137] Memory required for data: 684295680
I0114 10:41:26.021980 28367 layer_factory.hpp:77] Creating layer pool5
I0114 10:41:26.021996 28367 net.cpp:84] Creating Layer pool5
I0114 10:41:26.022001 28367 net.cpp:406] pool5 <- conv5
I0114 10:41:26.022008 28367 net.cpp:380] pool5 -> pool5
I0114 10:41:26.022063 28367 net.cpp:122] Setting up pool5
I0114 10:41:26.022071 28367 net.cpp:129] Top shape: 128 256 6 6 (1179648)
I0114 10:41:26.022074 28367 net.cpp:137] Memory required for data: 689014272
I0114 10:41:26.022078 28367 layer_factory.hpp:77] Creating layer fc6
I0114 10:41:26.022090 28367 net.cpp:84] Creating Layer fc6
I0114 10:41:26.022095 28367 net.cpp:406] fc6 <- pool5
I0114 10:41:26.022101 28367 net.cpp:380] fc6 -> fc6
I0114 10:41:26.042598 28367 net.cpp:122] Setting up fc6
I0114 10:41:26.042627 28367 net.cpp:129] Top shape: 128 256 (32768)
I0114 10:41:26.042632 28367 net.cpp:137] Memory required for data: 689145344
I0114 10:41:26.042651 28367 layer_factory.hpp:77] Creating layer relu6
I0114 10:41:26.042665 28367 net.cpp:84] Creating Layer relu6
I0114 10:41:26.042671 28367 net.cpp:406] relu6 <- fc6
I0114 10:41:26.042680 28367 net.cpp:367] relu6 -> fc6 (in-place)
I0114 10:41:26.042845 28367 net.cpp:122] Setting up relu6
I0114 10:41:26.042855 28367 net.cpp:129] Top shape: 128 256 (32768)
I0114 10:41:26.042857 28367 net.cpp:137] Memory required for data: 689276416
I0114 10:41:26.042861 28367 layer_factory.hpp:77] Creating layer drop6
I0114 10:41:26.042872 28367 net.cpp:84] Creating Layer drop6
I0114 10:41:26.042891 28367 net.cpp:406] drop6 <- fc6
I0114 10:41:26.042896 28367 net.cpp:367] drop6 -> fc6 (in-place)
I0114 10:41:26.042919 28367 net.cpp:122] Setting up drop6
I0114 10:41:26.042925 28367 net.cpp:129] Top shape: 128 256 (32768)
I0114 10:41:26.042928 28367 net.cpp:137] Memory required for data: 689407488
I0114 10:41:26.042932 28367 layer_factory.hpp:77] Creating layer fc7
I0114 10:41:26.042942 28367 net.cpp:84] Creating Layer fc7
I0114 10:41:26.042945 28367 net.cpp:406] fc7 <- fc6
I0114 10:41:26.042950 28367 net.cpp:380] fc7 -> fc7
I0114 10:41:26.043498 28367 net.cpp:122] Setting up fc7
I0114 10:41:26.043505 28367 net.cpp:129] Top shape: 128 256 (32768)
I0114 10:41:26.043509 28367 net.cpp:137] Memory required for data: 689538560
I0114 10:41:26.043515 28367 layer_factory.hpp:77] Creating layer relu7
I0114 10:41:26.043524 28367 net.cpp:84] Creating Layer relu7
I0114 10:41:26.043530 28367 net.cpp:406] relu7 <- fc7
I0114 10:41:26.043537 28367 net.cpp:367] relu7 -> fc7 (in-place)
I0114 10:41:26.043973 28367 net.cpp:122] Setting up relu7
I0114 10:41:26.043990 28367 net.cpp:129] Top shape: 128 256 (32768)
I0114 10:41:26.043994 28367 net.cpp:137] Memory required for data: 689669632
I0114 10:41:26.043998 28367 layer_factory.hpp:77] Creating layer drop7
I0114 10:41:26.044015 28367 net.cpp:84] Creating Layer drop7
I0114 10:41:26.044020 28367 net.cpp:406] drop7 <- fc7
I0114 10:41:26.044028 28367 net.cpp:367] drop7 -> fc7 (in-place)
I0114 10:41:26.044051 28367 net.cpp:122] Setting up drop7
I0114 10:41:26.044057 28367 net.cpp:129] Top shape: 128 256 (32768)
I0114 10:41:26.044060 28367 net.cpp:137] Memory required for data: 689800704
I0114 10:41:26.044064 28367 layer_factory.hpp:77] Creating layer fc8
I0114 10:41:26.044072 28367 net.cpp:84] Creating Layer fc8
I0114 10:41:26.044076 28367 net.cpp:406] fc8 <- fc7
I0114 10:41:26.044082 28367 net.cpp:380] fc8 -> fc8
I0114 10:41:26.044194 28367 net.cpp:122] Setting up fc8
I0114 10:41:26.044203 28367 net.cpp:129] Top shape: 128 2 (256)
I0114 10:41:26.044205 28367 net.cpp:137] Memory required for data: 689801728
I0114 10:41:26.044214 28367 layer_factory.hpp:77] Creating layer fc8_fc8_0_split
I0114 10:41:26.044221 28367 net.cpp:84] Creating Layer fc8_fc8_0_split
I0114 10:41:26.044225 28367 net.cpp:406] fc8_fc8_0_split <- fc8
I0114 10:41:26.044232 28367 net.cpp:380] fc8_fc8_0_split -> fc8_fc8_0_split_0
I0114 10:41:26.044240 28367 net.cpp:380] fc8_fc8_0_split -> fc8_fc8_0_split_1
I0114 10:41:26.044272 28367 net.cpp:122] Setting up fc8_fc8_0_split
I0114 10:41:26.044281 28367 net.cpp:129] Top shape: 128 2 (256)
I0114 10:41:26.044288 28367 net.cpp:129] Top shape: 128 2 (256)
I0114 10:41:26.044294 28367 net.cpp:137] Memory required for data: 689803776
I0114 10:41:26.044301 28367 layer_factory.hpp:77] Creating layer accuracy
I0114 10:41:26.044317 28367 net.cpp:84] Creating Layer accuracy
I0114 10:41:26.044325 28367 net.cpp:406] accuracy <- fc8_fc8_0_split_0
I0114 10:41:26.044332 28367 net.cpp:406] accuracy <- label_data_1_split_0
I0114 10:41:26.044343 28367 net.cpp:380] accuracy -> accuracy
…
