…
I0110 09:36:54.070895 10281 net.cpp:294] The NetState phase (0) differed from the phase (1) specified by a rule in layer accuracy
I0110 09:36:54.071180 10281 net.cpp:51] Initializing net from parameters: 
name: "CaffeNet"
state {
  phase: TRAIN
  level: 0
  stage: ""
}
layer {
  name: "data"
  type: "Data"
  top: "data"
  top: "label"
  include {
    phase: TRAIN
  }
  transform_param {
    scale: 0.0078125
    mirror: true
    mean_value: 127
  }
  data_param {
    source: "/home/lc/gender/school/data_3/train.lmdb"
    batch_size: 128
    backend: LMDB
  }
}
layer {
  name: "conv1"
  type: "Convolution"
  bottom: "data"
  top: "conv1"
  param {
    lr_mult: 1
  }
  param {
    lr_mult: 2
  }
  convolution_param {
    num_output: 96
    kernel_size: 11
    stride: 4
    weight_filler {
      type: "xavier"
    }
    bias_filler {
      type: "constant"
    }
  }
}
layer {
  name: "relu1"
  type: "ReLU"
  bottom: "conv1"
  top: "conv1"
}
layer {
  name: "pool1"
  type: "Pooling"
  bottom: "conv1"
  top: "pool1"
  pooling_param {
    pool: MAX
    kernel_size: 3
    stride: 2
  }
}
layer {
  name: "norm1"
  type: "LRN"
  bottom: "pool1"
  top: "norm1"
  lrn_param {
    local_size: 5
    alpha: 0.0001
    beta: 0.75
  }
}
layer {
  name: "conv2"
  type: "Convolution"
  bottom: "norm1"
  top: "conv2"
  param {
    lr_mult: 1
  }
  param {
    lr_mult: 2
  }
  convolution_param {
    num_output: 256
    pad: 2
    kernel_size: 5
    group: 2
    weight_filler {
      type: "xavier"
    }
    bias_filler {
      type: "constant"
    }
  }
}
layer {
  name: "relu2"
  type: "ReLU"
  bottom: "conv2"
  top: "conv2"
}
layer {
  name: "pool2"
  type: "Pooling"
  bottom: "conv2"
  top: "pool2"
  pooling_param {
    pool: MAX
    kernel_size: 3
    stride: 2
  }
}
layer {
  name: "norm2"
  type: "LRN"
  bottom: "pool2"
  top: "norm2"
  lrn_param {
    local_size: 5
    alpha: 0.0001
    beta: 0.75
  }
}
layer {
  name: "conv3"
  type: "Convolution"
  bottom: "norm2"
  top: "conv3"
  param {
    lr_mult: 1
  }
  param {
    lr_mult: 2
  }
  convolution_param {
    num_output: 384
    pad: 1
    kernel_size: 3
    weight_filler {
      type: "xavier"
    }
    bias_filler {
      type: "constant"
    }
  }
}
layer {
  name: "relu3"
  type: "ReLU"
  bottom: "conv3"
  top: "conv3"
}
layer {
  name: "conv4"
  type: "Convolution"
  bottom: "conv3"
  top: "conv4"
  param {
    lr_mult: 1
  }
  param {
    lr_mult: 2
  }
  convolution_param {
    num_output: 384
    pad: 1
    kernel_size: 3
    group: 2
    weight_filler {
      type: "xavier"
    }
    bias_filler {
      type: "constant"
    }
  }
}
layer {
  name: "relu4"
  type: "ReLU"
  bottom: "conv4"
  top: "conv4"
}
layer {
  name: "conv5"
  type: "Convolution"
  bottom: "conv4"
  top: "conv5"
  param {
    lr_mult: 1
  }
  param {
    lr_mult: 2
  }
  convolution_param {
    num_output: 256
    pad: 1
    kernel_size: 3
    group: 2
    weight_filler {
      type: "xavier"
    }
    bias_filler {
      type: "constant"
    }
  }
}
layer {
  name: "relu5"
  type: "ReLU"
  bottom: "conv5"
  top: "conv5"
}
layer {
  name: "pool5"
  type: "Pooling"
  bottom: "conv5"
  top: "pool5"
  pooling_param {
    pool: MAX
    kernel_size: 3
    stride: 2
  }
}
layer {
  name: "fc6"
  type: "InnerProduct"
  bottom: "pool5"
  top: "fc6"
  param {
    lr_mult: 1
  }
  param {
    lr_mult: 2
  }
  inner_product_param {
    num_output: 256
    weight_filler {
      type: "xavier"
    }
    bias_filler {
      type: "constant"
    }
  }
}
layer {
  name: "relu6"
  type: "ReLU"
  bottom: "fc6"
  top: "fc6"
}
layer {
  name: "drop6"
  type: "Dropout"
  bottom: "fc6"
  top: "fc6"
  dropout_param {
    dropout_ratio: 0.5
  }
}
layer {
  name: "fc7"
  type: "InnerProduct"
  bottom: "fc6"
  top: "fc7"
  param {
    lr_mult: 1
  }
  param {
    lr_mult: 2
  }
  inner_product_param {
    num_output: 256
    weight_filler {
      type: "xavier"
    }
    bias_filler {
      type: "constant"
    }
  }
}
layer {
  name: "relu7"
  type: "ReLU"
  bottom: "fc7"
  top: "fc7"
}
layer {
  name: "drop7"
  type: "Dropout"
  bottom: "fc7"
  top: "fc7"
  dropout_param {
    dropout_ratio: 0.5
  }
}
layer {
  name: "fc8"
  type: "InnerProduct"
  bottom: "fc7"
  top: "fc8"
  param {
    lr_mult: 1
  }
  param {
    lr_mult: 2
  }
  inner_product_param {
    num_output: 2
    weight_filler {
      type: "xavier"
    }
    bias_filler {
      type: "constant"
    }
  }
}
layer {
  name: "loss"
  type: "WeightedSoftmaxWithLoss"
  bottom: "fc8"
  bottom: "label"
  top: "loss"
  softmax_param {
    pos_mult: 1.3
    pos_cid: 1
  }
}
I0110 09:36:54.071321 10281 layer_factory.hpp:77] Creating layer data
I0110 09:36:54.071504 10281 db_lmdb.cpp:35] Opened lmdb /home/lc/gender/school/data_3/train.lmdb
I0110 09:36:54.071552 10281 net.cpp:84] Creating Layer data
I0110 09:36:54.071569 10281 net.cpp:380] data -> data
I0110 09:36:54.071610 10281 net.cpp:380] data -> label
I0110 09:36:54.073627 10281 data_layer.cpp:45] output data size: 128,3,200,200
I0110 09:36:54.315249 10281 net.cpp:122] Setting up data
I0110 09:36:54.315312 10281 net.cpp:129] Top shape: 128 3 200 200 (15360000)
I0110 09:36:54.315325 10281 net.cpp:129] Top shape: 128 (128)
I0110 09:36:54.315331 10281 net.cpp:137] Memory required for data: 61440512
I0110 09:36:54.315349 10281 layer_factory.hpp:77] Creating layer conv1
I0110 09:36:54.315388 10281 net.cpp:84] Creating Layer conv1
I0110 09:36:54.315402 10281 net.cpp:406] conv1 <- data
I0110 09:36:54.315424 10281 net.cpp:380] conv1 -> conv1
I0110 09:36:55.151233 10281 net.cpp:122] Setting up conv1
I0110 09:36:55.151295 10281 net.cpp:129] Top shape: 128 96 48 48 (28311552)
I0110 09:36:55.151301 10281 net.cpp:137] Memory required for data: 174686720
I0110 09:36:55.151367 10281 layer_factory.hpp:77] Creating layer relu1
I0110 09:36:55.151397 10281 net.cpp:84] Creating Layer relu1
I0110 09:36:55.151407 10281 net.cpp:406] relu1 <- conv1
I0110 09:36:55.151418 10281 net.cpp:367] relu1 -> conv1 (in-place)
I0110 09:36:55.151825 10281 net.cpp:122] Setting up relu1
I0110 09:36:55.151845 10281 net.cpp:129] Top shape: 128 96 48 48 (28311552)
I0110 09:36:55.151852 10281 net.cpp:137] Memory required for data: 287932928
I0110 09:36:55.151859 10281 layer_factory.hpp:77] Creating layer pool1
I0110 09:36:55.151875 10281 net.cpp:84] Creating Layer pool1
I0110 09:36:55.151882 10281 net.cpp:406] pool1 <- conv1
I0110 09:36:55.151891 10281 net.cpp:380] pool1 -> pool1
I0110 09:36:55.151964 10281 net.cpp:122] Setting up pool1
I0110 09:36:55.151976 10281 net.cpp:129] Top shape: 128 96 24 24 (7077888)
I0110 09:36:55.151984 10281 net.cpp:137] Memory required for data: 316244480
I0110 09:36:55.151990 10281 layer_factory.hpp:77] Creating layer norm1
I0110 09:36:55.152012 10281 net.cpp:84] Creating Layer norm1
I0110 09:36:55.152019 10281 net.cpp:406] norm1 <- pool1
I0110 09:36:55.152030 10281 net.cpp:380] norm1 -> norm1
I0110 09:36:55.152181 10281 net.cpp:122] Setting up norm1
I0110 09:36:55.152195 10281 net.cpp:129] Top shape: 128 96 24 24 (7077888)
I0110 09:36:55.152202 10281 net.cpp:137] Memory required for data: 344556032
I0110 09:36:55.152211 10281 layer_factory.hpp:77] Creating layer conv2
I0110 09:36:55.152231 10281 net.cpp:84] Creating Layer conv2
I0110 09:36:55.152238 10281 net.cpp:406] conv2 <- norm1
I0110 09:36:55.152248 10281 net.cpp:380] conv2 -> conv2
I0110 09:36:55.157881 10281 net.cpp:122] Setting up conv2
I0110 09:36:55.157936 10281 net.cpp:129] Top shape: 128 256 24 24 (18874368)
I0110 09:36:55.157943 10281 net.cpp:137] Memory required for data: 420053504
I0110 09:36:55.157969 10281 layer_factory.hpp:77] Creating layer relu2
I0110 09:36:55.157989 10281 net.cpp:84] Creating Layer relu2
I0110 09:36:55.157997 10281 net.cpp:406] relu2 <- conv2
I0110 09:36:55.158018 10281 net.cpp:367] relu2 -> conv2 (in-place)
I0110 09:36:55.158428 10281 net.cpp:122] Setting up relu2
I0110 09:36:55.158452 10281 net.cpp:129] Top shape: 128 256 24 24 (18874368)
I0110 09:36:55.158459 10281 net.cpp:137] Memory required for data: 495550976
I0110 09:36:55.158466 10281 layer_factory.hpp:77] Creating layer pool2
I0110 09:36:55.158481 10281 net.cpp:84] Creating Layer pool2
I0110 09:36:55.158489 10281 net.cpp:406] pool2 <- conv2
I0110 09:36:55.158500 10281 net.cpp:380] pool2 -> pool2
I0110 09:36:55.158563 10281 net.cpp:122] Setting up pool2
I0110 09:36:55.158576 10281 net.cpp:129] Top shape: 128 256 12 12 (4718592)
I0110 09:36:55.158582 10281 net.cpp:137] Memory required for data: 514425344
I0110 09:36:55.158591 10281 layer_factory.hpp:77] Creating layer norm2
I0110 09:36:55.158607 10281 net.cpp:84] Creating Layer norm2
I0110 09:36:55.158613 10281 net.cpp:406] norm2 <- pool2
I0110 09:36:55.158623 10281 net.cpp:380] norm2 -> norm2
I0110 09:36:55.158773 10281 net.cpp:122] Setting up norm2
I0110 09:36:55.158787 10281 net.cpp:129] Top shape: 128 256 12 12 (4718592)
I0110 09:36:55.158793 10281 net.cpp:137] Memory required for data: 533299712
I0110 09:36:55.158802 10281 layer_factory.hpp:77] Creating layer conv3
I0110 09:36:55.158821 10281 net.cpp:84] Creating Layer conv3
I0110 09:36:55.158828 10281 net.cpp:406] conv3 <- norm2
I0110 09:36:55.158838 10281 net.cpp:380] conv3 -> conv3
I0110 09:36:55.175200 10281 net.cpp:122] Setting up conv3
I0110 09:36:55.175258 10281 net.cpp:129] Top shape: 128 384 12 12 (7077888)
I0110 09:36:55.175266 10281 net.cpp:137] Memory required for data: 561611264
I0110 09:36:55.175295 10281 layer_factory.hpp:77] Creating layer relu3
I0110 09:36:55.175315 10281 net.cpp:84] Creating Layer relu3
I0110 09:36:55.175324 10281 net.cpp:406] relu3 <- conv3
I0110 09:36:55.175338 10281 net.cpp:367] relu3 -> conv3 (in-place)
I0110 09:36:55.175709 10281 net.cpp:122] Setting up relu3
I0110 09:36:55.175727 10281 net.cpp:129] Top shape: 128 384 12 12 (7077888)
I0110 09:36:55.175734 10281 net.cpp:137] Memory required for data: 589922816
I0110 09:36:55.175741 10281 layer_factory.hpp:77] Creating layer conv4
I0110 09:36:55.175765 10281 net.cpp:84] Creating Layer conv4
I0110 09:36:55.175772 10281 net.cpp:406] conv4 <- conv3
I0110 09:36:55.175783 10281 net.cpp:380] conv4 -> conv4
I0110 09:36:55.187721 10281 net.cpp:122] Setting up conv4
I0110 09:36:55.187777 10281 net.cpp:129] Top shape: 128 384 12 12 (7077888)
I0110 09:36:55.187784 10281 net.cpp:137] Memory required for data: 618234368
I0110 09:36:55.187809 10281 layer_factory.hpp:77] Creating layer relu4
I0110 09:36:55.187829 10281 net.cpp:84] Creating Layer relu4
I0110 09:36:55.187836 10281 net.cpp:406] relu4 <- conv4
I0110 09:36:55.187851 10281 net.cpp:367] relu4 -> conv4 (in-place)
I0110 09:36:55.188243 10281 net.cpp:122] Setting up relu4
I0110 09:36:55.188262 10281 net.cpp:129] Top shape: 128 384 12 12 (7077888)
I0110 09:36:55.188269 10281 net.cpp:137] Memory required for data: 646545920
I0110 09:36:55.188277 10281 layer_factory.hpp:77] Creating layer conv5
I0110 09:36:55.188299 10281 net.cpp:84] Creating Layer conv5
I0110 09:36:55.188307 10281 net.cpp:406] conv5 <- conv4
I0110 09:36:55.188318 10281 net.cpp:380] conv5 -> conv5
I0110 09:36:55.205324 10281 net.cpp:122] Setting up conv5
I0110 09:36:55.205381 10281 net.cpp:129] Top shape: 128 256 12 12 (4718592)
I0110 09:36:55.205389 10281 net.cpp:137] Memory required for data: 665420288
I0110 09:36:55.205417 10281 layer_factory.hpp:77] Creating layer relu5
I0110 09:36:55.205440 10281 net.cpp:84] Creating Layer relu5
I0110 09:36:55.205449 10281 net.cpp:406] relu5 <- conv5
I0110 09:36:55.205463 10281 net.cpp:367] relu5 -> conv5 (in-place)
I0110 09:36:55.205597 10281 net.cpp:122] Setting up relu5
I0110 09:36:55.205613 10281 net.cpp:129] Top shape: 128 256 12 12 (4718592)
I0110 09:36:55.205621 10281 net.cpp:137] Memory required for data: 684294656
I0110 09:36:55.205638 10281 layer_factory.hpp:77] Creating layer pool5
I0110 09:36:55.205652 10281 net.cpp:84] Creating Layer pool5
I0110 09:36:55.205662 10281 net.cpp:406] pool5 <- conv5
I0110 09:36:55.205673 10281 net.cpp:380] pool5 -> pool5
I0110 09:36:55.205740 10281 net.cpp:122] Setting up pool5
I0110 09:36:55.205752 10281 net.cpp:129] Top shape: 128 256 6 6 (1179648)
I0110 09:36:55.205760 10281 net.cpp:137] Memory required for data: 689013248
I0110 09:36:55.205770 10281 layer_factory.hpp:77] Creating layer fc6
I0110 09:36:55.205788 10281 net.cpp:84] Creating Layer fc6
I0110 09:36:55.205796 10281 net.cpp:406] fc6 <- pool5
I0110 09:36:55.205808 10281 net.cpp:380] fc6 -> fc6
I0110 09:36:55.243836 10281 net.cpp:122] Setting up fc6
I0110 09:36:55.243885 10281 net.cpp:129] Top shape: 128 256 (32768)
I0110 09:36:55.243891 10281 net.cpp:137] Memory required for data: 689144320
I0110 09:36:55.243913 10281 layer_factory.hpp:77] Creating layer relu6
I0110 09:36:55.243938 10281 net.cpp:84] Creating Layer relu6
I0110 09:36:55.243947 10281 net.cpp:406] relu6 <- fc6
I0110 09:36:55.243961 10281 net.cpp:367] relu6 -> fc6 (in-place)
I0110 09:36:55.244560 10281 net.cpp:122] Setting up relu6
I0110 09:36:55.244580 10281 net.cpp:129] Top shape: 128 256 (32768)
I0110 09:36:55.244586 10281 net.cpp:137] Memory required for data: 689275392
I0110 09:36:55.244592 10281 layer_factory.hpp:77] Creating layer drop6
I0110 09:36:55.244607 10281 net.cpp:84] Creating Layer drop6
I0110 09:36:55.244616 10281 net.cpp:406] drop6 <- fc6
I0110 09:36:55.244624 10281 net.cpp:367] drop6 -> fc6 (in-place)
I0110 09:36:55.244664 10281 net.cpp:122] Setting up drop6
I0110 09:36:55.244674 10281 net.cpp:129] Top shape: 128 256 (32768)
I0110 09:36:55.244681 10281 net.cpp:137] Memory required for data: 689406464
I0110 09:36:55.244693 10281 layer_factory.hpp:77] Creating layer fc7
I0110 09:36:55.244707 10281 net.cpp:84] Creating Layer fc7
I0110 09:36:55.244715 10281 net.cpp:406] fc7 <- fc6
I0110 09:36:55.244725 10281 net.cpp:380] fc7 -> fc7
I0110 09:36:55.245659 10281 net.cpp:122] Setting up fc7
I0110 09:36:55.245672 10281 net.cpp:129] Top shape: 128 256 (32768)
I0110 09:36:55.245679 10281 net.cpp:137] Memory required for data: 689537536
I0110 09:36:55.245692 10281 layer_factory.hpp:77] Creating layer relu7
I0110 09:36:55.245702 10281 net.cpp:84] Creating Layer relu7
I0110 09:36:55.245709 10281 net.cpp:406] relu7 <- fc7
I0110 09:36:55.245719 10281 net.cpp:367] relu7 -> fc7 (in-place)
I0110 09:36:55.245826 10281 net.cpp:122] Setting up relu7
I0110 09:36:55.245836 10281 net.cpp:129] Top shape: 128 256 (32768)
I0110 09:36:55.245843 10281 net.cpp:137] Memory required for data: 689668608
I0110 09:36:55.245849 10281 layer_factory.hpp:77] Creating layer drop7
I0110 09:36:55.245859 10281 net.cpp:84] Creating Layer drop7
I0110 09:36:55.245867 10281 net.cpp:406] drop7 <- fc7
I0110 09:36:55.245875 10281 net.cpp:367] drop7 -> fc7 (in-place)
I0110 09:36:55.245901 10281 net.cpp:122] Setting up drop7
I0110 09:36:55.245910 10281 net.cpp:129] Top shape: 128 256 (32768)
I0110 09:36:55.245918 10281 net.cpp:137] Memory required for data: 689799680
I0110 09:36:55.245923 10281 layer_factory.hpp:77] Creating layer fc8
I0110 09:36:55.245935 10281 net.cpp:84] Creating Layer fc8
I0110 09:36:55.245942 10281 net.cpp:406] fc8 <- fc7
I0110 09:36:55.245952 10281 net.cpp:380] fc8 -> fc8
I0110 09:36:55.246090 10281 net.cpp:122] Setting up fc8
I0110 09:36:55.246102 10281 net.cpp:129] Top shape: 128 2 (256)
I0110 09:36:55.246107 10281 net.cpp:137] Memory required for data: 689800704
I0110 09:36:55.246119 10281 layer_factory.hpp:77] Creating layer loss
I0110 09:36:55.246135 10281 net.cpp:84] Creating Layer loss
I0110 09:36:55.246142 10281 net.cpp:406] loss <- fc8
I0110 09:36:55.246150 10281 net.cpp:406] loss <- label
I0110 09:36:55.246162 10281 net.cpp:380] loss -> loss
I0110 09:36:55.246187 10281 layer_factory.hpp:77] Creating layer loss
…
I0110 09:36:55.247606 10281 solver.cpp:172] Creating test net (#0) specified by net file: weighted_train_val.prototxt
I0110 09:36:55.247669 10281 net.cpp:294] The NetState phase (1) differed from the phase (0) specified by a rule in layer data
I0110 09:36:55.247974 10281 net.cpp:51] Initializing net from parameters: 
name: "CaffeNet"
state {
  phase: TEST
}
layer {
  name: "data"
  type: "Data"
  top: "data"
  top: "label"
  include {
    phase: TEST
  }
  transform_param {
    scale: 0.0078125
    mirror: true
    mean_value: 127
  }
  data_param {
    source: "/home/lc/gender/school/data_3/val.lmdb"
    batch_size: 128
    backend: LMDB
  }
}
layer {
  name: "conv1"
  type: "Convolution"
  bottom: "data"
  top: "conv1"
  param {
    lr_mult: 1
  }
  param {
    lr_mult: 2
  }
  convolution_param {
    num_output: 96
    kernel_size: 11
    stride: 4
    weight_filler {
      type: "xavier"
    }
    bias_filler {
      type: "constant"
    }
  }
}
layer {
  name: "relu1"
  type: "ReLU"
  bottom: "conv1"
  top: "conv1"
}
layer {
  name: "pool1"
  type: "Pooling"
  bottom: "conv1"
  top: "pool1"
  pooling_param {
    pool: MAX
    kernel_size: 3
    stride: 2
  }
}
layer {
  name: "norm1"
  type: "LRN"
  bottom: "pool1"
  top: "norm1"
  lrn_param {
    local_size: 5
    alpha: 0.0001
    beta: 0.75
  }
}
layer {
  name: "conv2"
  type: "Convolution"
  bottom: "norm1"
  top: "conv2"
  param {
    lr_mult: 1
  }
  param {
    lr_mult: 2
  }
  convolution_param {
    num_output: 256
    pad: 2
    kernel_size: 5
    group: 2
    weight_filler {
      type: "xavier"
    }
    bias_filler {
      type: "constant"
    }
  }
}
layer {
  name: "relu2"
  type: "ReLU"
  bottom: "conv2"
  top: "conv2"
}
layer {
  name: "pool2"
  type: "Pooling"
  bottom: "conv2"
  top: "pool2"
  pooling_param {
    pool: MAX
    kernel_size: 3
    stride: 2
  }
}
layer {
  name: "norm2"
  type: "LRN"
  bottom: "pool2"
  top: "norm2"
  lrn_param {
    local_size: 5
    alpha: 0.0001
    beta: 0.75
  }
}
layer {
  name: "conv3"
  type: "Convolution"
  bottom: "norm2"
  top: "conv3"
  param {
    lr_mult: 1
  }
  param {
    lr_mult: 2
  }
  convolution_param {
    num_output: 384
    pad: 1
    kernel_size: 3
    weight_filler {
      type: "xavier"
    }
    bias_filler {
      type: "constant"
    }
  }
}
layer {
  name: "relu3"
  type: "ReLU"
  bottom: "conv3"
  top: "conv3"
}
layer {
  name: "conv4"
  type: "Convolution"
  bottom: "conv3"
  top: "conv4"
  param {
    lr_mult: 1
  }
  param {
    lr_mult: 2
  }
  convolution_param {
    num_output: 384
    pad: 1
    kernel_size: 3
    group: 2
    weight_filler {
      type: "xavier"
    }
    bias_filler {
      type: "constant"
    }
  }
}
layer {
  name: "relu4"
  type: "ReLU"
  bottom: "conv4"
  top: "conv4"
}
layer {
  name: "conv5"
  type: "Convolution"
  bottom: "conv4"
  top: "conv5"
  param {
    lr_mult: 1
  }
  param {
    lr_mult: 2
  }
  convolution_param {
    num_output: 256
    pad: 1
    kernel_size: 3
    group: 2
    weight_filler {
      type: "xavier"
    }
    bias_filler {
      type: "constant"
    }
  }
}
layer {
  name: "relu5"
  type: "ReLU"
  bottom: "conv5"
  top: "conv5"
}
layer {
  name: "pool5"
  type: "Pooling"
  bottom: "conv5"
  top: "pool5"
  pooling_param {
    pool: MAX
    kernel_size: 3
    stride: 2
  }
}
layer {
  name: "fc6"
  type: "InnerProduct"
  bottom: "pool5"
  top: "fc6"
  param {
    lr_mult: 1
  }
  param {
    lr_mult: 2
  }
  inner_product_param {
    num_output: 256
    weight_filler {
      type: "xavier"
    }
    bias_filler {
      type: "constant"
    }
  }
}
layer {
  name: "relu6"
  type: "ReLU"
  bottom: "fc6"
  top: "fc6"
}
layer {
  name: "drop6"
  type: "Dropout"
  bottom: "fc6"
  top: "fc6"
  dropout_param {
    dropout_ratio: 0.5
  }
}
layer {
  name: "fc7"
  type: "InnerProduct"
  bottom: "fc6"
  top: "fc7"
  param {
    lr_mult: 1
  }
  param {
    lr_mult: 2
  }
  inner_product_param {
    num_output: 256
    weight_filler {
      type: "xavier"
    }
    bias_filler {
      type: "constant"
    }
  }
}
layer {
  name: "relu7"
  type: "ReLU"
  bottom: "fc7"
  top: "fc7"
}
layer {
  name: "drop7"
  type: "Dropout"
  bottom: "fc7"
  top: "fc7"
  dropout_param {
    dropout_ratio: 0.5
  }
}
layer {
  name: "fc8"
  type: "InnerProduct"
  bottom: "fc7"
  top: "fc8"
  param {
    lr_mult: 1
  }
  param {
    lr_mult: 2
  }
  inner_product_param {
    num_output: 2
    weight_filler {
      type: "xavier"
    }
    bias_filler {
      type: "constant"
    }
  }
}
layer {
  name: "accuracy"
  type: "Accuracy"
  bottom: "fc8"
  bottom: "label"
  top: "accuracy"
  include {
    phase: TEST
  }
}
layer {
  name: "loss"
  type: "WeightedSoftmaxWithLoss"
  bottom: "fc8"
  bottom: "label"
  top: "loss"
  softmax_param {
    pos_mult: 1.3
    pos_cid: 1
  }
}
I0110 09:36:55.248142 10281 layer_factory.hpp:77] Creating layer data
I0110 09:36:55.248258 10281 db_lmdb.cpp:35] Opened lmdb /home/lc/gender/school/data_3/val.lmdb
I0110 09:36:55.248286 10281 net.cpp:84] Creating Layer data
I0110 09:36:55.248297 10281 net.cpp:380] data -> data
I0110 09:36:55.248312 10281 net.cpp:380] data -> label
I0110 09:36:55.248517 10281 data_layer.cpp:45] output data size: 128,3,200,200
I0110 09:36:55.490607 10281 net.cpp:122] Setting up data
I0110 09:36:55.490664 10281 net.cpp:129] Top shape: 128 3 200 200 (15360000)
I0110 09:36:55.490674 10281 net.cpp:129] Top shape: 128 (128)
I0110 09:36:55.490680 10281 net.cpp:137] Memory required for data: 61440512
I0110 09:36:55.490694 10281 layer_factory.hpp:77] Creating layer label_data_1_split
I0110 09:36:55.490736 10281 net.cpp:84] Creating Layer label_data_1_split
I0110 09:36:55.490744 10281 net.cpp:406] label_data_1_split <- label
I0110 09:36:55.490761 10281 net.cpp:380] label_data_1_split -> label_data_1_split_0
I0110 09:36:55.490782 10281 net.cpp:380] label_data_1_split -> label_data_1_split_1
I0110 09:36:55.491039 10281 net.cpp:122] Setting up label_data_1_split
I0110 09:36:55.491050 10281 net.cpp:129] Top shape: 128 (128)
I0110 09:36:55.491058 10281 net.cpp:129] Top shape: 128 (128)
I0110 09:36:55.491065 10281 net.cpp:137] Memory required for data: 61441536
I0110 09:36:55.491072 10281 layer_factory.hpp:77] Creating layer conv1
I0110 09:36:55.491099 10281 net.cpp:84] Creating Layer conv1
I0110 09:36:55.491106 10281 net.cpp:406] conv1 <- data
I0110 09:36:55.491124 10281 net.cpp:380] conv1 -> conv1
I0110 09:36:55.493415 10281 net.cpp:122] Setting up conv1
I0110 09:36:55.493443 10281 net.cpp:129] Top shape: 128 96 48 48 (28311552)
I0110 09:36:55.493450 10281 net.cpp:137] Memory required for data: 174687744
I0110 09:36:55.493480 10281 layer_factory.hpp:77] Creating layer relu1
I0110 09:36:55.493496 10281 net.cpp:84] Creating Layer relu1
I0110 09:36:55.493505 10281 net.cpp:406] relu1 <- conv1
I0110 09:36:55.493515 10281 net.cpp:367] relu1 -> conv1 (in-place)
I0110 09:36:55.500831 10281 net.cpp:122] Setting up relu1
I0110 09:36:55.500878 10281 net.cpp:129] Top shape: 128 96 48 48 (28311552)
I0110 09:36:55.500885 10281 net.cpp:137] Memory required for data: 287933952
I0110 09:36:55.500895 10281 layer_factory.hpp:77] Creating layer pool1
I0110 09:36:55.500916 10281 net.cpp:84] Creating Layer pool1
I0110 09:36:55.500926 10281 net.cpp:406] pool1 <- conv1
I0110 09:36:55.500939 10281 net.cpp:380] pool1 -> pool1
I0110 09:36:55.501018 10281 net.cpp:122] Setting up pool1
I0110 09:36:55.501029 10281 net.cpp:129] Top shape: 128 96 24 24 (7077888)
I0110 09:36:55.501035 10281 net.cpp:137] Memory required for data: 316245504
I0110 09:36:55.501041 10281 layer_factory.hpp:77] Creating layer norm1
I0110 09:36:55.501058 10281 net.cpp:84] Creating Layer norm1
I0110 09:36:55.501065 10281 net.cpp:406] norm1 <- pool1
I0110 09:36:55.501075 10281 net.cpp:380] norm1 -> norm1
I0110 09:36:55.501710 10281 net.cpp:122] Setting up norm1
I0110 09:36:55.501731 10281 net.cpp:129] Top shape: 128 96 24 24 (7077888)
I0110 09:36:55.501739 10281 net.cpp:137] Memory required for data: 344557056
I0110 09:36:55.501749 10281 layer_factory.hpp:77] Creating layer conv2
I0110 09:36:55.501771 10281 net.cpp:84] Creating Layer conv2
I0110 09:36:55.501780 10281 net.cpp:406] conv2 <- norm1
I0110 09:36:55.501792 10281 net.cpp:380] conv2 -> conv2
I0110 09:36:55.511524 10281 net.cpp:122] Setting up conv2
I0110 09:36:55.511579 10281 net.cpp:129] Top shape: 128 256 24 24 (18874368)
I0110 09:36:55.511586 10281 net.cpp:137] Memory required for data: 420054528
I0110 09:36:55.511618 10281 layer_factory.hpp:77] Creating layer relu2
I0110 09:36:55.511637 10281 net.cpp:84] Creating Layer relu2
I0110 09:36:55.511646 10281 net.cpp:406] relu2 <- conv2
I0110 09:36:55.511659 10281 net.cpp:367] relu2 -> conv2 (in-place)
I0110 09:36:55.512050 10281 net.cpp:122] Setting up relu2
I0110 09:36:55.512068 10281 net.cpp:129] Top shape: 128 256 24 24 (18874368)
I0110 09:36:55.512075 10281 net.cpp:137] Memory required for data: 495552000
I0110 09:36:55.512082 10281 layer_factory.hpp:77] Creating layer pool2
I0110 09:36:55.512100 10281 net.cpp:84] Creating Layer pool2
I0110 09:36:55.512107 10281 net.cpp:406] pool2 <- conv2
I0110 09:36:55.512116 10281 net.cpp:380] pool2 -> pool2
I0110 09:36:55.512187 10281 net.cpp:122] Setting up pool2
I0110 09:36:55.512200 10281 net.cpp:129] Top shape: 128 256 12 12 (4718592)
I0110 09:36:55.512207 10281 net.cpp:137] Memory required for data: 514426368
I0110 09:36:55.512213 10281 layer_factory.hpp:77] Creating layer norm2
I0110 09:36:55.512226 10281 net.cpp:84] Creating Layer norm2
I0110 09:36:55.512234 10281 net.cpp:406] norm2 <- pool2
I0110 09:36:55.512243 10281 net.cpp:380] norm2 -> norm2
I0110 09:36:55.512387 10281 net.cpp:122] Setting up norm2
I0110 09:36:55.512401 10281 net.cpp:129] Top shape: 128 256 12 12 (4718592)
I0110 09:36:55.512408 10281 net.cpp:137] Memory required for data: 533300736
I0110 09:36:55.512418 10281 layer_factory.hpp:77] Creating layer conv3
I0110 09:36:55.512437 10281 net.cpp:84] Creating Layer conv3
I0110 09:36:55.512444 10281 net.cpp:406] conv3 <- norm2
I0110 09:36:55.512455 10281 net.cpp:380] conv3 -> conv3
I0110 09:36:55.528640 10281 net.cpp:122] Setting up conv3
I0110 09:36:55.528695 10281 net.cpp:129] Top shape: 128 384 12 12 (7077888)
I0110 09:36:55.528702 10281 net.cpp:137] Memory required for data: 561612288
I0110 09:36:55.528728 10281 layer_factory.hpp:77] Creating layer relu3
I0110 09:36:55.528748 10281 net.cpp:84] Creating Layer relu3
I0110 09:36:55.528756 10281 net.cpp:406] relu3 <- conv3
I0110 09:36:55.528770 10281 net.cpp:367] relu3 -> conv3 (in-place)
I0110 09:36:55.528898 10281 net.cpp:122] Setting up relu3
I0110 09:36:55.528913 10281 net.cpp:129] Top shape: 128 384 12 12 (7077888)
I0110 09:36:55.528919 10281 net.cpp:137] Memory required for data: 589923840
I0110 09:36:55.528926 10281 layer_factory.hpp:77] Creating layer conv4
I0110 09:36:55.528949 10281 net.cpp:84] Creating Layer conv4
I0110 09:36:55.528955 10281 net.cpp:406] conv4 <- conv3
I0110 09:36:55.528967 10281 net.cpp:380] conv4 -> conv4
I0110 09:36:55.544029 10281 net.cpp:122] Setting up conv4
I0110 09:36:55.544083 10281 net.cpp:129] Top shape: 128 384 12 12 (7077888)
I0110 09:36:55.544090 10281 net.cpp:137] Memory required for data: 618235392
I0110 09:36:55.544111 10281 layer_factory.hpp:77] Creating layer relu4
I0110 09:36:55.544137 10281 net.cpp:84] Creating Layer relu4
I0110 09:36:55.544147 10281 net.cpp:406] relu4 <- conv4
I0110 09:36:55.544160 10281 net.cpp:367] relu4 -> conv4 (in-place)
I0110 09:36:55.544282 10281 net.cpp:122] Setting up relu4
I0110 09:36:55.544296 10281 net.cpp:129] Top shape: 128 384 12 12 (7077888)
I0110 09:36:55.544303 10281 net.cpp:137] Memory required for data: 646546944
I0110 09:36:55.544311 10281 layer_factory.hpp:77] Creating layer conv5
I0110 09:36:55.544332 10281 net.cpp:84] Creating Layer conv5
I0110 09:36:55.544338 10281 net.cpp:406] conv5 <- conv4
I0110 09:36:55.544353 10281 net.cpp:380] conv5 -> conv5
I0110 09:36:55.554236 10281 net.cpp:122] Setting up conv5
I0110 09:36:55.554379 10281 net.cpp:129] Top shape: 128 256 12 12 (4718592)
I0110 09:36:55.554389 10281 net.cpp:137] Memory required for data: 665421312
I0110 09:36:55.554448 10281 layer_factory.hpp:77] Creating layer relu5
I0110 09:36:55.554492 10281 net.cpp:84] Creating Layer relu5
I0110 09:36:55.554507 10281 net.cpp:406] relu5 <- conv5
I0110 09:36:55.554536 10281 net.cpp:367] relu5 -> conv5 (in-place)
I0110 09:36:55.555085 10281 net.cpp:122] Setting up relu5
I0110 09:36:55.555110 10281 net.cpp:129] Top shape: 128 256 12 12 (4718592)
I0110 09:36:55.555119 10281 net.cpp:137] Memory required for data: 684295680
I0110 09:36:55.555130 10281 layer_factory.hpp:77] Creating layer pool5
I0110 09:36:55.555160 10281 net.cpp:84] Creating Layer pool5
I0110 09:36:55.555169 10281 net.cpp:406] pool5 <- conv5
I0110 09:36:55.555182 10281 net.cpp:380] pool5 -> pool5
I0110 09:36:55.555285 10281 net.cpp:122] Setting up pool5
I0110 09:36:55.555300 10281 net.cpp:129] Top shape: 128 256 6 6 (1179648)
I0110 09:36:55.555308 10281 net.cpp:137] Memory required for data: 689014272
I0110 09:36:55.555321 10281 layer_factory.hpp:77] Creating layer fc6
I0110 09:36:55.555348 10281 net.cpp:84] Creating Layer fc6
I0110 09:36:55.555357 10281 net.cpp:406] fc6 <- pool5
I0110 09:36:55.555371 10281 net.cpp:380] fc6 -> fc6
I0110 09:36:55.594007 10281 net.cpp:122] Setting up fc6
I0110 09:36:55.594055 10281 net.cpp:129] Top shape: 128 256 (32768)
I0110 09:36:55.594061 10281 net.cpp:137] Memory required for data: 689145344
I0110 09:36:55.594082 10281 layer_factory.hpp:77] Creating layer relu6
I0110 09:36:55.594102 10281 net.cpp:84] Creating Layer relu6
I0110 09:36:55.594112 10281 net.cpp:406] relu6 <- fc6
I0110 09:36:55.594126 10281 net.cpp:367] relu6 -> fc6 (in-place)
I0110 09:36:55.594327 10281 net.cpp:122] Setting up relu6
I0110 09:36:55.594341 10281 net.cpp:129] Top shape: 128 256 (32768)
I0110 09:36:55.594347 10281 net.cpp:137] Memory required for data: 689276416
I0110 09:36:55.594353 10281 layer_factory.hpp:77] Creating layer drop6
I0110 09:36:55.594368 10281 net.cpp:84] Creating Layer drop6
I0110 09:36:55.594375 10281 net.cpp:406] drop6 <- fc6
I0110 09:36:55.594383 10281 net.cpp:367] drop6 -> fc6 (in-place)
I0110 09:36:55.594413 10281 net.cpp:122] Setting up drop6
I0110 09:36:55.594422 10281 net.cpp:129] Top shape: 128 256 (32768)
I0110 09:36:55.594429 10281 net.cpp:137] Memory required for data: 689407488
I0110 09:36:55.594435 10281 layer_factory.hpp:77] Creating layer fc7
I0110 09:36:55.594455 10281 net.cpp:84] Creating Layer fc7
I0110 09:36:55.594462 10281 net.cpp:406] fc7 <- fc6
I0110 09:36:55.594471 10281 net.cpp:380] fc7 -> fc7
I0110 09:36:55.595405 10281 net.cpp:122] Setting up fc7
I0110 09:36:55.595417 10281 net.cpp:129] Top shape: 128 256 (32768)
I0110 09:36:55.595423 10281 net.cpp:137] Memory required for data: 689538560
I0110 09:36:55.595439 10281 layer_factory.hpp:77] Creating layer relu7
I0110 09:36:55.595450 10281 net.cpp:84] Creating Layer relu7
I0110 09:36:55.595458 10281 net.cpp:406] relu7 <- fc7
I0110 09:36:55.595465 10281 net.cpp:367] relu7 -> fc7 (in-place)
I0110 09:36:55.596053 10281 net.cpp:122] Setting up relu7
I0110 09:36:55.596072 10281 net.cpp:129] Top shape: 128 256 (32768)
I0110 09:36:55.596081 10281 net.cpp:137] Memory required for data: 689669632
I0110 09:36:55.596086 10281 layer_factory.hpp:77] Creating layer drop7
I0110 09:36:55.596098 10281 net.cpp:84] Creating Layer drop7
I0110 09:36:55.596105 10281 net.cpp:406] drop7 <- fc7
I0110 09:36:55.596118 10281 net.cpp:367] drop7 -> fc7 (in-place)
I0110 09:36:55.596149 10281 net.cpp:122] Setting up drop7
I0110 09:36:55.596159 10281 net.cpp:129] Top shape: 128 256 (32768)
I0110 09:36:55.596165 10281 net.cpp:137] Memory required for data: 689800704
I0110 09:36:55.596172 10281 layer_factory.hpp:77] Creating layer fc8
I0110 09:36:55.596185 10281 net.cpp:84] Creating Layer fc8
I0110 09:36:55.596192 10281 net.cpp:406] fc8 <- fc7
I0110 09:36:55.596207 10281 net.cpp:380] fc8 -> fc8
I0110 09:36:55.596359 10281 net.cpp:122] Setting up fc8
I0110 09:36:55.596369 10281 net.cpp:129] Top shape: 128 2 (256)
I0110 09:36:55.596375 10281 net.cpp:137] Memory required for data: 689801728
I0110 09:36:55.596387 10281 layer_factory.hpp:77] Creating layer fc8_fc8_0_split
I0110 09:36:55.596401 10281 net.cpp:84] Creating Layer fc8_fc8_0_split
I0110 09:36:55.596408 10281 net.cpp:406] fc8_fc8_0_split <- fc8
I0110 09:36:55.596417 10281 net.cpp:380] fc8_fc8_0_split -> fc8_fc8_0_split_0
I0110 09:36:55.596428 10281 net.cpp:380] fc8_fc8_0_split -> fc8_fc8_0_split_1
I0110 09:36:55.596474 10281 net.cpp:122] Setting up fc8_fc8_0_split
I0110 09:36:55.596484 10281 net.cpp:129] Top shape: 128 2 (256)
I0110 09:36:55.596493 10281 net.cpp:129] Top shape: 128 2 (256)
I0110 09:36:55.596498 10281 net.cpp:137] Memory required for data: 689803776
I0110 09:36:55.596506 10281 layer_factory.hpp:77] Creating layer accuracy
I0110 09:36:55.596519 10281 net.cpp:84] Creating Layer accuracy
I0110 09:36:55.596526 10281 net.cpp:406] accuracy <- fc8_fc8_0_split_0
I0110 09:36:55.596534 10281 net.cpp:406] accuracy <- label_data_1_split_0
I0110 09:36:55.596546 10281 net.cpp:380] accuracy -> accuracy
…
