…
I0109 17:01:13.465095 20212 net.cpp:294] The NetState phase (0) differed from the phase (1) specified by a rule in layer accuracy
I0109 17:01:13.466332 20212 net.cpp:51] Initializing net from parameters: 
name: "r18"
state {
  phase: TRAIN
  level: 0
  stage: ""
}
layer {
  name: "data"
  type: "Data"
  top: "data"
  top: "label"
  include {
    phase: TRAIN
  }
  transform_param {
    scale: 0.0078125
    mirror: true
    mean_value: 127
  }
  data_param {
    source: "/home/lc/gender/school/data_2/train.lmdb"
    batch_size: 8
    backend: LMDB
  }
}
layer {
  name: "conv0"
  type: "Convolution"
  bottom: "data"
  top: "conv0"
  param {
    lr_mult: 1
    decay_mult: 1
  }
  convolution_param {
    num_output: 64
    bias_term: false
    pad: 1
    kernel_size: 3
    stride: 1
    weight_filler {
      type: "gaussian"
      std: 0.01
    }
    engine: CAFFE
  }
}
layer {
  name: "bn0"
  type: "BatchNorm"
  bottom: "conv0"
  top: "bn0"
  batch_norm_param {
    use_global_stats: false
    moving_average_fraction: 0.9
    eps: 2e-05
  }
}
layer {
  name: "bn0_scale"
  type: "Scale"
  bottom: "bn0"
  top: "bn0"
  scale_param {
    bias_term: true
  }
}
layer {
  name: "relu0"
  type: "ReLU"
  bottom: "bn0"
  top: "relu0"
}
layer {
  name: "stage1_unit1_bn1"
  type: "BatchNorm"
  bottom: "relu0"
  top: "stage1_unit1_bn1"
  batch_norm_param {
    use_global_stats: false
    moving_average_fraction: 0.9
    eps: 2e-05
  }
}
layer {
  name: "stage1_unit1_bn1_scale"
  type: "Scale"
  bottom: "stage1_unit1_bn1"
  top: "stage1_unit1_bn1"
  scale_param {
    bias_term: true
  }
}
layer {
  name: "stage1_unit1_conv1"
  type: "Convolution"
  bottom: "stage1_unit1_bn1"
  top: "stage1_unit1_conv1"
  param {
    lr_mult: 1
    decay_mult: 1
  }
  convolution_param {
    num_output: 64
    bias_term: false
    pad: 1
    kernel_size: 3
    stride: 1
    weight_filler {
      type: "gaussian"
      std: 0.01
    }
    engine: CAFFE
  }
}
layer {
  name: "stage1_unit1_bn2"
  type: "BatchNorm"
  bottom: "stage1_unit1_conv1"
  top: "stage1_unit1_bn2"
  batch_norm_param {
    use_global_stats: false
    moving_average_fraction: 0.9
    eps: 2e-05
  }
}
layer {
  name: "stage1_unit1_bn2_scale"
  type: "Scale"
  bottom: "stage1_unit1_bn2"
  top: "stage1_unit1_bn2"
  scale_param {
    bias_term: true
  }
}
layer {
  name: "stage1_unit1_relu1"
  type: "ReLU"
  bottom: "stage1_unit1_bn2"
  top: "stage1_unit1_relu1"
}
layer {
  name: "stage1_unit1_conv2"
  type: "Convolution"
  bottom: "stage1_unit1_relu1"
  top: "stage1_unit1_conv2"
  param {
    lr_mult: 1
    decay_mult: 1
  }
  convolution_param {
    num_output: 64
    bias_term: false
    pad: 1
    kernel_size: 3
    stride: 2
    weight_filler {
      type: "gaussian"
      std: 0.01
    }
    engine: CAFFE
  }
}
layer {
  name: "stage1_unit1_bn3"
  type: "BatchNorm"
  bottom: "stage1_unit1_conv2"
  top: "stage1_unit1_bn3"
  batch_norm_param {
    use_global_stats: false
    moving_average_fraction: 0.9
    eps: 2e-05
  }
}
layer {
  name: "stage1_unit1_bn3_scale"
  type: "Scale"
  bottom: "stage1_unit1_bn3"
  top: "stage1_unit1_bn3"
  scale_param {
    bias_term: true
  }
}
layer {
  name: "stage1_unit1_conv1sc"
  type: "Convolution"
  bottom: "relu0"
  top: "stage1_unit1_conv1sc"
  param {
    lr_mult: 1
    decay_mult: 1
  }
  convolution_param {
    num_output: 64
    bias_term: false
    kernel_size: 1
    stride: 2
    weight_filler {
      type: "gaussian"
      std: 0.01
    }
    engine: CAFFE
  }
}
layer {
  name: "stage1_unit1_sc"
  type: "BatchNorm"
  bottom: "stage1_unit1_conv1sc"
  top: "stage1_unit1_sc"
  batch_norm_param {
    use_global_stats: false
    moving_average_fraction: 0.9
    eps: 2e-05
  }
}
layer {
  name: "stage1_unit1_sc_scale"
  type: "Scale"
  bottom: "stage1_unit1_sc"
  top: "stage1_unit1_sc"
  scale_param {
    bias_term: true
  }
}
layer {
  name: "_plus0"
  type: "Eltwise"
  bottom: "stage1_unit1_bn3"
  bottom: "stage1_unit1_sc"
  top: "_plus0"
  eltwise_param {
    operation: SUM
  }
}
layer {
  name: "stage1_unit2_bn1"
  type: "BatchNorm"
  bottom: "_plus0"
  top: "stage1_unit2_bn1"
  batch_norm_param {
    use_global_stats: false
    moving_average_fraction: 0.9
    eps: 2e-05
  }
}
layer {
  name: "stage1_unit2_bn1_scale"
  type: "Scale"
  bottom: "stage1_unit2_bn1"
  top: "stage1_unit2_bn1"
  scale_param {
    bias_term: true
  }
}
layer {
  name: "stage1_unit2_conv1"
  type: "Convolution"
  bottom: "stage1_unit2_bn1"
  top: "stage1_unit2_conv1"
  param {
    lr_mult: 1
    decay_mult: 1
  }
  convolution_param {
    num_output: 64
    bias_term: false
    pad: 1
    kernel_size: 3
    stride: 1
    weight_filler {
      type: "gaussian"
      std: 0.01
    }
    engine: CAFFE
  }
}
layer {
  name: "stage1_unit2_bn2"
  type: "BatchNorm"
  bottom: "stage1_unit2_conv1"
  top: "stage1_unit2_bn2"
  batch_norm_param {
    use_global_stats: false
    moving_average_fraction: 0.9
    eps: 2e-05
  }
}
layer {
  name: "stage1_unit2_bn2_scale"
  type: "Scale"
  bottom: "stage1_unit2_bn2"
  top: "stage1_unit2_bn2"
  scale_param {
    bias_term: true
  }
}
layer {
  name: "stage1_unit2_relu1"
  type: "ReLU"
  bottom: "stage1_unit2_bn2"
  top: "stage1_unit2_relu1"
}
layer {
  name: "stage1_unit2_conv2"
  type: "Convolution"
  bottom: "stage1_unit2_relu1"
  top: "stage1_unit2_conv2"
  param {
    lr_mult: 1
    decay_mult: 1
  }
  convolution_param {
    num_output: 64
    bias_term: false
    pad: 1
    kernel_size: 3
    stride: 1
    weight_filler {
      type: "gaussian"
      std: 0.01
    }
    engine: CAFFE
  }
}
layer {
  name: "stage1_unit2_bn3"
  type: "BatchNorm"
  bottom: "stage1_unit2_conv2"
  top: "stage1_unit2_bn3"
  batch_norm_param {
    use_global_stats: false
    moving_average_fraction: 0.9
    eps: 2e-05
  }
}
layer {
  name: "stage1_unit2_bn3_scale"
  type: "Scale"
  bottom: "stage1_unit2_bn3"
  top: "stage1_unit2_bn3"
  scale_param {
    bias_term: true
  }
}
layer {
  name: "_plus1"
  type: "Eltwise"
  bottom: "stage1_unit2_bn3"
  bottom: "_plus0"
  top: "_plus1"
  eltwise_param {
    operation: SUM
  }
}
layer {
  name: "stage2_unit1_bn1"
  type: "BatchNorm"
  bottom: "_plus1"
  top: "stage2_unit1_bn1"
  batch_norm_param {
    use_global_stats: false
    moving_average_fraction: 0.9
    eps: 2e-05
  }
}
layer {
  name: "stage2_unit1_bn1_scale"
  type: "Scale"
  bottom: "stage2_unit1_bn1"
  top: "stage2_unit1_bn1"
  scale_param {
    bias_term: true
  }
}
layer {
  name: "stage2_unit1_conv1"
  type: "Convolution"
  bottom: "stage2_unit1_bn1"
  top: "stage2_unit1_conv1"
  param {
    lr_mult: 1
    decay_mult: 1
  }
  convolution_param {
    num_output: 128
    bias_term: false
    pad: 1
    kernel_size: 3
    stride: 1
    weight_filler {
      type: "gaussian"
      std: 0.01
    }
    engine: CAFFE
  }
}
layer {
  name: "stage2_unit1_bn2"
  type: "BatchNorm"
  bottom: "stage2_unit1_conv1"
  top: "stage2_unit1_bn2"
  batch_norm_param {
    use_global_stats: false
    moving_average_fraction: 0.9
    eps: 2e-05
  }
}
layer {
  name: "stage2_unit1_bn2_scale"
  type: "Scale"
  bottom: "stage2_unit1_bn2"
  top: "stage2_unit1_bn2"
  scale_param {
    bias_term: true
  }
}
layer {
  name: "stage2_unit1_relu1"
  type: "ReLU"
  bottom: "stage2_unit1_bn2"
  top: "stage2_unit1_relu1"
}
layer {
  name: "stage2_unit1_conv2"
  type: "Convolution"
  bottom: "stage2_unit1_relu1"
  top: "stage2_unit1_conv2"
  param {
    lr_mult: 1
    decay_mult: 1
  }
  convolution_param {
    num_output: 128
    bias_term: false
    pad: 1
    kernel_size: 3
    stride: 2
    weight_filler {
      type: "gaussian"
      std: 0.01
    }
    engine: CAFFE
  }
}
layer {
  name: "stage2_unit1_bn3"
  type: "BatchNorm"
  bottom: "stage2_unit1_conv2"
  top: "stage2_unit1_bn3"
  batch_norm_param {
    use_global_stats: false
    moving_average_fraction: 0.9
    eps: 2e-05
  }
}
layer {
  name: "stage2_unit1_bn3_scale"
  type: "Scale"
  bottom: "stage2_unit1_bn3"
  top: "stage2_unit1_bn3"
  scale_param {
    bias_term: true
  }
}
layer {
  name: "stage2_unit1_conv1sc"
  type: "Convolution"
  bottom: "_plus1"
  top: "stage2_unit1_conv1sc"
  param {
    lr_mult: 1
    decay_mult: 1
  }
  convolution_param {
    num_output: 128
    bias_term: false
    kernel_size: 1
    stride: 2
    weight_filler {
      type: "gaussian"
      std: 0.01
    }
    engine: CAFFE
  }
}
layer {
  name: "stage2_unit1_sc"
  type: "BatchNorm"
  bottom: "stage2_unit1_conv1sc"
  top: "stage2_unit1_sc"
  batch_norm_param {
    use_global_stats: false
    moving_average_fraction: 0.9
    eps: 2e-05
  }
}
layer {
  name: "stage2_unit1_sc_scale"
  type: "Scale"
  bottom: "stage2_unit1_sc"
  top: "stage2_unit1_sc"
  scale_param {
    bias_term: true
  }
}
layer {
  name: "_plus2"
  type: "Eltwise"
  bottom: "stage2_unit1_bn3"
  bottom: "stage2_unit1_sc"
  top: "_plus2"
  eltwise_param {
    operation: SUM
  }
}
layer {
  name: "stage2_unit2_bn1"
  type: "BatchNorm"
  bottom: "_plus2"
  top: "stage2_unit2_bn1"
  batch_norm_param {
    use_global_stats: false
    moving_average_fraction: 0.9
    eps: 2e-05
  }
}
layer {
  name: "stage2_unit2_bn1_scale"
  type: "Scale"
  bottom: "stage2_unit2_bn1"
  top: "stage2_unit2_bn1"
  scale_param {
    bias_term: true
  }
}
layer {
  name: "stage2_unit2_conv1"
  type: "Convolution"
  bottom: "stage2_unit2_bn1"
  top: "stage2_unit2_conv1"
  param {
    lr_mult: 1
    decay_mult: 1
  }
  convolution_param {
    num_output: 128
    bias_term: false
    pad: 1
    kernel_size: 3
    stride: 1
    weight_filler {
      type: "gaussian"
      std: 0.01
    }
    engine: CAFFE
  }
}
layer {
  name: "stage2_unit2_bn2"
  type: "BatchNorm"
  bottom: "stage2_unit2_conv1"
  top: "stage2_unit2_bn2"
  batch_norm_param {
    use_global_stats: false
    moving_average_fraction: 0.9
    eps: 2e-05
  }
}
layer {
  name: "stage2_unit2_bn2_scale"
  type: "Scale"
  bottom: "stage2_unit2_bn2"
  top: "stage2_unit2_bn2"
  scale_param {
    bias_term: true
  }
}
layer {
  name: "stage2_unit2_relu1"
  type: "ReLU"
  bottom: "stage2_unit2_bn2"
  top: "stage2_unit2_relu1"
}
layer {
  name: "stage2_unit2_conv2"
  type: "Convolution"
  bottom: "stage2_unit2_relu1"
  top: "stage2_unit2_conv2"
  param {
    lr_mult: 1
    decay_mult: 1
  }
  convolution_param {
    num_output: 128
    bias_term: false
    pad: 1
    kernel_size: 3
    stride: 1
    weight_filler {
      type: "gaussian"
      std: 0.01
    }
    engine: CAFFE
  }
}
layer {
  name: "stage2_unit2_bn3"
  type: "BatchNorm"
  bottom: "stage2_unit2_conv2"
  top: "stage2_unit2_bn3"
  batch_norm_param {
    use_global_stats: false
    moving_average_fraction: 0.9
    eps: 2e-05
  }
}
layer {
  name: "stage2_unit2_bn3_scale"
  type: "Scale"
  bottom: "stage2_unit2_bn3"
  top: "stage2_unit2_bn3"
  scale_param {
    bias_term: true
  }
}
layer {
  name: "_plus3"
  type: "Eltwise"
  bottom: "stage2_unit2_bn3"
  bottom: "_plus2"
  top: "_plus3"
  eltwise_param {
    operation: SUM
  }
}
layer {
  name: "stage3_unit1_bn1"
  type: "BatchNorm"
  bottom: "_plus3"
  top: "stage3_unit1_bn1"
  batch_norm_param {
    use_global_stats: false
    moving_average_fraction: 0.9
    eps: 2e-05
  }
}
layer {
  name: "stage3_unit1_bn1_scale"
  type: "Scale"
  bottom: "stage3_unit1_bn1"
  top: "stage3_unit1_bn1"
  scale_param {
    bias_term: true
  }
}
layer {
  name: "stage3_unit1_conv1"
  type: "Convolution"
  bottom: "stage3_unit1_bn1"
  top: "stage3_unit1_conv1"
  param {
    lr_mult: 1
    decay_mult: 1
  }
  convolution_param {
    num_output: 256
    bias_term: false
    pad: 1
    kernel_size: 3
    stride: 1
    weight_filler {
      type: "gaussian"
      std: 0.01
    }
    engine: CAFFE
  }
}
layer {
  name: "stage3_unit1_bn2"
  type: "BatchNorm"
  bottom: "stage3_unit1_conv1"
  top: "stage3_unit1_bn2"
  batch_norm_param {
    use_global_stats: false
    moving_average_fraction: 0.9
    eps: 2e-05
  }
}
layer {
  name: "stage3_unit1_bn2_scale"
  type: "Scale"
  bottom: "stage3_unit1_bn2"
  top: "stage3_unit1_bn2"
  scale_param {
    bias_term: true
  }
}
layer {
  name: "stage3_unit1_relu1"
  type: "ReLU"
  bottom: "stage3_unit1_bn2"
  top: "stage3_unit1_relu1"
}
layer {
  name: "stage3_unit1_conv2"
  type: "Convolution"
  bottom: "stage3_unit1_relu1"
  top: "stage3_unit1_conv2"
  param {
    lr_mult: 1
    decay_mult: 1
  }
  convolution_param {
    num_output: 256
    bias_term: false
    pad: 1
    kernel_size: 3
    stride: 2
    weight_filler {
      type: "gaussian"
      std: 0.01
    }
    engine: CAFFE
  }
}
layer {
  name: "stage3_unit1_bn3"
  type: "BatchNorm"
  bottom: "stage3_unit1_conv2"
  top: "stage3_unit1_bn3"
  batch_norm_param {
    use_global_stats: false
    moving_average_fraction: 0.9
    eps: 2e-05
  }
}
layer {
  name: "stage3_unit1_bn3_scale"
  type: "Scale"
  bottom: "stage3_unit1_bn3"
  top: "stage3_unit1_bn3"
  scale_param {
    bias_term: true
  }
}
layer {
  name: "stage3_unit1_conv1sc"
  type: "Convolution"
  bottom: "_plus3"
  top: "stage3_unit1_conv1sc"
  param {
    lr_mult: 1
    decay_mult: 1
  }
  convolution_param {
    num_output: 256
    bias_term: false
    kernel_size: 1
    stride: 2
    weight_filler {
      type: "gaussian"
      std: 0.01
    }
    engine: CAFFE
  }
}
layer {
  name: "stage3_unit1_sc"
  type: "BatchNorm"
  bottom: "stage3_unit1_conv1sc"
  top: "stage3_unit1_sc"
  batch_norm_param {
    use_global_stats: false
    moving_average_fraction: 0.9
    eps: 2e-05
  }
}
layer {
  name: "stage3_unit1_sc_scale"
  type: "Scale"
  bottom: "stage3_unit1_sc"
  top: "stage3_unit1_sc"
  scale_param {
    bias_term: true
  }
}
layer {
  name: "_plus4"
  type: "Eltwise"
  bottom: "stage3_unit1_bn3"
  bottom: "stage3_unit1_sc"
  top: "_plus4"
  eltwise_param {
    operation: SUM
  }
}
layer {
  name: "stage3_unit2_bn1"
  type: "BatchNorm"
  bottom: "_plus4"
  top: "stage3_unit2_bn1"
  batch_norm_param {
    use_global_stats: false
    moving_average_fraction: 0.9
    eps: 2e-05
  }
}
layer {
  name: "stage3_unit2_bn1_scale"
  type: "Scale"
  bottom: "stage3_unit2_bn1"
  top: "stage3_unit2_bn1"
  scale_param {
    bias_term: true
  }
}
layer {
  name: "stage3_unit2_conv1"
  type: "Convolution"
  bottom: "stage3_unit2_bn1"
  top: "stage3_unit2_conv1"
  param {
    lr_mult: 1
    decay_mult: 1
  }
  convolution_param {
    num_output: 256
    bias_term: false
    pad: 1
    kernel_size: 3
    stride: 1
    weight_filler {
      type: "gaussian"
      std: 0.01
    }
    engine: CAFFE
  }
}
layer {
  name: "stage3_unit2_bn2"
  type: "BatchNorm"
  bottom: "stage3_unit2_conv1"
  top: "stage3_unit2_bn2"
  batch_norm_param {
    use_global_stats: false
    moving_average_fraction: 0.9
    eps: 2e-05
  }
}
layer {
  name: "stage3_unit2_bn2_scale"
  type: "Scale"
  bottom: "stage3_unit2_bn2"
  top: "stage3_unit2_bn2"
  scale_param {
    bias_term: true
  }
}
layer {
  name: "stage3_unit2_relu1"
  type: "ReLU"
  bottom: "stage3_unit2_bn2"
  top: "stage3_unit2_relu1"
}
layer {
  name: "stage3_unit2_conv2"
  type: "Convolution"
  bottom: "stage3_unit2_relu1"
  top: "stage3_unit2_conv2"
  param {
    lr_mult: 1
    decay_mult: 1
  }
  convolution_param {
    num_output: 256
    bias_term: false
    pad: 1
    kernel_size: 3
    stride: 1
    weight_filler {
      type: "gaussian"
      std: 0.01
    }
    engine: CAFFE
  }
}
layer {
  name: "stage3_unit2_bn3"
  type: "BatchNorm"
  bottom: "stage3_unit2_conv2"
  top: "stage3_unit2_bn3"
  batch_norm_param {
    use_global_stats: false
    moving_average_fraction: 0.9
    eps: 2e-05
  }
}
layer {
  name: "stage3_unit2_bn3_scale"
  type: "Scale"
  bottom: "stage3_unit2_bn3"
  top: "stage3_unit2_bn3"
  scale_param {
    bias_term: true
  }
}
layer {
  name: "_plus5"
  type: "Eltwise"
  bottom: "stage3_unit2_bn3"
  bottom: "_plus4"
  top: "_plus5"
  eltwise_param {
    operation: SUM
  }
}
layer {
  name: "stage4_unit1_bn1"
  type: "BatchNorm"
  bottom: "_plus5"
  top: "stage4_unit1_bn1"
  batch_norm_param {
    use_global_stats: false
    moving_average_fraction: 0.9
    eps: 2e-05
  }
}
layer {
  name: "stage4_unit1_bn1_scale"
  type: "Scale"
  bottom: "stage4_unit1_bn1"
  top: "stage4_unit1_bn1"
  scale_param {
    bias_term: true
  }
}
layer {
  name: "stage4_unit1_conv1"
  type: "Convolution"
  bottom: "stage4_unit1_bn1"
  top: "stage4_unit1_conv1"
  param {
    lr_mult: 1
    decay_mult: 1
  }
  convolution_param {
    num_output: 512
    bias_term: false
    pad: 1
    kernel_size: 3
    stride: 1
    weight_filler {
      type: "gaussian"
      std: 0.01
    }
    engine: CAFFE
  }
}
layer {
  name: "stage4_unit1_bn2"
  type: "BatchNorm"
  bottom: "stage4_unit1_conv1"
  top: "stage4_unit1_bn2"
  batch_norm_param {
    use_global_stats: false
    moving_average_fraction: 0.9
    eps: 2e-05
  }
}
layer {
  name: "stage4_unit1_bn2_scale"
  type: "Scale"
  bottom: "stage4_unit1_bn2"
  top: "stage4_unit1_bn2"
  scale_param {
    bias_term: true
  }
}
layer {
  name: "stage4_unit1_relu1"
  type: "ReLU"
  bottom: "stage4_unit1_bn2"
  top: "stage4_unit1_relu1"
}
layer {
  name: "stage4_unit1_conv2"
  type: "Convolution"
  bottom: "stage4_unit1_relu1"
  top: "stage4_unit1_conv2"
  param {
    lr_mult: 1
    decay_mult: 1
  }
  convolution_param {
    num_output: 512
    bias_term: false
    pad: 1
    kernel_size: 3
    stride: 2
    weight_filler {
      type: "gaussian"
      std: 0.01
    }
    engine: CAFFE
  }
}
layer {
  name: "stage4_unit1_bn3"
  type: "BatchNorm"
  bottom: "stage4_unit1_conv2"
  top: "stage4_unit1_bn3"
  batch_norm_param {
    use_global_stats: false
    moving_average_fraction: 0.9
    eps: 2e-05
  }
}
layer {
  name: "stage4_unit1_bn3_scale"
  type: "Scale"
  bottom: "stage4_unit1_bn3"
  top: "stage4_unit1_bn3"
  scale_param {
    bias_term: true
  }
}
layer {
  name: "stage4_unit1_conv1sc"
  type: "Convolution"
  bottom: "_plus5"
  top: "stage4_unit1_conv1sc"
  param {
    lr_mult: 1
    decay_mult: 1
  }
  convolution_param {
    num_output: 512
    bias_term: false
    kernel_size: 1
    stride: 2
    weight_filler {
      type: "gaussian"
      std: 0.01
    }
    engine: CAFFE
  }
}
layer {
  name: "stage4_unit1_sc"
  type: "BatchNorm"
  bottom: "stage4_unit1_conv1sc"
  top: "stage4_unit1_sc"
  batch_norm_param {
    use_global_stats: false
    moving_average_fraction: 0.9
    eps: 2e-05
  }
}
layer {
  name: "stage4_unit1_sc_scale"
  type: "Scale"
  bottom: "stage4_unit1_sc"
  top: "stage4_unit1_sc"
  scale_param {
    bias_term: true
  }
}
layer {
  name: "_plus6"
  type: "Eltwise"
  bottom: "stage4_unit1_bn3"
  bottom: "stage4_unit1_sc"
  top: "_plus6"
  eltwise_param {
    operation: SUM
  }
}
layer {
  name: "stage4_unit2_bn1"
  type: "BatchNorm"
  bottom: "_plus6"
  top: "stage4_unit2_bn1"
  batch_norm_param {
    use_global_stats: false
    moving_average_fraction: 0.9
    eps: 2e-05
  }
}
layer {
  name: "stage4_unit2_bn1_scale"
  type: "Scale"
  bottom: "stage4_unit2_bn1"
  top: "stage4_unit2_bn1"
  scale_param {
    bias_term: true
  }
}
layer {
  name: "stage4_unit2_conv1"
  type: "Convolution"
  bottom: "stage4_unit2_bn1"
  top: "stage4_unit2_conv1"
  param {
    lr_mult: 1
    decay_mult: 1
  }
  convolution_param {
    num_output: 512
    bias_term: false
    pad: 1
    kernel_size: 3
    stride: 1
    weight_filler {
      type: "gaussian"
      std: 0.01
    }
    engine: CAFFE
  }
}
layer {
  name: "stage4_unit2_bn2"
  type: "BatchNorm"
  bottom: "stage4_unit2_conv1"
  top: "stage4_unit2_bn2"
  batch_norm_param {
    use_global_stats: false
    moving_average_fraction: 0.9
    eps: 2e-05
  }
}
layer {
  name: "stage4_unit2_bn2_scale"
  type: "Scale"
  bottom: "stage4_unit2_bn2"
  top: "stage4_unit2_bn2"
  scale_param {
    bias_term: true
  }
}
layer {
  name: "stage4_unit2_relu1"
  type: "ReLU"
  bottom: "stage4_unit2_bn2"
  top: "stage4_unit2_relu1"
}
layer {
  name: "stage4_unit2_conv2"
  type: "Convolution"
  bottom: "stage4_unit2_relu1"
  top: "stage4_unit2_conv2"
  param {
    lr_mult: 1
    decay_mult: 1
  }
  convolution_param {
    num_output: 512
    bias_term: false
    pad: 1
    kernel_size: 3
    stride: 1
    weight_filler {
      type: "gaussian"
      std: 0.01
    }
    engine: CAFFE
  }
}
layer {
  name: "stage4_unit2_bn3"
  type: "BatchNorm"
  bottom: "stage4_unit2_conv2"
  top: "stage4_unit2_bn3"
  batch_norm_param {
    use_global_stats: false
    moving_average_fraction: 0.9
    eps: 2e-05
  }
}
layer {
  name: "stage4_unit2_bn3_scale"
  type: "Scale"
  bottom: "stage4_unit2_bn3"
  top: "stage4_unit2_bn3"
  scale_param {
    bias_term: true
  }
}
layer {
  name: "_plus7"
  type: "Eltwise"
  bottom: "stage4_unit2_bn3"
  bottom: "_plus6"
  top: "_plus7"
  eltwise_param {
    operation: SUM
  }
}
layer {
  name: "bn1"
  type: "BatchNorm"
  bottom: "_plus7"
  top: "bn1"
  batch_norm_param {
    use_global_stats: false
    moving_average_fraction: 0.9
    eps: 2e-05
  }
}
layer {
  name: "bn1_scale"
  type: "Scale"
  bottom: "bn1"
  top: "bn1"
  scale_param {
    bias_term: true
  }
}
layer {
  name: "fc8"
  type: "InnerProduct"
  bottom: "bn1"
  top: "fc8"
  param {
    lr_mult: 1
    decay_mult: 1
  }
  param {
    lr_mult: 2
    decay_mult: 0
  }
  inner_product_param {
    num_output: 2
    weight_filler {
      type: "msra"
      std: 0.01
    }
    bias_filler {
      type: "constant"
      value: 0
    }
  }
}
layer {
  name: "loss"
  type: "WeightedSoftmaxWithLoss"
  bottom: "fc8"
  bottom: "label"
  top: "loss"
  softmax_param {
    pos_mult: 1.3
    pos_cid: 1
  }
}
I0109 17:01:13.467041 20212 layer_factory.hpp:77] Creating layer data
I0109 17:01:13.467212 20212 db_lmdb.cpp:35] Opened lmdb /home/lc/gender/school/data_2/train.lmdb
I0109 17:01:13.467280 20212 net.cpp:84] Creating Layer data
I0109 17:01:13.467298 20212 net.cpp:380] data -> data
I0109 17:01:13.467342 20212 net.cpp:380] data -> label
I0109 17:01:13.470168 20212 data_layer.cpp:45] output data size: 8,3,200,200
I0109 17:01:13.484238 20212 net.cpp:122] Setting up data
I0109 17:01:13.484284 20212 net.cpp:129] Top shape: 8 3 200 200 (960000)
I0109 17:01:13.484294 20212 net.cpp:129] Top shape: 8 (8)
I0109 17:01:13.484302 20212 net.cpp:137] Memory required for data: 3840032
I0109 17:01:13.484318 20212 layer_factory.hpp:77] Creating layer conv0
I0109 17:01:13.484352 20212 net.cpp:84] Creating Layer conv0
I0109 17:01:13.484364 20212 net.cpp:406] conv0 <- data
I0109 17:01:13.484385 20212 net.cpp:380] conv0 -> conv0
I0109 17:01:13.485033 20212 net.cpp:122] Setting up conv0
I0109 17:01:13.485054 20212 net.cpp:129] Top shape: 8 64 200 200 (20480000)
I0109 17:01:13.485060 20212 net.cpp:137] Memory required for data: 85760032
I0109 17:01:13.485105 20212 layer_factory.hpp:77] Creating layer bn0
I0109 17:01:13.485123 20212 net.cpp:84] Creating Layer bn0
I0109 17:01:13.485131 20212 net.cpp:406] bn0 <- conv0
I0109 17:01:13.485143 20212 net.cpp:380] bn0 -> bn0
I0109 17:01:13.485528 20212 net.cpp:122] Setting up bn0
I0109 17:01:13.485543 20212 net.cpp:129] Top shape: 8 64 200 200 (20480000)
I0109 17:01:13.485549 20212 net.cpp:137] Memory required for data: 167680032
I0109 17:01:13.485568 20212 layer_factory.hpp:77] Creating layer bn0_scale
I0109 17:01:13.485579 20212 net.cpp:84] Creating Layer bn0_scale
I0109 17:01:13.485587 20212 net.cpp:406] bn0_scale <- bn0
I0109 17:01:13.485595 20212 net.cpp:367] bn0_scale -> bn0 (in-place)
I0109 17:01:13.485657 20212 layer_factory.hpp:77] Creating layer bn0_scale
I0109 17:01:13.485934 20212 net.cpp:122] Setting up bn0_scale
I0109 17:01:13.485949 20212 net.cpp:129] Top shape: 8 64 200 200 (20480000)
I0109 17:01:13.485955 20212 net.cpp:137] Memory required for data: 249600032
I0109 17:01:13.485968 20212 layer_factory.hpp:77] Creating layer relu0
I0109 17:01:13.485980 20212 net.cpp:84] Creating Layer relu0
I0109 17:01:13.485988 20212 net.cpp:406] relu0 <- bn0
I0109 17:01:13.485996 20212 net.cpp:380] relu0 -> relu0
I0109 17:01:14.046273 20212 net.cpp:122] Setting up relu0
I0109 17:01:14.046319 20212 net.cpp:129] Top shape: 8 64 200 200 (20480000)
I0109 17:01:14.046324 20212 net.cpp:137] Memory required for data: 331520032
I0109 17:01:14.046332 20212 layer_factory.hpp:77] Creating layer relu0_relu0_0_split
I0109 17:01:14.046346 20212 net.cpp:84] Creating Layer relu0_relu0_0_split
I0109 17:01:14.046351 20212 net.cpp:406] relu0_relu0_0_split <- relu0
I0109 17:01:14.046362 20212 net.cpp:380] relu0_relu0_0_split -> relu0_relu0_0_split_0
I0109 17:01:14.046373 20212 net.cpp:380] relu0_relu0_0_split -> relu0_relu0_0_split_1
I0109 17:01:14.046422 20212 net.cpp:122] Setting up relu0_relu0_0_split
I0109 17:01:14.046432 20212 net.cpp:129] Top shape: 8 64 200 200 (20480000)
I0109 17:01:14.046437 20212 net.cpp:129] Top shape: 8 64 200 200 (20480000)
I0109 17:01:14.046442 20212 net.cpp:137] Memory required for data: 495360032
I0109 17:01:14.046445 20212 layer_factory.hpp:77] Creating layer stage1_unit1_bn1
I0109 17:01:14.046453 20212 net.cpp:84] Creating Layer stage1_unit1_bn1
I0109 17:01:14.046459 20212 net.cpp:406] stage1_unit1_bn1 <- relu0_relu0_0_split_0
I0109 17:01:14.046466 20212 net.cpp:380] stage1_unit1_bn1 -> stage1_unit1_bn1
I0109 17:01:14.046723 20212 net.cpp:122] Setting up stage1_unit1_bn1
I0109 17:01:14.046733 20212 net.cpp:129] Top shape: 8 64 200 200 (20480000)
I0109 17:01:14.046737 20212 net.cpp:137] Memory required for data: 577280032
I0109 17:01:14.046756 20212 layer_factory.hpp:77] Creating layer stage1_unit1_bn1_scale
I0109 17:01:14.046766 20212 net.cpp:84] Creating Layer stage1_unit1_bn1_scale
I0109 17:01:14.046769 20212 net.cpp:406] stage1_unit1_bn1_scale <- stage1_unit1_bn1
I0109 17:01:14.046775 20212 net.cpp:367] stage1_unit1_bn1_scale -> stage1_unit1_bn1 (in-place)
I0109 17:01:14.046821 20212 layer_factory.hpp:77] Creating layer stage1_unit1_bn1_scale
I0109 17:01:14.047037 20212 net.cpp:122] Setting up stage1_unit1_bn1_scale
I0109 17:01:14.047047 20212 net.cpp:129] Top shape: 8 64 200 200 (20480000)
I0109 17:01:14.047051 20212 net.cpp:137] Memory required for data: 659200032
I0109 17:01:14.047060 20212 layer_factory.hpp:77] Creating layer stage1_unit1_conv1
I0109 17:01:14.047075 20212 net.cpp:84] Creating Layer stage1_unit1_conv1
I0109 17:01:14.047080 20212 net.cpp:406] stage1_unit1_conv1 <- stage1_unit1_bn1
I0109 17:01:14.047086 20212 net.cpp:380] stage1_unit1_conv1 -> stage1_unit1_conv1
I0109 17:01:14.047760 20212 net.cpp:122] Setting up stage1_unit1_conv1
I0109 17:01:14.047770 20212 net.cpp:129] Top shape: 8 64 200 200 (20480000)
I0109 17:01:14.047773 20212 net.cpp:137] Memory required for data: 741120032
I0109 17:01:14.047780 20212 layer_factory.hpp:77] Creating layer stage1_unit1_bn2
I0109 17:01:14.047787 20212 net.cpp:84] Creating Layer stage1_unit1_bn2
I0109 17:01:14.047791 20212 net.cpp:406] stage1_unit1_bn2 <- stage1_unit1_conv1
I0109 17:01:14.047797 20212 net.cpp:380] stage1_unit1_bn2 -> stage1_unit1_bn2
I0109 17:01:14.048040 20212 net.cpp:122] Setting up stage1_unit1_bn2
I0109 17:01:14.048049 20212 net.cpp:129] Top shape: 8 64 200 200 (20480000)
I0109 17:01:14.048053 20212 net.cpp:137] Memory required for data: 823040032
I0109 17:01:14.048061 20212 layer_factory.hpp:77] Creating layer stage1_unit1_bn2_scale
I0109 17:01:14.048069 20212 net.cpp:84] Creating Layer stage1_unit1_bn2_scale
I0109 17:01:14.048074 20212 net.cpp:406] stage1_unit1_bn2_scale <- stage1_unit1_bn2
I0109 17:01:14.048079 20212 net.cpp:367] stage1_unit1_bn2_scale -> stage1_unit1_bn2 (in-place)
I0109 17:01:14.048115 20212 layer_factory.hpp:77] Creating layer stage1_unit1_bn2_scale
I0109 17:01:14.048331 20212 net.cpp:122] Setting up stage1_unit1_bn2_scale
I0109 17:01:14.048339 20212 net.cpp:129] Top shape: 8 64 200 200 (20480000)
I0109 17:01:14.048343 20212 net.cpp:137] Memory required for data: 904960032
I0109 17:01:14.048354 20212 layer_factory.hpp:77] Creating layer stage1_unit1_relu1
I0109 17:01:14.048362 20212 net.cpp:84] Creating Layer stage1_unit1_relu1
I0109 17:01:14.048368 20212 net.cpp:406] stage1_unit1_relu1 <- stage1_unit1_bn2
I0109 17:01:14.048373 20212 net.cpp:380] stage1_unit1_relu1 -> stage1_unit1_relu1
I0109 17:01:14.048476 20212 net.cpp:122] Setting up stage1_unit1_relu1
I0109 17:01:14.048487 20212 net.cpp:129] Top shape: 8 64 200 200 (20480000)
I0109 17:01:14.048492 20212 net.cpp:137] Memory required for data: 986880032
I0109 17:01:14.048497 20212 layer_factory.hpp:77] Creating layer stage1_unit1_conv2
I0109 17:01:14.048507 20212 net.cpp:84] Creating Layer stage1_unit1_conv2
I0109 17:01:14.048513 20212 net.cpp:406] stage1_unit1_conv2 <- stage1_unit1_relu1
I0109 17:01:14.048519 20212 net.cpp:380] stage1_unit1_conv2 -> stage1_unit1_conv2
I0109 17:01:14.049180 20212 net.cpp:122] Setting up stage1_unit1_conv2
I0109 17:01:14.049190 20212 net.cpp:129] Top shape: 8 64 100 100 (5120000)
I0109 17:01:14.049193 20212 net.cpp:137] Memory required for data: 1007360032
I0109 17:01:14.049199 20212 layer_factory.hpp:77] Creating layer stage1_unit1_bn3
I0109 17:01:14.049206 20212 net.cpp:84] Creating Layer stage1_unit1_bn3
I0109 17:01:14.049211 20212 net.cpp:406] stage1_unit1_bn3 <- stage1_unit1_conv2
I0109 17:01:14.049217 20212 net.cpp:380] stage1_unit1_bn3 -> stage1_unit1_bn3
I0109 17:01:14.049429 20212 net.cpp:122] Setting up stage1_unit1_bn3
I0109 17:01:14.049437 20212 net.cpp:129] Top shape: 8 64 100 100 (5120000)
I0109 17:01:14.049441 20212 net.cpp:137] Memory required for data: 1027840032
I0109 17:01:14.049450 20212 layer_factory.hpp:77] Creating layer stage1_unit1_bn3_scale
I0109 17:01:14.049459 20212 net.cpp:84] Creating Layer stage1_unit1_bn3_scale
I0109 17:01:14.049463 20212 net.cpp:406] stage1_unit1_bn3_scale <- stage1_unit1_bn3
I0109 17:01:14.049468 20212 net.cpp:367] stage1_unit1_bn3_scale -> stage1_unit1_bn3 (in-place)
I0109 17:01:14.049507 20212 layer_factory.hpp:77] Creating layer stage1_unit1_bn3_scale
I0109 17:01:14.049639 20212 net.cpp:122] Setting up stage1_unit1_bn3_scale
I0109 17:01:14.049649 20212 net.cpp:129] Top shape: 8 64 100 100 (5120000)
I0109 17:01:14.049652 20212 net.cpp:137] Memory required for data: 1048320032
I0109 17:01:14.049659 20212 layer_factory.hpp:77] Creating layer stage1_unit1_conv1sc
I0109 17:01:14.049669 20212 net.cpp:84] Creating Layer stage1_unit1_conv1sc
I0109 17:01:14.049675 20212 net.cpp:406] stage1_unit1_conv1sc <- relu0_relu0_0_split_1
I0109 17:01:14.049681 20212 net.cpp:380] stage1_unit1_conv1sc -> stage1_unit1_conv1sc
I0109 17:01:14.049911 20212 net.cpp:122] Setting up stage1_unit1_conv1sc
I0109 17:01:14.049921 20212 net.cpp:129] Top shape: 8 64 100 100 (5120000)
I0109 17:01:14.049924 20212 net.cpp:137] Memory required for data: 1068800032
I0109 17:01:14.049930 20212 layer_factory.hpp:77] Creating layer stage1_unit1_sc
I0109 17:01:14.049938 20212 net.cpp:84] Creating Layer stage1_unit1_sc
I0109 17:01:14.049942 20212 net.cpp:406] stage1_unit1_sc <- stage1_unit1_conv1sc
I0109 17:01:14.049948 20212 net.cpp:380] stage1_unit1_sc -> stage1_unit1_sc
I0109 17:01:14.050173 20212 net.cpp:122] Setting up stage1_unit1_sc
I0109 17:01:14.050184 20212 net.cpp:129] Top shape: 8 64 100 100 (5120000)
I0109 17:01:14.050187 20212 net.cpp:137] Memory required for data: 1089280032
I0109 17:01:14.050196 20212 layer_factory.hpp:77] Creating layer stage1_unit1_sc_scale
I0109 17:01:14.050204 20212 net.cpp:84] Creating Layer stage1_unit1_sc_scale
I0109 17:01:14.050210 20212 net.cpp:406] stage1_unit1_sc_scale <- stage1_unit1_sc
I0109 17:01:14.050215 20212 net.cpp:367] stage1_unit1_sc_scale -> stage1_unit1_sc (in-place)
I0109 17:01:14.050254 20212 layer_factory.hpp:77] Creating layer stage1_unit1_sc_scale
I0109 17:01:14.051569 20212 net.cpp:122] Setting up stage1_unit1_sc_scale
I0109 17:01:14.051585 20212 net.cpp:129] Top shape: 8 64 100 100 (5120000)
I0109 17:01:14.051589 20212 net.cpp:137] Memory required for data: 1109760032
I0109 17:01:14.051599 20212 layer_factory.hpp:77] Creating layer _plus0
I0109 17:01:14.051607 20212 net.cpp:84] Creating Layer _plus0
I0109 17:01:14.051612 20212 net.cpp:406] _plus0 <- stage1_unit1_bn3
I0109 17:01:14.051620 20212 net.cpp:406] _plus0 <- stage1_unit1_sc
I0109 17:01:14.051626 20212 net.cpp:380] _plus0 -> _plus0
I0109 17:01:14.051661 20212 net.cpp:122] Setting up _plus0
I0109 17:01:14.051669 20212 net.cpp:129] Top shape: 8 64 100 100 (5120000)
I0109 17:01:14.051673 20212 net.cpp:137] Memory required for data: 1130240032
I0109 17:01:14.051677 20212 layer_factory.hpp:77] Creating layer _plus0__plus0_0_split
I0109 17:01:14.051684 20212 net.cpp:84] Creating Layer _plus0__plus0_0_split
I0109 17:01:14.051688 20212 net.cpp:406] _plus0__plus0_0_split <- _plus0
I0109 17:01:14.051694 20212 net.cpp:380] _plus0__plus0_0_split -> _plus0__plus0_0_split_0
I0109 17:01:14.051703 20212 net.cpp:380] _plus0__plus0_0_split -> _plus0__plus0_0_split_1
I0109 17:01:14.051741 20212 net.cpp:122] Setting up _plus0__plus0_0_split
I0109 17:01:14.051750 20212 net.cpp:129] Top shape: 8 64 100 100 (5120000)
I0109 17:01:14.051756 20212 net.cpp:129] Top shape: 8 64 100 100 (5120000)
I0109 17:01:14.051759 20212 net.cpp:137] Memory required for data: 1171200032
I0109 17:01:14.051764 20212 layer_factory.hpp:77] Creating layer stage1_unit2_bn1
I0109 17:01:14.051771 20212 net.cpp:84] Creating Layer stage1_unit2_bn1
I0109 17:01:14.051775 20212 net.cpp:406] stage1_unit2_bn1 <- _plus0__plus0_0_split_0
I0109 17:01:14.051781 20212 net.cpp:380] stage1_unit2_bn1 -> stage1_unit2_bn1
I0109 17:01:14.051995 20212 net.cpp:122] Setting up stage1_unit2_bn1
I0109 17:01:14.052004 20212 net.cpp:129] Top shape: 8 64 100 100 (5120000)
I0109 17:01:14.052007 20212 net.cpp:137] Memory required for data: 1191680032
I0109 17:01:14.052016 20212 layer_factory.hpp:77] Creating layer stage1_unit2_bn1_scale
I0109 17:01:14.052026 20212 net.cpp:84] Creating Layer stage1_unit2_bn1_scale
I0109 17:01:14.052031 20212 net.cpp:406] stage1_unit2_bn1_scale <- stage1_unit2_bn1
I0109 17:01:14.052037 20212 net.cpp:367] stage1_unit2_bn1_scale -> stage1_unit2_bn1 (in-place)
I0109 17:01:14.052076 20212 layer_factory.hpp:77] Creating layer stage1_unit2_bn1_scale
I0109 17:01:14.052206 20212 net.cpp:122] Setting up stage1_unit2_bn1_scale
I0109 17:01:14.052214 20212 net.cpp:129] Top shape: 8 64 100 100 (5120000)
I0109 17:01:14.052219 20212 net.cpp:137] Memory required for data: 1212160032
I0109 17:01:14.052230 20212 layer_factory.hpp:77] Creating layer stage1_unit2_conv1
I0109 17:01:14.052242 20212 net.cpp:84] Creating Layer stage1_unit2_conv1
I0109 17:01:14.052248 20212 net.cpp:406] stage1_unit2_conv1 <- stage1_unit2_bn1
I0109 17:01:14.052253 20212 net.cpp:380] stage1_unit2_conv1 -> stage1_unit2_conv1
I0109 17:01:14.052899 20212 net.cpp:122] Setting up stage1_unit2_conv1
I0109 17:01:14.052909 20212 net.cpp:129] Top shape: 8 64 100 100 (5120000)
I0109 17:01:14.052915 20212 net.cpp:137] Memory required for data: 1232640032
I0109 17:01:14.052922 20212 layer_factory.hpp:77] Creating layer stage1_unit2_bn2
I0109 17:01:14.052928 20212 net.cpp:84] Creating Layer stage1_unit2_bn2
I0109 17:01:14.052933 20212 net.cpp:406] stage1_unit2_bn2 <- stage1_unit2_conv1
I0109 17:01:14.052940 20212 net.cpp:380] stage1_unit2_bn2 -> stage1_unit2_bn2
I0109 17:01:14.053144 20212 net.cpp:122] Setting up stage1_unit2_bn2
I0109 17:01:14.053153 20212 net.cpp:129] Top shape: 8 64 100 100 (5120000)
I0109 17:01:14.053158 20212 net.cpp:137] Memory required for data: 1253120032
I0109 17:01:14.053166 20212 layer_factory.hpp:77] Creating layer stage1_unit2_bn2_scale
I0109 17:01:14.053174 20212 net.cpp:84] Creating Layer stage1_unit2_bn2_scale
I0109 17:01:14.053180 20212 net.cpp:406] stage1_unit2_bn2_scale <- stage1_unit2_bn2
I0109 17:01:14.053186 20212 net.cpp:367] stage1_unit2_bn2_scale -> stage1_unit2_bn2 (in-place)
I0109 17:01:14.053225 20212 layer_factory.hpp:77] Creating layer stage1_unit2_bn2_scale
I0109 17:01:14.053351 20212 net.cpp:122] Setting up stage1_unit2_bn2_scale
I0109 17:01:14.053360 20212 net.cpp:129] Top shape: 8 64 100 100 (5120000)
I0109 17:01:14.053365 20212 net.cpp:137] Memory required for data: 1273600032
I0109 17:01:14.053373 20212 layer_factory.hpp:77] Creating layer stage1_unit2_relu1
I0109 17:01:14.053380 20212 net.cpp:84] Creating Layer stage1_unit2_relu1
I0109 17:01:14.053385 20212 net.cpp:406] stage1_unit2_relu1 <- stage1_unit2_bn2
I0109 17:01:14.053390 20212 net.cpp:380] stage1_unit2_relu1 -> stage1_unit2_relu1
I0109 17:01:14.053714 20212 net.cpp:122] Setting up stage1_unit2_relu1
I0109 17:01:14.053730 20212 net.cpp:129] Top shape: 8 64 100 100 (5120000)
I0109 17:01:14.053733 20212 net.cpp:137] Memory required for data: 1294080032
I0109 17:01:14.053738 20212 layer_factory.hpp:77] Creating layer stage1_unit2_conv2
I0109 17:01:14.053750 20212 net.cpp:84] Creating Layer stage1_unit2_conv2
I0109 17:01:14.053755 20212 net.cpp:406] stage1_unit2_conv2 <- stage1_unit2_relu1
I0109 17:01:14.053762 20212 net.cpp:380] stage1_unit2_conv2 -> stage1_unit2_conv2
I0109 17:01:14.054424 20212 net.cpp:122] Setting up stage1_unit2_conv2
I0109 17:01:14.054436 20212 net.cpp:129] Top shape: 8 64 100 100 (5120000)
I0109 17:01:14.054440 20212 net.cpp:137] Memory required for data: 1314560032
I0109 17:01:14.054447 20212 layer_factory.hpp:77] Creating layer stage1_unit2_bn3
I0109 17:01:14.054455 20212 net.cpp:84] Creating Layer stage1_unit2_bn3
I0109 17:01:14.054459 20212 net.cpp:406] stage1_unit2_bn3 <- stage1_unit2_conv2
I0109 17:01:14.054466 20212 net.cpp:380] stage1_unit2_bn3 -> stage1_unit2_bn3
I0109 17:01:14.054688 20212 net.cpp:122] Setting up stage1_unit2_bn3
I0109 17:01:14.054698 20212 net.cpp:129] Top shape: 8 64 100 100 (5120000)
I0109 17:01:14.054702 20212 net.cpp:137] Memory required for data: 1335040032
I0109 17:01:14.054711 20212 layer_factory.hpp:77] Creating layer stage1_unit2_bn3_scale
I0109 17:01:14.054719 20212 net.cpp:84] Creating Layer stage1_unit2_bn3_scale
I0109 17:01:14.054725 20212 net.cpp:406] stage1_unit2_bn3_scale <- stage1_unit2_bn3
I0109 17:01:14.054733 20212 net.cpp:367] stage1_unit2_bn3_scale -> stage1_unit2_bn3 (in-place)
I0109 17:01:14.054771 20212 layer_factory.hpp:77] Creating layer stage1_unit2_bn3_scale
I0109 17:01:14.054898 20212 net.cpp:122] Setting up stage1_unit2_bn3_scale
I0109 17:01:14.054906 20212 net.cpp:129] Top shape: 8 64 100 100 (5120000)
I0109 17:01:14.054911 20212 net.cpp:137] Memory required for data: 1355520032
I0109 17:01:14.054919 20212 layer_factory.hpp:77] Creating layer _plus1
I0109 17:01:14.054927 20212 net.cpp:84] Creating Layer _plus1
I0109 17:01:14.054934 20212 net.cpp:406] _plus1 <- stage1_unit2_bn3
I0109 17:01:14.054939 20212 net.cpp:406] _plus1 <- _plus0__plus0_0_split_1
I0109 17:01:14.054944 20212 net.cpp:380] _plus1 -> _plus1
I0109 17:01:14.054968 20212 net.cpp:122] Setting up _plus1
I0109 17:01:14.054976 20212 net.cpp:129] Top shape: 8 64 100 100 (5120000)
I0109 17:01:14.054980 20212 net.cpp:137] Memory required for data: 1376000032
I0109 17:01:14.054985 20212 layer_factory.hpp:77] Creating layer _plus1__plus1_0_split
I0109 17:01:14.054991 20212 net.cpp:84] Creating Layer _plus1__plus1_0_split
I0109 17:01:14.054994 20212 net.cpp:406] _plus1__plus1_0_split <- _plus1
I0109 17:01:14.055001 20212 net.cpp:380] _plus1__plus1_0_split -> _plus1__plus1_0_split_0
I0109 17:01:14.055008 20212 net.cpp:380] _plus1__plus1_0_split -> _plus1__plus1_0_split_1
I0109 17:01:14.055043 20212 net.cpp:122] Setting up _plus1__plus1_0_split
I0109 17:01:14.055050 20212 net.cpp:129] Top shape: 8 64 100 100 (5120000)
I0109 17:01:14.055056 20212 net.cpp:129] Top shape: 8 64 100 100 (5120000)
I0109 17:01:14.055060 20212 net.cpp:137] Memory required for data: 1416960032
I0109 17:01:14.055064 20212 layer_factory.hpp:77] Creating layer stage2_unit1_bn1
I0109 17:01:14.055070 20212 net.cpp:84] Creating Layer stage2_unit1_bn1
I0109 17:01:14.055075 20212 net.cpp:406] stage2_unit1_bn1 <- _plus1__plus1_0_split_0
I0109 17:01:14.055080 20212 net.cpp:380] stage2_unit1_bn1 -> stage2_unit1_bn1
I0109 17:01:14.055286 20212 net.cpp:122] Setting up stage2_unit1_bn1
I0109 17:01:14.055295 20212 net.cpp:129] Top shape: 8 64 100 100 (5120000)
I0109 17:01:14.055299 20212 net.cpp:137] Memory required for data: 1437440032
I0109 17:01:14.055308 20212 layer_factory.hpp:77] Creating layer stage2_unit1_bn1_scale
I0109 17:01:14.055318 20212 net.cpp:84] Creating Layer stage2_unit1_bn1_scale
I0109 17:01:14.055325 20212 net.cpp:406] stage2_unit1_bn1_scale <- stage2_unit1_bn1
I0109 17:01:14.055330 20212 net.cpp:367] stage2_unit1_bn1_scale -> stage2_unit1_bn1 (in-place)
I0109 17:01:14.055369 20212 layer_factory.hpp:77] Creating layer stage2_unit1_bn1_scale
I0109 17:01:14.055491 20212 net.cpp:122] Setting up stage2_unit1_bn1_scale
I0109 17:01:14.055500 20212 net.cpp:129] Top shape: 8 64 100 100 (5120000)
I0109 17:01:14.055505 20212 net.cpp:137] Memory required for data: 1457920032
I0109 17:01:14.055512 20212 layer_factory.hpp:77] Creating layer stage2_unit1_conv1
I0109 17:01:14.055522 20212 net.cpp:84] Creating Layer stage2_unit1_conv1
I0109 17:01:14.055528 20212 net.cpp:406] stage2_unit1_conv1 <- stage2_unit1_bn1
I0109 17:01:14.055534 20212 net.cpp:380] stage2_unit1_conv1 -> stage2_unit1_conv1
I0109 17:01:14.056632 20212 net.cpp:122] Setting up stage2_unit1_conv1
I0109 17:01:14.056643 20212 net.cpp:129] Top shape: 8 128 100 100 (10240000)
I0109 17:01:14.056648 20212 net.cpp:137] Memory required for data: 1498880032
I0109 17:01:14.056653 20212 layer_factory.hpp:77] Creating layer stage2_unit1_bn2
I0109 17:01:14.056661 20212 net.cpp:84] Creating Layer stage2_unit1_bn2
I0109 17:01:14.056666 20212 net.cpp:406] stage2_unit1_bn2 <- stage2_unit1_conv1
I0109 17:01:14.056672 20212 net.cpp:380] stage2_unit1_bn2 -> stage2_unit1_bn2
I0109 17:01:14.056879 20212 net.cpp:122] Setting up stage2_unit1_bn2
I0109 17:01:14.056887 20212 net.cpp:129] Top shape: 8 128 100 100 (10240000)
I0109 17:01:14.056891 20212 net.cpp:137] Memory required for data: 1539840032
I0109 17:01:14.056900 20212 layer_factory.hpp:77] Creating layer stage2_unit1_bn2_scale
I0109 17:01:14.056908 20212 net.cpp:84] Creating Layer stage2_unit1_bn2_scale
I0109 17:01:14.056913 20212 net.cpp:406] stage2_unit1_bn2_scale <- stage2_unit1_bn2
I0109 17:01:14.056918 20212 net.cpp:367] stage2_unit1_bn2_scale -> stage2_unit1_bn2 (in-place)
I0109 17:01:14.056955 20212 layer_factory.hpp:77] Creating layer stage2_unit1_bn2_scale
I0109 17:01:14.057071 20212 net.cpp:122] Setting up stage2_unit1_bn2_scale
I0109 17:01:14.057080 20212 net.cpp:129] Top shape: 8 128 100 100 (10240000)
I0109 17:01:14.057085 20212 net.cpp:137] Memory required for data: 1580800032
I0109 17:01:14.057091 20212 layer_factory.hpp:77] Creating layer stage2_unit1_relu1
I0109 17:01:14.057099 20212 net.cpp:84] Creating Layer stage2_unit1_relu1
I0109 17:01:14.057103 20212 net.cpp:406] stage2_unit1_relu1 <- stage2_unit1_bn2
I0109 17:01:14.057109 20212 net.cpp:380] stage2_unit1_relu1 -> stage2_unit1_relu1
I0109 17:01:14.057209 20212 net.cpp:122] Setting up stage2_unit1_relu1
I0109 17:01:14.057221 20212 net.cpp:129] Top shape: 8 128 100 100 (10240000)
I0109 17:01:14.057224 20212 net.cpp:137] Memory required for data: 1621760032
I0109 17:01:14.057229 20212 layer_factory.hpp:77] Creating layer stage2_unit1_conv2
I0109 17:01:14.057238 20212 net.cpp:84] Creating Layer stage2_unit1_conv2
I0109 17:01:14.057245 20212 net.cpp:406] stage2_unit1_conv2 <- stage2_unit1_relu1
I0109 17:01:14.057251 20212 net.cpp:380] stage2_unit1_conv2 -> stage2_unit1_conv2
I0109 17:01:14.059252 20212 net.cpp:122] Setting up stage2_unit1_conv2
I0109 17:01:14.059262 20212 net.cpp:129] Top shape: 8 128 50 50 (2560000)
I0109 17:01:14.059267 20212 net.cpp:137] Memory required for data: 1632000032
I0109 17:01:14.059273 20212 layer_factory.hpp:77] Creating layer stage2_unit1_bn3
I0109 17:01:14.059280 20212 net.cpp:84] Creating Layer stage2_unit1_bn3
I0109 17:01:14.059284 20212 net.cpp:406] stage2_unit1_bn3 <- stage2_unit1_conv2
I0109 17:01:14.059291 20212 net.cpp:380] stage2_unit1_bn3 -> stage2_unit1_bn3
I0109 17:01:14.059505 20212 net.cpp:122] Setting up stage2_unit1_bn3
I0109 17:01:14.059515 20212 net.cpp:129] Top shape: 8 128 50 50 (2560000)
I0109 17:01:14.059520 20212 net.cpp:137] Memory required for data: 1642240032
I0109 17:01:14.059528 20212 layer_factory.hpp:77] Creating layer stage2_unit1_bn3_scale
I0109 17:01:14.059537 20212 net.cpp:84] Creating Layer stage2_unit1_bn3_scale
I0109 17:01:14.059541 20212 net.cpp:406] stage2_unit1_bn3_scale <- stage2_unit1_bn3
I0109 17:01:14.059546 20212 net.cpp:367] stage2_unit1_bn3_scale -> stage2_unit1_bn3 (in-place)
I0109 17:01:14.059587 20212 layer_factory.hpp:77] Creating layer stage2_unit1_bn3_scale
I0109 17:01:14.059692 20212 net.cpp:122] Setting up stage2_unit1_bn3_scale
I0109 17:01:14.059700 20212 net.cpp:129] Top shape: 8 128 50 50 (2560000)
I0109 17:01:14.059705 20212 net.cpp:137] Memory required for data: 1652480032
I0109 17:01:14.059712 20212 layer_factory.hpp:77] Creating layer stage2_unit1_conv1sc
I0109 17:01:14.059720 20212 net.cpp:84] Creating Layer stage2_unit1_conv1sc
I0109 17:01:14.059726 20212 net.cpp:406] stage2_unit1_conv1sc <- _plus1__plus1_0_split_1
I0109 17:01:14.059732 20212 net.cpp:380] stage2_unit1_conv1sc -> stage2_unit1_conv1sc
I0109 17:01:14.060014 20212 net.cpp:122] Setting up stage2_unit1_conv1sc
I0109 17:01:14.060024 20212 net.cpp:129] Top shape: 8 128 50 50 (2560000)
I0109 17:01:14.060027 20212 net.cpp:137] Memory required for data: 1662720032
I0109 17:01:14.060034 20212 layer_factory.hpp:77] Creating layer stage2_unit1_sc
I0109 17:01:14.060040 20212 net.cpp:84] Creating Layer stage2_unit1_sc
I0109 17:01:14.060045 20212 net.cpp:406] stage2_unit1_sc <- stage2_unit1_conv1sc
I0109 17:01:14.060050 20212 net.cpp:380] stage2_unit1_sc -> stage2_unit1_sc
I0109 17:01:14.060242 20212 net.cpp:122] Setting up stage2_unit1_sc
I0109 17:01:14.060252 20212 net.cpp:129] Top shape: 8 128 50 50 (2560000)
I0109 17:01:14.060256 20212 net.cpp:137] Memory required for data: 1672960032
I0109 17:01:14.060268 20212 layer_factory.hpp:77] Creating layer stage2_unit1_sc_scale
I0109 17:01:14.060276 20212 net.cpp:84] Creating Layer stage2_unit1_sc_scale
I0109 17:01:14.060281 20212 net.cpp:406] stage2_unit1_sc_scale <- stage2_unit1_sc
I0109 17:01:14.060287 20212 net.cpp:367] stage2_unit1_sc_scale -> stage2_unit1_sc (in-place)
I0109 17:01:14.060325 20212 layer_factory.hpp:77] Creating layer stage2_unit1_sc_scale
I0109 17:01:14.060428 20212 net.cpp:122] Setting up stage2_unit1_sc_scale
I0109 17:01:14.060437 20212 net.cpp:129] Top shape: 8 128 50 50 (2560000)
I0109 17:01:14.060441 20212 net.cpp:137] Memory required for data: 1683200032
I0109 17:01:14.060448 20212 layer_factory.hpp:77] Creating layer _plus2
I0109 17:01:14.060457 20212 net.cpp:84] Creating Layer _plus2
I0109 17:01:14.060463 20212 net.cpp:406] _plus2 <- stage2_unit1_bn3
I0109 17:01:14.060468 20212 net.cpp:406] _plus2 <- stage2_unit1_sc
I0109 17:01:14.060474 20212 net.cpp:380] _plus2 -> _plus2
I0109 17:01:14.060497 20212 net.cpp:122] Setting up _plus2
I0109 17:01:14.060505 20212 net.cpp:129] Top shape: 8 128 50 50 (2560000)
I0109 17:01:14.060509 20212 net.cpp:137] Memory required for data: 1693440032
I0109 17:01:14.060513 20212 layer_factory.hpp:77] Creating layer _plus2__plus2_0_split
I0109 17:01:14.060519 20212 net.cpp:84] Creating Layer _plus2__plus2_0_split
I0109 17:01:14.060524 20212 net.cpp:406] _plus2__plus2_0_split <- _plus2
I0109 17:01:14.060529 20212 net.cpp:380] _plus2__plus2_0_split -> _plus2__plus2_0_split_0
I0109 17:01:14.060536 20212 net.cpp:380] _plus2__plus2_0_split -> _plus2__plus2_0_split_1
I0109 17:01:14.060570 20212 net.cpp:122] Setting up _plus2__plus2_0_split
I0109 17:01:14.060577 20212 net.cpp:129] Top shape: 8 128 50 50 (2560000)
I0109 17:01:14.060583 20212 net.cpp:129] Top shape: 8 128 50 50 (2560000)
I0109 17:01:14.060586 20212 net.cpp:137] Memory required for data: 1713920032
I0109 17:01:14.060590 20212 layer_factory.hpp:77] Creating layer stage2_unit2_bn1
I0109 17:01:14.060597 20212 net.cpp:84] Creating Layer stage2_unit2_bn1
I0109 17:01:14.060601 20212 net.cpp:406] stage2_unit2_bn1 <- _plus2__plus2_0_split_0
I0109 17:01:14.060607 20212 net.cpp:380] stage2_unit2_bn1 -> stage2_unit2_bn1
I0109 17:01:14.060797 20212 net.cpp:122] Setting up stage2_unit2_bn1
I0109 17:01:14.060806 20212 net.cpp:129] Top shape: 8 128 50 50 (2560000)
I0109 17:01:14.060811 20212 net.cpp:137] Memory required for data: 1724160032
I0109 17:01:14.060818 20212 layer_factory.hpp:77] Creating layer stage2_unit2_bn1_scale
I0109 17:01:14.060827 20212 net.cpp:84] Creating Layer stage2_unit2_bn1_scale
I0109 17:01:14.060832 20212 net.cpp:406] stage2_unit2_bn1_scale <- stage2_unit2_bn1
I0109 17:01:14.060838 20212 net.cpp:367] stage2_unit2_bn1_scale -> stage2_unit2_bn1 (in-place)
I0109 17:01:14.060875 20212 layer_factory.hpp:77] Creating layer stage2_unit2_bn1_scale
I0109 17:01:14.060978 20212 net.cpp:122] Setting up stage2_unit2_bn1_scale
I0109 17:01:14.060987 20212 net.cpp:129] Top shape: 8 128 50 50 (2560000)
I0109 17:01:14.060990 20212 net.cpp:137] Memory required for data: 1734400032
I0109 17:01:14.060997 20212 layer_factory.hpp:77] Creating layer stage2_unit2_conv1
I0109 17:01:14.061007 20212 net.cpp:84] Creating Layer stage2_unit2_conv1
I0109 17:01:14.061012 20212 net.cpp:406] stage2_unit2_conv1 <- stage2_unit2_bn1
I0109 17:01:14.061018 20212 net.cpp:380] stage2_unit2_conv1 -> stage2_unit2_conv1
I0109 17:01:14.064169 20212 net.cpp:122] Setting up stage2_unit2_conv1
I0109 17:01:14.064185 20212 net.cpp:129] Top shape: 8 128 50 50 (2560000)
I0109 17:01:14.064190 20212 net.cpp:137] Memory required for data: 1744640032
I0109 17:01:14.064198 20212 layer_factory.hpp:77] Creating layer stage2_unit2_bn2
I0109 17:01:14.064206 20212 net.cpp:84] Creating Layer stage2_unit2_bn2
I0109 17:01:14.064213 20212 net.cpp:406] stage2_unit2_bn2 <- stage2_unit2_conv1
I0109 17:01:14.064219 20212 net.cpp:380] stage2_unit2_bn2 -> stage2_unit2_bn2
I0109 17:01:14.064422 20212 net.cpp:122] Setting up stage2_unit2_bn2
I0109 17:01:14.064431 20212 net.cpp:129] Top shape: 8 128 50 50 (2560000)
I0109 17:01:14.064435 20212 net.cpp:137] Memory required for data: 1754880032
I0109 17:01:14.064445 20212 layer_factory.hpp:77] Creating layer stage2_unit2_bn2_scale
I0109 17:01:14.064452 20212 net.cpp:84] Creating Layer stage2_unit2_bn2_scale
I0109 17:01:14.064456 20212 net.cpp:406] stage2_unit2_bn2_scale <- stage2_unit2_bn2
I0109 17:01:14.064462 20212 net.cpp:367] stage2_unit2_bn2_scale -> stage2_unit2_bn2 (in-place)
I0109 17:01:14.064504 20212 layer_factory.hpp:77] Creating layer stage2_unit2_bn2_scale
I0109 17:01:14.064612 20212 net.cpp:122] Setting up stage2_unit2_bn2_scale
I0109 17:01:14.064621 20212 net.cpp:129] Top shape: 8 128 50 50 (2560000)
I0109 17:01:14.064625 20212 net.cpp:137] Memory required for data: 1765120032
I0109 17:01:14.064632 20212 layer_factory.hpp:77] Creating layer stage2_unit2_relu1
I0109 17:01:14.064640 20212 net.cpp:84] Creating Layer stage2_unit2_relu1
I0109 17:01:14.064644 20212 net.cpp:406] stage2_unit2_relu1 <- stage2_unit2_bn2
I0109 17:01:14.064649 20212 net.cpp:380] stage2_unit2_relu1 -> stage2_unit2_relu1
I0109 17:01:14.066035 20212 net.cpp:122] Setting up stage2_unit2_relu1
I0109 17:01:14.066054 20212 net.cpp:129] Top shape: 8 128 50 50 (2560000)
I0109 17:01:14.066059 20212 net.cpp:137] Memory required for data: 1775360032
I0109 17:01:14.066064 20212 layer_factory.hpp:77] Creating layer stage2_unit2_conv2
I0109 17:01:14.066077 20212 net.cpp:84] Creating Layer stage2_unit2_conv2
I0109 17:01:14.066082 20212 net.cpp:406] stage2_unit2_conv2 <- stage2_unit2_relu1
I0109 17:01:14.066090 20212 net.cpp:380] stage2_unit2_conv2 -> stage2_unit2_conv2
I0109 17:01:14.068116 20212 net.cpp:122] Setting up stage2_unit2_conv2
I0109 17:01:14.068128 20212 net.cpp:129] Top shape: 8 128 50 50 (2560000)
I0109 17:01:14.068131 20212 net.cpp:137] Memory required for data: 1785600032
I0109 17:01:14.068140 20212 layer_factory.hpp:77] Creating layer stage2_unit2_bn3
I0109 17:01:14.068147 20212 net.cpp:84] Creating Layer stage2_unit2_bn3
I0109 17:01:14.068151 20212 net.cpp:406] stage2_unit2_bn3 <- stage2_unit2_conv2
I0109 17:01:14.068158 20212 net.cpp:380] stage2_unit2_bn3 -> stage2_unit2_bn3
I0109 17:01:14.068361 20212 net.cpp:122] Setting up stage2_unit2_bn3
I0109 17:01:14.068369 20212 net.cpp:129] Top shape: 8 128 50 50 (2560000)
I0109 17:01:14.068374 20212 net.cpp:137] Memory required for data: 1795840032
I0109 17:01:14.068382 20212 layer_factory.hpp:77] Creating layer stage2_unit2_bn3_scale
I0109 17:01:14.068392 20212 net.cpp:84] Creating Layer stage2_unit2_bn3_scale
I0109 17:01:14.068397 20212 net.cpp:406] stage2_unit2_bn3_scale <- stage2_unit2_bn3
I0109 17:01:14.068404 20212 net.cpp:367] stage2_unit2_bn3_scale -> stage2_unit2_bn3 (in-place)
I0109 17:01:14.068444 20212 layer_factory.hpp:77] Creating layer stage2_unit2_bn3_scale
I0109 17:01:14.068552 20212 net.cpp:122] Setting up stage2_unit2_bn3_scale
I0109 17:01:14.068560 20212 net.cpp:129] Top shape: 8 128 50 50 (2560000)
I0109 17:01:14.068564 20212 net.cpp:137] Memory required for data: 1806080032
I0109 17:01:14.068572 20212 layer_factory.hpp:77] Creating layer _plus3
I0109 17:01:14.068580 20212 net.cpp:84] Creating Layer _plus3
I0109 17:01:14.068586 20212 net.cpp:406] _plus3 <- stage2_unit2_bn3
I0109 17:01:14.068591 20212 net.cpp:406] _plus3 <- _plus2__plus2_0_split_1
I0109 17:01:14.068598 20212 net.cpp:380] _plus3 -> _plus3
I0109 17:01:14.068621 20212 net.cpp:122] Setting up _plus3
I0109 17:01:14.068629 20212 net.cpp:129] Top shape: 8 128 50 50 (2560000)
I0109 17:01:14.068634 20212 net.cpp:137] Memory required for data: 1816320032
I0109 17:01:14.068637 20212 layer_factory.hpp:77] Creating layer _plus3__plus3_0_split
I0109 17:01:14.068644 20212 net.cpp:84] Creating Layer _plus3__plus3_0_split
I0109 17:01:14.068647 20212 net.cpp:406] _plus3__plus3_0_split <- _plus3
I0109 17:01:14.068655 20212 net.cpp:380] _plus3__plus3_0_split -> _plus3__plus3_0_split_0
I0109 17:01:14.068662 20212 net.cpp:380] _plus3__plus3_0_split -> _plus3__plus3_0_split_1
I0109 17:01:14.068697 20212 net.cpp:122] Setting up _plus3__plus3_0_split
I0109 17:01:14.068706 20212 net.cpp:129] Top shape: 8 128 50 50 (2560000)
I0109 17:01:14.068711 20212 net.cpp:129] Top shape: 8 128 50 50 (2560000)
I0109 17:01:14.068715 20212 net.cpp:137] Memory required for data: 1836800032
I0109 17:01:14.068719 20212 layer_factory.hpp:77] Creating layer stage3_unit1_bn1
I0109 17:01:14.068727 20212 net.cpp:84] Creating Layer stage3_unit1_bn1
I0109 17:01:14.068730 20212 net.cpp:406] stage3_unit1_bn1 <- _plus3__plus3_0_split_0
I0109 17:01:14.068737 20212 net.cpp:380] stage3_unit1_bn1 -> stage3_unit1_bn1
I0109 17:01:14.068930 20212 net.cpp:122] Setting up stage3_unit1_bn1
I0109 17:01:14.068939 20212 net.cpp:129] Top shape: 8 128 50 50 (2560000)
I0109 17:01:14.068943 20212 net.cpp:137] Memory required for data: 1847040032
I0109 17:01:14.068953 20212 layer_factory.hpp:77] Creating layer stage3_unit1_bn1_scale
I0109 17:01:14.068961 20212 net.cpp:84] Creating Layer stage3_unit1_bn1_scale
I0109 17:01:14.068967 20212 net.cpp:406] stage3_unit1_bn1_scale <- stage3_unit1_bn1
I0109 17:01:14.068974 20212 net.cpp:367] stage3_unit1_bn1_scale -> stage3_unit1_bn1 (in-place)
I0109 17:01:14.069011 20212 layer_factory.hpp:77] Creating layer stage3_unit1_bn1_scale
I0109 17:01:14.069116 20212 net.cpp:122] Setting up stage3_unit1_bn1_scale
I0109 17:01:14.069125 20212 net.cpp:129] Top shape: 8 128 50 50 (2560000)
I0109 17:01:14.069129 20212 net.cpp:137] Memory required for data: 1857280032
I0109 17:01:14.069136 20212 layer_factory.hpp:77] Creating layer stage3_unit1_conv1
I0109 17:01:14.069147 20212 net.cpp:84] Creating Layer stage3_unit1_conv1
I0109 17:01:14.069154 20212 net.cpp:406] stage3_unit1_conv1 <- stage3_unit1_bn1
I0109 17:01:14.069160 20212 net.cpp:380] stage3_unit1_conv1 -> stage3_unit1_conv1
I0109 17:01:14.074129 20212 net.cpp:122] Setting up stage3_unit1_conv1
I0109 17:01:14.074147 20212 net.cpp:129] Top shape: 8 256 50 50 (5120000)
I0109 17:01:14.074151 20212 net.cpp:137] Memory required for data: 1877760032
I0109 17:01:14.074159 20212 layer_factory.hpp:77] Creating layer stage3_unit1_bn2
I0109 17:01:14.074170 20212 net.cpp:84] Creating Layer stage3_unit1_bn2
I0109 17:01:14.074177 20212 net.cpp:406] stage3_unit1_bn2 <- stage3_unit1_conv1
I0109 17:01:14.074184 20212 net.cpp:380] stage3_unit1_bn2 -> stage3_unit1_bn2
I0109 17:01:14.074390 20212 net.cpp:122] Setting up stage3_unit1_bn2
I0109 17:01:14.074399 20212 net.cpp:129] Top shape: 8 256 50 50 (5120000)
I0109 17:01:14.074404 20212 net.cpp:137] Memory required for data: 1898240032
I0109 17:01:14.074411 20212 layer_factory.hpp:77] Creating layer stage3_unit1_bn2_scale
I0109 17:01:14.074421 20212 net.cpp:84] Creating Layer stage3_unit1_bn2_scale
I0109 17:01:14.074426 20212 net.cpp:406] stage3_unit1_bn2_scale <- stage3_unit1_bn2
I0109 17:01:14.074432 20212 net.cpp:367] stage3_unit1_bn2_scale -> stage3_unit1_bn2 (in-place)
I0109 17:01:14.074472 20212 layer_factory.hpp:77] Creating layer stage3_unit1_bn2_scale
I0109 17:01:14.074579 20212 net.cpp:122] Setting up stage3_unit1_bn2_scale
I0109 17:01:14.074589 20212 net.cpp:129] Top shape: 8 256 50 50 (5120000)
I0109 17:01:14.074592 20212 net.cpp:137] Memory required for data: 1918720032
I0109 17:01:14.074600 20212 layer_factory.hpp:77] Creating layer stage3_unit1_relu1
I0109 17:01:14.074609 20212 net.cpp:84] Creating Layer stage3_unit1_relu1
I0109 17:01:14.074612 20212 net.cpp:406] stage3_unit1_relu1 <- stage3_unit1_bn2
I0109 17:01:14.074618 20212 net.cpp:380] stage3_unit1_relu1 -> stage3_unit1_relu1
I0109 17:01:14.074725 20212 net.cpp:122] Setting up stage3_unit1_relu1
I0109 17:01:14.074738 20212 net.cpp:129] Top shape: 8 256 50 50 (5120000)
I0109 17:01:14.074741 20212 net.cpp:137] Memory required for data: 1939200032
I0109 17:01:14.074746 20212 layer_factory.hpp:77] Creating layer stage3_unit1_conv2
I0109 17:01:14.074756 20212 net.cpp:84] Creating Layer stage3_unit1_conv2
I0109 17:01:14.074762 20212 net.cpp:406] stage3_unit1_conv2 <- stage3_unit1_relu1
I0109 17:01:14.074770 20212 net.cpp:380] stage3_unit1_conv2 -> stage3_unit1_conv2
I0109 17:01:14.083497 20212 net.cpp:122] Setting up stage3_unit1_conv2
I0109 17:01:14.083513 20212 net.cpp:129] Top shape: 8 256 25 25 (1280000)
I0109 17:01:14.083518 20212 net.cpp:137] Memory required for data: 1944320032
I0109 17:01:14.083525 20212 layer_factory.hpp:77] Creating layer stage3_unit1_bn3
I0109 17:01:14.083534 20212 net.cpp:84] Creating Layer stage3_unit1_bn3
I0109 17:01:14.083539 20212 net.cpp:406] stage3_unit1_bn3 <- stage3_unit1_conv2
I0109 17:01:14.083547 20212 net.cpp:380] stage3_unit1_bn3 -> stage3_unit1_bn3
I0109 17:01:14.083753 20212 net.cpp:122] Setting up stage3_unit1_bn3
I0109 17:01:14.083763 20212 net.cpp:129] Top shape: 8 256 25 25 (1280000)
I0109 17:01:14.083767 20212 net.cpp:137] Memory required for data: 1949440032
I0109 17:01:14.083776 20212 layer_factory.hpp:77] Creating layer stage3_unit1_bn3_scale
I0109 17:01:14.083789 20212 net.cpp:84] Creating Layer stage3_unit1_bn3_scale
I0109 17:01:14.083796 20212 net.cpp:406] stage3_unit1_bn3_scale <- stage3_unit1_bn3
I0109 17:01:14.083801 20212 net.cpp:367] stage3_unit1_bn3_scale -> stage3_unit1_bn3 (in-place)
I0109 17:01:14.083843 20212 layer_factory.hpp:77] Creating layer stage3_unit1_bn3_scale
I0109 17:01:14.083953 20212 net.cpp:122] Setting up stage3_unit1_bn3_scale
I0109 17:01:14.083963 20212 net.cpp:129] Top shape: 8 256 25 25 (1280000)
I0109 17:01:14.083967 20212 net.cpp:137] Memory required for data: 1954560032
I0109 17:01:14.083976 20212 layer_factory.hpp:77] Creating layer stage3_unit1_conv1sc
I0109 17:01:14.083987 20212 net.cpp:84] Creating Layer stage3_unit1_conv1sc
I0109 17:01:14.083992 20212 net.cpp:406] stage3_unit1_conv1sc <- _plus3__plus3_0_split_1
I0109 17:01:14.084000 20212 net.cpp:380] stage3_unit1_conv1sc -> stage3_unit1_conv1sc
I0109 17:01:14.084600 20212 net.cpp:122] Setting up stage3_unit1_conv1sc
I0109 17:01:14.084611 20212 net.cpp:129] Top shape: 8 256 25 25 (1280000)
I0109 17:01:14.084615 20212 net.cpp:137] Memory required for data: 1959680032
I0109 17:01:14.084620 20212 layer_factory.hpp:77] Creating layer stage3_unit1_sc
I0109 17:01:14.084630 20212 net.cpp:84] Creating Layer stage3_unit1_sc
I0109 17:01:14.084635 20212 net.cpp:406] stage3_unit1_sc <- stage3_unit1_conv1sc
I0109 17:01:14.084641 20212 net.cpp:380] stage3_unit1_sc -> stage3_unit1_sc
I0109 17:01:14.084846 20212 net.cpp:122] Setting up stage3_unit1_sc
I0109 17:01:14.084856 20212 net.cpp:129] Top shape: 8 256 25 25 (1280000)
I0109 17:01:14.084861 20212 net.cpp:137] Memory required for data: 1964800032
I0109 17:01:14.084868 20212 layer_factory.hpp:77] Creating layer stage3_unit1_sc_scale
I0109 17:01:14.084877 20212 net.cpp:84] Creating Layer stage3_unit1_sc_scale
I0109 17:01:14.084883 20212 net.cpp:406] stage3_unit1_sc_scale <- stage3_unit1_sc
I0109 17:01:14.084889 20212 net.cpp:367] stage3_unit1_sc_scale -> stage3_unit1_sc (in-place)
I0109 17:01:14.084928 20212 layer_factory.hpp:77] Creating layer stage3_unit1_sc_scale
I0109 17:01:14.085036 20212 net.cpp:122] Setting up stage3_unit1_sc_scale
I0109 17:01:14.085047 20212 net.cpp:129] Top shape: 8 256 25 25 (1280000)
I0109 17:01:14.085050 20212 net.cpp:137] Memory required for data: 1969920032
I0109 17:01:14.085057 20212 layer_factory.hpp:77] Creating layer _plus4
I0109 17:01:14.085067 20212 net.cpp:84] Creating Layer _plus4
I0109 17:01:14.085072 20212 net.cpp:406] _plus4 <- stage3_unit1_bn3
I0109 17:01:14.085078 20212 net.cpp:406] _plus4 <- stage3_unit1_sc
I0109 17:01:14.085084 20212 net.cpp:380] _plus4 -> _plus4
I0109 17:01:14.085108 20212 net.cpp:122] Setting up _plus4
I0109 17:01:14.085116 20212 net.cpp:129] Top shape: 8 256 25 25 (1280000)
I0109 17:01:14.085119 20212 net.cpp:137] Memory required for data: 1975040032
I0109 17:01:14.085124 20212 layer_factory.hpp:77] Creating layer _plus4__plus4_0_split
I0109 17:01:14.085130 20212 net.cpp:84] Creating Layer _plus4__plus4_0_split
I0109 17:01:14.085135 20212 net.cpp:406] _plus4__plus4_0_split <- _plus4
I0109 17:01:14.085141 20212 net.cpp:380] _plus4__plus4_0_split -> _plus4__plus4_0_split_0
I0109 17:01:14.085150 20212 net.cpp:380] _plus4__plus4_0_split -> _plus4__plus4_0_split_1
I0109 17:01:14.085186 20212 net.cpp:122] Setting up _plus4__plus4_0_split
I0109 17:01:14.085194 20212 net.cpp:129] Top shape: 8 256 25 25 (1280000)
I0109 17:01:14.085199 20212 net.cpp:129] Top shape: 8 256 25 25 (1280000)
I0109 17:01:14.085203 20212 net.cpp:137] Memory required for data: 1985280032
I0109 17:01:14.085207 20212 layer_factory.hpp:77] Creating layer stage3_unit2_bn1
I0109 17:01:14.085214 20212 net.cpp:84] Creating Layer stage3_unit2_bn1
I0109 17:01:14.085218 20212 net.cpp:406] stage3_unit2_bn1 <- _plus4__plus4_0_split_0
I0109 17:01:14.085225 20212 net.cpp:380] stage3_unit2_bn1 -> stage3_unit2_bn1
I0109 17:01:14.085422 20212 net.cpp:122] Setting up stage3_unit2_bn1
I0109 17:01:14.085430 20212 net.cpp:129] Top shape: 8 256 25 25 (1280000)
I0109 17:01:14.085433 20212 net.cpp:137] Memory required for data: 1990400032
I0109 17:01:14.085443 20212 layer_factory.hpp:77] Creating layer stage3_unit2_bn1_scale
I0109 17:01:14.085450 20212 net.cpp:84] Creating Layer stage3_unit2_bn1_scale
I0109 17:01:14.085458 20212 net.cpp:406] stage3_unit2_bn1_scale <- stage3_unit2_bn1
I0109 17:01:14.085464 20212 net.cpp:367] stage3_unit2_bn1_scale -> stage3_unit2_bn1 (in-place)
I0109 17:01:14.085501 20212 layer_factory.hpp:77] Creating layer stage3_unit2_bn1_scale
I0109 17:01:14.085609 20212 net.cpp:122] Setting up stage3_unit2_bn1_scale
I0109 17:01:14.085618 20212 net.cpp:129] Top shape: 8 256 25 25 (1280000)
I0109 17:01:14.085623 20212 net.cpp:137] Memory required for data: 1995520032
I0109 17:01:14.085629 20212 layer_factory.hpp:77] Creating layer stage3_unit2_conv1
I0109 17:01:14.085641 20212 net.cpp:84] Creating Layer stage3_unit2_conv1
I0109 17:01:14.085647 20212 net.cpp:406] stage3_unit2_conv1 <- stage3_unit2_bn1
I0109 17:01:14.085654 20212 net.cpp:380] stage3_unit2_conv1 -> stage3_unit2_conv1
I0109 17:01:14.094367 20212 net.cpp:122] Setting up stage3_unit2_conv1
I0109 17:01:14.094383 20212 net.cpp:129] Top shape: 8 256 25 25 (1280000)
I0109 17:01:14.094388 20212 net.cpp:137] Memory required for data: 2000640032
I0109 17:01:14.094394 20212 layer_factory.hpp:77] Creating layer stage3_unit2_bn2
I0109 17:01:14.094404 20212 net.cpp:84] Creating Layer stage3_unit2_bn2
I0109 17:01:14.094409 20212 net.cpp:406] stage3_unit2_bn2 <- stage3_unit2_conv1
I0109 17:01:14.094417 20212 net.cpp:380] stage3_unit2_bn2 -> stage3_unit2_bn2
I0109 17:01:14.094628 20212 net.cpp:122] Setting up stage3_unit2_bn2
I0109 17:01:14.094637 20212 net.cpp:129] Top shape: 8 256 25 25 (1280000)
I0109 17:01:14.094641 20212 net.cpp:137] Memory required for data: 2005760032
I0109 17:01:14.094650 20212 layer_factory.hpp:77] Creating layer stage3_unit2_bn2_scale
I0109 17:01:14.094660 20212 net.cpp:84] Creating Layer stage3_unit2_bn2_scale
I0109 17:01:14.094663 20212 net.cpp:406] stage3_unit2_bn2_scale <- stage3_unit2_bn2
I0109 17:01:14.094671 20212 net.cpp:367] stage3_unit2_bn2_scale -> stage3_unit2_bn2 (in-place)
I0109 17:01:14.094710 20212 layer_factory.hpp:77] Creating layer stage3_unit2_bn2_scale
I0109 17:01:14.094820 20212 net.cpp:122] Setting up stage3_unit2_bn2_scale
I0109 17:01:14.094828 20212 net.cpp:129] Top shape: 8 256 25 25 (1280000)
I0109 17:01:14.094832 20212 net.cpp:137] Memory required for data: 2010880032
I0109 17:01:14.094841 20212 layer_factory.hpp:77] Creating layer stage3_unit2_relu1
I0109 17:01:14.094849 20212 net.cpp:84] Creating Layer stage3_unit2_relu1
I0109 17:01:14.094854 20212 net.cpp:406] stage3_unit2_relu1 <- stage3_unit2_bn2
I0109 17:01:14.094861 20212 net.cpp:380] stage3_unit2_relu1 -> stage3_unit2_relu1
I0109 17:01:14.095206 20212 net.cpp:122] Setting up stage3_unit2_relu1
I0109 17:01:14.095221 20212 net.cpp:129] Top shape: 8 256 25 25 (1280000)
I0109 17:01:14.095225 20212 net.cpp:137] Memory required for data: 2016000032
I0109 17:01:14.095230 20212 layer_factory.hpp:77] Creating layer stage3_unit2_conv2
I0109 17:01:14.095242 20212 net.cpp:84] Creating Layer stage3_unit2_conv2
I0109 17:01:14.095247 20212 net.cpp:406] stage3_unit2_conv2 <- stage3_unit2_relu1
I0109 17:01:14.095255 20212 net.cpp:380] stage3_unit2_conv2 -> stage3_unit2_conv2
I0109 17:01:14.103945 20212 net.cpp:122] Setting up stage3_unit2_conv2
I0109 17:01:14.103961 20212 net.cpp:129] Top shape: 8 256 25 25 (1280000)
I0109 17:01:14.103965 20212 net.cpp:137] Memory required for data: 2021120032
I0109 17:01:14.103973 20212 layer_factory.hpp:77] Creating layer stage3_unit2_bn3
I0109 17:01:14.103982 20212 net.cpp:84] Creating Layer stage3_unit2_bn3
I0109 17:01:14.103987 20212 net.cpp:406] stage3_unit2_bn3 <- stage3_unit2_conv2
I0109 17:01:14.103996 20212 net.cpp:380] stage3_unit2_bn3 -> stage3_unit2_bn3
I0109 17:01:14.104204 20212 net.cpp:122] Setting up stage3_unit2_bn3
I0109 17:01:14.104214 20212 net.cpp:129] Top shape: 8 256 25 25 (1280000)
I0109 17:01:14.104218 20212 net.cpp:137] Memory required for data: 2026240032
I0109 17:01:14.104228 20212 layer_factory.hpp:77] Creating layer stage3_unit2_bn3_scale
I0109 17:01:14.104236 20212 net.cpp:84] Creating Layer stage3_unit2_bn3_scale
I0109 17:01:14.104243 20212 net.cpp:406] stage3_unit2_bn3_scale <- stage3_unit2_bn3
I0109 17:01:14.104249 20212 net.cpp:367] stage3_unit2_bn3_scale -> stage3_unit2_bn3 (in-place)
I0109 17:01:14.104288 20212 layer_factory.hpp:77] Creating layer stage3_unit2_bn3_scale
I0109 17:01:14.104400 20212 net.cpp:122] Setting up stage3_unit2_bn3_scale
I0109 17:01:14.104409 20212 net.cpp:129] Top shape: 8 256 25 25 (1280000)
I0109 17:01:14.104413 20212 net.cpp:137] Memory required for data: 2031360032
I0109 17:01:14.104420 20212 layer_factory.hpp:77] Creating layer _plus5
I0109 17:01:14.104429 20212 net.cpp:84] Creating Layer _plus5
I0109 17:01:14.104434 20212 net.cpp:406] _plus5 <- stage3_unit2_bn3
I0109 17:01:14.104440 20212 net.cpp:406] _plus5 <- _plus4__plus4_0_split_1
I0109 17:01:14.104447 20212 net.cpp:380] _plus5 -> _plus5
I0109 17:01:14.104476 20212 net.cpp:122] Setting up _plus5
I0109 17:01:14.104485 20212 net.cpp:129] Top shape: 8 256 25 25 (1280000)
I0109 17:01:14.104490 20212 net.cpp:137] Memory required for data: 2036480032
I0109 17:01:14.104493 20212 layer_factory.hpp:77] Creating layer _plus5__plus5_0_split
I0109 17:01:14.104499 20212 net.cpp:84] Creating Layer _plus5__plus5_0_split
I0109 17:01:14.104503 20212 net.cpp:406] _plus5__plus5_0_split <- _plus5
I0109 17:01:14.104511 20212 net.cpp:380] _plus5__plus5_0_split -> _plus5__plus5_0_split_0
I0109 17:01:14.104521 20212 net.cpp:380] _plus5__plus5_0_split -> _plus5__plus5_0_split_1
I0109 17:01:14.104558 20212 net.cpp:122] Setting up _plus5__plus5_0_split
I0109 17:01:14.104566 20212 net.cpp:129] Top shape: 8 256 25 25 (1280000)
I0109 17:01:14.104573 20212 net.cpp:129] Top shape: 8 256 25 25 (1280000)
I0109 17:01:14.104575 20212 net.cpp:137] Memory required for data: 2046720032
I0109 17:01:14.104579 20212 layer_factory.hpp:77] Creating layer stage4_unit1_bn1
I0109 17:01:14.104588 20212 net.cpp:84] Creating Layer stage4_unit1_bn1
I0109 17:01:14.104591 20212 net.cpp:406] stage4_unit1_bn1 <- _plus5__plus5_0_split_0
I0109 17:01:14.104598 20212 net.cpp:380] stage4_unit1_bn1 -> stage4_unit1_bn1
I0109 17:01:14.104794 20212 net.cpp:122] Setting up stage4_unit1_bn1
I0109 17:01:14.104802 20212 net.cpp:129] Top shape: 8 256 25 25 (1280000)
I0109 17:01:14.104806 20212 net.cpp:137] Memory required for data: 2051840032
I0109 17:01:14.104823 20212 layer_factory.hpp:77] Creating layer stage4_unit1_bn1_scale
I0109 17:01:14.104833 20212 net.cpp:84] Creating Layer stage4_unit1_bn1_scale
I0109 17:01:14.104837 20212 net.cpp:406] stage4_unit1_bn1_scale <- stage4_unit1_bn1
I0109 17:01:14.104843 20212 net.cpp:367] stage4_unit1_bn1_scale -> stage4_unit1_bn1 (in-place)
I0109 17:01:14.104885 20212 layer_factory.hpp:77] Creating layer stage4_unit1_bn1_scale
I0109 17:01:14.104992 20212 net.cpp:122] Setting up stage4_unit1_bn1_scale
I0109 17:01:14.105002 20212 net.cpp:129] Top shape: 8 256 25 25 (1280000)
I0109 17:01:14.105008 20212 net.cpp:137] Memory required for data: 2056960032
I0109 17:01:14.105015 20212 layer_factory.hpp:77] Creating layer stage4_unit1_conv1
I0109 17:01:14.105026 20212 net.cpp:84] Creating Layer stage4_unit1_conv1
I0109 17:01:14.105031 20212 net.cpp:406] stage4_unit1_conv1 <- stage4_unit1_bn1
I0109 17:01:14.105038 20212 net.cpp:380] stage4_unit1_conv1 -> stage4_unit1_conv1
I0109 17:01:14.122097 20212 net.cpp:122] Setting up stage4_unit1_conv1
I0109 17:01:14.122115 20212 net.cpp:129] Top shape: 8 512 25 25 (2560000)
I0109 17:01:14.122119 20212 net.cpp:137] Memory required for data: 2067200032
I0109 17:01:14.122128 20212 layer_factory.hpp:77] Creating layer stage4_unit1_bn2
I0109 17:01:14.122138 20212 net.cpp:84] Creating Layer stage4_unit1_bn2
I0109 17:01:14.122144 20212 net.cpp:406] stage4_unit1_bn2 <- stage4_unit1_conv1
I0109 17:01:14.122153 20212 net.cpp:380] stage4_unit1_bn2 -> stage4_unit1_bn2
I0109 17:01:14.122383 20212 net.cpp:122] Setting up stage4_unit1_bn2
I0109 17:01:14.122391 20212 net.cpp:129] Top shape: 8 512 25 25 (2560000)
I0109 17:01:14.122395 20212 net.cpp:137] Memory required for data: 2077440032
I0109 17:01:14.122404 20212 layer_factory.hpp:77] Creating layer stage4_unit1_bn2_scale
I0109 17:01:14.122413 20212 net.cpp:84] Creating Layer stage4_unit1_bn2_scale
I0109 17:01:14.122417 20212 net.cpp:406] stage4_unit1_bn2_scale <- stage4_unit1_bn2
I0109 17:01:14.122423 20212 net.cpp:367] stage4_unit1_bn2_scale -> stage4_unit1_bn2 (in-place)
I0109 17:01:14.122465 20212 layer_factory.hpp:77] Creating layer stage4_unit1_bn2_scale
I0109 17:01:14.122579 20212 net.cpp:122] Setting up stage4_unit1_bn2_scale
I0109 17:01:14.122589 20212 net.cpp:129] Top shape: 8 512 25 25 (2560000)
I0109 17:01:14.122592 20212 net.cpp:137] Memory required for data: 2087680032
I0109 17:01:14.122601 20212 layer_factory.hpp:77] Creating layer stage4_unit1_relu1
I0109 17:01:14.122611 20212 net.cpp:84] Creating Layer stage4_unit1_relu1
I0109 17:01:14.122615 20212 net.cpp:406] stage4_unit1_relu1 <- stage4_unit1_bn2
I0109 17:01:14.122622 20212 net.cpp:380] stage4_unit1_relu1 -> stage4_unit1_relu1
I0109 17:01:14.122740 20212 net.cpp:122] Setting up stage4_unit1_relu1
I0109 17:01:14.122752 20212 net.cpp:129] Top shape: 8 512 25 25 (2560000)
I0109 17:01:14.122756 20212 net.cpp:137] Memory required for data: 2097920032
I0109 17:01:14.122761 20212 layer_factory.hpp:77] Creating layer stage4_unit1_conv2
I0109 17:01:14.122773 20212 net.cpp:84] Creating Layer stage4_unit1_conv2
I0109 17:01:14.122779 20212 net.cpp:406] stage4_unit1_conv2 <- stage4_unit1_relu1
I0109 17:01:14.122787 20212 net.cpp:380] stage4_unit1_conv2 -> stage4_unit1_conv2
I0109 17:01:14.156555 20212 net.cpp:122] Setting up stage4_unit1_conv2
I0109 17:01:14.156575 20212 net.cpp:129] Top shape: 8 512 13 13 (692224)
I0109 17:01:14.156579 20212 net.cpp:137] Memory required for data: 2100688928
I0109 17:01:14.156587 20212 layer_factory.hpp:77] Creating layer stage4_unit1_bn3
I0109 17:01:14.156597 20212 net.cpp:84] Creating Layer stage4_unit1_bn3
I0109 17:01:14.156601 20212 net.cpp:406] stage4_unit1_bn3 <- stage4_unit1_conv2
I0109 17:01:14.156610 20212 net.cpp:380] stage4_unit1_bn3 -> stage4_unit1_bn3
I0109 17:01:14.156828 20212 net.cpp:122] Setting up stage4_unit1_bn3
I0109 17:01:14.156838 20212 net.cpp:129] Top shape: 8 512 13 13 (692224)
I0109 17:01:14.156842 20212 net.cpp:137] Memory required for data: 2103457824
I0109 17:01:14.156852 20212 layer_factory.hpp:77] Creating layer stage4_unit1_bn3_scale
I0109 17:01:14.156862 20212 net.cpp:84] Creating Layer stage4_unit1_bn3_scale
I0109 17:01:14.156867 20212 net.cpp:406] stage4_unit1_bn3_scale <- stage4_unit1_bn3
I0109 17:01:14.156873 20212 net.cpp:367] stage4_unit1_bn3_scale -> stage4_unit1_bn3 (in-place)
I0109 17:01:14.156916 20212 layer_factory.hpp:77] Creating layer stage4_unit1_bn3_scale
I0109 17:01:14.157029 20212 net.cpp:122] Setting up stage4_unit1_bn3_scale
I0109 17:01:14.157038 20212 net.cpp:129] Top shape: 8 512 13 13 (692224)
I0109 17:01:14.157042 20212 net.cpp:137] Memory required for data: 2106226720
I0109 17:01:14.157049 20212 layer_factory.hpp:77] Creating layer stage4_unit1_conv1sc
I0109 17:01:14.157061 20212 net.cpp:84] Creating Layer stage4_unit1_conv1sc
I0109 17:01:14.157068 20212 net.cpp:406] stage4_unit1_conv1sc <- _plus5__plus5_0_split_1
I0109 17:01:14.157076 20212 net.cpp:380] stage4_unit1_conv1sc -> stage4_unit1_conv1sc
I0109 17:01:14.158951 20212 net.cpp:122] Setting up stage4_unit1_conv1sc
I0109 17:01:14.158960 20212 net.cpp:129] Top shape: 8 512 13 13 (692224)
I0109 17:01:14.158964 20212 net.cpp:137] Memory required for data: 2108995616
I0109 17:01:14.158970 20212 layer_factory.hpp:77] Creating layer stage4_unit1_sc
I0109 17:01:14.158978 20212 net.cpp:84] Creating Layer stage4_unit1_sc
I0109 17:01:14.158983 20212 net.cpp:406] stage4_unit1_sc <- stage4_unit1_conv1sc
I0109 17:01:14.158990 20212 net.cpp:380] stage4_unit1_sc -> stage4_unit1_sc
I0109 17:01:14.159199 20212 net.cpp:122] Setting up stage4_unit1_sc
I0109 17:01:14.159209 20212 net.cpp:129] Top shape: 8 512 13 13 (692224)
I0109 17:01:14.159212 20212 net.cpp:137] Memory required for data: 2111764512
I0109 17:01:14.159220 20212 layer_factory.hpp:77] Creating layer stage4_unit1_sc_scale
I0109 17:01:14.159230 20212 net.cpp:84] Creating Layer stage4_unit1_sc_scale
I0109 17:01:14.159238 20212 net.cpp:406] stage4_unit1_sc_scale <- stage4_unit1_sc
I0109 17:01:14.159245 20212 net.cpp:367] stage4_unit1_sc_scale -> stage4_unit1_sc (in-place)
I0109 17:01:14.159286 20212 layer_factory.hpp:77] Creating layer stage4_unit1_sc_scale
I0109 17:01:14.159394 20212 net.cpp:122] Setting up stage4_unit1_sc_scale
I0109 17:01:14.159402 20212 net.cpp:129] Top shape: 8 512 13 13 (692224)
I0109 17:01:14.159406 20212 net.cpp:137] Memory required for data: 2114533408
I0109 17:01:14.159413 20212 layer_factory.hpp:77] Creating layer _plus6
I0109 17:01:14.159422 20212 net.cpp:84] Creating Layer _plus6
I0109 17:01:14.159430 20212 net.cpp:406] _plus6 <- stage4_unit1_bn3
I0109 17:01:14.159435 20212 net.cpp:406] _plus6 <- stage4_unit1_sc
I0109 17:01:14.159441 20212 net.cpp:380] _plus6 -> _plus6
I0109 17:01:14.159466 20212 net.cpp:122] Setting up _plus6
I0109 17:01:14.159473 20212 net.cpp:129] Top shape: 8 512 13 13 (692224)
I0109 17:01:14.159477 20212 net.cpp:137] Memory required for data: 2117302304
I0109 17:01:14.159482 20212 layer_factory.hpp:77] Creating layer _plus6__plus6_0_split
I0109 17:01:14.159488 20212 net.cpp:84] Creating Layer _plus6__plus6_0_split
I0109 17:01:14.159493 20212 net.cpp:406] _plus6__plus6_0_split <- _plus6
I0109 17:01:14.159499 20212 net.cpp:380] _plus6__plus6_0_split -> _plus6__plus6_0_split_0
I0109 17:01:14.159507 20212 net.cpp:380] _plus6__plus6_0_split -> _plus6__plus6_0_split_1
I0109 17:01:14.159544 20212 net.cpp:122] Setting up _plus6__plus6_0_split
I0109 17:01:14.159552 20212 net.cpp:129] Top shape: 8 512 13 13 (692224)
I0109 17:01:14.159559 20212 net.cpp:129] Top shape: 8 512 13 13 (692224)
I0109 17:01:14.159561 20212 net.cpp:137] Memory required for data: 2122840096
I0109 17:01:14.159565 20212 layer_factory.hpp:77] Creating layer stage4_unit2_bn1
I0109 17:01:14.159574 20212 net.cpp:84] Creating Layer stage4_unit2_bn1
I0109 17:01:14.159577 20212 net.cpp:406] stage4_unit2_bn1 <- _plus6__plus6_0_split_0
I0109 17:01:14.159584 20212 net.cpp:380] stage4_unit2_bn1 -> stage4_unit2_bn1
I0109 17:01:14.159780 20212 net.cpp:122] Setting up stage4_unit2_bn1
I0109 17:01:14.159790 20212 net.cpp:129] Top shape: 8 512 13 13 (692224)
I0109 17:01:14.159793 20212 net.cpp:137] Memory required for data: 2125608992
I0109 17:01:14.159801 20212 layer_factory.hpp:77] Creating layer stage4_unit2_bn1_scale
I0109 17:01:14.159809 20212 net.cpp:84] Creating Layer stage4_unit2_bn1_scale
I0109 17:01:14.159816 20212 net.cpp:406] stage4_unit2_bn1_scale <- stage4_unit2_bn1
I0109 17:01:14.159822 20212 net.cpp:367] stage4_unit2_bn1_scale -> stage4_unit2_bn1 (in-place)
I0109 17:01:14.159862 20212 layer_factory.hpp:77] Creating layer stage4_unit2_bn1_scale
I0109 17:01:14.159970 20212 net.cpp:122] Setting up stage4_unit2_bn1_scale
I0109 17:01:14.159979 20212 net.cpp:129] Top shape: 8 512 13 13 (692224)
I0109 17:01:14.159982 20212 net.cpp:137] Memory required for data: 2128377888
I0109 17:01:14.159989 20212 layer_factory.hpp:77] Creating layer stage4_unit2_conv1
I0109 17:01:14.159999 20212 net.cpp:84] Creating Layer stage4_unit2_conv1
I0109 17:01:14.160006 20212 net.cpp:406] stage4_unit2_conv1 <- stage4_unit2_bn1
I0109 17:01:14.160013 20212 net.cpp:380] stage4_unit2_conv1 -> stage4_unit2_conv1
I0109 17:01:14.193707 20212 net.cpp:122] Setting up stage4_unit2_conv1
I0109 17:01:14.193729 20212 net.cpp:129] Top shape: 8 512 13 13 (692224)
I0109 17:01:14.193734 20212 net.cpp:137] Memory required for data: 2131146784
I0109 17:01:14.193743 20212 layer_factory.hpp:77] Creating layer stage4_unit2_bn2
I0109 17:01:14.193755 20212 net.cpp:84] Creating Layer stage4_unit2_bn2
I0109 17:01:14.193761 20212 net.cpp:406] stage4_unit2_bn2 <- stage4_unit2_conv1
I0109 17:01:14.193769 20212 net.cpp:380] stage4_unit2_bn2 -> stage4_unit2_bn2
I0109 17:01:14.193984 20212 net.cpp:122] Setting up stage4_unit2_bn2
I0109 17:01:14.193992 20212 net.cpp:129] Top shape: 8 512 13 13 (692224)
I0109 17:01:14.193996 20212 net.cpp:137] Memory required for data: 2133915680
I0109 17:01:14.194020 20212 layer_factory.hpp:77] Creating layer stage4_unit2_bn2_scale
I0109 17:01:14.194046 20212 net.cpp:84] Creating Layer stage4_unit2_bn2_scale
I0109 17:01:14.194052 20212 net.cpp:406] stage4_unit2_bn2_scale <- stage4_unit2_bn2
I0109 17:01:14.194059 20212 net.cpp:367] stage4_unit2_bn2_scale -> stage4_unit2_bn2 (in-place)
I0109 17:01:14.194103 20212 layer_factory.hpp:77] Creating layer stage4_unit2_bn2_scale
I0109 17:01:14.194213 20212 net.cpp:122] Setting up stage4_unit2_bn2_scale
I0109 17:01:14.194223 20212 net.cpp:129] Top shape: 8 512 13 13 (692224)
I0109 17:01:14.194227 20212 net.cpp:137] Memory required for data: 2136684576
I0109 17:01:14.194236 20212 layer_factory.hpp:77] Creating layer stage4_unit2_relu1
I0109 17:01:14.194244 20212 net.cpp:84] Creating Layer stage4_unit2_relu1
I0109 17:01:14.194250 20212 net.cpp:406] stage4_unit2_relu1 <- stage4_unit2_bn2
I0109 17:01:14.194257 20212 net.cpp:380] stage4_unit2_relu1 -> stage4_unit2_relu1
I0109 17:01:14.194681 20212 net.cpp:122] Setting up stage4_unit2_relu1
I0109 17:01:14.194697 20212 net.cpp:129] Top shape: 8 512 13 13 (692224)
I0109 17:01:14.194701 20212 net.cpp:137] Memory required for data: 2139453472
I0109 17:01:14.194705 20212 layer_factory.hpp:77] Creating layer stage4_unit2_conv2
I0109 17:01:14.194718 20212 net.cpp:84] Creating Layer stage4_unit2_conv2
I0109 17:01:14.194723 20212 net.cpp:406] stage4_unit2_conv2 <- stage4_unit2_relu1
I0109 17:01:14.194732 20212 net.cpp:380] stage4_unit2_conv2 -> stage4_unit2_conv2
I0109 17:01:14.230492 20212 net.cpp:122] Setting up stage4_unit2_conv2
I0109 17:01:14.230525 20212 net.cpp:129] Top shape: 8 512 13 13 (692224)
I0109 17:01:14.230528 20212 net.cpp:137] Memory required for data: 2142222368
I0109 17:01:14.230540 20212 layer_factory.hpp:77] Creating layer stage4_unit2_bn3
I0109 17:01:14.230554 20212 net.cpp:84] Creating Layer stage4_unit2_bn3
I0109 17:01:14.230561 20212 net.cpp:406] stage4_unit2_bn3 <- stage4_unit2_conv2
I0109 17:01:14.230569 20212 net.cpp:380] stage4_unit2_bn3 -> stage4_unit2_bn3
I0109 17:01:14.230901 20212 net.cpp:122] Setting up stage4_unit2_bn3
I0109 17:01:14.230911 20212 net.cpp:129] Top shape: 8 512 13 13 (692224)
I0109 17:01:14.230914 20212 net.cpp:137] Memory required for data: 2144991264
I0109 17:01:14.230923 20212 layer_factory.hpp:77] Creating layer stage4_unit2_bn3_scale
I0109 17:01:14.230937 20212 net.cpp:84] Creating Layer stage4_unit2_bn3_scale
I0109 17:01:14.230942 20212 net.cpp:406] stage4_unit2_bn3_scale <- stage4_unit2_bn3
I0109 17:01:14.230949 20212 net.cpp:367] stage4_unit2_bn3_scale -> stage4_unit2_bn3 (in-place)
I0109 17:01:14.231000 20212 layer_factory.hpp:77] Creating layer stage4_unit2_bn3_scale
I0109 17:01:14.231122 20212 net.cpp:122] Setting up stage4_unit2_bn3_scale
I0109 17:01:14.231132 20212 net.cpp:129] Top shape: 8 512 13 13 (692224)
I0109 17:01:14.231137 20212 net.cpp:137] Memory required for data: 2147760160
I0109 17:01:14.231143 20212 layer_factory.hpp:77] Creating layer _plus7
I0109 17:01:14.231153 20212 net.cpp:84] Creating Layer _plus7
I0109 17:01:14.231159 20212 net.cpp:406] _plus7 <- stage4_unit2_bn3
I0109 17:01:14.231168 20212 net.cpp:406] _plus7 <- _plus6__plus6_0_split_1
I0109 17:01:14.231175 20212 net.cpp:380] _plus7 -> _plus7
I0109 17:01:14.231204 20212 net.cpp:122] Setting up _plus7
I0109 17:01:14.231211 20212 net.cpp:129] Top shape: 8 512 13 13 (692224)
I0109 17:01:14.231216 20212 net.cpp:137] Memory required for data: 2150529056
I0109 17:01:14.231221 20212 layer_factory.hpp:77] Creating layer bn1
I0109 17:01:14.231227 20212 net.cpp:84] Creating Layer bn1
I0109 17:01:14.231231 20212 net.cpp:406] bn1 <- _plus7
I0109 17:01:14.231240 20212 net.cpp:380] bn1 -> bn1
I0109 17:01:14.231442 20212 net.cpp:122] Setting up bn1
I0109 17:01:14.231451 20212 net.cpp:129] Top shape: 8 512 13 13 (692224)
I0109 17:01:14.231456 20212 net.cpp:137] Memory required for data: 2153297952
I0109 17:01:14.231464 20212 layer_factory.hpp:77] Creating layer bn1_scale
I0109 17:01:14.231472 20212 net.cpp:84] Creating Layer bn1_scale
I0109 17:01:14.231475 20212 net.cpp:406] bn1_scale <- bn1
I0109 17:01:14.231480 20212 net.cpp:367] bn1_scale -> bn1 (in-place)
I0109 17:01:14.231523 20212 layer_factory.hpp:77] Creating layer bn1_scale
I0109 17:01:14.231637 20212 net.cpp:122] Setting up bn1_scale
I0109 17:01:14.231645 20212 net.cpp:129] Top shape: 8 512 13 13 (692224)
I0109 17:01:14.231649 20212 net.cpp:137] Memory required for data: 2156066848
I0109 17:01:14.231657 20212 layer_factory.hpp:77] Creating layer fc8
I0109 17:01:14.231671 20212 net.cpp:84] Creating Layer fc8
I0109 17:01:14.231676 20212 net.cpp:406] fc8 <- bn1
I0109 17:01:14.231684 20212 net.cpp:380] fc8 -> fc8
I0109 17:01:14.239428 20212 net.cpp:122] Setting up fc8
I0109 17:01:14.239447 20212 net.cpp:129] Top shape: 8 2 (16)
I0109 17:01:14.239451 20212 net.cpp:137] Memory required for data: 2156066912
I0109 17:01:14.239461 20212 layer_factory.hpp:77] Creating layer loss
I0109 17:01:14.239475 20212 net.cpp:84] Creating Layer loss
I0109 17:01:14.239481 20212 net.cpp:406] loss <- fc8
I0109 17:01:14.239487 20212 net.cpp:406] loss <- label
I0109 17:01:14.239495 20212 net.cpp:380] loss -> loss
I0109 17:01:14.239512 20212 layer_factory.hpp:77] Creating layer loss
…
I0109 17:01:14.241876 20212 solver.cpp:172] Creating test net (#0) specified by net file: r18_train_val.prototxt
I0109 17:01:14.241992 20212 net.cpp:294] The NetState phase (1) differed from the phase (0) specified by a rule in layer data
I0109 17:01:14.242739 20212 net.cpp:51] Initializing net from parameters: 
name: "r18"
state {
  phase: TEST
}
layer {
  name: "data"
  type: "Data"
  top: "data"
  top: "label"
  include {
    phase: TEST
  }
  transform_param {
    scale: 0.0078125
    mirror: true
    mean_value: 127
  }
  data_param {
    source: "/home/lc/gender/school/data_2/val.lmdb"
    batch_size: 8
    backend: LMDB
  }
}
layer {
  name: "conv0"
  type: "Convolution"
  bottom: "data"
  top: "conv0"
  param {
    lr_mult: 1
    decay_mult: 1
  }
  convolution_param {
    num_output: 64
    bias_term: false
    pad: 1
    kernel_size: 3
    stride: 1
    weight_filler {
      type: "gaussian"
      std: 0.01
    }
    engine: CAFFE
  }
}
layer {
  name: "bn0"
  type: "BatchNorm"
  bottom: "conv0"
  top: "bn0"
  batch_norm_param {
    use_global_stats: false
    moving_average_fraction: 0.9
    eps: 2e-05
  }
}
layer {
  name: "bn0_scale"
  type: "Scale"
  bottom: "bn0"
  top: "bn0"
  scale_param {
    bias_term: true
  }
}
layer {
  name: "relu0"
  type: "ReLU"
  bottom: "bn0"
  top: "relu0"
}
layer {
  name: "stage1_unit1_bn1"
  type: "BatchNorm"
  bottom: "relu0"
  top: "stage1_unit1_bn1"
  batch_norm_param {
    use_global_stats: false
    moving_average_fraction: 0.9
    eps: 2e-05
  }
}
layer {
  name: "stage1_unit1_bn1_scale"
  type: "Scale"
  bottom: "stage1_unit1_bn1"
  top: "stage1_unit1_bn1"
  scale_param {
    bias_term: true
  }
}
layer {
  name: "stage1_unit1_conv1"
  type: "Convolution"
  bottom: "stage1_unit1_bn1"
  top: "stage1_unit1_conv1"
  param {
    lr_mult: 1
    decay_mult: 1
  }
  convolution_param {
    num_output: 64
    bias_term: false
    pad: 1
    kernel_size: 3
    stride: 1
    weight_filler {
      type: "gaussian"
      std: 0.01
    }
    engine: CAFFE
  }
}
layer {
  name: "stage1_unit1_bn2"
  type: "BatchNorm"
  bottom: "stage1_unit1_conv1"
  top: "stage1_unit1_bn2"
  batch_norm_param {
    use_global_stats: false
    moving_average_fraction: 0.9
    eps: 2e-05
  }
}
layer {
  name: "stage1_unit1_bn2_scale"
  type: "Scale"
  bottom: "stage1_unit1_bn2"
  top: "stage1_unit1_bn2"
  scale_param {
    bias_term: true
  }
}
layer {
  name: "stage1_unit1_relu1"
  type: "ReLU"
  bottom: "stage1_unit1_bn2"
  top: "stage1_unit1_relu1"
}
layer {
  name: "stage1_unit1_conv2"
  type: "Convolution"
  bottom: "stage1_unit1_relu1"
  top: "stage1_unit1_conv2"
  param {
    lr_mult: 1
    decay_mult: 1
  }
  convolution_param {
    num_output: 64
    bias_term: false
    pad: 1
    kernel_size: 3
    stride: 2
    weight_filler {
      type: "gaussian"
      std: 0.01
    }
    engine: CAFFE
  }
}
layer {
  name: "stage1_unit1_bn3"
  type: "BatchNorm"
  bottom: "stage1_unit1_conv2"
  top: "stage1_unit1_bn3"
  batch_norm_param {
    use_global_stats: false
    moving_average_fraction: 0.9
    eps: 2e-05
  }
}
layer {
  name: "stage1_unit1_bn3_scale"
  type: "Scale"
  bottom: "stage1_unit1_bn3"
  top: "stage1_unit1_bn3"
  scale_param {
    bias_term: true
  }
}
layer {
  name: "stage1_unit1_conv1sc"
  type: "Convolution"
  bottom: "relu0"
  top: "stage1_unit1_conv1sc"
  param {
    lr_mult: 1
    decay_mult: 1
  }
  convolution_param {
    num_output: 64
    bias_term: false
    kernel_size: 1
    stride: 2
    weight_filler {
      type: "gaussian"
      std: 0.01
    }
    engine: CAFFE
  }
}
layer {
  name: "stage1_unit1_sc"
  type: "BatchNorm"
  bottom: "stage1_unit1_conv1sc"
  top: "stage1_unit1_sc"
  batch_norm_param {
    use_global_stats: false
    moving_average_fraction: 0.9
    eps: 2e-05
  }
}
layer {
  name: "stage1_unit1_sc_scale"
  type: "Scale"
  bottom: "stage1_unit1_sc"
  top: "stage1_unit1_sc"
  scale_param {
    bias_term: true
  }
}
layer {
  name: "_plus0"
  type: "Eltwise"
  bottom: "stage1_unit1_bn3"
  bottom: "stage1_unit1_sc"
  top: "_plus0"
  eltwise_param {
    operation: SUM
  }
}
layer {
  name: "stage1_unit2_bn1"
  type: "BatchNorm"
  bottom: "_plus0"
  top: "stage1_unit2_bn1"
  batch_norm_param {
    use_global_stats: false
    moving_average_fraction: 0.9
    eps: 2e-05
  }
}
layer {
  name: "stage1_unit2_bn1_scale"
  type: "Scale"
  bottom: "stage1_unit2_bn1"
  top: "stage1_unit2_bn1"
  scale_param {
    bias_term: true
  }
}
layer {
  name: "stage1_unit2_conv1"
  type: "Convolution"
  bottom: "stage1_unit2_bn1"
  top: "stage1_unit2_conv1"
  param {
    lr_mult: 1
    decay_mult: 1
  }
  convolution_param {
    num_output: 64
    bias_term: false
    pad: 1
    kernel_size: 3
    stride: 1
    weight_filler {
      type: "gaussian"
      std: 0.01
    }
    engine: CAFFE
  }
}
layer {
  name: "stage1_unit2_bn2"
  type: "BatchNorm"
  bottom: "stage1_unit2_conv1"
  top: "stage1_unit2_bn2"
  batch_norm_param {
    use_global_stats: false
    moving_average_fraction: 0.9
    eps: 2e-05
  }
}
layer {
  name: "stage1_unit2_bn2_scale"
  type: "Scale"
  bottom: "stage1_unit2_bn2"
  top: "stage1_unit2_bn2"
  scale_param {
    bias_term: true
  }
}
layer {
  name: "stage1_unit2_relu1"
  type: "ReLU"
  bottom: "stage1_unit2_bn2"
  top: "stage1_unit2_relu1"
}
layer {
  name: "stage1_unit2_conv2"
  type: "Convolution"
  bottom: "stage1_unit2_relu1"
  top: "stage1_unit2_conv2"
  param {
    lr_mult: 1
    decay_mult: 1
  }
  convolution_param {
    num_output: 64
    bias_term: false
    pad: 1
    kernel_size: 3
    stride: 1
    weight_filler {
      type: "gaussian"
      std: 0.01
    }
    engine: CAFFE
  }
}
layer {
  name: "stage1_unit2_bn3"
  type: "BatchNorm"
  bottom: "stage1_unit2_conv2"
  top: "stage1_unit2_bn3"
  batch_norm_param {
    use_global_stats: false
    moving_average_fraction: 0.9
    eps: 2e-05
  }
}
layer {
  name: "stage1_unit2_bn3_scale"
  type: "Scale"
  bottom: "stage1_unit2_bn3"
  top: "stage1_unit2_bn3"
  scale_param {
    bias_term: true
  }
}
layer {
  name: "_plus1"
  type: "Eltwise"
  bottom: "stage1_unit2_bn3"
  bottom: "_plus0"
  top: "_plus1"
  eltwise_param {
    operation: SUM
  }
}
layer {
  name: "stage2_unit1_bn1"
  type: "BatchNorm"
  bottom: "_plus1"
  top: "stage2_unit1_bn1"
  batch_norm_param {
    use_global_stats: false
    moving_average_fraction: 0.9
    eps: 2e-05
  }
}
layer {
  name: "stage2_unit1_bn1_scale"
  type: "Scale"
  bottom: "stage2_unit1_bn1"
  top: "stage2_unit1_bn1"
  scale_param {
    bias_term: true
  }
}
layer {
  name: "stage2_unit1_conv1"
  type: "Convolution"
  bottom: "stage2_unit1_bn1"
  top: "stage2_unit1_conv1"
  param {
    lr_mult: 1
    decay_mult: 1
  }
  convolution_param {
    num_output: 128
    bias_term: false
    pad: 1
    kernel_size: 3
    stride: 1
    weight_filler {
      type: "gaussian"
      std: 0.01
    }
    engine: CAFFE
  }
}
layer {
  name: "stage2_unit1_bn2"
  type: "BatchNorm"
  bottom: "stage2_unit1_conv1"
  top: "stage2_unit1_bn2"
  batch_norm_param {
    use_global_stats: false
    moving_average_fraction: 0.9
    eps: 2e-05
  }
}
layer {
  name: "stage2_unit1_bn2_scale"
  type: "Scale"
  bottom: "stage2_unit1_bn2"
  top: "stage2_unit1_bn2"
  scale_param {
    bias_term: true
  }
}
layer {
  name: "stage2_unit1_relu1"
  type: "ReLU"
  bottom: "stage2_unit1_bn2"
  top: "stage2_unit1_relu1"
}
layer {
  name: "stage2_unit1_conv2"
  type: "Convolution"
  bottom: "stage2_unit1_relu1"
  top: "stage2_unit1_conv2"
  param {
    lr_mult: 1
    decay_mult: 1
  }
  convolution_param {
    num_output: 128
    bias_term: false
    pad: 1
    kernel_size: 3
    stride: 2
    weight_filler {
      type: "gaussian"
      std: 0.01
    }
    engine: CAFFE
  }
}
layer {
  name: "stage2_unit1_bn3"
  type: "BatchNorm"
  bottom: "stage2_unit1_conv2"
  top: "stage2_unit1_bn3"
  batch_norm_param {
    use_global_stats: false
    moving_average_fraction: 0.9
    eps: 2e-05
  }
}
layer {
  name: "stage2_unit1_bn3_scale"
  type: "Scale"
  bottom: "stage2_unit1_bn3"
  top: "stage2_unit1_bn3"
  scale_param {
    bias_term: true
  }
}
layer {
  name: "stage2_unit1_conv1sc"
  type: "Convolution"
  bottom: "_plus1"
  top: "stage2_unit1_conv1sc"
  param {
    lr_mult: 1
    decay_mult: 1
  }
  convolution_param {
    num_output: 128
    bias_term: false
    kernel_size: 1
    stride: 2
    weight_filler {
      type: "gaussian"
      std: 0.01
    }
    engine: CAFFE
  }
}
layer {
  name: "stage2_unit1_sc"
  type: "BatchNorm"
  bottom: "stage2_unit1_conv1sc"
  top: "stage2_unit1_sc"
  batch_norm_param {
    use_global_stats: false
    moving_average_fraction: 0.9
    eps: 2e-05
  }
}
layer {
  name: "stage2_unit1_sc_scale"
  type: "Scale"
  bottom: "stage2_unit1_sc"
  top: "stage2_unit1_sc"
  scale_param {
    bias_term: true
  }
}
layer {
  name: "_plus2"
  type: "Eltwise"
  bottom: "stage2_unit1_bn3"
  bottom: "stage2_unit1_sc"
  top: "_plus2"
  eltwise_param {
    operation: SUM
  }
}
layer {
  name: "stage2_unit2_bn1"
  type: "BatchNorm"
  bottom: "_plus2"
  top: "stage2_unit2_bn1"
  batch_norm_param {
    use_global_stats: false
    moving_average_fraction: 0.9
    eps: 2e-05
  }
}
layer {
  name: "stage2_unit2_bn1_scale"
  type: "Scale"
  bottom: "stage2_unit2_bn1"
  top: "stage2_unit2_bn1"
  scale_param {
    bias_term: true
  }
}
layer {
  name: "stage2_unit2_conv1"
  type: "Convolution"
  bottom: "stage2_unit2_bn1"
  top: "stage2_unit2_conv1"
  param {
    lr_mult: 1
    decay_mult: 1
  }
  convolution_param {
    num_output: 128
    bias_term: false
    pad: 1
    kernel_size: 3
    stride: 1
    weight_filler {
      type: "gaussian"
      std: 0.01
    }
    engine: CAFFE
  }
}
layer {
  name: "stage2_unit2_bn2"
  type: "BatchNorm"
  bottom: "stage2_unit2_conv1"
  top: "stage2_unit2_bn2"
  batch_norm_param {
    use_global_stats: false
    moving_average_fraction: 0.9
    eps: 2e-05
  }
}
layer {
  name: "stage2_unit2_bn2_scale"
  type: "Scale"
  bottom: "stage2_unit2_bn2"
  top: "stage2_unit2_bn2"
  scale_param {
    bias_term: true
  }
}
layer {
  name: "stage2_unit2_relu1"
  type: "ReLU"
  bottom: "stage2_unit2_bn2"
  top: "stage2_unit2_relu1"
}
layer {
  name: "stage2_unit2_conv2"
  type: "Convolution"
  bottom: "stage2_unit2_relu1"
  top: "stage2_unit2_conv2"
  param {
    lr_mult: 1
    decay_mult: 1
  }
  convolution_param {
    num_output: 128
    bias_term: false
    pad: 1
    kernel_size: 3
    stride: 1
    weight_filler {
      type: "gaussian"
      std: 0.01
    }
    engine: CAFFE
  }
}
layer {
  name: "stage2_unit2_bn3"
  type: "BatchNorm"
  bottom: "stage2_unit2_conv2"
  top: "stage2_unit2_bn3"
  batch_norm_param {
    use_global_stats: false
    moving_average_fraction: 0.9
    eps: 2e-05
  }
}
layer {
  name: "stage2_unit2_bn3_scale"
  type: "Scale"
  bottom: "stage2_unit2_bn3"
  top: "stage2_unit2_bn3"
  scale_param {
    bias_term: true
  }
}
layer {
  name: "_plus3"
  type: "Eltwise"
  bottom: "stage2_unit2_bn3"
  bottom: "_plus2"
  top: "_plus3"
  eltwise_param {
    operation: SUM
  }
}
layer {
  name: "stage3_unit1_bn1"
  type: "BatchNorm"
  bottom: "_plus3"
  top: "stage3_unit1_bn1"
  batch_norm_param {
    use_global_stats: false
    moving_average_fraction: 0.9
    eps: 2e-05
  }
}
layer {
  name: "stage3_unit1_bn1_scale"
  type: "Scale"
  bottom: "stage3_unit1_bn1"
  top: "stage3_unit1_bn1"
  scale_param {
    bias_term: true
  }
}
layer {
  name: "stage3_unit1_conv1"
  type: "Convolution"
  bottom: "stage3_unit1_bn1"
  top: "stage3_unit1_conv1"
  param {
    lr_mult: 1
    decay_mult: 1
  }
  convolution_param {
    num_output: 256
    bias_term: false
    pad: 1
    kernel_size: 3
    stride: 1
    weight_filler {
      type: "gaussian"
      std: 0.01
    }
    engine: CAFFE
  }
}
layer {
  name: "stage3_unit1_bn2"
  type: "BatchNorm"
  bottom: "stage3_unit1_conv1"
  top: "stage3_unit1_bn2"
  batch_norm_param {
    use_global_stats: false
    moving_average_fraction: 0.9
    eps: 2e-05
  }
}
layer {
  name: "stage3_unit1_bn2_scale"
  type: "Scale"
  bottom: "stage3_unit1_bn2"
  top: "stage3_unit1_bn2"
  scale_param {
    bias_term: true
  }
}
layer {
  name: "stage3_unit1_relu1"
  type: "ReLU"
  bottom: "stage3_unit1_bn2"
  top: "stage3_unit1_relu1"
}
layer {
  name: "stage3_unit1_conv2"
  type: "Convolution"
  bottom: "stage3_unit1_relu1"
  top: "stage3_unit1_conv2"
  param {
    lr_mult: 1
    decay_mult: 1
  }
  convolution_param {
    num_output: 256
    bias_term: false
    pad: 1
    kernel_size: 3
    stride: 2
    weight_filler {
      type: "gaussian"
      std: 0.01
    }
    engine: CAFFE
  }
}
layer {
  name: "stage3_unit1_bn3"
  type: "BatchNorm"
  bottom: "stage3_unit1_conv2"
  top: "stage3_unit1_bn3"
  batch_norm_param {
    use_global_stats: false
    moving_average_fraction: 0.9
    eps: 2e-05
  }
}
layer {
  name: "stage3_unit1_bn3_scale"
  type: "Scale"
  bottom: "stage3_unit1_bn3"
  top: "stage3_unit1_bn3"
  scale_param {
    bias_term: true
  }
}
layer {
  name: "stage3_unit1_conv1sc"
  type: "Convolution"
  bottom: "_plus3"
  top: "stage3_unit1_conv1sc"
  param {
    lr_mult: 1
    decay_mult: 1
  }
  convolution_param {
    num_output: 256
    bias_term: false
    kernel_size: 1
    stride: 2
    weight_filler {
      type: "gaussian"
      std: 0.01
    }
    engine: CAFFE
  }
}
layer {
  name: "stage3_unit1_sc"
  type: "BatchNorm"
  bottom: "stage3_unit1_conv1sc"
  top: "stage3_unit1_sc"
  batch_norm_param {
    use_global_stats: false
    moving_average_fraction: 0.9
    eps: 2e-05
  }
}
layer {
  name: "stage3_unit1_sc_scale"
  type: "Scale"
  bottom: "stage3_unit1_sc"
  top: "stage3_unit1_sc"
  scale_param {
    bias_term: true
  }
}
layer {
  name: "_plus4"
  type: "Eltwise"
  bottom: "stage3_unit1_bn3"
  bottom: "stage3_unit1_sc"
  top: "_plus4"
  eltwise_param {
    operation: SUM
  }
}
layer {
  name: "stage3_unit2_bn1"
  type: "BatchNorm"
  bottom: "_plus4"
  top: "stage3_unit2_bn1"
  batch_norm_param {
    use_global_stats: false
    moving_average_fraction: 0.9
    eps: 2e-05
  }
}
layer {
  name: "stage3_unit2_bn1_scale"
  type: "Scale"
  bottom: "stage3_unit2_bn1"
  top: "stage3_unit2_bn1"
  scale_param {
    bias_term: true
  }
}
layer {
  name: "stage3_unit2_conv1"
  type: "Convolution"
  bottom: "stage3_unit2_bn1"
  top: "stage3_unit2_conv1"
  param {
    lr_mult: 1
    decay_mult: 1
  }
  convolution_param {
    num_output: 256
    bias_term: false
    pad: 1
    kernel_size: 3
    stride: 1
    weight_filler {
      type: "gaussian"
      std: 0.01
    }
    engine: CAFFE
  }
}
layer {
  name: "stage3_unit2_bn2"
  type: "BatchNorm"
  bottom: "stage3_unit2_conv1"
  top: "stage3_unit2_bn2"
  batch_norm_param {
    use_global_stats: false
    moving_average_fraction: 0.9
    eps: 2e-05
  }
}
layer {
  name: "stage3_unit2_bn2_scale"
  type: "Scale"
  bottom: "stage3_unit2_bn2"
  top: "stage3_unit2_bn2"
  scale_param {
    bias_term: true
  }
}
layer {
  name: "stage3_unit2_relu1"
  type: "ReLU"
  bottom: "stage3_unit2_bn2"
  top: "stage3_unit2_relu1"
}
layer {
  name: "stage3_unit2_conv2"
  type: "Convolution"
  bottom: "stage3_unit2_relu1"
  top: "stage3_unit2_conv2"
  param {
    lr_mult: 1
    decay_mult: 1
  }
  convolution_param {
    num_output: 256
    bias_term: false
    pad: 1
    kernel_size: 3
    stride: 1
    weight_filler {
      type: "gaussian"
      std: 0.01
    }
    engine: CAFFE
  }
}
layer {
  name: "stage3_unit2_bn3"
  type: "BatchNorm"
  bottom: "stage3_unit2_conv2"
  top: "stage3_unit2_bn3"
  batch_norm_param {
    use_global_stats: false
    moving_average_fraction: 0.9
    eps: 2e-05
  }
}
layer {
  name: "stage3_unit2_bn3_scale"
  type: "Scale"
  bottom: "stage3_unit2_bn3"
  top: "stage3_unit2_bn3"
  scale_param {
    bias_term: true
  }
}
layer {
  name: "_plus5"
  type: "Eltwise"
  bottom: "stage3_unit2_bn3"
  bottom: "_plus4"
  top: "_plus5"
  eltwise_param {
    operation: SUM
  }
}
layer {
  name: "stage4_unit1_bn1"
  type: "BatchNorm"
  bottom: "_plus5"
  top: "stage4_unit1_bn1"
  batch_norm_param {
    use_global_stats: false
    moving_average_fraction: 0.9
    eps: 2e-05
  }
}
layer {
  name: "stage4_unit1_bn1_scale"
  type: "Scale"
  bottom: "stage4_unit1_bn1"
  top: "stage4_unit1_bn1"
  scale_param {
    bias_term: true
  }
}
layer {
  name: "stage4_unit1_conv1"
  type: "Convolution"
  bottom: "stage4_unit1_bn1"
  top: "stage4_unit1_conv1"
  param {
    lr_mult: 1
    decay_mult: 1
  }
  convolution_param {
    num_output: 512
    bias_term: false
    pad: 1
    kernel_size: 3
    stride: 1
    weight_filler {
      type: "gaussian"
      std: 0.01
    }
    engine: CAFFE
  }
}
layer {
  name: "stage4_unit1_bn2"
  type: "BatchNorm"
  bottom: "stage4_unit1_conv1"
  top: "stage4_unit1_bn2"
  batch_norm_param {
    use_global_stats: false
    moving_average_fraction: 0.9
    eps: 2e-05
  }
}
layer {
  name: "stage4_unit1_bn2_scale"
  type: "Scale"
  bottom: "stage4_unit1_bn2"
  top: "stage4_unit1_bn2"
  scale_param {
    bias_term: true
  }
}
layer {
  name: "stage4_unit1_relu1"
  type: "ReLU"
  bottom: "stage4_unit1_bn2"
  top: "stage4_unit1_relu1"
}
layer {
  name: "stage4_unit1_conv2"
  type: "Convolution"
  bottom: "stage4_unit1_relu1"
  top: "stage4_unit1_conv2"
  param {
    lr_mult: 1
    decay_mult: 1
  }
  convolution_param {
    num_output: 512
    bias_term: false
    pad: 1
    kernel_size: 3
    stride: 2
    weight_filler {
      type: "gaussian"
      std: 0.01
    }
    engine: CAFFE
  }
}
layer {
  name: "stage4_unit1_bn3"
  type: "BatchNorm"
  bottom: "stage4_unit1_conv2"
  top: "stage4_unit1_bn3"
  batch_norm_param {
    use_global_stats: false
    moving_average_fraction: 0.9
    eps: 2e-05
  }
}
layer {
  name: "stage4_unit1_bn3_scale"
  type: "Scale"
  bottom: "stage4_unit1_bn3"
  top: "stage4_unit1_bn3"
  scale_param {
    bias_term: true
  }
}
layer {
  name: "stage4_unit1_conv1sc"
  type: "Convolution"
  bottom: "_plus5"
  top: "stage4_unit1_conv1sc"
  param {
    lr_mult: 1
    decay_mult: 1
  }
  convolution_param {
    num_output: 512
    bias_term: false
    kernel_size: 1
    stride: 2
    weight_filler {
      type: "gaussian"
      std: 0.01
    }
    engine: CAFFE
  }
}
layer {
  name: "stage4_unit1_sc"
  type: "BatchNorm"
  bottom: "stage4_unit1_conv1sc"
  top: "stage4_unit1_sc"
  batch_norm_param {
    use_global_stats: false
    moving_average_fraction: 0.9
    eps: 2e-05
  }
}
layer {
  name: "stage4_unit1_sc_scale"
  type: "Scale"
  bottom: "stage4_unit1_sc"
  top: "stage4_unit1_sc"
  scale_param {
    bias_term: true
  }
}
layer {
  name: "_plus6"
  type: "Eltwise"
  bottom: "stage4_unit1_bn3"
  bottom: "stage4_unit1_sc"
  top: "_plus6"
  eltwise_param {
    operation: SUM
  }
}
layer {
  name: "stage4_unit2_bn1"
  type: "BatchNorm"
  bottom: "_plus6"
  top: "stage4_unit2_bn1"
  batch_norm_param {
    use_global_stats: false
    moving_average_fraction: 0.9
    eps: 2e-05
  }
}
layer {
  name: "stage4_unit2_bn1_scale"
  type: "Scale"
  bottom: "stage4_unit2_bn1"
  top: "stage4_unit2_bn1"
  scale_param {
    bias_term: true
  }
}
layer {
  name: "stage4_unit2_conv1"
  type: "Convolution"
  bottom: "stage4_unit2_bn1"
  top: "stage4_unit2_conv1"
  param {
    lr_mult: 1
    decay_mult: 1
  }
  convolution_param {
    num_output: 512
    bias_term: false
    pad: 1
    kernel_size: 3
    stride: 1
    weight_filler {
      type: "gaussian"
      std: 0.01
    }
    engine: CAFFE
  }
}
layer {
  name: "stage4_unit2_bn2"
  type: "BatchNorm"
  bottom: "stage4_unit2_conv1"
  top: "stage4_unit2_bn2"
  batch_norm_param {
    use_global_stats: false
    moving_average_fraction: 0.9
    eps: 2e-05
  }
}
layer {
  name: "stage4_unit2_bn2_scale"
  type: "Scale"
  bottom: "stage4_unit2_bn2"
  top: "stage4_unit2_bn2"
  scale_param {
    bias_term: true
  }
}
layer {
  name: "stage4_unit2_relu1"
  type: "ReLU"
  bottom: "stage4_unit2_bn2"
  top: "stage4_unit2_relu1"
}
layer {
  name: "stage4_unit2_conv2"
  type: "Convolution"
  bottom: "stage4_unit2_relu1"
  top: "stage4_unit2_conv2"
  param {
    lr_mult: 1
    decay_mult: 1
  }
  convolution_param {
    num_output: 512
    bias_term: false
    pad: 1
    kernel_size: 3
    stride: 1
    weight_filler {
      type: "gaussian"
      std: 0.01
    }
    engine: CAFFE
  }
}
layer {
  name: "stage4_unit2_bn3"
  type: "BatchNorm"
  bottom: "stage4_unit2_conv2"
  top: "stage4_unit2_bn3"
  batch_norm_param {
    use_global_stats: false
    moving_average_fraction: 0.9
    eps: 2e-05
  }
}
layer {
  name: "stage4_unit2_bn3_scale"
  type: "Scale"
  bottom: "stage4_unit2_bn3"
  top: "stage4_unit2_bn3"
  scale_param {
    bias_term: true
  }
}
layer {
  name: "_plus7"
  type: "Eltwise"
  bottom: "stage4_unit2_bn3"
  bottom: "_plus6"
  top: "_plus7"
  eltwise_param {
    operation: SUM
  }
}
layer {
  name: "bn1"
  type: "BatchNorm"
  bottom: "_plus7"
  top: "bn1"
  batch_norm_param {
    use_global_stats: false
    moving_average_fraction: 0.9
    eps: 2e-05
  }
}
layer {
  name: "bn1_scale"
  type: "Scale"
  bottom: "bn1"
  top: "bn1"
  scale_param {
    bias_term: true
  }
}
layer {
  name: "fc8"
  type: "InnerProduct"
  bottom: "bn1"
  top: "fc8"
  param {
    lr_mult: 1
    decay_mult: 1
  }
  param {
    lr_mult: 2
    decay_mult: 0
  }
  inner_product_param {
    num_output: 2
    weight_filler {
      type: "msra"
      std: 0.01
    }
    bias_filler {
      type: "constant"
      value: 0
    }
  }
}
layer {
  name: "accuracy"
  type: "Accuracy"
  bottom: "fc8"
  bottom: "label"
  top: "accuracy"
  include {
    phase: TEST
  }
}
layer {
  name: "loss"
  type: "WeightedSoftmaxWithLoss"
  bottom: "fc8"
  bottom: "label"
  top: "loss"
  softmax_param {
    pos_mult: 1.3
    pos_cid: 1
  }
}
I0109 17:01:14.243160 20212 layer_factory.hpp:77] Creating layer data
I0109 17:01:14.243238 20212 db_lmdb.cpp:35] Opened lmdb /home/lc/gender/school/data_2/val.lmdb
I0109 17:01:14.243273 20212 net.cpp:84] Creating Layer data
I0109 17:01:14.243280 20212 net.cpp:380] data -> data
I0109 17:01:14.243293 20212 net.cpp:380] data -> label
I0109 17:01:14.243562 20212 data_layer.cpp:45] output data size: 8,3,200,200
I0109 17:01:14.254602 20212 net.cpp:122] Setting up data
I0109 17:01:14.254623 20212 net.cpp:129] Top shape: 8 3 200 200 (960000)
I0109 17:01:14.254631 20212 net.cpp:129] Top shape: 8 (8)
I0109 17:01:14.254633 20212 net.cpp:137] Memory required for data: 3840032
I0109 17:01:14.254638 20212 layer_factory.hpp:77] Creating layer label_data_1_split
I0109 17:01:14.254648 20212 net.cpp:84] Creating Layer label_data_1_split
I0109 17:01:14.254653 20212 net.cpp:406] label_data_1_split <- label
I0109 17:01:14.254662 20212 net.cpp:380] label_data_1_split -> label_data_1_split_0
I0109 17:01:14.254671 20212 net.cpp:380] label_data_1_split -> label_data_1_split_1
I0109 17:01:14.254719 20212 net.cpp:122] Setting up label_data_1_split
I0109 17:01:14.254729 20212 net.cpp:129] Top shape: 8 (8)
I0109 17:01:14.254732 20212 net.cpp:129] Top shape: 8 (8)
I0109 17:01:14.254736 20212 net.cpp:137] Memory required for data: 3840096
I0109 17:01:14.254740 20212 layer_factory.hpp:77] Creating layer conv0
I0109 17:01:14.254755 20212 net.cpp:84] Creating Layer conv0
I0109 17:01:14.254760 20212 net.cpp:406] conv0 <- data
I0109 17:01:14.254766 20212 net.cpp:380] conv0 -> conv0
I0109 17:01:14.255162 20212 net.cpp:122] Setting up conv0
I0109 17:01:14.255173 20212 net.cpp:129] Top shape: 8 64 200 200 (20480000)
I0109 17:01:14.255177 20212 net.cpp:137] Memory required for data: 85760096
I0109 17:01:14.255187 20212 layer_factory.hpp:77] Creating layer bn0
I0109 17:01:14.255195 20212 net.cpp:84] Creating Layer bn0
I0109 17:01:14.255200 20212 net.cpp:406] bn0 <- conv0
I0109 17:01:14.255206 20212 net.cpp:380] bn0 -> bn0
I0109 17:01:14.255558 20212 net.cpp:122] Setting up bn0
I0109 17:01:14.255570 20212 net.cpp:129] Top shape: 8 64 200 200 (20480000)
I0109 17:01:14.255575 20212 net.cpp:137] Memory required for data: 167680096
I0109 17:01:14.255591 20212 layer_factory.hpp:77] Creating layer bn0_scale
I0109 17:01:14.255604 20212 net.cpp:84] Creating Layer bn0_scale
I0109 17:01:14.255609 20212 net.cpp:406] bn0_scale <- bn0
I0109 17:01:14.255617 20212 net.cpp:367] bn0_scale -> bn0 (in-place)
I0109 17:01:14.255682 20212 layer_factory.hpp:77] Creating layer bn0_scale
I0109 17:01:14.255972 20212 net.cpp:122] Setting up bn0_scale
I0109 17:01:14.255983 20212 net.cpp:129] Top shape: 8 64 200 200 (20480000)
I0109 17:01:14.255988 20212 net.cpp:137] Memory required for data: 249600096
I0109 17:01:14.255998 20212 layer_factory.hpp:77] Creating layer relu0
I0109 17:01:14.256006 20212 net.cpp:84] Creating Layer relu0
I0109 17:01:14.256009 20212 net.cpp:406] relu0 <- bn0
I0109 17:01:14.256016 20212 net.cpp:380] relu0 -> relu0
I0109 17:01:14.257457 20212 net.cpp:122] Setting up relu0
I0109 17:01:14.257473 20212 net.cpp:129] Top shape: 8 64 200 200 (20480000)
I0109 17:01:14.257477 20212 net.cpp:137] Memory required for data: 331520096
I0109 17:01:14.257483 20212 layer_factory.hpp:77] Creating layer relu0_relu0_0_split
I0109 17:01:14.257490 20212 net.cpp:84] Creating Layer relu0_relu0_0_split
I0109 17:01:14.257494 20212 net.cpp:406] relu0_relu0_0_split <- relu0
I0109 17:01:14.257501 20212 net.cpp:380] relu0_relu0_0_split -> relu0_relu0_0_split_0
I0109 17:01:14.257511 20212 net.cpp:380] relu0_relu0_0_split -> relu0_relu0_0_split_1
I0109 17:01:14.257551 20212 net.cpp:122] Setting up relu0_relu0_0_split
I0109 17:01:14.257560 20212 net.cpp:129] Top shape: 8 64 200 200 (20480000)
I0109 17:01:14.257565 20212 net.cpp:129] Top shape: 8 64 200 200 (20480000)
I0109 17:01:14.257570 20212 net.cpp:137] Memory required for data: 495360096
I0109 17:01:14.257573 20212 layer_factory.hpp:77] Creating layer stage1_unit1_bn1
I0109 17:01:14.257580 20212 net.cpp:84] Creating Layer stage1_unit1_bn1
I0109 17:01:14.257583 20212 net.cpp:406] stage1_unit1_bn1 <- relu0_relu0_0_split_0
I0109 17:01:14.257591 20212 net.cpp:380] stage1_unit1_bn1 -> stage1_unit1_bn1
I0109 17:01:14.257854 20212 net.cpp:122] Setting up stage1_unit1_bn1
I0109 17:01:14.257863 20212 net.cpp:129] Top shape: 8 64 200 200 (20480000)
I0109 17:01:14.257867 20212 net.cpp:137] Memory required for data: 577280096
I0109 17:01:14.257880 20212 layer_factory.hpp:77] Creating layer stage1_unit1_bn1_scale
I0109 17:01:14.257889 20212 net.cpp:84] Creating Layer stage1_unit1_bn1_scale
I0109 17:01:14.257892 20212 net.cpp:406] stage1_unit1_bn1_scale <- stage1_unit1_bn1
I0109 17:01:14.257900 20212 net.cpp:367] stage1_unit1_bn1_scale -> stage1_unit1_bn1 (in-place)
I0109 17:01:14.257947 20212 layer_factory.hpp:77] Creating layer stage1_unit1_bn1_scale
I0109 17:01:14.258273 20212 net.cpp:122] Setting up stage1_unit1_bn1_scale
I0109 17:01:14.258285 20212 net.cpp:129] Top shape: 8 64 200 200 (20480000)
I0109 17:01:14.258289 20212 net.cpp:137] Memory required for data: 659200096
I0109 17:01:14.258297 20212 layer_factory.hpp:77] Creating layer stage1_unit1_conv1
I0109 17:01:14.258311 20212 net.cpp:84] Creating Layer stage1_unit1_conv1
I0109 17:01:14.258316 20212 net.cpp:406] stage1_unit1_conv1 <- stage1_unit1_bn1
I0109 17:01:14.258323 20212 net.cpp:380] stage1_unit1_conv1 -> stage1_unit1_conv1
I0109 17:01:14.259013 20212 net.cpp:122] Setting up stage1_unit1_conv1
I0109 17:01:14.259023 20212 net.cpp:129] Top shape: 8 64 200 200 (20480000)
I0109 17:01:14.259027 20212 net.cpp:137] Memory required for data: 741120096
I0109 17:01:14.259034 20212 layer_factory.hpp:77] Creating layer stage1_unit1_bn2
I0109 17:01:14.259042 20212 net.cpp:84] Creating Layer stage1_unit1_bn2
I0109 17:01:14.259045 20212 net.cpp:406] stage1_unit1_bn2 <- stage1_unit1_conv1
I0109 17:01:14.259052 20212 net.cpp:380] stage1_unit1_bn2 -> stage1_unit1_bn2
I0109 17:01:14.259320 20212 net.cpp:122] Setting up stage1_unit1_bn2
I0109 17:01:14.259330 20212 net.cpp:129] Top shape: 8 64 200 200 (20480000)
I0109 17:01:14.259333 20212 net.cpp:137] Memory required for data: 823040096
I0109 17:01:14.259341 20212 layer_factory.hpp:77] Creating layer stage1_unit1_bn2_scale
I0109 17:01:14.259348 20212 net.cpp:84] Creating Layer stage1_unit1_bn2_scale
I0109 17:01:14.259352 20212 net.cpp:406] stage1_unit1_bn2_scale <- stage1_unit1_bn2
I0109 17:01:14.259358 20212 net.cpp:367] stage1_unit1_bn2_scale -> stage1_unit1_bn2 (in-place)
I0109 17:01:14.259403 20212 layer_factory.hpp:77] Creating layer stage1_unit1_bn2_scale
I0109 17:01:14.259636 20212 net.cpp:122] Setting up stage1_unit1_bn2_scale
I0109 17:01:14.259646 20212 net.cpp:129] Top shape: 8 64 200 200 (20480000)
I0109 17:01:14.259650 20212 net.cpp:137] Memory required for data: 904960096
I0109 17:01:14.259662 20212 layer_factory.hpp:77] Creating layer stage1_unit1_relu1
I0109 17:01:14.259668 20212 net.cpp:84] Creating Layer stage1_unit1_relu1
I0109 17:01:14.259675 20212 net.cpp:406] stage1_unit1_relu1 <- stage1_unit1_bn2
I0109 17:01:14.259681 20212 net.cpp:380] stage1_unit1_relu1 -> stage1_unit1_relu1
I0109 17:01:14.259799 20212 net.cpp:122] Setting up stage1_unit1_relu1
I0109 17:01:14.259810 20212 net.cpp:129] Top shape: 8 64 200 200 (20480000)
I0109 17:01:14.259816 20212 net.cpp:137] Memory required for data: 986880096
I0109 17:01:14.259820 20212 layer_factory.hpp:77] Creating layer stage1_unit1_conv2
I0109 17:01:14.259832 20212 net.cpp:84] Creating Layer stage1_unit1_conv2
I0109 17:01:14.259838 20212 net.cpp:406] stage1_unit1_conv2 <- stage1_unit1_relu1
I0109 17:01:14.259846 20212 net.cpp:380] stage1_unit1_conv2 -> stage1_unit1_conv2
I0109 17:01:14.260542 20212 net.cpp:122] Setting up stage1_unit1_conv2
I0109 17:01:14.260552 20212 net.cpp:129] Top shape: 8 64 100 100 (5120000)
I0109 17:01:14.260556 20212 net.cpp:137] Memory required for data: 1007360096
I0109 17:01:14.260563 20212 layer_factory.hpp:77] Creating layer stage1_unit1_bn3
I0109 17:01:14.260571 20212 net.cpp:84] Creating Layer stage1_unit1_bn3
I0109 17:01:14.260576 20212 net.cpp:406] stage1_unit1_bn3 <- stage1_unit1_conv2
I0109 17:01:14.260581 20212 net.cpp:380] stage1_unit1_bn3 -> stage1_unit1_bn3
I0109 17:01:14.260825 20212 net.cpp:122] Setting up stage1_unit1_bn3
I0109 17:01:14.260834 20212 net.cpp:129] Top shape: 8 64 100 100 (5120000)
I0109 17:01:14.260838 20212 net.cpp:137] Memory required for data: 1027840096
I0109 17:01:14.260846 20212 layer_factory.hpp:77] Creating layer stage1_unit1_bn3_scale
I0109 17:01:14.260854 20212 net.cpp:84] Creating Layer stage1_unit1_bn3_scale
I0109 17:01:14.260859 20212 net.cpp:406] stage1_unit1_bn3_scale <- stage1_unit1_bn3
I0109 17:01:14.260865 20212 net.cpp:367] stage1_unit1_bn3_scale -> stage1_unit1_bn3 (in-place)
I0109 17:01:14.260911 20212 layer_factory.hpp:77] Creating layer stage1_unit1_bn3_scale
I0109 17:01:14.261080 20212 net.cpp:122] Setting up stage1_unit1_bn3_scale
I0109 17:01:14.261090 20212 net.cpp:129] Top shape: 8 64 100 100 (5120000)
I0109 17:01:14.261096 20212 net.cpp:137] Memory required for data: 1048320096
I0109 17:01:14.261103 20212 layer_factory.hpp:77] Creating layer stage1_unit1_conv1sc
I0109 17:01:14.261116 20212 net.cpp:84] Creating Layer stage1_unit1_conv1sc
I0109 17:01:14.261121 20212 net.cpp:406] stage1_unit1_conv1sc <- relu0_relu0_0_split_1
I0109 17:01:14.261128 20212 net.cpp:380] stage1_unit1_conv1sc -> stage1_unit1_conv1sc
I0109 17:01:14.261399 20212 net.cpp:122] Setting up stage1_unit1_conv1sc
I0109 17:01:14.261409 20212 net.cpp:129] Top shape: 8 64 100 100 (5120000)
I0109 17:01:14.261412 20212 net.cpp:137] Memory required for data: 1068800096
I0109 17:01:14.261418 20212 layer_factory.hpp:77] Creating layer stage1_unit1_sc
I0109 17:01:14.261426 20212 net.cpp:84] Creating Layer stage1_unit1_sc
I0109 17:01:14.261433 20212 net.cpp:406] stage1_unit1_sc <- stage1_unit1_conv1sc
I0109 17:01:14.261440 20212 net.cpp:380] stage1_unit1_sc -> stage1_unit1_sc
I0109 17:01:14.261692 20212 net.cpp:122] Setting up stage1_unit1_sc
I0109 17:01:14.261701 20212 net.cpp:129] Top shape: 8 64 100 100 (5120000)
I0109 17:01:14.261705 20212 net.cpp:137] Memory required for data: 1089280096
I0109 17:01:14.261714 20212 layer_factory.hpp:77] Creating layer stage1_unit1_sc_scale
I0109 17:01:14.261720 20212 net.cpp:84] Creating Layer stage1_unit1_sc_scale
I0109 17:01:14.261729 20212 net.cpp:406] stage1_unit1_sc_scale <- stage1_unit1_sc
I0109 17:01:14.261734 20212 net.cpp:367] stage1_unit1_sc_scale -> stage1_unit1_sc (in-place)
I0109 17:01:14.261782 20212 layer_factory.hpp:77] Creating layer stage1_unit1_sc_scale
I0109 17:01:14.263150 20212 net.cpp:122] Setting up stage1_unit1_sc_scale
I0109 17:01:14.263170 20212 net.cpp:129] Top shape: 8 64 100 100 (5120000)
I0109 17:01:14.263173 20212 net.cpp:137] Memory required for data: 1109760096
I0109 17:01:14.263182 20212 layer_factory.hpp:77] Creating layer _plus0
I0109 17:01:14.263191 20212 net.cpp:84] Creating Layer _plus0
I0109 17:01:14.263197 20212 net.cpp:406] _plus0 <- stage1_unit1_bn3
I0109 17:01:14.263203 20212 net.cpp:406] _plus0 <- stage1_unit1_sc
I0109 17:01:14.263209 20212 net.cpp:380] _plus0 -> _plus0
I0109 17:01:14.263244 20212 net.cpp:122] Setting up _plus0
I0109 17:01:14.263253 20212 net.cpp:129] Top shape: 8 64 100 100 (5120000)
I0109 17:01:14.263257 20212 net.cpp:137] Memory required for data: 1130240096
I0109 17:01:14.263262 20212 layer_factory.hpp:77] Creating layer _plus0__plus0_0_split
I0109 17:01:14.263269 20212 net.cpp:84] Creating Layer _plus0__plus0_0_split
I0109 17:01:14.263275 20212 net.cpp:406] _plus0__plus0_0_split <- _plus0
I0109 17:01:14.263283 20212 net.cpp:380] _plus0__plus0_0_split -> _plus0__plus0_0_split_0
I0109 17:01:14.263289 20212 net.cpp:380] _plus0__plus0_0_split -> _plus0__plus0_0_split_1
I0109 17:01:14.263340 20212 net.cpp:122] Setting up _plus0__plus0_0_split
I0109 17:01:14.263355 20212 net.cpp:129] Top shape: 8 64 100 100 (5120000)
I0109 17:01:14.263361 20212 net.cpp:129] Top shape: 8 64 100 100 (5120000)
I0109 17:01:14.263365 20212 net.cpp:137] Memory required for data: 1171200096
I0109 17:01:14.263368 20212 layer_factory.hpp:77] Creating layer stage1_unit2_bn1
I0109 17:01:14.263378 20212 net.cpp:84] Creating Layer stage1_unit2_bn1
I0109 17:01:14.263384 20212 net.cpp:406] stage1_unit2_bn1 <- _plus0__plus0_0_split_0
I0109 17:01:14.263391 20212 net.cpp:380] stage1_unit2_bn1 -> stage1_unit2_bn1
I0109 17:01:14.263635 20212 net.cpp:122] Setting up stage1_unit2_bn1
I0109 17:01:14.263644 20212 net.cpp:129] Top shape: 8 64 100 100 (5120000)
I0109 17:01:14.263648 20212 net.cpp:137] Memory required for data: 1191680096
I0109 17:01:14.263658 20212 layer_factory.hpp:77] Creating layer stage1_unit2_bn1_scale
I0109 17:01:14.263666 20212 net.cpp:84] Creating Layer stage1_unit2_bn1_scale
I0109 17:01:14.263674 20212 net.cpp:406] stage1_unit2_bn1_scale <- stage1_unit2_bn1
I0109 17:01:14.263679 20212 net.cpp:367] stage1_unit2_bn1_scale -> stage1_unit2_bn1 (in-place)
I0109 17:01:14.263723 20212 layer_factory.hpp:77] Creating layer stage1_unit2_bn1_scale
I0109 17:01:14.263873 20212 net.cpp:122] Setting up stage1_unit2_bn1_scale
I0109 17:01:14.263882 20212 net.cpp:129] Top shape: 8 64 100 100 (5120000)
I0109 17:01:14.263886 20212 net.cpp:137] Memory required for data: 1212160096
I0109 17:01:14.263900 20212 layer_factory.hpp:77] Creating layer stage1_unit2_conv1
I0109 17:01:14.263916 20212 net.cpp:84] Creating Layer stage1_unit2_conv1
I0109 17:01:14.263921 20212 net.cpp:406] stage1_unit2_conv1 <- stage1_unit2_bn1
I0109 17:01:14.263928 20212 net.cpp:380] stage1_unit2_conv1 -> stage1_unit2_conv1
I0109 17:01:14.264590 20212 net.cpp:122] Setting up stage1_unit2_conv1
I0109 17:01:14.264600 20212 net.cpp:129] Top shape: 8 64 100 100 (5120000)
I0109 17:01:14.264605 20212 net.cpp:137] Memory required for data: 1232640096
I0109 17:01:14.264611 20212 layer_factory.hpp:77] Creating layer stage1_unit2_bn2
I0109 17:01:14.264621 20212 net.cpp:84] Creating Layer stage1_unit2_bn2
I0109 17:01:14.264626 20212 net.cpp:406] stage1_unit2_bn2 <- stage1_unit2_conv1
I0109 17:01:14.264631 20212 net.cpp:380] stage1_unit2_bn2 -> stage1_unit2_bn2
I0109 17:01:14.264860 20212 net.cpp:122] Setting up stage1_unit2_bn2
I0109 17:01:14.264869 20212 net.cpp:129] Top shape: 8 64 100 100 (5120000)
I0109 17:01:14.264873 20212 net.cpp:137] Memory required for data: 1253120096
I0109 17:01:14.264881 20212 layer_factory.hpp:77] Creating layer stage1_unit2_bn2_scale
I0109 17:01:14.264889 20212 net.cpp:84] Creating Layer stage1_unit2_bn2_scale
I0109 17:01:14.264892 20212 net.cpp:406] stage1_unit2_bn2_scale <- stage1_unit2_bn2
I0109 17:01:14.264899 20212 net.cpp:367] stage1_unit2_bn2_scale -> stage1_unit2_bn2 (in-place)
I0109 17:01:14.264943 20212 layer_factory.hpp:77] Creating layer stage1_unit2_bn2_scale
I0109 17:01:14.265094 20212 net.cpp:122] Setting up stage1_unit2_bn2_scale
I0109 17:01:14.265102 20212 net.cpp:129] Top shape: 8 64 100 100 (5120000)
I0109 17:01:14.265106 20212 net.cpp:137] Memory required for data: 1273600096
I0109 17:01:14.265113 20212 layer_factory.hpp:77] Creating layer stage1_unit2_relu1
I0109 17:01:14.265121 20212 net.cpp:84] Creating Layer stage1_unit2_relu1
I0109 17:01:14.265125 20212 net.cpp:406] stage1_unit2_relu1 <- stage1_unit2_bn2
I0109 17:01:14.265132 20212 net.cpp:380] stage1_unit2_relu1 -> stage1_unit2_relu1
I0109 17:01:14.265540 20212 net.cpp:122] Setting up stage1_unit2_relu1
I0109 17:01:14.265558 20212 net.cpp:129] Top shape: 8 64 100 100 (5120000)
I0109 17:01:14.265561 20212 net.cpp:137] Memory required for data: 1294080096
I0109 17:01:14.265566 20212 layer_factory.hpp:77] Creating layer stage1_unit2_conv2
I0109 17:01:14.265578 20212 net.cpp:84] Creating Layer stage1_unit2_conv2
I0109 17:01:14.265584 20212 net.cpp:406] stage1_unit2_conv2 <- stage1_unit2_relu1
I0109 17:01:14.265597 20212 net.cpp:380] stage1_unit2_conv2 -> stage1_unit2_conv2
I0109 17:01:14.266302 20212 net.cpp:122] Setting up stage1_unit2_conv2
I0109 17:01:14.266314 20212 net.cpp:129] Top shape: 8 64 100 100 (5120000)
I0109 17:01:14.266319 20212 net.cpp:137] Memory required for data: 1314560096
I0109 17:01:14.266325 20212 layer_factory.hpp:77] Creating layer stage1_unit2_bn3
I0109 17:01:14.266333 20212 net.cpp:84] Creating Layer stage1_unit2_bn3
I0109 17:01:14.266337 20212 net.cpp:406] stage1_unit2_bn3 <- stage1_unit2_conv2
I0109 17:01:14.266345 20212 net.cpp:380] stage1_unit2_bn3 -> stage1_unit2_bn3
I0109 17:01:14.266575 20212 net.cpp:122] Setting up stage1_unit2_bn3
I0109 17:01:14.266585 20212 net.cpp:129] Top shape: 8 64 100 100 (5120000)
I0109 17:01:14.266589 20212 net.cpp:137] Memory required for data: 1335040096
I0109 17:01:14.266597 20212 layer_factory.hpp:77] Creating layer stage1_unit2_bn3_scale
I0109 17:01:14.266611 20212 net.cpp:84] Creating Layer stage1_unit2_bn3_scale
I0109 17:01:14.266615 20212 net.cpp:406] stage1_unit2_bn3_scale <- stage1_unit2_bn3
I0109 17:01:14.266621 20212 net.cpp:367] stage1_unit2_bn3_scale -> stage1_unit2_bn3 (in-place)
I0109 17:01:14.266669 20212 layer_factory.hpp:77] Creating layer stage1_unit2_bn3_scale
I0109 17:01:14.266813 20212 net.cpp:122] Setting up stage1_unit2_bn3_scale
I0109 17:01:14.266822 20212 net.cpp:129] Top shape: 8 64 100 100 (5120000)
I0109 17:01:14.266826 20212 net.cpp:137] Memory required for data: 1355520096
I0109 17:01:14.266834 20212 layer_factory.hpp:77] Creating layer _plus1
I0109 17:01:14.266844 20212 net.cpp:84] Creating Layer _plus1
I0109 17:01:14.266849 20212 net.cpp:406] _plus1 <- stage1_unit2_bn3
I0109 17:01:14.266855 20212 net.cpp:406] _plus1 <- _plus0__plus0_0_split_1
I0109 17:01:14.266861 20212 net.cpp:380] _plus1 -> _plus1
I0109 17:01:14.266891 20212 net.cpp:122] Setting up _plus1
I0109 17:01:14.266901 20212 net.cpp:129] Top shape: 8 64 100 100 (5120000)
I0109 17:01:14.266903 20212 net.cpp:137] Memory required for data: 1376000096
I0109 17:01:14.266908 20212 layer_factory.hpp:77] Creating layer _plus1__plus1_0_split
I0109 17:01:14.266914 20212 net.cpp:84] Creating Layer _plus1__plus1_0_split
I0109 17:01:14.266921 20212 net.cpp:406] _plus1__plus1_0_split <- _plus1
I0109 17:01:14.266928 20212 net.cpp:380] _plus1__plus1_0_split -> _plus1__plus1_0_split_0
I0109 17:01:14.266937 20212 net.cpp:380] _plus1__plus1_0_split -> _plus1__plus1_0_split_1
I0109 17:01:14.266973 20212 net.cpp:122] Setting up _plus1__plus1_0_split
I0109 17:01:14.266980 20212 net.cpp:129] Top shape: 8 64 100 100 (5120000)
I0109 17:01:14.266985 20212 net.cpp:129] Top shape: 8 64 100 100 (5120000)
I0109 17:01:14.266989 20212 net.cpp:137] Memory required for data: 1416960096
I0109 17:01:14.266993 20212 layer_factory.hpp:77] Creating layer stage2_unit1_bn1
I0109 17:01:14.267004 20212 net.cpp:84] Creating Layer stage2_unit1_bn1
I0109 17:01:14.267009 20212 net.cpp:406] stage2_unit1_bn1 <- _plus1__plus1_0_split_0
I0109 17:01:14.267014 20212 net.cpp:380] stage2_unit1_bn1 -> stage2_unit1_bn1
I0109 17:01:14.267246 20212 net.cpp:122] Setting up stage2_unit1_bn1
I0109 17:01:14.267256 20212 net.cpp:129] Top shape: 8 64 100 100 (5120000)
I0109 17:01:14.267259 20212 net.cpp:137] Memory required for data: 1437440096
I0109 17:01:14.267268 20212 layer_factory.hpp:77] Creating layer stage2_unit1_bn1_scale
I0109 17:01:14.267277 20212 net.cpp:84] Creating Layer stage2_unit1_bn1_scale
I0109 17:01:14.267282 20212 net.cpp:406] stage2_unit1_bn1_scale <- stage2_unit1_bn1
I0109 17:01:14.267289 20212 net.cpp:367] stage2_unit1_bn1_scale -> stage2_unit1_bn1 (in-place)
I0109 17:01:14.267333 20212 layer_factory.hpp:77] Creating layer stage2_unit1_bn1_scale
I0109 17:01:14.267480 20212 net.cpp:122] Setting up stage2_unit1_bn1_scale
I0109 17:01:14.267489 20212 net.cpp:129] Top shape: 8 64 100 100 (5120000)
I0109 17:01:14.267493 20212 net.cpp:137] Memory required for data: 1457920096
I0109 17:01:14.267500 20212 layer_factory.hpp:77] Creating layer stage2_unit1_conv1
I0109 17:01:14.267513 20212 net.cpp:84] Creating Layer stage2_unit1_conv1
I0109 17:01:14.267518 20212 net.cpp:406] stage2_unit1_conv1 <- stage2_unit1_bn1
I0109 17:01:14.267526 20212 net.cpp:380] stage2_unit1_conv1 -> stage2_unit1_conv1
I0109 17:01:14.268641 20212 net.cpp:122] Setting up stage2_unit1_conv1
I0109 17:01:14.268652 20212 net.cpp:129] Top shape: 8 128 100 100 (10240000)
I0109 17:01:14.268658 20212 net.cpp:137] Memory required for data: 1498880096
I0109 17:01:14.268664 20212 layer_factory.hpp:77] Creating layer stage2_unit1_bn2
I0109 17:01:14.268672 20212 net.cpp:84] Creating Layer stage2_unit1_bn2
I0109 17:01:14.268679 20212 net.cpp:406] stage2_unit1_bn2 <- stage2_unit1_conv1
I0109 17:01:14.268684 20212 net.cpp:380] stage2_unit1_bn2 -> stage2_unit1_bn2
I0109 17:01:14.268906 20212 net.cpp:122] Setting up stage2_unit1_bn2
I0109 17:01:14.268916 20212 net.cpp:129] Top shape: 8 128 100 100 (10240000)
I0109 17:01:14.268921 20212 net.cpp:137] Memory required for data: 1539840096
I0109 17:01:14.268930 20212 layer_factory.hpp:77] Creating layer stage2_unit1_bn2_scale
I0109 17:01:14.268939 20212 net.cpp:84] Creating Layer stage2_unit1_bn2_scale
I0109 17:01:14.268945 20212 net.cpp:406] stage2_unit1_bn2_scale <- stage2_unit1_bn2
I0109 17:01:14.268951 20212 net.cpp:367] stage2_unit1_bn2_scale -> stage2_unit1_bn2 (in-place)
I0109 17:01:14.268992 20212 layer_factory.hpp:77] Creating layer stage2_unit1_bn2_scale
I0109 17:01:14.269124 20212 net.cpp:122] Setting up stage2_unit1_bn2_scale
I0109 17:01:14.269134 20212 net.cpp:129] Top shape: 8 128 100 100 (10240000)
I0109 17:01:14.269137 20212 net.cpp:137] Memory required for data: 1580800096
I0109 17:01:14.269145 20212 layer_factory.hpp:77] Creating layer stage2_unit1_relu1
I0109 17:01:14.269152 20212 net.cpp:84] Creating Layer stage2_unit1_relu1
I0109 17:01:14.269156 20212 net.cpp:406] stage2_unit1_relu1 <- stage2_unit1_bn2
I0109 17:01:14.269165 20212 net.cpp:380] stage2_unit1_relu1 -> stage2_unit1_relu1
I0109 17:01:14.269284 20212 net.cpp:122] Setting up stage2_unit1_relu1
I0109 17:01:14.269296 20212 net.cpp:129] Top shape: 8 128 100 100 (10240000)
I0109 17:01:14.269301 20212 net.cpp:137] Memory required for data: 1621760096
I0109 17:01:14.269306 20212 layer_factory.hpp:77] Creating layer stage2_unit1_conv2
I0109 17:01:14.269316 20212 net.cpp:84] Creating Layer stage2_unit1_conv2
I0109 17:01:14.269321 20212 net.cpp:406] stage2_unit1_conv2 <- stage2_unit1_relu1
I0109 17:01:14.269330 20212 net.cpp:380] stage2_unit1_conv2 -> stage2_unit1_conv2
I0109 17:01:14.271368 20212 net.cpp:122] Setting up stage2_unit1_conv2
I0109 17:01:14.271379 20212 net.cpp:129] Top shape: 8 128 50 50 (2560000)
I0109 17:01:14.271384 20212 net.cpp:137] Memory required for data: 1632000096
I0109 17:01:14.271390 20212 layer_factory.hpp:77] Creating layer stage2_unit1_bn3
I0109 17:01:14.271401 20212 net.cpp:84] Creating Layer stage2_unit1_bn3
I0109 17:01:14.271407 20212 net.cpp:406] stage2_unit1_bn3 <- stage2_unit1_conv2
I0109 17:01:14.271414 20212 net.cpp:380] stage2_unit1_bn3 -> stage2_unit1_bn3
I0109 17:01:14.271833 20212 net.cpp:122] Setting up stage2_unit1_bn3
I0109 17:01:14.271843 20212 net.cpp:129] Top shape: 8 128 50 50 (2560000)
I0109 17:01:14.271847 20212 net.cpp:137] Memory required for data: 1642240096
I0109 17:01:14.271857 20212 layer_factory.hpp:77] Creating layer stage2_unit1_bn3_scale
I0109 17:01:14.271862 20212 net.cpp:84] Creating Layer stage2_unit1_bn3_scale
I0109 17:01:14.271867 20212 net.cpp:406] stage2_unit1_bn3_scale <- stage2_unit1_bn3
I0109 17:01:14.271875 20212 net.cpp:367] stage2_unit1_bn3_scale -> stage2_unit1_bn3 (in-place)
I0109 17:01:14.271919 20212 layer_factory.hpp:77] Creating layer stage2_unit1_bn3_scale
I0109 17:01:14.272042 20212 net.cpp:122] Setting up stage2_unit1_bn3_scale
I0109 17:01:14.272054 20212 net.cpp:129] Top shape: 8 128 50 50 (2560000)
I0109 17:01:14.272059 20212 net.cpp:137] Memory required for data: 1652480096
I0109 17:01:14.272066 20212 layer_factory.hpp:77] Creating layer stage2_unit1_conv1sc
I0109 17:01:14.272074 20212 net.cpp:84] Creating Layer stage2_unit1_conv1sc
I0109 17:01:14.272080 20212 net.cpp:406] stage2_unit1_conv1sc <- _plus1__plus1_0_split_1
I0109 17:01:14.272089 20212 net.cpp:380] stage2_unit1_conv1sc -> stage2_unit1_conv1sc
I0109 17:01:14.272418 20212 net.cpp:122] Setting up stage2_unit1_conv1sc
I0109 17:01:14.272428 20212 net.cpp:129] Top shape: 8 128 50 50 (2560000)
I0109 17:01:14.272434 20212 net.cpp:137] Memory required for data: 1662720096
I0109 17:01:14.272440 20212 layer_factory.hpp:77] Creating layer stage2_unit1_sc
I0109 17:01:14.272446 20212 net.cpp:84] Creating Layer stage2_unit1_sc
I0109 17:01:14.272452 20212 net.cpp:406] stage2_unit1_sc <- stage2_unit1_conv1sc
I0109 17:01:14.272460 20212 net.cpp:380] stage2_unit1_sc -> stage2_unit1_sc
I0109 17:01:14.272711 20212 net.cpp:122] Setting up stage2_unit1_sc
I0109 17:01:14.272720 20212 net.cpp:129] Top shape: 8 128 50 50 (2560000)
I0109 17:01:14.272727 20212 net.cpp:137] Memory required for data: 1672960096
I0109 17:01:14.272742 20212 layer_factory.hpp:77] Creating layer stage2_unit1_sc_scale
I0109 17:01:14.272753 20212 net.cpp:84] Creating Layer stage2_unit1_sc_scale
I0109 17:01:14.272759 20212 net.cpp:406] stage2_unit1_sc_scale <- stage2_unit1_sc
I0109 17:01:14.272765 20212 net.cpp:367] stage2_unit1_sc_scale -> stage2_unit1_sc (in-place)
I0109 17:01:14.273138 20212 layer_factory.hpp:77] Creating layer stage2_unit1_sc_scale
I0109 17:01:14.273260 20212 net.cpp:122] Setting up stage2_unit1_sc_scale
I0109 17:01:14.273273 20212 net.cpp:129] Top shape: 8 128 50 50 (2560000)
I0109 17:01:14.273278 20212 net.cpp:137] Memory required for data: 1683200096
I0109 17:01:14.273285 20212 layer_factory.hpp:77] Creating layer _plus2
I0109 17:01:14.273293 20212 net.cpp:84] Creating Layer _plus2
I0109 17:01:14.273298 20212 net.cpp:406] _plus2 <- stage2_unit1_bn3
I0109 17:01:14.273303 20212 net.cpp:406] _plus2 <- stage2_unit1_sc
I0109 17:01:14.273309 20212 net.cpp:380] _plus2 -> _plus2
I0109 17:01:14.273336 20212 net.cpp:122] Setting up _plus2
I0109 17:01:14.273344 20212 net.cpp:129] Top shape: 8 128 50 50 (2560000)
I0109 17:01:14.273349 20212 net.cpp:137] Memory required for data: 1693440096
I0109 17:01:14.273352 20212 layer_factory.hpp:77] Creating layer _plus2__plus2_0_split
I0109 17:01:14.273358 20212 net.cpp:84] Creating Layer _plus2__plus2_0_split
I0109 17:01:14.273362 20212 net.cpp:406] _plus2__plus2_0_split <- _plus2
I0109 17:01:14.273368 20212 net.cpp:380] _plus2__plus2_0_split -> _plus2__plus2_0_split_0
I0109 17:01:14.273376 20212 net.cpp:380] _plus2__plus2_0_split -> _plus2__plus2_0_split_1
I0109 17:01:14.273416 20212 net.cpp:122] Setting up _plus2__plus2_0_split
I0109 17:01:14.273424 20212 net.cpp:129] Top shape: 8 128 50 50 (2560000)
I0109 17:01:14.273430 20212 net.cpp:129] Top shape: 8 128 50 50 (2560000)
I0109 17:01:14.273435 20212 net.cpp:137] Memory required for data: 1713920096
I0109 17:01:14.273439 20212 layer_factory.hpp:77] Creating layer stage2_unit2_bn1
I0109 17:01:14.273447 20212 net.cpp:84] Creating Layer stage2_unit2_bn1
I0109 17:01:14.273452 20212 net.cpp:406] stage2_unit2_bn1 <- _plus2__plus2_0_split_0
I0109 17:01:14.273459 20212 net.cpp:380] stage2_unit2_bn1 -> stage2_unit2_bn1
I0109 17:01:14.273671 20212 net.cpp:122] Setting up stage2_unit2_bn1
I0109 17:01:14.273680 20212 net.cpp:129] Top shape: 8 128 50 50 (2560000)
I0109 17:01:14.273684 20212 net.cpp:137] Memory required for data: 1724160096
I0109 17:01:14.273694 20212 layer_factory.hpp:77] Creating layer stage2_unit2_bn1_scale
I0109 17:01:14.273702 20212 net.cpp:84] Creating Layer stage2_unit2_bn1_scale
I0109 17:01:14.273708 20212 net.cpp:406] stage2_unit2_bn1_scale <- stage2_unit2_bn1
I0109 17:01:14.273715 20212 net.cpp:367] stage2_unit2_bn1_scale -> stage2_unit2_bn1 (in-place)
I0109 17:01:14.273758 20212 layer_factory.hpp:77] Creating layer stage2_unit2_bn1_scale
I0109 17:01:14.273890 20212 net.cpp:122] Setting up stage2_unit2_bn1_scale
I0109 17:01:14.273902 20212 net.cpp:129] Top shape: 8 128 50 50 (2560000)
I0109 17:01:14.273907 20212 net.cpp:137] Memory required for data: 1734400096
I0109 17:01:14.273916 20212 layer_factory.hpp:77] Creating layer stage2_unit2_conv1
I0109 17:01:14.273924 20212 net.cpp:84] Creating Layer stage2_unit2_conv1
I0109 17:01:14.273931 20212 net.cpp:406] stage2_unit2_conv1 <- stage2_unit2_bn1
I0109 17:01:14.273938 20212 net.cpp:380] stage2_unit2_conv1 -> stage2_unit2_conv1
I0109 17:01:14.277431 20212 net.cpp:122] Setting up stage2_unit2_conv1
I0109 17:01:14.277452 20212 net.cpp:129] Top shape: 8 128 50 50 (2560000)
I0109 17:01:14.277458 20212 net.cpp:137] Memory required for data: 1744640096
I0109 17:01:14.277467 20212 layer_factory.hpp:77] Creating layer stage2_unit2_bn2
I0109 17:01:14.277477 20212 net.cpp:84] Creating Layer stage2_unit2_bn2
I0109 17:01:14.277485 20212 net.cpp:406] stage2_unit2_bn2 <- stage2_unit2_conv1
I0109 17:01:14.277493 20212 net.cpp:380] stage2_unit2_bn2 -> stage2_unit2_bn2
I0109 17:01:14.277729 20212 net.cpp:122] Setting up stage2_unit2_bn2
I0109 17:01:14.277740 20212 net.cpp:129] Top shape: 8 128 50 50 (2560000)
I0109 17:01:14.277746 20212 net.cpp:137] Memory required for data: 1754880096
I0109 17:01:14.277755 20212 layer_factory.hpp:77] Creating layer stage2_unit2_bn2_scale
I0109 17:01:14.277763 20212 net.cpp:84] Creating Layer stage2_unit2_bn2_scale
I0109 17:01:14.277770 20212 net.cpp:406] stage2_unit2_bn2_scale <- stage2_unit2_bn2
I0109 17:01:14.277776 20212 net.cpp:367] stage2_unit2_bn2_scale -> stage2_unit2_bn2 (in-place)
I0109 17:01:14.277819 20212 layer_factory.hpp:77] Creating layer stage2_unit2_bn2_scale
I0109 17:01:14.277940 20212 net.cpp:122] Setting up stage2_unit2_bn2_scale
I0109 17:01:14.277951 20212 net.cpp:129] Top shape: 8 128 50 50 (2560000)
I0109 17:01:14.277954 20212 net.cpp:137] Memory required for data: 1765120096
I0109 17:01:14.277961 20212 layer_factory.hpp:77] Creating layer stage2_unit2_relu1
I0109 17:01:14.277969 20212 net.cpp:84] Creating Layer stage2_unit2_relu1
I0109 17:01:14.277974 20212 net.cpp:406] stage2_unit2_relu1 <- stage2_unit2_bn2
I0109 17:01:14.277981 20212 net.cpp:380] stage2_unit2_relu1 -> stage2_unit2_relu1
I0109 17:01:14.280195 20212 net.cpp:122] Setting up stage2_unit2_relu1
I0109 17:01:14.280216 20212 net.cpp:129] Top shape: 8 128 50 50 (2560000)
I0109 17:01:14.280223 20212 net.cpp:137] Memory required for data: 1775360096
I0109 17:01:14.280227 20212 layer_factory.hpp:77] Creating layer stage2_unit2_conv2
I0109 17:01:14.280238 20212 net.cpp:84] Creating Layer stage2_unit2_conv2
I0109 17:01:14.280243 20212 net.cpp:406] stage2_unit2_conv2 <- stage2_unit2_relu1
I0109 17:01:14.280254 20212 net.cpp:380] stage2_unit2_conv2 -> stage2_unit2_conv2
I0109 17:01:14.282318 20212 net.cpp:122] Setting up stage2_unit2_conv2
I0109 17:01:14.282336 20212 net.cpp:129] Top shape: 8 128 50 50 (2560000)
I0109 17:01:14.282341 20212 net.cpp:137] Memory required for data: 1785600096
I0109 17:01:14.282348 20212 layer_factory.hpp:77] Creating layer stage2_unit2_bn3
I0109 17:01:14.282358 20212 net.cpp:84] Creating Layer stage2_unit2_bn3
I0109 17:01:14.282362 20212 net.cpp:406] stage2_unit2_bn3 <- stage2_unit2_conv2
I0109 17:01:14.282368 20212 net.cpp:380] stage2_unit2_bn3 -> stage2_unit2_bn3
I0109 17:01:14.282586 20212 net.cpp:122] Setting up stage2_unit2_bn3
I0109 17:01:14.282596 20212 net.cpp:129] Top shape: 8 128 50 50 (2560000)
I0109 17:01:14.282600 20212 net.cpp:137] Memory required for data: 1795840096
I0109 17:01:14.282608 20212 layer_factory.hpp:77] Creating layer stage2_unit2_bn3_scale
I0109 17:01:14.282618 20212 net.cpp:84] Creating Layer stage2_unit2_bn3_scale
I0109 17:01:14.282621 20212 net.cpp:406] stage2_unit2_bn3_scale <- stage2_unit2_bn3
I0109 17:01:14.282629 20212 net.cpp:367] stage2_unit2_bn3_scale -> stage2_unit2_bn3 (in-place)
I0109 17:01:14.282673 20212 layer_factory.hpp:77] Creating layer stage2_unit2_bn3_scale
I0109 17:01:14.282789 20212 net.cpp:122] Setting up stage2_unit2_bn3_scale
I0109 17:01:14.282800 20212 net.cpp:129] Top shape: 8 128 50 50 (2560000)
I0109 17:01:14.282805 20212 net.cpp:137] Memory required for data: 1806080096
I0109 17:01:14.282812 20212 layer_factory.hpp:77] Creating layer _plus3
I0109 17:01:14.282821 20212 net.cpp:84] Creating Layer _plus3
I0109 17:01:14.282827 20212 net.cpp:406] _plus3 <- stage2_unit2_bn3
I0109 17:01:14.282832 20212 net.cpp:406] _plus3 <- _plus2__plus2_0_split_1
I0109 17:01:14.282838 20212 net.cpp:380] _plus3 -> _plus3
I0109 17:01:14.282866 20212 net.cpp:122] Setting up _plus3
I0109 17:01:14.282876 20212 net.cpp:129] Top shape: 8 128 50 50 (2560000)
I0109 17:01:14.282879 20212 net.cpp:137] Memory required for data: 1816320096
I0109 17:01:14.282883 20212 layer_factory.hpp:77] Creating layer _plus3__plus3_0_split
I0109 17:01:14.282889 20212 net.cpp:84] Creating Layer _plus3__plus3_0_split
I0109 17:01:14.282902 20212 net.cpp:406] _plus3__plus3_0_split <- _plus3
I0109 17:01:14.282907 20212 net.cpp:380] _plus3__plus3_0_split -> _plus3__plus3_0_split_0
I0109 17:01:14.282915 20212 net.cpp:380] _plus3__plus3_0_split -> _plus3__plus3_0_split_1
I0109 17:01:14.282955 20212 net.cpp:122] Setting up _plus3__plus3_0_split
I0109 17:01:14.282963 20212 net.cpp:129] Top shape: 8 128 50 50 (2560000)
I0109 17:01:14.282969 20212 net.cpp:129] Top shape: 8 128 50 50 (2560000)
I0109 17:01:14.282972 20212 net.cpp:137] Memory required for data: 1836800096
I0109 17:01:14.282976 20212 layer_factory.hpp:77] Creating layer stage3_unit1_bn1
I0109 17:01:14.282984 20212 net.cpp:84] Creating Layer stage3_unit1_bn1
I0109 17:01:14.282989 20212 net.cpp:406] stage3_unit1_bn1 <- _plus3__plus3_0_split_0
I0109 17:01:14.282996 20212 net.cpp:380] stage3_unit1_bn1 -> stage3_unit1_bn1
I0109 17:01:14.283211 20212 net.cpp:122] Setting up stage3_unit1_bn1
I0109 17:01:14.283221 20212 net.cpp:129] Top shape: 8 128 50 50 (2560000)
I0109 17:01:14.283224 20212 net.cpp:137] Memory required for data: 1847040096
I0109 17:01:14.283233 20212 layer_factory.hpp:77] Creating layer stage3_unit1_bn1_scale
I0109 17:01:14.283241 20212 net.cpp:84] Creating Layer stage3_unit1_bn1_scale
I0109 17:01:14.283246 20212 net.cpp:406] stage3_unit1_bn1_scale <- stage3_unit1_bn1
I0109 17:01:14.283253 20212 net.cpp:367] stage3_unit1_bn1_scale -> stage3_unit1_bn1 (in-place)
I0109 17:01:14.283294 20212 layer_factory.hpp:77] Creating layer stage3_unit1_bn1_scale
I0109 17:01:14.283412 20212 net.cpp:122] Setting up stage3_unit1_bn1_scale
I0109 17:01:14.283421 20212 net.cpp:129] Top shape: 8 128 50 50 (2560000)
I0109 17:01:14.283426 20212 net.cpp:137] Memory required for data: 1857280096
I0109 17:01:14.283432 20212 layer_factory.hpp:77] Creating layer stage3_unit1_conv1
I0109 17:01:14.283443 20212 net.cpp:84] Creating Layer stage3_unit1_conv1
I0109 17:01:14.283447 20212 net.cpp:406] stage3_unit1_conv1 <- stage3_unit1_bn1
I0109 17:01:14.283457 20212 net.cpp:380] stage3_unit1_conv1 -> stage3_unit1_conv1
I0109 17:01:14.288456 20212 net.cpp:122] Setting up stage3_unit1_conv1
I0109 17:01:14.288475 20212 net.cpp:129] Top shape: 8 256 50 50 (5120000)
I0109 17:01:14.288480 20212 net.cpp:137] Memory required for data: 1877760096
I0109 17:01:14.288487 20212 layer_factory.hpp:77] Creating layer stage3_unit1_bn2
I0109 17:01:14.288497 20212 net.cpp:84] Creating Layer stage3_unit1_bn2
I0109 17:01:14.288503 20212 net.cpp:406] stage3_unit1_bn2 <- stage3_unit1_conv1
I0109 17:01:14.288511 20212 net.cpp:380] stage3_unit1_bn2 -> stage3_unit1_bn2
I0109 17:01:14.288740 20212 net.cpp:122] Setting up stage3_unit1_bn2
I0109 17:01:14.288750 20212 net.cpp:129] Top shape: 8 256 50 50 (5120000)
I0109 17:01:14.288754 20212 net.cpp:137] Memory required for data: 1898240096
I0109 17:01:14.288763 20212 layer_factory.hpp:77] Creating layer stage3_unit1_bn2_scale
I0109 17:01:14.288769 20212 net.cpp:84] Creating Layer stage3_unit1_bn2_scale
I0109 17:01:14.288774 20212 net.cpp:406] stage3_unit1_bn2_scale <- stage3_unit1_bn2
I0109 17:01:14.288779 20212 net.cpp:367] stage3_unit1_bn2_scale -> stage3_unit1_bn2 (in-place)
I0109 17:01:14.288825 20212 layer_factory.hpp:77] Creating layer stage3_unit1_bn2_scale
I0109 17:01:14.288947 20212 net.cpp:122] Setting up stage3_unit1_bn2_scale
I0109 17:01:14.288956 20212 net.cpp:129] Top shape: 8 256 50 50 (5120000)
I0109 17:01:14.288960 20212 net.cpp:137] Memory required for data: 1918720096
I0109 17:01:14.288967 20212 layer_factory.hpp:77] Creating layer stage3_unit1_relu1
I0109 17:01:14.288977 20212 net.cpp:84] Creating Layer stage3_unit1_relu1
I0109 17:01:14.288982 20212 net.cpp:406] stage3_unit1_relu1 <- stage3_unit1_bn2
I0109 17:01:14.288990 20212 net.cpp:380] stage3_unit1_relu1 -> stage3_unit1_relu1
I0109 17:01:14.289105 20212 net.cpp:122] Setting up stage3_unit1_relu1
I0109 17:01:14.289117 20212 net.cpp:129] Top shape: 8 256 50 50 (5120000)
I0109 17:01:14.289122 20212 net.cpp:137] Memory required for data: 1939200096
I0109 17:01:14.289127 20212 layer_factory.hpp:77] Creating layer stage3_unit1_conv2
I0109 17:01:14.289137 20212 net.cpp:84] Creating Layer stage3_unit1_conv2
I0109 17:01:14.289144 20212 net.cpp:406] stage3_unit1_conv2 <- stage3_unit1_relu1
I0109 17:01:14.289152 20212 net.cpp:380] stage3_unit1_conv2 -> stage3_unit1_conv2
I0109 17:01:14.297880 20212 net.cpp:122] Setting up stage3_unit1_conv2
I0109 17:01:14.297899 20212 net.cpp:129] Top shape: 8 256 25 25 (1280000)
I0109 17:01:14.297902 20212 net.cpp:137] Memory required for data: 1944320096
I0109 17:01:14.297910 20212 layer_factory.hpp:77] Creating layer stage3_unit1_bn3
I0109 17:01:14.297926 20212 net.cpp:84] Creating Layer stage3_unit1_bn3
I0109 17:01:14.297932 20212 net.cpp:406] stage3_unit1_bn3 <- stage3_unit1_conv2
I0109 17:01:14.297940 20212 net.cpp:380] stage3_unit1_bn3 -> stage3_unit1_bn3
I0109 17:01:14.298226 20212 net.cpp:122] Setting up stage3_unit1_bn3
I0109 17:01:14.298238 20212 net.cpp:129] Top shape: 8 256 25 25 (1280000)
I0109 17:01:14.298241 20212 net.cpp:137] Memory required for data: 1949440096
I0109 17:01:14.298251 20212 layer_factory.hpp:77] Creating layer stage3_unit1_bn3_scale
I0109 17:01:14.298261 20212 net.cpp:84] Creating Layer stage3_unit1_bn3_scale
I0109 17:01:14.298267 20212 net.cpp:406] stage3_unit1_bn3_scale <- stage3_unit1_bn3
I0109 17:01:14.298274 20212 net.cpp:367] stage3_unit1_bn3_scale -> stage3_unit1_bn3 (in-place)
I0109 17:01:14.298318 20212 layer_factory.hpp:77] Creating layer stage3_unit1_bn3_scale
I0109 17:01:14.298435 20212 net.cpp:122] Setting up stage3_unit1_bn3_scale
I0109 17:01:14.298445 20212 net.cpp:129] Top shape: 8 256 25 25 (1280000)
I0109 17:01:14.298449 20212 net.cpp:137] Memory required for data: 1954560096
I0109 17:01:14.298455 20212 layer_factory.hpp:77] Creating layer stage3_unit1_conv1sc
I0109 17:01:14.298467 20212 net.cpp:84] Creating Layer stage3_unit1_conv1sc
I0109 17:01:14.298473 20212 net.cpp:406] stage3_unit1_conv1sc <- _plus3__plus3_0_split_1
I0109 17:01:14.298481 20212 net.cpp:380] stage3_unit1_conv1sc -> stage3_unit1_conv1sc
I0109 17:01:14.299098 20212 net.cpp:122] Setting up stage3_unit1_conv1sc
I0109 17:01:14.299108 20212 net.cpp:129] Top shape: 8 256 25 25 (1280000)
I0109 17:01:14.299113 20212 net.cpp:137] Memory required for data: 1959680096
I0109 17:01:14.299118 20212 layer_factory.hpp:77] Creating layer stage3_unit1_sc
I0109 17:01:14.299126 20212 net.cpp:84] Creating Layer stage3_unit1_sc
I0109 17:01:14.299131 20212 net.cpp:406] stage3_unit1_sc <- stage3_unit1_conv1sc
I0109 17:01:14.299137 20212 net.cpp:380] stage3_unit1_sc -> stage3_unit1_sc
I0109 17:01:14.299358 20212 net.cpp:122] Setting up stage3_unit1_sc
I0109 17:01:14.299367 20212 net.cpp:129] Top shape: 8 256 25 25 (1280000)
I0109 17:01:14.299371 20212 net.cpp:137] Memory required for data: 1964800096
I0109 17:01:14.299381 20212 layer_factory.hpp:77] Creating layer stage3_unit1_sc_scale
I0109 17:01:14.299389 20212 net.cpp:84] Creating Layer stage3_unit1_sc_scale
I0109 17:01:14.299396 20212 net.cpp:406] stage3_unit1_sc_scale <- stage3_unit1_sc
I0109 17:01:14.299401 20212 net.cpp:367] stage3_unit1_sc_scale -> stage3_unit1_sc (in-place)
I0109 17:01:14.299444 20212 layer_factory.hpp:77] Creating layer stage3_unit1_sc_scale
I0109 17:01:14.299561 20212 net.cpp:122] Setting up stage3_unit1_sc_scale
I0109 17:01:14.299571 20212 net.cpp:129] Top shape: 8 256 25 25 (1280000)
I0109 17:01:14.299576 20212 net.cpp:137] Memory required for data: 1969920096
I0109 17:01:14.299582 20212 layer_factory.hpp:77] Creating layer _plus4
I0109 17:01:14.299590 20212 net.cpp:84] Creating Layer _plus4
I0109 17:01:14.299594 20212 net.cpp:406] _plus4 <- stage3_unit1_bn3
I0109 17:01:14.299599 20212 net.cpp:406] _plus4 <- stage3_unit1_sc
I0109 17:01:14.299607 20212 net.cpp:380] _plus4 -> _plus4
I0109 17:01:14.299633 20212 net.cpp:122] Setting up _plus4
I0109 17:01:14.299641 20212 net.cpp:129] Top shape: 8 256 25 25 (1280000)
I0109 17:01:14.299645 20212 net.cpp:137] Memory required for data: 1975040096
I0109 17:01:14.299649 20212 layer_factory.hpp:77] Creating layer _plus4__plus4_0_split
I0109 17:01:14.299657 20212 net.cpp:84] Creating Layer _plus4__plus4_0_split
I0109 17:01:14.299664 20212 net.cpp:406] _plus4__plus4_0_split <- _plus4
I0109 17:01:14.299669 20212 net.cpp:380] _plus4__plus4_0_split -> _plus4__plus4_0_split_0
I0109 17:01:14.299676 20212 net.cpp:380] _plus4__plus4_0_split -> _plus4__plus4_0_split_1
I0109 17:01:14.299715 20212 net.cpp:122] Setting up _plus4__plus4_0_split
I0109 17:01:14.299723 20212 net.cpp:129] Top shape: 8 256 25 25 (1280000)
I0109 17:01:14.299728 20212 net.cpp:129] Top shape: 8 256 25 25 (1280000)
I0109 17:01:14.299734 20212 net.cpp:137] Memory required for data: 1985280096
I0109 17:01:14.299738 20212 layer_factory.hpp:77] Creating layer stage3_unit2_bn1
I0109 17:01:14.299748 20212 net.cpp:84] Creating Layer stage3_unit2_bn1
I0109 17:01:14.299754 20212 net.cpp:406] stage3_unit2_bn1 <- _plus4__plus4_0_split_0
I0109 17:01:14.299762 20212 net.cpp:380] stage3_unit2_bn1 -> stage3_unit2_bn1
I0109 17:01:14.299973 20212 net.cpp:122] Setting up stage3_unit2_bn1
I0109 17:01:14.299981 20212 net.cpp:129] Top shape: 8 256 25 25 (1280000)
I0109 17:01:14.299985 20212 net.cpp:137] Memory required for data: 1990400096
I0109 17:01:14.299994 20212 layer_factory.hpp:77] Creating layer stage3_unit2_bn1_scale
I0109 17:01:14.300002 20212 net.cpp:84] Creating Layer stage3_unit2_bn1_scale
I0109 17:01:14.300006 20212 net.cpp:406] stage3_unit2_bn1_scale <- stage3_unit2_bn1
I0109 17:01:14.300014 20212 net.cpp:367] stage3_unit2_bn1_scale -> stage3_unit2_bn1 (in-place)
I0109 17:01:14.300060 20212 layer_factory.hpp:77] Creating layer stage3_unit2_bn1_scale
I0109 17:01:14.300180 20212 net.cpp:122] Setting up stage3_unit2_bn1_scale
I0109 17:01:14.300190 20212 net.cpp:129] Top shape: 8 256 25 25 (1280000)
I0109 17:01:14.300195 20212 net.cpp:137] Memory required for data: 1995520096
I0109 17:01:14.300204 20212 layer_factory.hpp:77] Creating layer stage3_unit2_conv1
I0109 17:01:14.300211 20212 net.cpp:84] Creating Layer stage3_unit2_conv1
I0109 17:01:14.300216 20212 net.cpp:406] stage3_unit2_conv1 <- stage3_unit2_bn1
I0109 17:01:14.300225 20212 net.cpp:380] stage3_unit2_conv1 -> stage3_unit2_conv1
I0109 17:01:14.308930 20212 net.cpp:122] Setting up stage3_unit2_conv1
I0109 17:01:14.308948 20212 net.cpp:129] Top shape: 8 256 25 25 (1280000)
I0109 17:01:14.308951 20212 net.cpp:137] Memory required for data: 2000640096
I0109 17:01:14.308959 20212 layer_factory.hpp:77] Creating layer stage3_unit2_bn2
I0109 17:01:14.308969 20212 net.cpp:84] Creating Layer stage3_unit2_bn2
I0109 17:01:14.308974 20212 net.cpp:406] stage3_unit2_bn2 <- stage3_unit2_conv1
I0109 17:01:14.308981 20212 net.cpp:380] stage3_unit2_bn2 -> stage3_unit2_bn2
I0109 17:01:14.309213 20212 net.cpp:122] Setting up stage3_unit2_bn2
I0109 17:01:14.309223 20212 net.cpp:129] Top shape: 8 256 25 25 (1280000)
I0109 17:01:14.309227 20212 net.cpp:137] Memory required for data: 2005760096
I0109 17:01:14.309237 20212 layer_factory.hpp:77] Creating layer stage3_unit2_bn2_scale
I0109 17:01:14.309244 20212 net.cpp:84] Creating Layer stage3_unit2_bn2_scale
I0109 17:01:14.309249 20212 net.cpp:406] stage3_unit2_bn2_scale <- stage3_unit2_bn2
I0109 17:01:14.309254 20212 net.cpp:367] stage3_unit2_bn2_scale -> stage3_unit2_bn2 (in-place)
I0109 17:01:14.309301 20212 layer_factory.hpp:77] Creating layer stage3_unit2_bn2_scale
I0109 17:01:14.309424 20212 net.cpp:122] Setting up stage3_unit2_bn2_scale
I0109 17:01:14.309433 20212 net.cpp:129] Top shape: 8 256 25 25 (1280000)
I0109 17:01:14.309437 20212 net.cpp:137] Memory required for data: 2010880096
I0109 17:01:14.309444 20212 layer_factory.hpp:77] Creating layer stage3_unit2_relu1
I0109 17:01:14.309454 20212 net.cpp:84] Creating Layer stage3_unit2_relu1
I0109 17:01:14.309460 20212 net.cpp:406] stage3_unit2_relu1 <- stage3_unit2_bn2
I0109 17:01:14.309466 20212 net.cpp:380] stage3_unit2_relu1 -> stage3_unit2_relu1
I0109 17:01:14.309823 20212 net.cpp:122] Setting up stage3_unit2_relu1
I0109 17:01:14.309839 20212 net.cpp:129] Top shape: 8 256 25 25 (1280000)
I0109 17:01:14.309842 20212 net.cpp:137] Memory required for data: 2016000096
I0109 17:01:14.309847 20212 layer_factory.hpp:77] Creating layer stage3_unit2_conv2
I0109 17:01:14.309860 20212 net.cpp:84] Creating Layer stage3_unit2_conv2
I0109 17:01:14.309870 20212 net.cpp:406] stage3_unit2_conv2 <- stage3_unit2_relu1
I0109 17:01:14.309880 20212 net.cpp:380] stage3_unit2_conv2 -> stage3_unit2_conv2
I0109 17:01:14.318608 20212 net.cpp:122] Setting up stage3_unit2_conv2
I0109 17:01:14.318626 20212 net.cpp:129] Top shape: 8 256 25 25 (1280000)
I0109 17:01:14.318630 20212 net.cpp:137] Memory required for data: 2021120096
I0109 17:01:14.318639 20212 layer_factory.hpp:77] Creating layer stage3_unit2_bn3
I0109 17:01:14.318648 20212 net.cpp:84] Creating Layer stage3_unit2_bn3
I0109 17:01:14.318653 20212 net.cpp:406] stage3_unit2_bn3 <- stage3_unit2_conv2
I0109 17:01:14.318660 20212 net.cpp:380] stage3_unit2_bn3 -> stage3_unit2_bn3
I0109 17:01:14.318894 20212 net.cpp:122] Setting up stage3_unit2_bn3
I0109 17:01:14.318903 20212 net.cpp:129] Top shape: 8 256 25 25 (1280000)
I0109 17:01:14.318907 20212 net.cpp:137] Memory required for data: 2026240096
I0109 17:01:14.318917 20212 layer_factory.hpp:77] Creating layer stage3_unit2_bn3_scale
I0109 17:01:14.318924 20212 net.cpp:84] Creating Layer stage3_unit2_bn3_scale
I0109 17:01:14.318929 20212 net.cpp:406] stage3_unit2_bn3_scale <- stage3_unit2_bn3
I0109 17:01:14.318936 20212 net.cpp:367] stage3_unit2_bn3_scale -> stage3_unit2_bn3 (in-place)
I0109 17:01:14.318982 20212 layer_factory.hpp:77] Creating layer stage3_unit2_bn3_scale
I0109 17:01:14.319104 20212 net.cpp:122] Setting up stage3_unit2_bn3_scale
I0109 17:01:14.319115 20212 net.cpp:129] Top shape: 8 256 25 25 (1280000)
I0109 17:01:14.319121 20212 net.cpp:137] Memory required for data: 2031360096
I0109 17:01:14.319128 20212 layer_factory.hpp:77] Creating layer _plus5
I0109 17:01:14.319135 20212 net.cpp:84] Creating Layer _plus5
I0109 17:01:14.319139 20212 net.cpp:406] _plus5 <- stage3_unit2_bn3
I0109 17:01:14.319144 20212 net.cpp:406] _plus5 <- _plus4__plus4_0_split_1
I0109 17:01:14.319150 20212 net.cpp:380] _plus5 -> _plus5
I0109 17:01:14.319178 20212 net.cpp:122] Setting up _plus5
I0109 17:01:14.319186 20212 net.cpp:129] Top shape: 8 256 25 25 (1280000)
I0109 17:01:14.319190 20212 net.cpp:137] Memory required for data: 2036480096
I0109 17:01:14.319195 20212 layer_factory.hpp:77] Creating layer _plus5__plus5_0_split
I0109 17:01:14.319201 20212 net.cpp:84] Creating Layer _plus5__plus5_0_split
I0109 17:01:14.319211 20212 net.cpp:406] _plus5__plus5_0_split <- _plus5
I0109 17:01:14.319216 20212 net.cpp:380] _plus5__plus5_0_split -> _plus5__plus5_0_split_0
I0109 17:01:14.319223 20212 net.cpp:380] _plus5__plus5_0_split -> _plus5__plus5_0_split_1
I0109 17:01:14.319264 20212 net.cpp:122] Setting up _plus5__plus5_0_split
I0109 17:01:14.319272 20212 net.cpp:129] Top shape: 8 256 25 25 (1280000)
I0109 17:01:14.319278 20212 net.cpp:129] Top shape: 8 256 25 25 (1280000)
I0109 17:01:14.319281 20212 net.cpp:137] Memory required for data: 2046720096
I0109 17:01:14.319285 20212 layer_factory.hpp:77] Creating layer stage4_unit1_bn1
I0109 17:01:14.319293 20212 net.cpp:84] Creating Layer stage4_unit1_bn1
I0109 17:01:14.319298 20212 net.cpp:406] stage4_unit1_bn1 <- _plus5__plus5_0_split_0
I0109 17:01:14.319305 20212 net.cpp:380] stage4_unit1_bn1 -> stage4_unit1_bn1
I0109 17:01:14.319523 20212 net.cpp:122] Setting up stage4_unit1_bn1
I0109 17:01:14.319532 20212 net.cpp:129] Top shape: 8 256 25 25 (1280000)
I0109 17:01:14.319535 20212 net.cpp:137] Memory required for data: 2051840096
I0109 17:01:14.319556 20212 layer_factory.hpp:77] Creating layer stage4_unit1_bn1_scale
I0109 17:01:14.319566 20212 net.cpp:84] Creating Layer stage4_unit1_bn1_scale
I0109 17:01:14.319569 20212 net.cpp:406] stage4_unit1_bn1_scale <- stage4_unit1_bn1
I0109 17:01:14.319574 20212 net.cpp:367] stage4_unit1_bn1_scale -> stage4_unit1_bn1 (in-place)
I0109 17:01:14.319623 20212 layer_factory.hpp:77] Creating layer stage4_unit1_bn1_scale
I0109 17:01:14.319748 20212 net.cpp:122] Setting up stage4_unit1_bn1_scale
I0109 17:01:14.319758 20212 net.cpp:129] Top shape: 8 256 25 25 (1280000)
I0109 17:01:14.319761 20212 net.cpp:137] Memory required for data: 2056960096
I0109 17:01:14.319769 20212 layer_factory.hpp:77] Creating layer stage4_unit1_conv1
I0109 17:01:14.319783 20212 net.cpp:84] Creating Layer stage4_unit1_conv1
I0109 17:01:14.319789 20212 net.cpp:406] stage4_unit1_conv1 <- stage4_unit1_bn1
I0109 17:01:14.319797 20212 net.cpp:380] stage4_unit1_conv1 -> stage4_unit1_conv1
I0109 17:01:14.336799 20212 net.cpp:122] Setting up stage4_unit1_conv1
I0109 17:01:14.336817 20212 net.cpp:129] Top shape: 8 512 25 25 (2560000)
I0109 17:01:14.336822 20212 net.cpp:137] Memory required for data: 2067200096
I0109 17:01:14.336829 20212 layer_factory.hpp:77] Creating layer stage4_unit1_bn2
I0109 17:01:14.336838 20212 net.cpp:84] Creating Layer stage4_unit1_bn2
I0109 17:01:14.336843 20212 net.cpp:406] stage4_unit1_bn2 <- stage4_unit1_conv1
I0109 17:01:14.336853 20212 net.cpp:380] stage4_unit1_bn2 -> stage4_unit1_bn2
I0109 17:01:14.337087 20212 net.cpp:122] Setting up stage4_unit1_bn2
I0109 17:01:14.337097 20212 net.cpp:129] Top shape: 8 512 25 25 (2560000)
I0109 17:01:14.337101 20212 net.cpp:137] Memory required for data: 2077440096
I0109 17:01:14.337110 20212 layer_factory.hpp:77] Creating layer stage4_unit1_bn2_scale
I0109 17:01:14.337116 20212 net.cpp:84] Creating Layer stage4_unit1_bn2_scale
I0109 17:01:14.337121 20212 net.cpp:406] stage4_unit1_bn2_scale <- stage4_unit1_bn2
I0109 17:01:14.337131 20212 net.cpp:367] stage4_unit1_bn2_scale -> stage4_unit1_bn2 (in-place)
I0109 17:01:14.337177 20212 layer_factory.hpp:77] Creating layer stage4_unit1_bn2_scale
I0109 17:01:14.337306 20212 net.cpp:122] Setting up stage4_unit1_bn2_scale
I0109 17:01:14.337314 20212 net.cpp:129] Top shape: 8 512 25 25 (2560000)
I0109 17:01:14.337319 20212 net.cpp:137] Memory required for data: 2087680096
I0109 17:01:14.337327 20212 layer_factory.hpp:77] Creating layer stage4_unit1_relu1
I0109 17:01:14.337334 20212 net.cpp:84] Creating Layer stage4_unit1_relu1
I0109 17:01:14.337338 20212 net.cpp:406] stage4_unit1_relu1 <- stage4_unit1_bn2
I0109 17:01:14.337344 20212 net.cpp:380] stage4_unit1_relu1 -> stage4_unit1_relu1
I0109 17:01:14.337460 20212 net.cpp:122] Setting up stage4_unit1_relu1
I0109 17:01:14.337472 20212 net.cpp:129] Top shape: 8 512 25 25 (2560000)
I0109 17:01:14.337476 20212 net.cpp:137] Memory required for data: 2097920096
I0109 17:01:14.337481 20212 layer_factory.hpp:77] Creating layer stage4_unit1_conv2
I0109 17:01:14.337493 20212 net.cpp:84] Creating Layer stage4_unit1_conv2
I0109 17:01:14.337499 20212 net.cpp:406] stage4_unit1_conv2 <- stage4_unit1_relu1
I0109 17:01:14.337507 20212 net.cpp:380] stage4_unit1_conv2 -> stage4_unit1_conv2
I0109 17:01:14.371068 20212 net.cpp:122] Setting up stage4_unit1_conv2
I0109 17:01:14.371084 20212 net.cpp:129] Top shape: 8 512 13 13 (692224)
I0109 17:01:14.371088 20212 net.cpp:137] Memory required for data: 2100688992
I0109 17:01:14.371096 20212 layer_factory.hpp:77] Creating layer stage4_unit1_bn3
I0109 17:01:14.371105 20212 net.cpp:84] Creating Layer stage4_unit1_bn3
I0109 17:01:14.371109 20212 net.cpp:406] stage4_unit1_bn3 <- stage4_unit1_conv2
I0109 17:01:14.371121 20212 net.cpp:380] stage4_unit1_bn3 -> stage4_unit1_bn3
I0109 17:01:14.371376 20212 net.cpp:122] Setting up stage4_unit1_bn3
I0109 17:01:14.371385 20212 net.cpp:129] Top shape: 8 512 13 13 (692224)
I0109 17:01:14.371389 20212 net.cpp:137] Memory required for data: 2103457888
I0109 17:01:14.371398 20212 layer_factory.hpp:77] Creating layer stage4_unit1_bn3_scale
I0109 17:01:14.371405 20212 net.cpp:84] Creating Layer stage4_unit1_bn3_scale
I0109 17:01:14.371410 20212 net.cpp:406] stage4_unit1_bn3_scale <- stage4_unit1_bn3
I0109 17:01:14.371417 20212 net.cpp:367] stage4_unit1_bn3_scale -> stage4_unit1_bn3 (in-place)
I0109 17:01:14.371462 20212 layer_factory.hpp:77] Creating layer stage4_unit1_bn3_scale
I0109 17:01:14.371583 20212 net.cpp:122] Setting up stage4_unit1_bn3_scale
I0109 17:01:14.371593 20212 net.cpp:129] Top shape: 8 512 13 13 (692224)
I0109 17:01:14.371598 20212 net.cpp:137] Memory required for data: 2106226784
I0109 17:01:14.371604 20212 layer_factory.hpp:77] Creating layer stage4_unit1_conv1sc
I0109 17:01:14.371615 20212 net.cpp:84] Creating Layer stage4_unit1_conv1sc
I0109 17:01:14.371621 20212 net.cpp:406] stage4_unit1_conv1sc <- _plus5__plus5_0_split_1
I0109 17:01:14.371630 20212 net.cpp:380] stage4_unit1_conv1sc -> stage4_unit1_conv1sc
I0109 17:01:14.373539 20212 net.cpp:122] Setting up stage4_unit1_conv1sc
I0109 17:01:14.373549 20212 net.cpp:129] Top shape: 8 512 13 13 (692224)
I0109 17:01:14.373553 20212 net.cpp:137] Memory required for data: 2108995680
I0109 17:01:14.373559 20212 layer_factory.hpp:77] Creating layer stage4_unit1_sc
I0109 17:01:14.373569 20212 net.cpp:84] Creating Layer stage4_unit1_sc
I0109 17:01:14.373574 20212 net.cpp:406] stage4_unit1_sc <- stage4_unit1_conv1sc
I0109 17:01:14.373579 20212 net.cpp:380] stage4_unit1_sc -> stage4_unit1_sc
I0109 17:01:14.373811 20212 net.cpp:122] Setting up stage4_unit1_sc
I0109 17:01:14.373819 20212 net.cpp:129] Top shape: 8 512 13 13 (692224)
I0109 17:01:14.373823 20212 net.cpp:137] Memory required for data: 2111764576
I0109 17:01:14.373831 20212 layer_factory.hpp:77] Creating layer stage4_unit1_sc_scale
I0109 17:01:14.373839 20212 net.cpp:84] Creating Layer stage4_unit1_sc_scale
I0109 17:01:14.373844 20212 net.cpp:406] stage4_unit1_sc_scale <- stage4_unit1_sc
I0109 17:01:14.373849 20212 net.cpp:367] stage4_unit1_sc_scale -> stage4_unit1_sc (in-place)
I0109 17:01:14.373896 20212 layer_factory.hpp:77] Creating layer stage4_unit1_sc_scale
I0109 17:01:14.374020 20212 net.cpp:122] Setting up stage4_unit1_sc_scale
I0109 17:01:14.374029 20212 net.cpp:129] Top shape: 8 512 13 13 (692224)
I0109 17:01:14.374033 20212 net.cpp:137] Memory required for data: 2114533472
I0109 17:01:14.374042 20212 layer_factory.hpp:77] Creating layer _plus6
I0109 17:01:14.374050 20212 net.cpp:84] Creating Layer _plus6
I0109 17:01:14.374054 20212 net.cpp:406] _plus6 <- stage4_unit1_bn3
I0109 17:01:14.374059 20212 net.cpp:406] _plus6 <- stage4_unit1_sc
I0109 17:01:14.374066 20212 net.cpp:380] _plus6 -> _plus6
I0109 17:01:14.374095 20212 net.cpp:122] Setting up _plus6
I0109 17:01:14.374104 20212 net.cpp:129] Top shape: 8 512 13 13 (692224)
I0109 17:01:14.374107 20212 net.cpp:137] Memory required for data: 2117302368
I0109 17:01:14.374111 20212 layer_factory.hpp:77] Creating layer _plus6__plus6_0_split
I0109 17:01:14.374119 20212 net.cpp:84] Creating Layer _plus6__plus6_0_split
I0109 17:01:14.374122 20212 net.cpp:406] _plus6__plus6_0_split <- _plus6
I0109 17:01:14.374130 20212 net.cpp:380] _plus6__plus6_0_split -> _plus6__plus6_0_split_0
I0109 17:01:14.374140 20212 net.cpp:380] _plus6__plus6_0_split -> _plus6__plus6_0_split_1
I0109 17:01:14.374181 20212 net.cpp:122] Setting up _plus6__plus6_0_split
I0109 17:01:14.374189 20212 net.cpp:129] Top shape: 8 512 13 13 (692224)
I0109 17:01:14.374195 20212 net.cpp:129] Top shape: 8 512 13 13 (692224)
I0109 17:01:14.374199 20212 net.cpp:137] Memory required for data: 2122840160
I0109 17:01:14.374203 20212 layer_factory.hpp:77] Creating layer stage4_unit2_bn1
I0109 17:01:14.374209 20212 net.cpp:84] Creating Layer stage4_unit2_bn1
I0109 17:01:14.374213 20212 net.cpp:406] stage4_unit2_bn1 <- _plus6__plus6_0_split_0
I0109 17:01:14.374219 20212 net.cpp:380] stage4_unit2_bn1 -> stage4_unit2_bn1
I0109 17:01:14.374434 20212 net.cpp:122] Setting up stage4_unit2_bn1
I0109 17:01:14.374444 20212 net.cpp:129] Top shape: 8 512 13 13 (692224)
I0109 17:01:14.374447 20212 net.cpp:137] Memory required for data: 2125609056
I0109 17:01:14.374456 20212 layer_factory.hpp:77] Creating layer stage4_unit2_bn1_scale
I0109 17:01:14.374464 20212 net.cpp:84] Creating Layer stage4_unit2_bn1_scale
I0109 17:01:14.374469 20212 net.cpp:406] stage4_unit2_bn1_scale <- stage4_unit2_bn1
I0109 17:01:14.374473 20212 net.cpp:367] stage4_unit2_bn1_scale -> stage4_unit2_bn1 (in-place)
I0109 17:01:14.374521 20212 layer_factory.hpp:77] Creating layer stage4_unit2_bn1_scale
I0109 17:01:14.374642 20212 net.cpp:122] Setting up stage4_unit2_bn1_scale
I0109 17:01:14.374651 20212 net.cpp:129] Top shape: 8 512 13 13 (692224)
I0109 17:01:14.374655 20212 net.cpp:137] Memory required for data: 2128377952
I0109 17:01:14.374662 20212 layer_factory.hpp:77] Creating layer stage4_unit2_conv1
I0109 17:01:14.374675 20212 net.cpp:84] Creating Layer stage4_unit2_conv1
I0109 17:01:14.374680 20212 net.cpp:406] stage4_unit2_conv1 <- stage4_unit2_bn1
I0109 17:01:14.374691 20212 net.cpp:380] stage4_unit2_conv1 -> stage4_unit2_conv1
I0109 17:01:14.408242 20212 net.cpp:122] Setting up stage4_unit2_conv1
I0109 17:01:14.408262 20212 net.cpp:129] Top shape: 8 512 13 13 (692224)
I0109 17:01:14.408265 20212 net.cpp:137] Memory required for data: 2131146848
I0109 17:01:14.408273 20212 layer_factory.hpp:77] Creating layer stage4_unit2_bn2
I0109 17:01:14.408286 20212 net.cpp:84] Creating Layer stage4_unit2_bn2
I0109 17:01:14.408293 20212 net.cpp:406] stage4_unit2_bn2 <- stage4_unit2_conv1
I0109 17:01:14.408299 20212 net.cpp:380] stage4_unit2_bn2 -> stage4_unit2_bn2
I0109 17:01:14.408531 20212 net.cpp:122] Setting up stage4_unit2_bn2
I0109 17:01:14.408540 20212 net.cpp:129] Top shape: 8 512 13 13 (692224)
I0109 17:01:14.408545 20212 net.cpp:137] Memory required for data: 2133915744
I0109 17:01:14.408553 20212 layer_factory.hpp:77] Creating layer stage4_unit2_bn2_scale
I0109 17:01:14.408562 20212 net.cpp:84] Creating Layer stage4_unit2_bn2_scale
I0109 17:01:14.408567 20212 net.cpp:406] stage4_unit2_bn2_scale <- stage4_unit2_bn2
I0109 17:01:14.408572 20212 net.cpp:367] stage4_unit2_bn2_scale -> stage4_unit2_bn2 (in-place)
I0109 17:01:14.408617 20212 layer_factory.hpp:77] Creating layer stage4_unit2_bn2_scale
I0109 17:01:14.408736 20212 net.cpp:122] Setting up stage4_unit2_bn2_scale
I0109 17:01:14.408746 20212 net.cpp:129] Top shape: 8 512 13 13 (692224)
I0109 17:01:14.408749 20212 net.cpp:137] Memory required for data: 2136684640
I0109 17:01:14.408756 20212 layer_factory.hpp:77] Creating layer stage4_unit2_relu1
I0109 17:01:14.408763 20212 net.cpp:84] Creating Layer stage4_unit2_relu1
I0109 17:01:14.408768 20212 net.cpp:406] stage4_unit2_relu1 <- stage4_unit2_bn2
I0109 17:01:14.408773 20212 net.cpp:380] stage4_unit2_relu1 -> stage4_unit2_relu1
I0109 17:01:14.409183 20212 net.cpp:122] Setting up stage4_unit2_relu1
I0109 17:01:14.409198 20212 net.cpp:129] Top shape: 8 512 13 13 (692224)
I0109 17:01:14.409202 20212 net.cpp:137] Memory required for data: 2139453536
I0109 17:01:14.409207 20212 layer_factory.hpp:77] Creating layer stage4_unit2_conv2
I0109 17:01:14.409224 20212 net.cpp:84] Creating Layer stage4_unit2_conv2
I0109 17:01:14.409230 20212 net.cpp:406] stage4_unit2_conv2 <- stage4_unit2_relu1
I0109 17:01:14.409240 20212 net.cpp:380] stage4_unit2_conv2 -> stage4_unit2_conv2
I0109 17:01:14.442821 20212 net.cpp:122] Setting up stage4_unit2_conv2
I0109 17:01:14.442839 20212 net.cpp:129] Top shape: 8 512 13 13 (692224)
I0109 17:01:14.442843 20212 net.cpp:137] Memory required for data: 2142222432
I0109 17:01:14.442852 20212 layer_factory.hpp:77] Creating layer stage4_unit2_bn3
I0109 17:01:14.442859 20212 net.cpp:84] Creating Layer stage4_unit2_bn3
I0109 17:01:14.442864 20212 net.cpp:406] stage4_unit2_bn3 <- stage4_unit2_conv2
I0109 17:01:14.442873 20212 net.cpp:380] stage4_unit2_bn3 -> stage4_unit2_bn3
I0109 17:01:14.443107 20212 net.cpp:122] Setting up stage4_unit2_bn3
I0109 17:01:14.443117 20212 net.cpp:129] Top shape: 8 512 13 13 (692224)
I0109 17:01:14.443121 20212 net.cpp:137] Memory required for data: 2144991328
I0109 17:01:14.443130 20212 layer_factory.hpp:77] Creating layer stage4_unit2_bn3_scale
I0109 17:01:14.443137 20212 net.cpp:84] Creating Layer stage4_unit2_bn3_scale
I0109 17:01:14.443141 20212 net.cpp:406] stage4_unit2_bn3_scale <- stage4_unit2_bn3
I0109 17:01:14.443150 20212 net.cpp:367] stage4_unit2_bn3_scale -> stage4_unit2_bn3 (in-place)
I0109 17:01:14.443194 20212 layer_factory.hpp:77] Creating layer stage4_unit2_bn3_scale
I0109 17:01:14.443318 20212 net.cpp:122] Setting up stage4_unit2_bn3_scale
I0109 17:01:14.443327 20212 net.cpp:129] Top shape: 8 512 13 13 (692224)
I0109 17:01:14.443331 20212 net.cpp:137] Memory required for data: 2147760224
I0109 17:01:14.443338 20212 layer_factory.hpp:77] Creating layer _plus7
I0109 17:01:14.443349 20212 net.cpp:84] Creating Layer _plus7
I0109 17:01:14.443356 20212 net.cpp:406] _plus7 <- stage4_unit2_bn3
I0109 17:01:14.443361 20212 net.cpp:406] _plus7 <- _plus6__plus6_0_split_1
I0109 17:01:14.443369 20212 net.cpp:380] _plus7 -> _plus7
I0109 17:01:14.443397 20212 net.cpp:122] Setting up _plus7
I0109 17:01:14.443405 20212 net.cpp:129] Top shape: 8 512 13 13 (692224)
I0109 17:01:14.443409 20212 net.cpp:137] Memory required for data: 2150529120
I0109 17:01:14.443413 20212 layer_factory.hpp:77] Creating layer bn1
I0109 17:01:14.443421 20212 net.cpp:84] Creating Layer bn1
I0109 17:01:14.443426 20212 net.cpp:406] bn1 <- _plus7
I0109 17:01:14.443434 20212 net.cpp:380] bn1 -> bn1
I0109 17:01:14.443645 20212 net.cpp:122] Setting up bn1
I0109 17:01:14.443653 20212 net.cpp:129] Top shape: 8 512 13 13 (692224)
I0109 17:01:14.443657 20212 net.cpp:137] Memory required for data: 2153298016
I0109 17:01:14.443666 20212 layer_factory.hpp:77] Creating layer bn1_scale
I0109 17:01:14.443673 20212 net.cpp:84] Creating Layer bn1_scale
I0109 17:01:14.443681 20212 net.cpp:406] bn1_scale <- bn1
I0109 17:01:14.443686 20212 net.cpp:367] bn1_scale -> bn1 (in-place)
I0109 17:01:14.443727 20212 layer_factory.hpp:77] Creating layer bn1_scale
I0109 17:01:14.443843 20212 net.cpp:122] Setting up bn1_scale
I0109 17:01:14.443852 20212 net.cpp:129] Top shape: 8 512 13 13 (692224)
I0109 17:01:14.443856 20212 net.cpp:137] Memory required for data: 2156066912
I0109 17:01:14.443862 20212 layer_factory.hpp:77] Creating layer fc8
I0109 17:01:14.443871 20212 net.cpp:84] Creating Layer fc8
I0109 17:01:14.443877 20212 net.cpp:406] fc8 <- bn1
I0109 17:01:14.443886 20212 net.cpp:380] fc8 -> fc8
I0109 17:01:14.447283 20212 net.cpp:122] Setting up fc8
I0109 17:01:14.447299 20212 net.cpp:129] Top shape: 8 2 (16)
I0109 17:01:14.447302 20212 net.cpp:137] Memory required for data: 2156066976
I0109 17:01:14.447311 20212 layer_factory.hpp:77] Creating layer fc8_fc8_0_split
I0109 17:01:14.447320 20212 net.cpp:84] Creating Layer fc8_fc8_0_split
I0109 17:01:14.447326 20212 net.cpp:406] fc8_fc8_0_split <- fc8
I0109 17:01:14.447335 20212 net.cpp:380] fc8_fc8_0_split -> fc8_fc8_0_split_0
I0109 17:01:14.447342 20212 net.cpp:380] fc8_fc8_0_split -> fc8_fc8_0_split_1
I0109 17:01:14.447391 20212 net.cpp:122] Setting up fc8_fc8_0_split
I0109 17:01:14.447397 20212 net.cpp:129] Top shape: 8 2 (16)
I0109 17:01:14.447402 20212 net.cpp:129] Top shape: 8 2 (16)
I0109 17:01:14.447405 20212 net.cpp:137] Memory required for data: 2156067104
I0109 17:01:14.447409 20212 layer_factory.hpp:77] Creating layer accuracy
I0109 17:01:14.447419 20212 net.cpp:84] Creating Layer accuracy
I0109 17:01:14.447425 20212 net.cpp:406] accuracy <- fc8_fc8_0_split_0
I0109 17:01:14.447430 20212 net.cpp:406] accuracy <- label_data_1_split_0
I0109 17:01:14.447436 20212 net.cpp:380] accuracy -> accuracy
…
