…
I0107 20:03:10.262586  3312 net.cpp:294] The NetState phase (0) differed from the phase (1) specified by a rule in layer accuracy
I0107 20:03:10.263924  3312 net.cpp:51] Initializing net from parameters: 
name: "r18"
state {
  phase: TRAIN
  level: 0
  stage: ""
}
layer {
  name: "data"
  type: "Data"
  top: "data"
  top: "label"
  include {
    phase: TRAIN
  }
  transform_param {
    scale: 0.0078125
    mirror: true
    mean_value: 127
  }
  data_param {
    source: "/home/lc/gender/school/data/train.lmdb"
    batch_size: 8
    backend: LMDB
  }
}
layer {
  name: "conv0"
  type: "Convolution"
  bottom: "data"
  top: "conv0"
  param {
    lr_mult: 1
    decay_mult: 1
  }
  convolution_param {
    num_output: 64
    bias_term: false
    pad: 1
    kernel_size: 3
    stride: 1
    weight_filler {
      type: "gaussian"
      std: 0.01
    }
    engine: CAFFE
  }
}
layer {
  name: "bn0"
  type: "BatchNorm"
  bottom: "conv0"
  top: "bn0"
  batch_norm_param {
    use_global_stats: false
    moving_average_fraction: 0.9
    eps: 2e-05
  }
}
layer {
  name: "bn0_scale"
  type: "Scale"
  bottom: "bn0"
  top: "bn0"
  scale_param {
    bias_term: true
  }
}
layer {
  name: "relu0"
  type: "ReLU"
  bottom: "bn0"
  top: "relu0"
}
layer {
  name: "stage1_unit1_bn1"
  type: "BatchNorm"
  bottom: "relu0"
  top: "stage1_unit1_bn1"
  batch_norm_param {
    use_global_stats: false
    moving_average_fraction: 0.9
    eps: 2e-05
  }
}
layer {
  name: "stage1_unit1_bn1_scale"
  type: "Scale"
  bottom: "stage1_unit1_bn1"
  top: "stage1_unit1_bn1"
  scale_param {
    bias_term: true
  }
}
layer {
  name: "stage1_unit1_conv1"
  type: "Convolution"
  bottom: "stage1_unit1_bn1"
  top: "stage1_unit1_conv1"
  param {
    lr_mult: 1
    decay_mult: 1
  }
  convolution_param {
    num_output: 64
    bias_term: false
    pad: 1
    kernel_size: 3
    stride: 1
    weight_filler {
      type: "gaussian"
      std: 0.01
    }
    engine: CAFFE
  }
}
layer {
  name: "stage1_unit1_bn2"
  type: "BatchNorm"
  bottom: "stage1_unit1_conv1"
  top: "stage1_unit1_bn2"
  batch_norm_param {
    use_global_stats: false
    moving_average_fraction: 0.9
    eps: 2e-05
  }
}
layer {
  name: "stage1_unit1_bn2_scale"
  type: "Scale"
  bottom: "stage1_unit1_bn2"
  top: "stage1_unit1_bn2"
  scale_param {
    bias_term: true
  }
}
layer {
  name: "stage1_unit1_relu1"
  type: "ReLU"
  bottom: "stage1_unit1_bn2"
  top: "stage1_unit1_relu1"
}
layer {
  name: "stage1_unit1_conv2"
  type: "Convolution"
  bottom: "stage1_unit1_relu1"
  top: "stage1_unit1_conv2"
  param {
    lr_mult: 1
    decay_mult: 1
  }
  convolution_param {
    num_output: 64
    bias_term: false
    pad: 1
    kernel_size: 3
    stride: 2
    weight_filler {
      type: "gaussian"
      std: 0.01
    }
    engine: CAFFE
  }
}
layer {
  name: "stage1_unit1_bn3"
  type: "BatchNorm"
  bottom: "stage1_unit1_conv2"
  top: "stage1_unit1_bn3"
  batch_norm_param {
    use_global_stats: false
    moving_average_fraction: 0.9
    eps: 2e-05
  }
}
layer {
  name: "stage1_unit1_bn3_scale"
  type: "Scale"
  bottom: "stage1_unit1_bn3"
  top: "stage1_unit1_bn3"
  scale_param {
    bias_term: true
  }
}
layer {
  name: "stage1_unit1_conv1sc"
  type: "Convolution"
  bottom: "relu0"
  top: "stage1_unit1_conv1sc"
  param {
    lr_mult: 1
    decay_mult: 1
  }
  convolution_param {
    num_output: 64
    bias_term: false
    kernel_size: 1
    stride: 2
    weight_filler {
      type: "gaussian"
      std: 0.01
    }
    engine: CAFFE
  }
}
layer {
  name: "stage1_unit1_sc"
  type: "BatchNorm"
  bottom: "stage1_unit1_conv1sc"
  top: "stage1_unit1_sc"
  batch_norm_param {
    use_global_stats: false
    moving_average_fraction: 0.9
    eps: 2e-05
  }
}
layer {
  name: "stage1_unit1_sc_scale"
  type: "Scale"
  bottom: "stage1_unit1_sc"
  top: "stage1_unit1_sc"
  scale_param {
    bias_term: true
  }
}
layer {
  name: "_plus0"
  type: "Eltwise"
  bottom: "stage1_unit1_bn3"
  bottom: "stage1_unit1_sc"
  top: "_plus0"
  eltwise_param {
    operation: SUM
  }
}
layer {
  name: "stage1_unit2_bn1"
  type: "BatchNorm"
  bottom: "_plus0"
  top: "stage1_unit2_bn1"
  batch_norm_param {
    use_global_stats: false
    moving_average_fraction: 0.9
    eps: 2e-05
  }
}
layer {
  name: "stage1_unit2_bn1_scale"
  type: "Scale"
  bottom: "stage1_unit2_bn1"
  top: "stage1_unit2_bn1"
  scale_param {
    bias_term: true
  }
}
layer {
  name: "stage1_unit2_conv1"
  type: "Convolution"
  bottom: "stage1_unit2_bn1"
  top: "stage1_unit2_conv1"
  param {
    lr_mult: 1
    decay_mult: 1
  }
  convolution_param {
    num_output: 64
    bias_term: false
    pad: 1
    kernel_size: 3
    stride: 1
    weight_filler {
      type: "gaussian"
      std: 0.01
    }
    engine: CAFFE
  }
}
layer {
  name: "stage1_unit2_bn2"
  type: "BatchNorm"
  bottom: "stage1_unit2_conv1"
  top: "stage1_unit2_bn2"
  batch_norm_param {
    use_global_stats: false
    moving_average_fraction: 0.9
    eps: 2e-05
  }
}
layer {
  name: "stage1_unit2_bn2_scale"
  type: "Scale"
  bottom: "stage1_unit2_bn2"
  top: "stage1_unit2_bn2"
  scale_param {
    bias_term: true
  }
}
layer {
  name: "stage1_unit2_relu1"
  type: "ReLU"
  bottom: "stage1_unit2_bn2"
  top: "stage1_unit2_relu1"
}
layer {
  name: "stage1_unit2_conv2"
  type: "Convolution"
  bottom: "stage1_unit2_relu1"
  top: "stage1_unit2_conv2"
  param {
    lr_mult: 1
    decay_mult: 1
  }
  convolution_param {
    num_output: 64
    bias_term: false
    pad: 1
    kernel_size: 3
    stride: 1
    weight_filler {
      type: "gaussian"
      std: 0.01
    }
    engine: CAFFE
  }
}
layer {
  name: "stage1_unit2_bn3"
  type: "BatchNorm"
  bottom: "stage1_unit2_conv2"
  top: "stage1_unit2_bn3"
  batch_norm_param {
    use_global_stats: false
    moving_average_fraction: 0.9
    eps: 2e-05
  }
}
layer {
  name: "stage1_unit2_bn3_scale"
  type: "Scale"
  bottom: "stage1_unit2_bn3"
  top: "stage1_unit2_bn3"
  scale_param {
    bias_term: true
  }
}
layer {
  name: "_plus1"
  type: "Eltwise"
  bottom: "stage1_unit2_bn3"
  bottom: "_plus0"
  top: "_plus1"
  eltwise_param {
    operation: SUM
  }
}
layer {
  name: "stage2_unit1_bn1"
  type: "BatchNorm"
  bottom: "_plus1"
  top: "stage2_unit1_bn1"
  batch_norm_param {
    use_global_stats: false
    moving_average_fraction: 0.9
    eps: 2e-05
  }
}
layer {
  name: "stage2_unit1_bn1_scale"
  type: "Scale"
  bottom: "stage2_unit1_bn1"
  top: "stage2_unit1_bn1"
  scale_param {
    bias_term: true
  }
}
layer {
  name: "stage2_unit1_conv1"
  type: "Convolution"
  bottom: "stage2_unit1_bn1"
  top: "stage2_unit1_conv1"
  param {
    lr_mult: 1
    decay_mult: 1
  }
  convolution_param {
    num_output: 128
    bias_term: false
    pad: 1
    kernel_size: 3
    stride: 1
    weight_filler {
      type: "gaussian"
      std: 0.01
    }
    engine: CAFFE
  }
}
layer {
  name: "stage2_unit1_bn2"
  type: "BatchNorm"
  bottom: "stage2_unit1_conv1"
  top: "stage2_unit1_bn2"
  batch_norm_param {
    use_global_stats: false
    moving_average_fraction: 0.9
    eps: 2e-05
  }
}
layer {
  name: "stage2_unit1_bn2_scale"
  type: "Scale"
  bottom: "stage2_unit1_bn2"
  top: "stage2_unit1_bn2"
  scale_param {
    bias_term: true
  }
}
layer {
  name: "stage2_unit1_relu1"
  type: "ReLU"
  bottom: "stage2_unit1_bn2"
  top: "stage2_unit1_relu1"
}
layer {
  name: "stage2_unit1_conv2"
  type: "Convolution"
  bottom: "stage2_unit1_relu1"
  top: "stage2_unit1_conv2"
  param {
    lr_mult: 1
    decay_mult: 1
  }
  convolution_param {
    num_output: 128
    bias_term: false
    pad: 1
    kernel_size: 3
    stride: 2
    weight_filler {
      type: "gaussian"
      std: 0.01
    }
    engine: CAFFE
  }
}
layer {
  name: "stage2_unit1_bn3"
  type: "BatchNorm"
  bottom: "stage2_unit1_conv2"
  top: "stage2_unit1_bn3"
  batch_norm_param {
    use_global_stats: false
    moving_average_fraction: 0.9
    eps: 2e-05
  }
}
layer {
  name: "stage2_unit1_bn3_scale"
  type: "Scale"
  bottom: "stage2_unit1_bn3"
  top: "stage2_unit1_bn3"
  scale_param {
    bias_term: true
  }
}
layer {
  name: "stage2_unit1_conv1sc"
  type: "Convolution"
  bottom: "_plus1"
  top: "stage2_unit1_conv1sc"
  param {
    lr_mult: 1
    decay_mult: 1
  }
  convolution_param {
    num_output: 128
    bias_term: false
    kernel_size: 1
    stride: 2
    weight_filler {
      type: "gaussian"
      std: 0.01
    }
    engine: CAFFE
  }
}
layer {
  name: "stage2_unit1_sc"
  type: "BatchNorm"
  bottom: "stage2_unit1_conv1sc"
  top: "stage2_unit1_sc"
  batch_norm_param {
    use_global_stats: false
    moving_average_fraction: 0.9
    eps: 2e-05
  }
}
layer {
  name: "stage2_unit1_sc_scale"
  type: "Scale"
  bottom: "stage2_unit1_sc"
  top: "stage2_unit1_sc"
  scale_param {
    bias_term: true
  }
}
layer {
  name: "_plus2"
  type: "Eltwise"
  bottom: "stage2_unit1_bn3"
  bottom: "stage2_unit1_sc"
  top: "_plus2"
  eltwise_param {
    operation: SUM
  }
}
layer {
  name: "stage2_unit2_bn1"
  type: "BatchNorm"
  bottom: "_plus2"
  top: "stage2_unit2_bn1"
  batch_norm_param {
    use_global_stats: false
    moving_average_fraction: 0.9
    eps: 2e-05
  }
}
layer {
  name: "stage2_unit2_bn1_scale"
  type: "Scale"
  bottom: "stage2_unit2_bn1"
  top: "stage2_unit2_bn1"
  scale_param {
    bias_term: true
  }
}
layer {
  name: "stage2_unit2_conv1"
  type: "Convolution"
  bottom: "stage2_unit2_bn1"
  top: "stage2_unit2_conv1"
  param {
    lr_mult: 1
    decay_mult: 1
  }
  convolution_param {
    num_output: 128
    bias_term: false
    pad: 1
    kernel_size: 3
    stride: 1
    weight_filler {
      type: "gaussian"
      std: 0.01
    }
    engine: CAFFE
  }
}
layer {
  name: "stage2_unit2_bn2"
  type: "BatchNorm"
  bottom: "stage2_unit2_conv1"
  top: "stage2_unit2_bn2"
  batch_norm_param {
    use_global_stats: false
    moving_average_fraction: 0.9
    eps: 2e-05
  }
}
layer {
  name: "stage2_unit2_bn2_scale"
  type: "Scale"
  bottom: "stage2_unit2_bn2"
  top: "stage2_unit2_bn2"
  scale_param {
    bias_term: true
  }
}
layer {
  name: "stage2_unit2_relu1"
  type: "ReLU"
  bottom: "stage2_unit2_bn2"
  top: "stage2_unit2_relu1"
}
layer {
  name: "stage2_unit2_conv2"
  type: "Convolution"
  bottom: "stage2_unit2_relu1"
  top: "stage2_unit2_conv2"
  param {
    lr_mult: 1
    decay_mult: 1
  }
  convolution_param {
    num_output: 128
    bias_term: false
    pad: 1
    kernel_size: 3
    stride: 1
    weight_filler {
      type: "gaussian"
      std: 0.01
    }
    engine: CAFFE
  }
}
layer {
  name: "stage2_unit2_bn3"
  type: "BatchNorm"
  bottom: "stage2_unit2_conv2"
  top: "stage2_unit2_bn3"
  batch_norm_param {
    use_global_stats: false
    moving_average_fraction: 0.9
    eps: 2e-05
  }
}
layer {
  name: "stage2_unit2_bn3_scale"
  type: "Scale"
  bottom: "stage2_unit2_bn3"
  top: "stage2_unit2_bn3"
  scale_param {
    bias_term: true
  }
}
layer {
  name: "_plus3"
  type: "Eltwise"
  bottom: "stage2_unit2_bn3"
  bottom: "_plus2"
  top: "_plus3"
  eltwise_param {
    operation: SUM
  }
}
layer {
  name: "stage3_unit1_bn1"
  type: "BatchNorm"
  bottom: "_plus3"
  top: "stage3_unit1_bn1"
  batch_norm_param {
    use_global_stats: false
    moving_average_fraction: 0.9
    eps: 2e-05
  }
}
layer {
  name: "stage3_unit1_bn1_scale"
  type: "Scale"
  bottom: "stage3_unit1_bn1"
  top: "stage3_unit1_bn1"
  scale_param {
    bias_term: true
  }
}
layer {
  name: "stage3_unit1_conv1"
  type: "Convolution"
  bottom: "stage3_unit1_bn1"
  top: "stage3_unit1_conv1"
  param {
    lr_mult: 1
    decay_mult: 1
  }
  convolution_param {
    num_output: 256
    bias_term: false
    pad: 1
    kernel_size: 3
    stride: 1
    weight_filler {
      type: "gaussian"
      std: 0.01
    }
    engine: CAFFE
  }
}
layer {
  name: "stage3_unit1_bn2"
  type: "BatchNorm"
  bottom: "stage3_unit1_conv1"
  top: "stage3_unit1_bn2"
  batch_norm_param {
    use_global_stats: false
    moving_average_fraction: 0.9
    eps: 2e-05
  }
}
layer {
  name: "stage3_unit1_bn2_scale"
  type: "Scale"
  bottom: "stage3_unit1_bn2"
  top: "stage3_unit1_bn2"
  scale_param {
    bias_term: true
  }
}
layer {
  name: "stage3_unit1_relu1"
  type: "ReLU"
  bottom: "stage3_unit1_bn2"
  top: "stage3_unit1_relu1"
}
layer {
  name: "stage3_unit1_conv2"
  type: "Convolution"
  bottom: "stage3_unit1_relu1"
  top: "stage3_unit1_conv2"
  param {
    lr_mult: 1
    decay_mult: 1
  }
  convolution_param {
    num_output: 256
    bias_term: false
    pad: 1
    kernel_size: 3
    stride: 2
    weight_filler {
      type: "gaussian"
      std: 0.01
    }
    engine: CAFFE
  }
}
layer {
  name: "stage3_unit1_bn3"
  type: "BatchNorm"
  bottom: "stage3_unit1_conv2"
  top: "stage3_unit1_bn3"
  batch_norm_param {
    use_global_stats: false
    moving_average_fraction: 0.9
    eps: 2e-05
  }
}
layer {
  name: "stage3_unit1_bn3_scale"
  type: "Scale"
  bottom: "stage3_unit1_bn3"
  top: "stage3_unit1_bn3"
  scale_param {
    bias_term: true
  }
}
layer {
  name: "stage3_unit1_conv1sc"
  type: "Convolution"
  bottom: "_plus3"
  top: "stage3_unit1_conv1sc"
  param {
    lr_mult: 1
    decay_mult: 1
  }
  convolution_param {
    num_output: 256
    bias_term: false
    kernel_size: 1
    stride: 2
    weight_filler {
      type: "gaussian"
      std: 0.01
    }
    engine: CAFFE
  }
}
layer {
  name: "stage3_unit1_sc"
  type: "BatchNorm"
  bottom: "stage3_unit1_conv1sc"
  top: "stage3_unit1_sc"
  batch_norm_param {
    use_global_stats: false
    moving_average_fraction: 0.9
    eps: 2e-05
  }
}
layer {
  name: "stage3_unit1_sc_scale"
  type: "Scale"
  bottom: "stage3_unit1_sc"
  top: "stage3_unit1_sc"
  scale_param {
    bias_term: true
  }
}
layer {
  name: "_plus4"
  type: "Eltwise"
  bottom: "stage3_unit1_bn3"
  bottom: "stage3_unit1_sc"
  top: "_plus4"
  eltwise_param {
    operation: SUM
  }
}
layer {
  name: "stage3_unit2_bn1"
  type: "BatchNorm"
  bottom: "_plus4"
  top: "stage3_unit2_bn1"
  batch_norm_param {
    use_global_stats: false
    moving_average_fraction: 0.9
    eps: 2e-05
  }
}
layer {
  name: "stage3_unit2_bn1_scale"
  type: "Scale"
  bottom: "stage3_unit2_bn1"
  top: "stage3_unit2_bn1"
  scale_param {
    bias_term: true
  }
}
layer {
  name: "stage3_unit2_conv1"
  type: "Convolution"
  bottom: "stage3_unit2_bn1"
  top: "stage3_unit2_conv1"
  param {
    lr_mult: 1
    decay_mult: 1
  }
  convolution_param {
    num_output: 256
    bias_term: false
    pad: 1
    kernel_size: 3
    stride: 1
    weight_filler {
      type: "gaussian"
      std: 0.01
    }
    engine: CAFFE
  }
}
layer {
  name: "stage3_unit2_bn2"
  type: "BatchNorm"
  bottom: "stage3_unit2_conv1"
  top: "stage3_unit2_bn2"
  batch_norm_param {
    use_global_stats: false
    moving_average_fraction: 0.9
    eps: 2e-05
  }
}
layer {
  name: "stage3_unit2_bn2_scale"
  type: "Scale"
  bottom: "stage3_unit2_bn2"
  top: "stage3_unit2_bn2"
  scale_param {
    bias_term: true
  }
}
layer {
  name: "stage3_unit2_relu1"
  type: "ReLU"
  bottom: "stage3_unit2_bn2"
  top: "stage3_unit2_relu1"
}
layer {
  name: "stage3_unit2_conv2"
  type: "Convolution"
  bottom: "stage3_unit2_relu1"
  top: "stage3_unit2_conv2"
  param {
    lr_mult: 1
    decay_mult: 1
  }
  convolution_param {
    num_output: 256
    bias_term: false
    pad: 1
    kernel_size: 3
    stride: 1
    weight_filler {
      type: "gaussian"
      std: 0.01
    }
    engine: CAFFE
  }
}
layer {
  name: "stage3_unit2_bn3"
  type: "BatchNorm"
  bottom: "stage3_unit2_conv2"
  top: "stage3_unit2_bn3"
  batch_norm_param {
    use_global_stats: false
    moving_average_fraction: 0.9
    eps: 2e-05
  }
}
layer {
  name: "stage3_unit2_bn3_scale"
  type: "Scale"
  bottom: "stage3_unit2_bn3"
  top: "stage3_unit2_bn3"
  scale_param {
    bias_term: true
  }
}
layer {
  name: "_plus5"
  type: "Eltwise"
  bottom: "stage3_unit2_bn3"
  bottom: "_plus4"
  top: "_plus5"
  eltwise_param {
    operation: SUM
  }
}
layer {
  name: "stage4_unit1_bn1"
  type: "BatchNorm"
  bottom: "_plus5"
  top: "stage4_unit1_bn1"
  batch_norm_param {
    use_global_stats: false
    moving_average_fraction: 0.9
    eps: 2e-05
  }
}
layer {
  name: "stage4_unit1_bn1_scale"
  type: "Scale"
  bottom: "stage4_unit1_bn1"
  top: "stage4_unit1_bn1"
  scale_param {
    bias_term: true
  }
}
layer {
  name: "stage4_unit1_conv1"
  type: "Convolution"
  bottom: "stage4_unit1_bn1"
  top: "stage4_unit1_conv1"
  param {
    lr_mult: 1
    decay_mult: 1
  }
  convolution_param {
    num_output: 512
    bias_term: false
    pad: 1
    kernel_size: 3
    stride: 1
    weight_filler {
      type: "gaussian"
      std: 0.01
    }
    engine: CAFFE
  }
}
layer {
  name: "stage4_unit1_bn2"
  type: "BatchNorm"
  bottom: "stage4_unit1_conv1"
  top: "stage4_unit1_bn2"
  batch_norm_param {
    use_global_stats: false
    moving_average_fraction: 0.9
    eps: 2e-05
  }
}
layer {
  name: "stage4_unit1_bn2_scale"
  type: "Scale"
  bottom: "stage4_unit1_bn2"
  top: "stage4_unit1_bn2"
  scale_param {
    bias_term: true
  }
}
layer {
  name: "stage4_unit1_relu1"
  type: "ReLU"
  bottom: "stage4_unit1_bn2"
  top: "stage4_unit1_relu1"
}
layer {
  name: "stage4_unit1_conv2"
  type: "Convolution"
  bottom: "stage4_unit1_relu1"
  top: "stage4_unit1_conv2"
  param {
    lr_mult: 1
    decay_mult: 1
  }
  convolution_param {
    num_output: 512
    bias_term: false
    pad: 1
    kernel_size: 3
    stride: 2
    weight_filler {
      type: "gaussian"
      std: 0.01
    }
    engine: CAFFE
  }
}
layer {
  name: "stage4_unit1_bn3"
  type: "BatchNorm"
  bottom: "stage4_unit1_conv2"
  top: "stage4_unit1_bn3"
  batch_norm_param {
    use_global_stats: false
    moving_average_fraction: 0.9
    eps: 2e-05
  }
}
layer {
  name: "stage4_unit1_bn3_scale"
  type: "Scale"
  bottom: "stage4_unit1_bn3"
  top: "stage4_unit1_bn3"
  scale_param {
    bias_term: true
  }
}
layer {
  name: "stage4_unit1_conv1sc"
  type: "Convolution"
  bottom: "_plus5"
  top: "stage4_unit1_conv1sc"
  param {
    lr_mult: 1
    decay_mult: 1
  }
  convolution_param {
    num_output: 512
    bias_term: false
    kernel_size: 1
    stride: 2
    weight_filler {
      type: "gaussian"
      std: 0.01
    }
    engine: CAFFE
  }
}
layer {
  name: "stage4_unit1_sc"
  type: "BatchNorm"
  bottom: "stage4_unit1_conv1sc"
  top: "stage4_unit1_sc"
  batch_norm_param {
    use_global_stats: false
    moving_average_fraction: 0.9
    eps: 2e-05
  }
}
layer {
  name: "stage4_unit1_sc_scale"
  type: "Scale"
  bottom: "stage4_unit1_sc"
  top: "stage4_unit1_sc"
  scale_param {
    bias_term: true
  }
}
layer {
  name: "_plus6"
  type: "Eltwise"
  bottom: "stage4_unit1_bn3"
  bottom: "stage4_unit1_sc"
  top: "_plus6"
  eltwise_param {
    operation: SUM
  }
}
layer {
  name: "stage4_unit2_bn1"
  type: "BatchNorm"
  bottom: "_plus6"
  top: "stage4_unit2_bn1"
  batch_norm_param {
    use_global_stats: false
    moving_average_fraction: 0.9
    eps: 2e-05
  }
}
layer {
  name: "stage4_unit2_bn1_scale"
  type: "Scale"
  bottom: "stage4_unit2_bn1"
  top: "stage4_unit2_bn1"
  scale_param {
    bias_term: true
  }
}
layer {
  name: "stage4_unit2_conv1"
  type: "Convolution"
  bottom: "stage4_unit2_bn1"
  top: "stage4_unit2_conv1"
  param {
    lr_mult: 1
    decay_mult: 1
  }
  convolution_param {
    num_output: 512
    bias_term: false
    pad: 1
    kernel_size: 3
    stride: 1
    weight_filler {
      type: "gaussian"
      std: 0.01
    }
    engine: CAFFE
  }
}
layer {
  name: "stage4_unit2_bn2"
  type: "BatchNorm"
  bottom: "stage4_unit2_conv1"
  top: "stage4_unit2_bn2"
  batch_norm_param {
    use_global_stats: false
    moving_average_fraction: 0.9
    eps: 2e-05
  }
}
layer {
  name: "stage4_unit2_bn2_scale"
  type: "Scale"
  bottom: "stage4_unit2_bn2"
  top: "stage4_unit2_bn2"
  scale_param {
    bias_term: true
  }
}
layer {
  name: "stage4_unit2_relu1"
  type: "ReLU"
  bottom: "stage4_unit2_bn2"
  top: "stage4_unit2_relu1"
}
layer {
  name: "stage4_unit2_conv2"
  type: "Convolution"
  bottom: "stage4_unit2_relu1"
  top: "stage4_unit2_conv2"
  param {
    lr_mult: 1
    decay_mult: 1
  }
  convolution_param {
    num_output: 512
    bias_term: false
    pad: 1
    kernel_size: 3
    stride: 1
    weight_filler {
      type: "gaussian"
      std: 0.01
    }
    engine: CAFFE
  }
}
layer {
  name: "stage4_unit2_bn3"
  type: "BatchNorm"
  bottom: "stage4_unit2_conv2"
  top: "stage4_unit2_bn3"
  batch_norm_param {
    use_global_stats: false
    moving_average_fraction: 0.9
    eps: 2e-05
  }
}
layer {
  name: "stage4_unit2_bn3_scale"
  type: "Scale"
  bottom: "stage4_unit2_bn3"
  top: "stage4_unit2_bn3"
  scale_param {
    bias_term: true
  }
}
layer {
  name: "_plus7"
  type: "Eltwise"
  bottom: "stage4_unit2_bn3"
  bottom: "_plus6"
  top: "_plus7"
  eltwise_param {
    operation: SUM
  }
}
layer {
  name: "bn1"
  type: "BatchNorm"
  bottom: "_plus7"
  top: "bn1"
  batch_norm_param {
    use_global_stats: false
    moving_average_fraction: 0.9
    eps: 2e-05
  }
}
layer {
  name: "bn1_scale"
  type: "Scale"
  bottom: "bn1"
  top: "bn1"
  scale_param {
    bias_term: true
  }
}
layer {
  name: "fc8"
  type: "InnerProduct"
  bottom: "bn1"
  top: "fc8"
  param {
    lr_mult: 1
    decay_mult: 1
  }
  param {
    lr_mult: 2
    decay_mult: 0
  }
  inner_product_param {
    num_output: 2
    weight_filler {
      type: "msra"
      std: 0.01
    }
    bias_filler {
      type: "constant"
      value: 0
    }
  }
}
layer {
  name: "loss"
  type: "WeightedSoftmaxWithLoss"
  bottom: "fc8"
  bottom: "label"
  top: "loss"
  softmax_param {
    pos_mult: 1.3
    pos_cid: 1
  }
}
I0107 20:03:10.264775  3312 layer_factory.hpp:77] Creating layer data
I0107 20:03:10.265065  3312 db_lmdb.cpp:35] Opened lmdb /home/lc/gender/school/data/train.lmdb
I0107 20:03:10.265136  3312 net.cpp:84] Creating Layer data
I0107 20:03:10.265162  3312 net.cpp:380] data -> data
I0107 20:03:10.265221  3312 net.cpp:380] data -> label
I0107 20:03:10.267645  3312 data_layer.cpp:45] output data size: 8,3,200,200
I0107 20:03:10.286661  3312 net.cpp:122] Setting up data
I0107 20:03:10.286754  3312 net.cpp:129] Top shape: 8 3 200 200 (960000)
I0107 20:03:10.286775  3312 net.cpp:129] Top shape: 8 (8)
I0107 20:03:10.286792  3312 net.cpp:137] Memory required for data: 3840032
I0107 20:03:10.286819  3312 layer_factory.hpp:77] Creating layer conv0
I0107 20:03:10.286870  3312 net.cpp:84] Creating Layer conv0
I0107 20:03:10.286891  3312 net.cpp:406] conv0 <- data
I0107 20:03:10.286926  3312 net.cpp:380] conv0 -> conv0
I0107 20:03:10.287307  3312 net.cpp:122] Setting up conv0
I0107 20:03:10.287336  3312 net.cpp:129] Top shape: 8 64 200 200 (20480000)
I0107 20:03:10.287353  3312 net.cpp:137] Memory required for data: 85760032
I0107 20:03:10.287408  3312 layer_factory.hpp:77] Creating layer bn0
I0107 20:03:10.287434  3312 net.cpp:84] Creating Layer bn0
I0107 20:03:10.287451  3312 net.cpp:406] bn0 <- conv0
I0107 20:03:10.287470  3312 net.cpp:380] bn0 -> bn0
I0107 20:03:10.287825  3312 net.cpp:122] Setting up bn0
I0107 20:03:10.287853  3312 net.cpp:129] Top shape: 8 64 200 200 (20480000)
I0107 20:03:10.287871  3312 net.cpp:137] Memory required for data: 167680032
I0107 20:03:10.287910  3312 layer_factory.hpp:77] Creating layer bn0_scale
I0107 20:03:10.287937  3312 net.cpp:84] Creating Layer bn0_scale
I0107 20:03:10.287953  3312 net.cpp:406] bn0_scale <- bn0
I0107 20:03:10.287972  3312 net.cpp:367] bn0_scale -> bn0 (in-place)
I0107 20:03:10.288049  3312 layer_factory.hpp:77] Creating layer bn0_scale
I0107 20:03:10.288357  3312 net.cpp:122] Setting up bn0_scale
I0107 20:03:10.288383  3312 net.cpp:129] Top shape: 8 64 200 200 (20480000)
I0107 20:03:10.288399  3312 net.cpp:137] Memory required for data: 249600032
I0107 20:03:10.288422  3312 layer_factory.hpp:77] Creating layer relu0
I0107 20:03:10.288444  3312 net.cpp:84] Creating Layer relu0
I0107 20:03:10.288506  3312 net.cpp:406] relu0 <- bn0
I0107 20:03:10.288547  3312 net.cpp:380] relu0 -> relu0
I0107 20:03:11.468664  3312 net.cpp:122] Setting up relu0
I0107 20:03:11.468766  3312 net.cpp:129] Top shape: 8 64 200 200 (20480000)
I0107 20:03:11.468786  3312 net.cpp:137] Memory required for data: 331520032
I0107 20:03:11.468807  3312 layer_factory.hpp:77] Creating layer relu0_relu0_0_split
I0107 20:03:11.468838  3312 net.cpp:84] Creating Layer relu0_relu0_0_split
I0107 20:03:11.468854  3312 net.cpp:406] relu0_relu0_0_split <- relu0
I0107 20:03:11.468883  3312 net.cpp:380] relu0_relu0_0_split -> relu0_relu0_0_split_0
I0107 20:03:11.468907  3312 net.cpp:380] relu0_relu0_0_split -> relu0_relu0_0_split_1
I0107 20:03:11.468976  3312 net.cpp:122] Setting up relu0_relu0_0_split
I0107 20:03:11.468997  3312 net.cpp:129] Top shape: 8 64 200 200 (20480000)
I0107 20:03:11.469015  3312 net.cpp:129] Top shape: 8 64 200 200 (20480000)
I0107 20:03:11.469028  3312 net.cpp:137] Memory required for data: 495360032
I0107 20:03:11.469043  3312 layer_factory.hpp:77] Creating layer stage1_unit1_bn1
I0107 20:03:11.469064  3312 net.cpp:84] Creating Layer stage1_unit1_bn1
I0107 20:03:11.469080  3312 net.cpp:406] stage1_unit1_bn1 <- relu0_relu0_0_split_0
I0107 20:03:11.469099  3312 net.cpp:380] stage1_unit1_bn1 -> stage1_unit1_bn1
I0107 20:03:11.469440  3312 net.cpp:122] Setting up stage1_unit1_bn1
I0107 20:03:11.469463  3312 net.cpp:129] Top shape: 8 64 200 200 (20480000)
I0107 20:03:11.469478  3312 net.cpp:137] Memory required for data: 577280032
I0107 20:03:11.469516  3312 layer_factory.hpp:77] Creating layer stage1_unit1_bn1_scale
I0107 20:03:11.469538  3312 net.cpp:84] Creating Layer stage1_unit1_bn1_scale
I0107 20:03:11.469552  3312 net.cpp:406] stage1_unit1_bn1_scale <- stage1_unit1_bn1
I0107 20:03:11.469571  3312 net.cpp:367] stage1_unit1_bn1_scale -> stage1_unit1_bn1 (in-place)
I0107 20:03:11.469645  3312 layer_factory.hpp:77] Creating layer stage1_unit1_bn1_scale
I0107 20:03:11.469925  3312 net.cpp:122] Setting up stage1_unit1_bn1_scale
I0107 20:03:11.469949  3312 net.cpp:129] Top shape: 8 64 200 200 (20480000)
I0107 20:03:11.469962  3312 net.cpp:137] Memory required for data: 659200032
I0107 20:03:11.469982  3312 layer_factory.hpp:77] Creating layer stage1_unit1_conv1
I0107 20:03:11.470010  3312 net.cpp:84] Creating Layer stage1_unit1_conv1
I0107 20:03:11.470026  3312 net.cpp:406] stage1_unit1_conv1 <- stage1_unit1_bn1
I0107 20:03:11.470043  3312 net.cpp:380] stage1_unit1_conv1 -> stage1_unit1_conv1
I0107 20:03:11.470940  3312 net.cpp:122] Setting up stage1_unit1_conv1
I0107 20:03:11.470968  3312 net.cpp:129] Top shape: 8 64 200 200 (20480000)
I0107 20:03:11.470983  3312 net.cpp:137] Memory required for data: 741120032
I0107 20:03:11.471001  3312 layer_factory.hpp:77] Creating layer stage1_unit1_bn2
I0107 20:03:11.471021  3312 net.cpp:84] Creating Layer stage1_unit1_bn2
I0107 20:03:11.471035  3312 net.cpp:406] stage1_unit1_bn2 <- stage1_unit1_conv1
I0107 20:03:11.471052  3312 net.cpp:380] stage1_unit1_bn2 -> stage1_unit1_bn2
I0107 20:03:11.471379  3312 net.cpp:122] Setting up stage1_unit1_bn2
I0107 20:03:11.471402  3312 net.cpp:129] Top shape: 8 64 200 200 (20480000)
I0107 20:03:11.471416  3312 net.cpp:137] Memory required for data: 823040032
I0107 20:03:11.471436  3312 layer_factory.hpp:77] Creating layer stage1_unit1_bn2_scale
I0107 20:03:11.471457  3312 net.cpp:84] Creating Layer stage1_unit1_bn2_scale
I0107 20:03:11.471472  3312 net.cpp:406] stage1_unit1_bn2_scale <- stage1_unit1_bn2
I0107 20:03:11.471488  3312 net.cpp:367] stage1_unit1_bn2_scale -> stage1_unit1_bn2 (in-place)
I0107 20:03:11.471554  3312 layer_factory.hpp:77] Creating layer stage1_unit1_bn2_scale
I0107 20:03:11.471825  3312 net.cpp:122] Setting up stage1_unit1_bn2_scale
I0107 20:03:11.471848  3312 net.cpp:129] Top shape: 8 64 200 200 (20480000)
I0107 20:03:11.471861  3312 net.cpp:137] Memory required for data: 904960032
I0107 20:03:11.471885  3312 layer_factory.hpp:77] Creating layer stage1_unit1_relu1
I0107 20:03:11.471926  3312 net.cpp:84] Creating Layer stage1_unit1_relu1
I0107 20:03:11.471945  3312 net.cpp:406] stage1_unit1_relu1 <- stage1_unit1_bn2
I0107 20:03:11.471982  3312 net.cpp:380] stage1_unit1_relu1 -> stage1_unit1_relu1
I0107 20:03:11.472201  3312 net.cpp:122] Setting up stage1_unit1_relu1
I0107 20:03:11.472229  3312 net.cpp:129] Top shape: 8 64 200 200 (20480000)
I0107 20:03:11.472244  3312 net.cpp:137] Memory required for data: 986880032
I0107 20:03:11.472256  3312 layer_factory.hpp:77] Creating layer stage1_unit1_conv2
I0107 20:03:11.472280  3312 net.cpp:84] Creating Layer stage1_unit1_conv2
I0107 20:03:11.472297  3312 net.cpp:406] stage1_unit1_conv2 <- stage1_unit1_relu1
I0107 20:03:11.472316  3312 net.cpp:380] stage1_unit1_conv2 -> stage1_unit1_conv2
I0107 20:03:11.473201  3312 net.cpp:122] Setting up stage1_unit1_conv2
I0107 20:03:11.473227  3312 net.cpp:129] Top shape: 8 64 100 100 (5120000)
I0107 20:03:11.473242  3312 net.cpp:137] Memory required for data: 1007360032
I0107 20:03:11.473259  3312 layer_factory.hpp:77] Creating layer stage1_unit1_bn3
I0107 20:03:11.473279  3312 net.cpp:84] Creating Layer stage1_unit1_bn3
I0107 20:03:11.473294  3312 net.cpp:406] stage1_unit1_bn3 <- stage1_unit1_conv2
I0107 20:03:11.473310  3312 net.cpp:380] stage1_unit1_bn3 -> stage1_unit1_bn3
I0107 20:03:11.473675  3312 net.cpp:122] Setting up stage1_unit1_bn3
I0107 20:03:11.473700  3312 net.cpp:129] Top shape: 8 64 100 100 (5120000)
I0107 20:03:11.473713  3312 net.cpp:137] Memory required for data: 1027840032
I0107 20:03:11.473737  3312 layer_factory.hpp:77] Creating layer stage1_unit1_bn3_scale
I0107 20:03:11.473757  3312 net.cpp:84] Creating Layer stage1_unit1_bn3_scale
I0107 20:03:11.473771  3312 net.cpp:406] stage1_unit1_bn3_scale <- stage1_unit1_bn3
I0107 20:03:11.473788  3312 net.cpp:367] stage1_unit1_bn3_scale -> stage1_unit1_bn3 (in-place)
I0107 20:03:11.473855  3312 layer_factory.hpp:77] Creating layer stage1_unit1_bn3_scale
I0107 20:03:11.474041  3312 net.cpp:122] Setting up stage1_unit1_bn3_scale
I0107 20:03:11.474063  3312 net.cpp:129] Top shape: 8 64 100 100 (5120000)
I0107 20:03:11.474077  3312 net.cpp:137] Memory required for data: 1048320032
I0107 20:03:11.474097  3312 layer_factory.hpp:77] Creating layer stage1_unit1_conv1sc
I0107 20:03:11.474119  3312 net.cpp:84] Creating Layer stage1_unit1_conv1sc
I0107 20:03:11.474133  3312 net.cpp:406] stage1_unit1_conv1sc <- relu0_relu0_0_split_1
I0107 20:03:11.474150  3312 net.cpp:380] stage1_unit1_conv1sc -> stage1_unit1_conv1sc
I0107 20:03:11.474473  3312 net.cpp:122] Setting up stage1_unit1_conv1sc
I0107 20:03:11.474498  3312 net.cpp:129] Top shape: 8 64 100 100 (5120000)
I0107 20:03:11.474510  3312 net.cpp:137] Memory required for data: 1068800032
I0107 20:03:11.474526  3312 layer_factory.hpp:77] Creating layer stage1_unit1_sc
I0107 20:03:11.474548  3312 net.cpp:84] Creating Layer stage1_unit1_sc
I0107 20:03:11.474562  3312 net.cpp:406] stage1_unit1_sc <- stage1_unit1_conv1sc
I0107 20:03:11.474581  3312 net.cpp:380] stage1_unit1_sc -> stage1_unit1_sc
I0107 20:03:11.474866  3312 net.cpp:122] Setting up stage1_unit1_sc
I0107 20:03:11.474890  3312 net.cpp:129] Top shape: 8 64 100 100 (5120000)
I0107 20:03:11.474905  3312 net.cpp:137] Memory required for data: 1089280032
I0107 20:03:11.474927  3312 layer_factory.hpp:77] Creating layer stage1_unit1_sc_scale
I0107 20:03:11.474946  3312 net.cpp:84] Creating Layer stage1_unit1_sc_scale
I0107 20:03:11.474961  3312 net.cpp:406] stage1_unit1_sc_scale <- stage1_unit1_sc
I0107 20:03:11.474979  3312 net.cpp:367] stage1_unit1_sc_scale -> stage1_unit1_sc (in-place)
I0107 20:03:11.475044  3312 layer_factory.hpp:77] Creating layer stage1_unit1_sc_scale
I0107 20:03:11.477156  3312 net.cpp:122] Setting up stage1_unit1_sc_scale
I0107 20:03:11.477282  3312 net.cpp:129] Top shape: 8 64 100 100 (5120000)
I0107 20:03:11.477315  3312 net.cpp:137] Memory required for data: 1109760032
I0107 20:03:11.477370  3312 layer_factory.hpp:77] Creating layer _plus0
I0107 20:03:11.477421  3312 net.cpp:84] Creating Layer _plus0
I0107 20:03:11.477457  3312 net.cpp:406] _plus0 <- stage1_unit1_bn3
I0107 20:03:11.477494  3312 net.cpp:406] _plus0 <- stage1_unit1_sc
I0107 20:03:11.477573  3312 net.cpp:380] _plus0 -> _plus0
I0107 20:03:11.477721  3312 net.cpp:122] Setting up _plus0
I0107 20:03:11.477754  3312 net.cpp:129] Top shape: 8 64 100 100 (5120000)
I0107 20:03:11.477774  3312 net.cpp:137] Memory required for data: 1130240032
I0107 20:03:11.477795  3312 layer_factory.hpp:77] Creating layer _plus0__plus0_0_split
I0107 20:03:11.477823  3312 net.cpp:84] Creating Layer _plus0__plus0_0_split
I0107 20:03:11.477845  3312 net.cpp:406] _plus0__plus0_0_split <- _plus0
I0107 20:03:11.477874  3312 net.cpp:380] _plus0__plus0_0_split -> _plus0__plus0_0_split_0
I0107 20:03:11.477913  3312 net.cpp:380] _plus0__plus0_0_split -> _plus0__plus0_0_split_1
I0107 20:03:11.478009  3312 net.cpp:122] Setting up _plus0__plus0_0_split
I0107 20:03:11.478041  3312 net.cpp:129] Top shape: 8 64 100 100 (5120000)
I0107 20:03:11.478066  3312 net.cpp:129] Top shape: 8 64 100 100 (5120000)
I0107 20:03:11.478085  3312 net.cpp:137] Memory required for data: 1171200032
I0107 20:03:11.478106  3312 layer_factory.hpp:77] Creating layer stage1_unit2_bn1
I0107 20:03:11.478135  3312 net.cpp:84] Creating Layer stage1_unit2_bn1
I0107 20:03:11.478157  3312 net.cpp:406] stage1_unit2_bn1 <- _plus0__plus0_0_split_0
I0107 20:03:11.478180  3312 net.cpp:380] stage1_unit2_bn1 -> stage1_unit2_bn1
I0107 20:03:11.478519  3312 net.cpp:122] Setting up stage1_unit2_bn1
I0107 20:03:11.478544  3312 net.cpp:129] Top shape: 8 64 100 100 (5120000)
I0107 20:03:11.478559  3312 net.cpp:137] Memory required for data: 1191680032
I0107 20:03:11.478587  3312 layer_factory.hpp:77] Creating layer stage1_unit2_bn1_scale
I0107 20:03:11.478608  3312 net.cpp:84] Creating Layer stage1_unit2_bn1_scale
I0107 20:03:11.478623  3312 net.cpp:406] stage1_unit2_bn1_scale <- stage1_unit2_bn1
I0107 20:03:11.478641  3312 net.cpp:367] stage1_unit2_bn1_scale -> stage1_unit2_bn1 (in-place)
I0107 20:03:11.478713  3312 layer_factory.hpp:77] Creating layer stage1_unit2_bn1_scale
I0107 20:03:11.478916  3312 net.cpp:122] Setting up stage1_unit2_bn1_scale
I0107 20:03:11.478940  3312 net.cpp:129] Top shape: 8 64 100 100 (5120000)
I0107 20:03:11.478953  3312 net.cpp:137] Memory required for data: 1212160032
I0107 20:03:11.478981  3312 layer_factory.hpp:77] Creating layer stage1_unit2_conv1
I0107 20:03:11.479008  3312 net.cpp:84] Creating Layer stage1_unit2_conv1
I0107 20:03:11.479023  3312 net.cpp:406] stage1_unit2_conv1 <- stage1_unit2_bn1
I0107 20:03:11.479043  3312 net.cpp:380] stage1_unit2_conv1 -> stage1_unit2_conv1
I0107 20:03:11.479974  3312 net.cpp:122] Setting up stage1_unit2_conv1
I0107 20:03:11.480005  3312 net.cpp:129] Top shape: 8 64 100 100 (5120000)
I0107 20:03:11.480020  3312 net.cpp:137] Memory required for data: 1232640032
I0107 20:03:11.480036  3312 layer_factory.hpp:77] Creating layer stage1_unit2_bn2
I0107 20:03:11.480056  3312 net.cpp:84] Creating Layer stage1_unit2_bn2
I0107 20:03:11.480070  3312 net.cpp:406] stage1_unit2_bn2 <- stage1_unit2_conv1
I0107 20:03:11.480087  3312 net.cpp:380] stage1_unit2_bn2 -> stage1_unit2_bn2
I0107 20:03:11.480374  3312 net.cpp:122] Setting up stage1_unit2_bn2
I0107 20:03:11.480398  3312 net.cpp:129] Top shape: 8 64 100 100 (5120000)
I0107 20:03:11.480412  3312 net.cpp:137] Memory required for data: 1253120032
I0107 20:03:11.480432  3312 layer_factory.hpp:77] Creating layer stage1_unit2_bn2_scale
I0107 20:03:11.480454  3312 net.cpp:84] Creating Layer stage1_unit2_bn2_scale
I0107 20:03:11.480468  3312 net.cpp:406] stage1_unit2_bn2_scale <- stage1_unit2_bn2
I0107 20:03:11.480484  3312 net.cpp:367] stage1_unit2_bn2_scale -> stage1_unit2_bn2 (in-place)
I0107 20:03:11.480547  3312 layer_factory.hpp:77] Creating layer stage1_unit2_bn2_scale
I0107 20:03:11.480746  3312 net.cpp:122] Setting up stage1_unit2_bn2_scale
I0107 20:03:11.480768  3312 net.cpp:129] Top shape: 8 64 100 100 (5120000)
I0107 20:03:11.480782  3312 net.cpp:137] Memory required for data: 1273600032
I0107 20:03:11.480800  3312 layer_factory.hpp:77] Creating layer stage1_unit2_relu1
I0107 20:03:11.480818  3312 net.cpp:84] Creating Layer stage1_unit2_relu1
I0107 20:03:11.480852  3312 net.cpp:406] stage1_unit2_relu1 <- stage1_unit2_bn2
I0107 20:03:11.480870  3312 net.cpp:380] stage1_unit2_relu1 -> stage1_unit2_relu1
I0107 20:03:11.481482  3312 net.cpp:122] Setting up stage1_unit2_relu1
I0107 20:03:11.481519  3312 net.cpp:129] Top shape: 8 64 100 100 (5120000)
I0107 20:03:11.481535  3312 net.cpp:137] Memory required for data: 1294080032
I0107 20:03:11.481550  3312 layer_factory.hpp:77] Creating layer stage1_unit2_conv2
I0107 20:03:11.481576  3312 net.cpp:84] Creating Layer stage1_unit2_conv2
I0107 20:03:11.481592  3312 net.cpp:406] stage1_unit2_conv2 <- stage1_unit2_relu1
I0107 20:03:11.481611  3312 net.cpp:380] stage1_unit2_conv2 -> stage1_unit2_conv2
I0107 20:03:11.482529  3312 net.cpp:122] Setting up stage1_unit2_conv2
I0107 20:03:11.482558  3312 net.cpp:129] Top shape: 8 64 100 100 (5120000)
I0107 20:03:11.482570  3312 net.cpp:137] Memory required for data: 1314560032
I0107 20:03:11.482589  3312 layer_factory.hpp:77] Creating layer stage1_unit2_bn3
I0107 20:03:11.482609  3312 net.cpp:84] Creating Layer stage1_unit2_bn3
I0107 20:03:11.482625  3312 net.cpp:406] stage1_unit2_bn3 <- stage1_unit2_conv2
I0107 20:03:11.482642  3312 net.cpp:380] stage1_unit2_bn3 -> stage1_unit2_bn3
I0107 20:03:11.482947  3312 net.cpp:122] Setting up stage1_unit2_bn3
I0107 20:03:11.482970  3312 net.cpp:129] Top shape: 8 64 100 100 (5120000)
I0107 20:03:11.482985  3312 net.cpp:137] Memory required for data: 1335040032
I0107 20:03:11.483008  3312 layer_factory.hpp:77] Creating layer stage1_unit2_bn3_scale
I0107 20:03:11.483029  3312 net.cpp:84] Creating Layer stage1_unit2_bn3_scale
I0107 20:03:11.483043  3312 net.cpp:406] stage1_unit2_bn3_scale <- stage1_unit2_bn3
I0107 20:03:11.483060  3312 net.cpp:367] stage1_unit2_bn3_scale -> stage1_unit2_bn3 (in-place)
I0107 20:03:11.483132  3312 layer_factory.hpp:77] Creating layer stage1_unit2_bn3_scale
I0107 20:03:11.483325  3312 net.cpp:122] Setting up stage1_unit2_bn3_scale
I0107 20:03:11.483347  3312 net.cpp:129] Top shape: 8 64 100 100 (5120000)
I0107 20:03:11.483361  3312 net.cpp:137] Memory required for data: 1355520032
I0107 20:03:11.483379  3312 layer_factory.hpp:77] Creating layer _plus1
I0107 20:03:11.483399  3312 net.cpp:84] Creating Layer _plus1
I0107 20:03:11.483413  3312 net.cpp:406] _plus1 <- stage1_unit2_bn3
I0107 20:03:11.483430  3312 net.cpp:406] _plus1 <- _plus0__plus0_0_split_1
I0107 20:03:11.483448  3312 net.cpp:380] _plus1 -> _plus1
I0107 20:03:11.483494  3312 net.cpp:122] Setting up _plus1
I0107 20:03:11.483513  3312 net.cpp:129] Top shape: 8 64 100 100 (5120000)
I0107 20:03:11.483527  3312 net.cpp:137] Memory required for data: 1376000032
I0107 20:03:11.483541  3312 layer_factory.hpp:77] Creating layer _plus1__plus1_0_split
I0107 20:03:11.483557  3312 net.cpp:84] Creating Layer _plus1__plus1_0_split
I0107 20:03:11.483572  3312 net.cpp:406] _plus1__plus1_0_split <- _plus1
I0107 20:03:11.483588  3312 net.cpp:380] _plus1__plus1_0_split -> _plus1__plus1_0_split_0
I0107 20:03:11.483608  3312 net.cpp:380] _plus1__plus1_0_split -> _plus1__plus1_0_split_1
I0107 20:03:11.483664  3312 net.cpp:122] Setting up _plus1__plus1_0_split
I0107 20:03:11.483685  3312 net.cpp:129] Top shape: 8 64 100 100 (5120000)
I0107 20:03:11.483701  3312 net.cpp:129] Top shape: 8 64 100 100 (5120000)
I0107 20:03:11.483714  3312 net.cpp:137] Memory required for data: 1416960032
I0107 20:03:11.483729  3312 layer_factory.hpp:77] Creating layer stage2_unit1_bn1
I0107 20:03:11.483747  3312 net.cpp:84] Creating Layer stage2_unit1_bn1
I0107 20:03:11.483762  3312 net.cpp:406] stage2_unit1_bn1 <- _plus1__plus1_0_split_0
I0107 20:03:11.483779  3312 net.cpp:380] stage2_unit1_bn1 -> stage2_unit1_bn1
I0107 20:03:11.484078  3312 net.cpp:122] Setting up stage2_unit1_bn1
I0107 20:03:11.484107  3312 net.cpp:129] Top shape: 8 64 100 100 (5120000)
I0107 20:03:11.484123  3312 net.cpp:137] Memory required for data: 1437440032
I0107 20:03:11.484143  3312 layer_factory.hpp:77] Creating layer stage2_unit1_bn1_scale
I0107 20:03:11.484166  3312 net.cpp:84] Creating Layer stage2_unit1_bn1_scale
I0107 20:03:11.484220  3312 net.cpp:406] stage2_unit1_bn1_scale <- stage2_unit1_bn1
I0107 20:03:11.484239  3312 net.cpp:367] stage2_unit1_bn1_scale -> stage2_unit1_bn1 (in-place)
I0107 20:03:11.484306  3312 layer_factory.hpp:77] Creating layer stage2_unit1_bn1_scale
I0107 20:03:11.484495  3312 net.cpp:122] Setting up stage2_unit1_bn1_scale
I0107 20:03:11.484519  3312 net.cpp:129] Top shape: 8 64 100 100 (5120000)
I0107 20:03:11.484532  3312 net.cpp:137] Memory required for data: 1457920032
I0107 20:03:11.484550  3312 layer_factory.hpp:77] Creating layer stage2_unit1_conv1
I0107 20:03:11.484573  3312 net.cpp:84] Creating Layer stage2_unit1_conv1
I0107 20:03:11.484588  3312 net.cpp:406] stage2_unit1_conv1 <- stage2_unit1_bn1
I0107 20:03:11.484607  3312 net.cpp:380] stage2_unit1_conv1 -> stage2_unit1_conv1
I0107 20:03:11.486186  3312 net.cpp:122] Setting up stage2_unit1_conv1
I0107 20:03:11.486215  3312 net.cpp:129] Top shape: 8 128 100 100 (10240000)
I0107 20:03:11.486230  3312 net.cpp:137] Memory required for data: 1498880032
I0107 20:03:11.486248  3312 layer_factory.hpp:77] Creating layer stage2_unit1_bn2
I0107 20:03:11.486269  3312 net.cpp:84] Creating Layer stage2_unit1_bn2
I0107 20:03:11.486284  3312 net.cpp:406] stage2_unit1_bn2 <- stage2_unit1_conv1
I0107 20:03:11.486302  3312 net.cpp:380] stage2_unit1_bn2 -> stage2_unit1_bn2
I0107 20:03:11.486588  3312 net.cpp:122] Setting up stage2_unit1_bn2
I0107 20:03:11.486609  3312 net.cpp:129] Top shape: 8 128 100 100 (10240000)
I0107 20:03:11.486624  3312 net.cpp:137] Memory required for data: 1539840032
I0107 20:03:11.486644  3312 layer_factory.hpp:77] Creating layer stage2_unit1_bn2_scale
I0107 20:03:11.486663  3312 net.cpp:84] Creating Layer stage2_unit1_bn2_scale
I0107 20:03:11.486677  3312 net.cpp:406] stage2_unit1_bn2_scale <- stage2_unit1_bn2
I0107 20:03:11.486694  3312 net.cpp:367] stage2_unit1_bn2_scale -> stage2_unit1_bn2 (in-place)
I0107 20:03:11.486759  3312 layer_factory.hpp:77] Creating layer stage2_unit1_bn2_scale
I0107 20:03:11.486938  3312 net.cpp:122] Setting up stage2_unit1_bn2_scale
I0107 20:03:11.486960  3312 net.cpp:129] Top shape: 8 128 100 100 (10240000)
I0107 20:03:11.486974  3312 net.cpp:137] Memory required for data: 1580800032
I0107 20:03:11.486991  3312 layer_factory.hpp:77] Creating layer stage2_unit1_relu1
I0107 20:03:11.487011  3312 net.cpp:84] Creating Layer stage2_unit1_relu1
I0107 20:03:11.487025  3312 net.cpp:406] stage2_unit1_relu1 <- stage2_unit1_bn2
I0107 20:03:11.487042  3312 net.cpp:380] stage2_unit1_relu1 -> stage2_unit1_relu1
I0107 20:03:11.487267  3312 net.cpp:122] Setting up stage2_unit1_relu1
I0107 20:03:11.487294  3312 net.cpp:129] Top shape: 8 128 100 100 (10240000)
I0107 20:03:11.487308  3312 net.cpp:137] Memory required for data: 1621760032
I0107 20:03:11.487323  3312 layer_factory.hpp:77] Creating layer stage2_unit1_conv2
I0107 20:03:11.487349  3312 net.cpp:84] Creating Layer stage2_unit1_conv2
I0107 20:03:11.487365  3312 net.cpp:406] stage2_unit1_conv2 <- stage2_unit1_relu1
I0107 20:03:11.487383  3312 net.cpp:380] stage2_unit1_conv2 -> stage2_unit1_conv2
I0107 20:03:11.490200  3312 net.cpp:122] Setting up stage2_unit1_conv2
I0107 20:03:11.490257  3312 net.cpp:129] Top shape: 8 128 50 50 (2560000)
I0107 20:03:11.490272  3312 net.cpp:137] Memory required for data: 1632000032
I0107 20:03:11.490295  3312 layer_factory.hpp:77] Creating layer stage2_unit1_bn3
I0107 20:03:11.490319  3312 net.cpp:84] Creating Layer stage2_unit1_bn3
I0107 20:03:11.490335  3312 net.cpp:406] stage2_unit1_bn3 <- stage2_unit1_conv2
I0107 20:03:11.490357  3312 net.cpp:380] stage2_unit1_bn3 -> stage2_unit1_bn3
I0107 20:03:11.490676  3312 net.cpp:122] Setting up stage2_unit1_bn3
I0107 20:03:11.490705  3312 net.cpp:129] Top shape: 8 128 50 50 (2560000)
I0107 20:03:11.490717  3312 net.cpp:137] Memory required for data: 1642240032
I0107 20:03:11.490744  3312 layer_factory.hpp:77] Creating layer stage2_unit1_bn3_scale
I0107 20:03:11.490769  3312 net.cpp:84] Creating Layer stage2_unit1_bn3_scale
I0107 20:03:11.490784  3312 net.cpp:406] stage2_unit1_bn3_scale <- stage2_unit1_bn3
I0107 20:03:11.490854  3312 net.cpp:367] stage2_unit1_bn3_scale -> stage2_unit1_bn3 (in-place)
I0107 20:03:11.490960  3312 layer_factory.hpp:77] Creating layer stage2_unit1_bn3_scale
I0107 20:03:11.491135  3312 net.cpp:122] Setting up stage2_unit1_bn3_scale
I0107 20:03:11.491156  3312 net.cpp:129] Top shape: 8 128 50 50 (2560000)
I0107 20:03:11.491170  3312 net.cpp:137] Memory required for data: 1652480032
I0107 20:03:11.491189  3312 layer_factory.hpp:77] Creating layer stage2_unit1_conv1sc
I0107 20:03:11.491212  3312 net.cpp:84] Creating Layer stage2_unit1_conv1sc
I0107 20:03:11.491228  3312 net.cpp:406] stage2_unit1_conv1sc <- _plus1__plus1_0_split_1
I0107 20:03:11.491246  3312 net.cpp:380] stage2_unit1_conv1sc -> stage2_unit1_conv1sc
I0107 20:03:11.491649  3312 net.cpp:122] Setting up stage2_unit1_conv1sc
I0107 20:03:11.491672  3312 net.cpp:129] Top shape: 8 128 50 50 (2560000)
I0107 20:03:11.491685  3312 net.cpp:137] Memory required for data: 1662720032
I0107 20:03:11.491703  3312 layer_factory.hpp:77] Creating layer stage2_unit1_sc
I0107 20:03:11.491725  3312 net.cpp:84] Creating Layer stage2_unit1_sc
I0107 20:03:11.491739  3312 net.cpp:406] stage2_unit1_sc <- stage2_unit1_conv1sc
I0107 20:03:11.491757  3312 net.cpp:380] stage2_unit1_sc -> stage2_unit1_sc
I0107 20:03:11.492038  3312 net.cpp:122] Setting up stage2_unit1_sc
I0107 20:03:11.492065  3312 net.cpp:129] Top shape: 8 128 50 50 (2560000)
I0107 20:03:11.492079  3312 net.cpp:137] Memory required for data: 1672960032
I0107 20:03:11.492110  3312 layer_factory.hpp:77] Creating layer stage2_unit1_sc_scale
I0107 20:03:11.492130  3312 net.cpp:84] Creating Layer stage2_unit1_sc_scale
I0107 20:03:11.492146  3312 net.cpp:406] stage2_unit1_sc_scale <- stage2_unit1_sc
I0107 20:03:11.492162  3312 net.cpp:367] stage2_unit1_sc_scale -> stage2_unit1_sc (in-place)
I0107 20:03:11.492228  3312 layer_factory.hpp:77] Creating layer stage2_unit1_sc_scale
I0107 20:03:11.492388  3312 net.cpp:122] Setting up stage2_unit1_sc_scale
I0107 20:03:11.492411  3312 net.cpp:129] Top shape: 8 128 50 50 (2560000)
I0107 20:03:11.492424  3312 net.cpp:137] Memory required for data: 1683200032
I0107 20:03:11.492442  3312 layer_factory.hpp:77] Creating layer _plus2
I0107 20:03:11.492461  3312 net.cpp:84] Creating Layer _plus2
I0107 20:03:11.492475  3312 net.cpp:406] _plus2 <- stage2_unit1_bn3
I0107 20:03:11.492491  3312 net.cpp:406] _plus2 <- stage2_unit1_sc
I0107 20:03:11.492508  3312 net.cpp:380] _plus2 -> _plus2
I0107 20:03:11.492552  3312 net.cpp:122] Setting up _plus2
I0107 20:03:11.492573  3312 net.cpp:129] Top shape: 8 128 50 50 (2560000)
I0107 20:03:11.492586  3312 net.cpp:137] Memory required for data: 1693440032
I0107 20:03:11.492599  3312 layer_factory.hpp:77] Creating layer _plus2__plus2_0_split
I0107 20:03:11.492617  3312 net.cpp:84] Creating Layer _plus2__plus2_0_split
I0107 20:03:11.492631  3312 net.cpp:406] _plus2__plus2_0_split <- _plus2
I0107 20:03:11.492647  3312 net.cpp:380] _plus2__plus2_0_split -> _plus2__plus2_0_split_0
I0107 20:03:11.492666  3312 net.cpp:380] _plus2__plus2_0_split -> _plus2__plus2_0_split_1
I0107 20:03:11.492723  3312 net.cpp:122] Setting up _plus2__plus2_0_split
I0107 20:03:11.492743  3312 net.cpp:129] Top shape: 8 128 50 50 (2560000)
I0107 20:03:11.492759  3312 net.cpp:129] Top shape: 8 128 50 50 (2560000)
I0107 20:03:11.492771  3312 net.cpp:137] Memory required for data: 1713920032
I0107 20:03:11.492787  3312 layer_factory.hpp:77] Creating layer stage2_unit2_bn1
I0107 20:03:11.492805  3312 net.cpp:84] Creating Layer stage2_unit2_bn1
I0107 20:03:11.492820  3312 net.cpp:406] stage2_unit2_bn1 <- _plus2__plus2_0_split_0
I0107 20:03:11.492836  3312 net.cpp:380] stage2_unit2_bn1 -> stage2_unit2_bn1
I0107 20:03:11.493101  3312 net.cpp:122] Setting up stage2_unit2_bn1
I0107 20:03:11.493124  3312 net.cpp:129] Top shape: 8 128 50 50 (2560000)
I0107 20:03:11.493137  3312 net.cpp:137] Memory required for data: 1724160032
I0107 20:03:11.493157  3312 layer_factory.hpp:77] Creating layer stage2_unit2_bn1_scale
I0107 20:03:11.493175  3312 net.cpp:84] Creating Layer stage2_unit2_bn1_scale
I0107 20:03:11.493208  3312 net.cpp:406] stage2_unit2_bn1_scale <- stage2_unit2_bn1
I0107 20:03:11.493225  3312 net.cpp:367] stage2_unit2_bn1_scale -> stage2_unit2_bn1 (in-place)
I0107 20:03:11.493288  3312 layer_factory.hpp:77] Creating layer stage2_unit2_bn1_scale
I0107 20:03:11.493444  3312 net.cpp:122] Setting up stage2_unit2_bn1_scale
I0107 20:03:11.493466  3312 net.cpp:129] Top shape: 8 128 50 50 (2560000)
I0107 20:03:11.493480  3312 net.cpp:137] Memory required for data: 1734400032
I0107 20:03:11.493499  3312 layer_factory.hpp:77] Creating layer stage2_unit2_conv1
I0107 20:03:11.493520  3312 net.cpp:84] Creating Layer stage2_unit2_conv1
I0107 20:03:11.493535  3312 net.cpp:406] stage2_unit2_conv1 <- stage2_unit2_bn1
I0107 20:03:11.493553  3312 net.cpp:380] stage2_unit2_conv1 -> stage2_unit2_conv1
I0107 20:03:11.498157  3312 net.cpp:122] Setting up stage2_unit2_conv1
I0107 20:03:11.498231  3312 net.cpp:129] Top shape: 8 128 50 50 (2560000)
I0107 20:03:11.498250  3312 net.cpp:137] Memory required for data: 1744640032
I0107 20:03:11.498278  3312 layer_factory.hpp:77] Creating layer stage2_unit2_bn2
I0107 20:03:11.498306  3312 net.cpp:84] Creating Layer stage2_unit2_bn2
I0107 20:03:11.498323  3312 net.cpp:406] stage2_unit2_bn2 <- stage2_unit2_conv1
I0107 20:03:11.498347  3312 net.cpp:380] stage2_unit2_bn2 -> stage2_unit2_bn2
I0107 20:03:11.498657  3312 net.cpp:122] Setting up stage2_unit2_bn2
I0107 20:03:11.498682  3312 net.cpp:129] Top shape: 8 128 50 50 (2560000)
I0107 20:03:11.498695  3312 net.cpp:137] Memory required for data: 1754880032
I0107 20:03:11.498718  3312 layer_factory.hpp:77] Creating layer stage2_unit2_bn2_scale
I0107 20:03:11.498739  3312 net.cpp:84] Creating Layer stage2_unit2_bn2_scale
I0107 20:03:11.498752  3312 net.cpp:406] stage2_unit2_bn2_scale <- stage2_unit2_bn2
I0107 20:03:11.498769  3312 net.cpp:367] stage2_unit2_bn2_scale -> stage2_unit2_bn2 (in-place)
I0107 20:03:11.498844  3312 layer_factory.hpp:77] Creating layer stage2_unit2_bn2_scale
I0107 20:03:11.499007  3312 net.cpp:122] Setting up stage2_unit2_bn2_scale
I0107 20:03:11.499029  3312 net.cpp:129] Top shape: 8 128 50 50 (2560000)
I0107 20:03:11.499043  3312 net.cpp:137] Memory required for data: 1765120032
I0107 20:03:11.499061  3312 layer_factory.hpp:77] Creating layer stage2_unit2_relu1
I0107 20:03:11.499080  3312 net.cpp:84] Creating Layer stage2_unit2_relu1
I0107 20:03:11.499094  3312 net.cpp:406] stage2_unit2_relu1 <- stage2_unit2_bn2
I0107 20:03:11.499111  3312 net.cpp:380] stage2_unit2_relu1 -> stage2_unit2_relu1
I0107 20:03:11.499738  3312 net.cpp:122] Setting up stage2_unit2_relu1
I0107 20:03:11.499773  3312 net.cpp:129] Top shape: 8 128 50 50 (2560000)
I0107 20:03:11.499789  3312 net.cpp:137] Memory required for data: 1775360032
I0107 20:03:11.499804  3312 layer_factory.hpp:77] Creating layer stage2_unit2_conv2
I0107 20:03:11.499830  3312 net.cpp:84] Creating Layer stage2_unit2_conv2
I0107 20:03:11.499845  3312 net.cpp:406] stage2_unit2_conv2 <- stage2_unit2_relu1
I0107 20:03:11.499866  3312 net.cpp:380] stage2_unit2_conv2 -> stage2_unit2_conv2
I0107 20:03:11.503278  3312 net.cpp:122] Setting up stage2_unit2_conv2
I0107 20:03:11.503391  3312 net.cpp:129] Top shape: 8 128 50 50 (2560000)
I0107 20:03:11.503412  3312 net.cpp:137] Memory required for data: 1785600032
I0107 20:03:11.503451  3312 layer_factory.hpp:77] Creating layer stage2_unit2_bn3
I0107 20:03:11.503485  3312 net.cpp:84] Creating Layer stage2_unit2_bn3
I0107 20:03:11.503507  3312 net.cpp:406] stage2_unit2_bn3 <- stage2_unit2_conv2
I0107 20:03:11.503535  3312 net.cpp:380] stage2_unit2_bn3 -> stage2_unit2_bn3
I0107 20:03:11.503876  3312 net.cpp:122] Setting up stage2_unit2_bn3
I0107 20:03:11.503916  3312 net.cpp:129] Top shape: 8 128 50 50 (2560000)
I0107 20:03:11.503937  3312 net.cpp:137] Memory required for data: 1795840032
I0107 20:03:11.503962  3312 layer_factory.hpp:77] Creating layer stage2_unit2_bn3_scale
I0107 20:03:11.503988  3312 net.cpp:84] Creating Layer stage2_unit2_bn3_scale
I0107 20:03:11.504006  3312 net.cpp:406] stage2_unit2_bn3_scale <- stage2_unit2_bn3
I0107 20:03:11.504051  3312 net.cpp:367] stage2_unit2_bn3_scale -> stage2_unit2_bn3 (in-place)
I0107 20:03:11.504140  3312 layer_factory.hpp:77] Creating layer stage2_unit2_bn3_scale
I0107 20:03:11.504320  3312 net.cpp:122] Setting up stage2_unit2_bn3_scale
I0107 20:03:11.504346  3312 net.cpp:129] Top shape: 8 128 50 50 (2560000)
I0107 20:03:11.504364  3312 net.cpp:137] Memory required for data: 1806080032
I0107 20:03:11.504384  3312 layer_factory.hpp:77] Creating layer _plus3
I0107 20:03:11.504407  3312 net.cpp:84] Creating Layer _plus3
I0107 20:03:11.504426  3312 net.cpp:406] _plus3 <- stage2_unit2_bn3
I0107 20:03:11.504444  3312 net.cpp:406] _plus3 <- _plus2__plus2_0_split_1
I0107 20:03:11.504465  3312 net.cpp:380] _plus3 -> _plus3
I0107 20:03:11.504518  3312 net.cpp:122] Setting up _plus3
I0107 20:03:11.504542  3312 net.cpp:129] Top shape: 8 128 50 50 (2560000)
I0107 20:03:11.504559  3312 net.cpp:137] Memory required for data: 1816320032
I0107 20:03:11.504575  3312 layer_factory.hpp:77] Creating layer _plus3__plus3_0_split
I0107 20:03:11.504611  3312 net.cpp:84] Creating Layer _plus3__plus3_0_split
I0107 20:03:11.504640  3312 net.cpp:406] _plus3__plus3_0_split <- _plus3
I0107 20:03:11.504681  3312 net.cpp:380] _plus3__plus3_0_split -> _plus3__plus3_0_split_0
I0107 20:03:11.504726  3312 net.cpp:380] _plus3__plus3_0_split -> _plus3__plus3_0_split_1
I0107 20:03:11.504860  3312 net.cpp:122] Setting up _plus3__plus3_0_split
I0107 20:03:11.504906  3312 net.cpp:129] Top shape: 8 128 50 50 (2560000)
I0107 20:03:11.504948  3312 net.cpp:129] Top shape: 8 128 50 50 (2560000)
I0107 20:03:11.504986  3312 net.cpp:137] Memory required for data: 1836800032
I0107 20:03:11.505018  3312 layer_factory.hpp:77] Creating layer stage3_unit1_bn1
I0107 20:03:11.505061  3312 net.cpp:84] Creating Layer stage3_unit1_bn1
I0107 20:03:11.505096  3312 net.cpp:406] stage3_unit1_bn1 <- _plus3__plus3_0_split_0
I0107 20:03:11.505136  3312 net.cpp:380] stage3_unit1_bn1 -> stage3_unit1_bn1
I0107 20:03:11.505713  3312 net.cpp:122] Setting up stage3_unit1_bn1
I0107 20:03:11.505759  3312 net.cpp:129] Top shape: 8 128 50 50 (2560000)
I0107 20:03:11.505791  3312 net.cpp:137] Memory required for data: 1847040032
I0107 20:03:11.505836  3312 layer_factory.hpp:77] Creating layer stage3_unit1_bn1_scale
I0107 20:03:11.505872  3312 net.cpp:84] Creating Layer stage3_unit1_bn1_scale
I0107 20:03:11.505898  3312 net.cpp:406] stage3_unit1_bn1_scale <- stage3_unit1_bn1
I0107 20:03:11.505935  3312 net.cpp:367] stage3_unit1_bn1_scale -> stage3_unit1_bn1 (in-place)
I0107 20:03:11.506078  3312 layer_factory.hpp:77] Creating layer stage3_unit1_bn1_scale
I0107 20:03:11.506415  3312 net.cpp:122] Setting up stage3_unit1_bn1_scale
I0107 20:03:11.506454  3312 net.cpp:129] Top shape: 8 128 50 50 (2560000)
I0107 20:03:11.506472  3312 net.cpp:137] Memory required for data: 1857280032
I0107 20:03:11.506494  3312 layer_factory.hpp:77] Creating layer stage3_unit1_conv1
I0107 20:03:11.506526  3312 net.cpp:84] Creating Layer stage3_unit1_conv1
I0107 20:03:11.506544  3312 net.cpp:406] stage3_unit1_conv1 <- stage3_unit1_bn1
I0107 20:03:11.506566  3312 net.cpp:380] stage3_unit1_conv1 -> stage3_unit1_conv1
I0107 20:03:11.513746  3312 net.cpp:122] Setting up stage3_unit1_conv1
I0107 20:03:11.513834  3312 net.cpp:129] Top shape: 8 256 50 50 (5120000)
I0107 20:03:11.513850  3312 net.cpp:137] Memory required for data: 1877760032
I0107 20:03:11.513877  3312 layer_factory.hpp:77] Creating layer stage3_unit1_bn2
I0107 20:03:11.513906  3312 net.cpp:84] Creating Layer stage3_unit1_bn2
I0107 20:03:11.513922  3312 net.cpp:406] stage3_unit1_bn2 <- stage3_unit1_conv1
I0107 20:03:11.513943  3312 net.cpp:380] stage3_unit1_bn2 -> stage3_unit1_bn2
I0107 20:03:11.514246  3312 net.cpp:122] Setting up stage3_unit1_bn2
I0107 20:03:11.514273  3312 net.cpp:129] Top shape: 8 256 50 50 (5120000)
I0107 20:03:11.514287  3312 net.cpp:137] Memory required for data: 1898240032
I0107 20:03:11.514307  3312 layer_factory.hpp:77] Creating layer stage3_unit1_bn2_scale
I0107 20:03:11.514348  3312 net.cpp:84] Creating Layer stage3_unit1_bn2_scale
I0107 20:03:11.514362  3312 net.cpp:406] stage3_unit1_bn2_scale <- stage3_unit1_bn2
I0107 20:03:11.514379  3312 net.cpp:367] stage3_unit1_bn2_scale -> stage3_unit1_bn2 (in-place)
I0107 20:03:11.514461  3312 layer_factory.hpp:77] Creating layer stage3_unit1_bn2_scale
I0107 20:03:11.514631  3312 net.cpp:122] Setting up stage3_unit1_bn2_scale
I0107 20:03:11.514652  3312 net.cpp:129] Top shape: 8 256 50 50 (5120000)
I0107 20:03:11.514665  3312 net.cpp:137] Memory required for data: 1918720032
I0107 20:03:11.514683  3312 layer_factory.hpp:77] Creating layer stage3_unit1_relu1
I0107 20:03:11.514703  3312 net.cpp:84] Creating Layer stage3_unit1_relu1
I0107 20:03:11.514717  3312 net.cpp:406] stage3_unit1_relu1 <- stage3_unit1_bn2
I0107 20:03:11.514735  3312 net.cpp:380] stage3_unit1_relu1 -> stage3_unit1_relu1
I0107 20:03:11.514958  3312 net.cpp:122] Setting up stage3_unit1_relu1
I0107 20:03:11.514984  3312 net.cpp:129] Top shape: 8 256 50 50 (5120000)
I0107 20:03:11.514998  3312 net.cpp:137] Memory required for data: 1939200032
I0107 20:03:11.515014  3312 layer_factory.hpp:77] Creating layer stage3_unit1_conv2
I0107 20:03:11.515041  3312 net.cpp:84] Creating Layer stage3_unit1_conv2
I0107 20:03:11.515056  3312 net.cpp:406] stage3_unit1_conv2 <- stage3_unit1_relu1
I0107 20:03:11.515075  3312 net.cpp:380] stage3_unit1_conv2 -> stage3_unit1_conv2
I0107 20:03:11.527873  3312 net.cpp:122] Setting up stage3_unit1_conv2
I0107 20:03:11.528012  3312 net.cpp:129] Top shape: 8 256 25 25 (1280000)
I0107 20:03:11.528031  3312 net.cpp:137] Memory required for data: 1944320032
I0107 20:03:11.528061  3312 layer_factory.hpp:77] Creating layer stage3_unit1_bn3
I0107 20:03:11.528091  3312 net.cpp:84] Creating Layer stage3_unit1_bn3
I0107 20:03:11.528110  3312 net.cpp:406] stage3_unit1_bn3 <- stage3_unit1_conv2
I0107 20:03:11.528137  3312 net.cpp:380] stage3_unit1_bn3 -> stage3_unit1_bn3
I0107 20:03:11.528455  3312 net.cpp:122] Setting up stage3_unit1_bn3
I0107 20:03:11.528483  3312 net.cpp:129] Top shape: 8 256 25 25 (1280000)
I0107 20:03:11.528497  3312 net.cpp:137] Memory required for data: 1949440032
I0107 20:03:11.528522  3312 layer_factory.hpp:77] Creating layer stage3_unit1_bn3_scale
I0107 20:03:11.528550  3312 net.cpp:84] Creating Layer stage3_unit1_bn3_scale
I0107 20:03:11.528566  3312 net.cpp:406] stage3_unit1_bn3_scale <- stage3_unit1_bn3
I0107 20:03:11.528584  3312 net.cpp:367] stage3_unit1_bn3_scale -> stage3_unit1_bn3 (in-place)
I0107 20:03:11.528667  3312 layer_factory.hpp:77] Creating layer stage3_unit1_bn3_scale
I0107 20:03:11.528831  3312 net.cpp:122] Setting up stage3_unit1_bn3_scale
I0107 20:03:11.528851  3312 net.cpp:129] Top shape: 8 256 25 25 (1280000)
I0107 20:03:11.528864  3312 net.cpp:137] Memory required for data: 1954560032
I0107 20:03:11.528885  3312 layer_factory.hpp:77] Creating layer stage3_unit1_conv1sc
I0107 20:03:11.528913  3312 net.cpp:84] Creating Layer stage3_unit1_conv1sc
I0107 20:03:11.528929  3312 net.cpp:406] stage3_unit1_conv1sc <- _plus3__plus3_0_split_1
I0107 20:03:11.528950  3312 net.cpp:380] stage3_unit1_conv1sc -> stage3_unit1_conv1sc
I0107 20:03:11.529815  3312 net.cpp:122] Setting up stage3_unit1_conv1sc
I0107 20:03:11.529857  3312 net.cpp:129] Top shape: 8 256 25 25 (1280000)
I0107 20:03:11.529870  3312 net.cpp:137] Memory required for data: 1959680032
I0107 20:03:11.529893  3312 layer_factory.hpp:77] Creating layer stage3_unit1_sc
I0107 20:03:11.529914  3312 net.cpp:84] Creating Layer stage3_unit1_sc
I0107 20:03:11.529929  3312 net.cpp:406] stage3_unit1_sc <- stage3_unit1_conv1sc
I0107 20:03:11.529947  3312 net.cpp:380] stage3_unit1_sc -> stage3_unit1_sc
I0107 20:03:11.530243  3312 net.cpp:122] Setting up stage3_unit1_sc
I0107 20:03:11.530269  3312 net.cpp:129] Top shape: 8 256 25 25 (1280000)
I0107 20:03:11.530282  3312 net.cpp:137] Memory required for data: 1964800032
I0107 20:03:11.530304  3312 layer_factory.hpp:77] Creating layer stage3_unit1_sc_scale
I0107 20:03:11.530324  3312 net.cpp:84] Creating Layer stage3_unit1_sc_scale
I0107 20:03:11.530361  3312 net.cpp:406] stage3_unit1_sc_scale <- stage3_unit1_sc
I0107 20:03:11.530378  3312 net.cpp:367] stage3_unit1_sc_scale -> stage3_unit1_sc (in-place)
I0107 20:03:11.530452  3312 layer_factory.hpp:77] Creating layer stage3_unit1_sc_scale
I0107 20:03:11.530616  3312 net.cpp:122] Setting up stage3_unit1_sc_scale
I0107 20:03:11.530637  3312 net.cpp:129] Top shape: 8 256 25 25 (1280000)
I0107 20:03:11.530650  3312 net.cpp:137] Memory required for data: 1969920032
I0107 20:03:11.530668  3312 layer_factory.hpp:77] Creating layer _plus4
I0107 20:03:11.530688  3312 net.cpp:84] Creating Layer _plus4
I0107 20:03:11.530702  3312 net.cpp:406] _plus4 <- stage3_unit1_bn3
I0107 20:03:11.530719  3312 net.cpp:406] _plus4 <- stage3_unit1_sc
I0107 20:03:11.530737  3312 net.cpp:380] _plus4 -> _plus4
I0107 20:03:11.530786  3312 net.cpp:122] Setting up _plus4
I0107 20:03:11.530805  3312 net.cpp:129] Top shape: 8 256 25 25 (1280000)
I0107 20:03:11.530818  3312 net.cpp:137] Memory required for data: 1975040032
I0107 20:03:11.530833  3312 layer_factory.hpp:77] Creating layer _plus4__plus4_0_split
I0107 20:03:11.530851  3312 net.cpp:84] Creating Layer _plus4__plus4_0_split
I0107 20:03:11.530865  3312 net.cpp:406] _plus4__plus4_0_split <- _plus4
I0107 20:03:11.530885  3312 net.cpp:380] _plus4__plus4_0_split -> _plus4__plus4_0_split_0
I0107 20:03:11.530905  3312 net.cpp:380] _plus4__plus4_0_split -> _plus4__plus4_0_split_1
I0107 20:03:11.530961  3312 net.cpp:122] Setting up _plus4__plus4_0_split
I0107 20:03:11.530980  3312 net.cpp:129] Top shape: 8 256 25 25 (1280000)
I0107 20:03:11.530997  3312 net.cpp:129] Top shape: 8 256 25 25 (1280000)
I0107 20:03:11.531009  3312 net.cpp:137] Memory required for data: 1985280032
I0107 20:03:11.531023  3312 layer_factory.hpp:77] Creating layer stage3_unit2_bn1
I0107 20:03:11.531044  3312 net.cpp:84] Creating Layer stage3_unit2_bn1
I0107 20:03:11.531057  3312 net.cpp:406] stage3_unit2_bn1 <- _plus4__plus4_0_split_0
I0107 20:03:11.531074  3312 net.cpp:380] stage3_unit2_bn1 -> stage3_unit2_bn1
I0107 20:03:11.531327  3312 net.cpp:122] Setting up stage3_unit2_bn1
I0107 20:03:11.531348  3312 net.cpp:129] Top shape: 8 256 25 25 (1280000)
I0107 20:03:11.531363  3312 net.cpp:137] Memory required for data: 1990400032
I0107 20:03:11.531383  3312 layer_factory.hpp:77] Creating layer stage3_unit2_bn1_scale
I0107 20:03:11.531404  3312 net.cpp:84] Creating Layer stage3_unit2_bn1_scale
I0107 20:03:11.531419  3312 net.cpp:406] stage3_unit2_bn1_scale <- stage3_unit2_bn1
I0107 20:03:11.531433  3312 net.cpp:367] stage3_unit2_bn1_scale -> stage3_unit2_bn1 (in-place)
I0107 20:03:11.531500  3312 layer_factory.hpp:77] Creating layer stage3_unit2_bn1_scale
I0107 20:03:11.531657  3312 net.cpp:122] Setting up stage3_unit2_bn1_scale
I0107 20:03:11.531678  3312 net.cpp:129] Top shape: 8 256 25 25 (1280000)
I0107 20:03:11.531692  3312 net.cpp:137] Memory required for data: 1995520032
I0107 20:03:11.531709  3312 layer_factory.hpp:77] Creating layer stage3_unit2_conv1
I0107 20:03:11.531739  3312 net.cpp:84] Creating Layer stage3_unit2_conv1
I0107 20:03:11.531754  3312 net.cpp:406] stage3_unit2_conv1 <- stage3_unit2_bn1
I0107 20:03:11.531778  3312 net.cpp:380] stage3_unit2_conv1 -> stage3_unit2_conv1
I0107 20:03:11.544042  3312 net.cpp:122] Setting up stage3_unit2_conv1
I0107 20:03:11.544121  3312 net.cpp:129] Top shape: 8 256 25 25 (1280000)
I0107 20:03:11.544138  3312 net.cpp:137] Memory required for data: 2000640032
I0107 20:03:11.544163  3312 layer_factory.hpp:77] Creating layer stage3_unit2_bn2
I0107 20:03:11.544189  3312 net.cpp:84] Creating Layer stage3_unit2_bn2
I0107 20:03:11.544207  3312 net.cpp:406] stage3_unit2_bn2 <- stage3_unit2_conv1
I0107 20:03:11.544231  3312 net.cpp:380] stage3_unit2_bn2 -> stage3_unit2_bn2
I0107 20:03:11.544523  3312 net.cpp:122] Setting up stage3_unit2_bn2
I0107 20:03:11.544546  3312 net.cpp:129] Top shape: 8 256 25 25 (1280000)
I0107 20:03:11.544559  3312 net.cpp:137] Memory required for data: 2005760032
I0107 20:03:11.544580  3312 layer_factory.hpp:77] Creating layer stage3_unit2_bn2_scale
I0107 20:03:11.544621  3312 net.cpp:84] Creating Layer stage3_unit2_bn2_scale
I0107 20:03:11.544637  3312 net.cpp:406] stage3_unit2_bn2_scale <- stage3_unit2_bn2
I0107 20:03:11.544669  3312 net.cpp:367] stage3_unit2_bn2_scale -> stage3_unit2_bn2 (in-place)
I0107 20:03:11.544745  3312 layer_factory.hpp:77] Creating layer stage3_unit2_bn2_scale
I0107 20:03:11.544904  3312 net.cpp:122] Setting up stage3_unit2_bn2_scale
I0107 20:03:11.544925  3312 net.cpp:129] Top shape: 8 256 25 25 (1280000)
I0107 20:03:11.544939  3312 net.cpp:137] Memory required for data: 2010880032
I0107 20:03:11.544957  3312 layer_factory.hpp:77] Creating layer stage3_unit2_relu1
I0107 20:03:11.544975  3312 net.cpp:84] Creating Layer stage3_unit2_relu1
I0107 20:03:11.544988  3312 net.cpp:406] stage3_unit2_relu1 <- stage3_unit2_bn2
I0107 20:03:11.545007  3312 net.cpp:380] stage3_unit2_relu1 -> stage3_unit2_relu1
I0107 20:03:11.545593  3312 net.cpp:122] Setting up stage3_unit2_relu1
I0107 20:03:11.545626  3312 net.cpp:129] Top shape: 8 256 25 25 (1280000)
I0107 20:03:11.545642  3312 net.cpp:137] Memory required for data: 2016000032
I0107 20:03:11.545657  3312 layer_factory.hpp:77] Creating layer stage3_unit2_conv2
I0107 20:03:11.545692  3312 net.cpp:84] Creating Layer stage3_unit2_conv2
I0107 20:03:11.545708  3312 net.cpp:406] stage3_unit2_conv2 <- stage3_unit2_relu1
I0107 20:03:11.545727  3312 net.cpp:380] stage3_unit2_conv2 -> stage3_unit2_conv2
I0107 20:03:11.558063  3312 net.cpp:122] Setting up stage3_unit2_conv2
I0107 20:03:11.558149  3312 net.cpp:129] Top shape: 8 256 25 25 (1280000)
I0107 20:03:11.558166  3312 net.cpp:137] Memory required for data: 2021120032
I0107 20:03:11.558193  3312 layer_factory.hpp:77] Creating layer stage3_unit2_bn3
I0107 20:03:11.558223  3312 net.cpp:84] Creating Layer stage3_unit2_bn3
I0107 20:03:11.558239  3312 net.cpp:406] stage3_unit2_bn3 <- stage3_unit2_conv2
I0107 20:03:11.558265  3312 net.cpp:380] stage3_unit2_bn3 -> stage3_unit2_bn3
I0107 20:03:11.558565  3312 net.cpp:122] Setting up stage3_unit2_bn3
I0107 20:03:11.558589  3312 net.cpp:129] Top shape: 8 256 25 25 (1280000)
I0107 20:03:11.558604  3312 net.cpp:137] Memory required for data: 2026240032
I0107 20:03:11.558626  3312 layer_factory.hpp:77] Creating layer stage3_unit2_bn3_scale
I0107 20:03:11.558648  3312 net.cpp:84] Creating Layer stage3_unit2_bn3_scale
I0107 20:03:11.558662  3312 net.cpp:406] stage3_unit2_bn3_scale <- stage3_unit2_bn3
I0107 20:03:11.558682  3312 net.cpp:367] stage3_unit2_bn3_scale -> stage3_unit2_bn3 (in-place)
I0107 20:03:11.558759  3312 layer_factory.hpp:77] Creating layer stage3_unit2_bn3_scale
I0107 20:03:11.558920  3312 net.cpp:122] Setting up stage3_unit2_bn3_scale
I0107 20:03:11.558943  3312 net.cpp:129] Top shape: 8 256 25 25 (1280000)
I0107 20:03:11.558955  3312 net.cpp:137] Memory required for data: 2031360032
I0107 20:03:11.558974  3312 layer_factory.hpp:77] Creating layer _plus5
I0107 20:03:11.558997  3312 net.cpp:84] Creating Layer _plus5
I0107 20:03:11.559012  3312 net.cpp:406] _plus5 <- stage3_unit2_bn3
I0107 20:03:11.559029  3312 net.cpp:406] _plus5 <- _plus4__plus4_0_split_1
I0107 20:03:11.559046  3312 net.cpp:380] _plus5 -> _plus5
I0107 20:03:11.559108  3312 net.cpp:122] Setting up _plus5
I0107 20:03:11.559130  3312 net.cpp:129] Top shape: 8 256 25 25 (1280000)
I0107 20:03:11.559144  3312 net.cpp:137] Memory required for data: 2036480032
I0107 20:03:11.559157  3312 layer_factory.hpp:77] Creating layer _plus5__plus5_0_split
I0107 20:03:11.559175  3312 net.cpp:84] Creating Layer _plus5__plus5_0_split
I0107 20:03:11.559188  3312 net.cpp:406] _plus5__plus5_0_split <- _plus5
I0107 20:03:11.559206  3312 net.cpp:380] _plus5__plus5_0_split -> _plus5__plus5_0_split_0
I0107 20:03:11.559224  3312 net.cpp:380] _plus5__plus5_0_split -> _plus5__plus5_0_split_1
I0107 20:03:11.559283  3312 net.cpp:122] Setting up _plus5__plus5_0_split
I0107 20:03:11.559303  3312 net.cpp:129] Top shape: 8 256 25 25 (1280000)
I0107 20:03:11.559320  3312 net.cpp:129] Top shape: 8 256 25 25 (1280000)
I0107 20:03:11.559332  3312 net.cpp:137] Memory required for data: 2046720032
I0107 20:03:11.559366  3312 layer_factory.hpp:77] Creating layer stage4_unit1_bn1
I0107 20:03:11.559384  3312 net.cpp:84] Creating Layer stage4_unit1_bn1
I0107 20:03:11.559398  3312 net.cpp:406] stage4_unit1_bn1 <- _plus5__plus5_0_split_0
I0107 20:03:11.559417  3312 net.cpp:380] stage4_unit1_bn1 -> stage4_unit1_bn1
I0107 20:03:11.559680  3312 net.cpp:122] Setting up stage4_unit1_bn1
I0107 20:03:11.559702  3312 net.cpp:129] Top shape: 8 256 25 25 (1280000)
I0107 20:03:11.559715  3312 net.cpp:137] Memory required for data: 2051840032
I0107 20:03:11.559748  3312 layer_factory.hpp:77] Creating layer stage4_unit1_bn1_scale
I0107 20:03:11.559770  3312 net.cpp:84] Creating Layer stage4_unit1_bn1_scale
I0107 20:03:11.559785  3312 net.cpp:406] stage4_unit1_bn1_scale <- stage4_unit1_bn1
I0107 20:03:11.559803  3312 net.cpp:367] stage4_unit1_bn1_scale -> stage4_unit1_bn1 (in-place)
I0107 20:03:11.559868  3312 layer_factory.hpp:77] Creating layer stage4_unit1_bn1_scale
I0107 20:03:11.560029  3312 net.cpp:122] Setting up stage4_unit1_bn1_scale
I0107 20:03:11.560055  3312 net.cpp:129] Top shape: 8 256 25 25 (1280000)
I0107 20:03:11.560070  3312 net.cpp:137] Memory required for data: 2056960032
I0107 20:03:11.560089  3312 layer_factory.hpp:77] Creating layer stage4_unit1_conv1
I0107 20:03:11.560117  3312 net.cpp:84] Creating Layer stage4_unit1_conv1
I0107 20:03:11.560130  3312 net.cpp:406] stage4_unit1_conv1 <- stage4_unit1_bn1
I0107 20:03:11.560150  3312 net.cpp:380] stage4_unit1_conv1 -> stage4_unit1_conv1
I0107 20:03:11.585268  3312 net.cpp:122] Setting up stage4_unit1_conv1
I0107 20:03:11.585373  3312 net.cpp:129] Top shape: 8 512 25 25 (2560000)
I0107 20:03:11.585395  3312 net.cpp:137] Memory required for data: 2067200032
I0107 20:03:11.585428  3312 layer_factory.hpp:77] Creating layer stage4_unit1_bn2
I0107 20:03:11.585463  3312 net.cpp:84] Creating Layer stage4_unit1_bn2
I0107 20:03:11.585485  3312 net.cpp:406] stage4_unit1_bn2 <- stage4_unit1_conv1
I0107 20:03:11.585516  3312 net.cpp:380] stage4_unit1_bn2 -> stage4_unit1_bn2
I0107 20:03:11.585875  3312 net.cpp:122] Setting up stage4_unit1_bn2
I0107 20:03:11.585908  3312 net.cpp:129] Top shape: 8 512 25 25 (2560000)
I0107 20:03:11.585927  3312 net.cpp:137] Memory required for data: 2077440032
I0107 20:03:11.585956  3312 layer_factory.hpp:77] Creating layer stage4_unit1_bn2_scale
I0107 20:03:11.585983  3312 net.cpp:84] Creating Layer stage4_unit1_bn2_scale
I0107 20:03:11.586004  3312 net.cpp:406] stage4_unit1_bn2_scale <- stage4_unit1_bn2
I0107 20:03:11.586028  3312 net.cpp:367] stage4_unit1_bn2_scale -> stage4_unit1_bn2 (in-place)
I0107 20:03:11.586122  3312 layer_factory.hpp:77] Creating layer stage4_unit1_bn2_scale
I0107 20:03:11.586339  3312 net.cpp:122] Setting up stage4_unit1_bn2_scale
I0107 20:03:11.586372  3312 net.cpp:129] Top shape: 8 512 25 25 (2560000)
I0107 20:03:11.586390  3312 net.cpp:137] Memory required for data: 2087680032
I0107 20:03:11.586416  3312 layer_factory.hpp:77] Creating layer stage4_unit1_relu1
I0107 20:03:11.586444  3312 net.cpp:84] Creating Layer stage4_unit1_relu1
I0107 20:03:11.586463  3312 net.cpp:406] stage4_unit1_relu1 <- stage4_unit1_bn2
I0107 20:03:11.586490  3312 net.cpp:380] stage4_unit1_relu1 -> stage4_unit1_relu1
I0107 20:03:11.586743  3312 net.cpp:122] Setting up stage4_unit1_relu1
I0107 20:03:11.586776  3312 net.cpp:129] Top shape: 8 512 25 25 (2560000)
I0107 20:03:11.586791  3312 net.cpp:137] Memory required for data: 2097920032
I0107 20:03:11.586804  3312 layer_factory.hpp:77] Creating layer stage4_unit1_conv2
I0107 20:03:11.586835  3312 net.cpp:84] Creating Layer stage4_unit1_conv2
I0107 20:03:11.586854  3312 net.cpp:406] stage4_unit1_conv2 <- stage4_unit1_relu1
I0107 20:03:11.586876  3312 net.cpp:380] stage4_unit1_conv2 -> stage4_unit1_conv2
I0107 20:03:11.686899  3312 net.cpp:122] Setting up stage4_unit1_conv2
I0107 20:03:11.686993  3312 net.cpp:129] Top shape: 8 512 13 13 (692224)
I0107 20:03:11.687013  3312 net.cpp:137] Memory required for data: 2100688928
I0107 20:03:11.687042  3312 layer_factory.hpp:77] Creating layer stage4_unit1_bn3
I0107 20:03:11.687094  3312 net.cpp:84] Creating Layer stage4_unit1_bn3
I0107 20:03:11.687115  3312 net.cpp:406] stage4_unit1_bn3 <- stage4_unit1_conv2
I0107 20:03:11.687139  3312 net.cpp:380] stage4_unit1_bn3 -> stage4_unit1_bn3
I0107 20:03:11.687467  3312 net.cpp:122] Setting up stage4_unit1_bn3
I0107 20:03:11.687494  3312 net.cpp:129] Top shape: 8 512 13 13 (692224)
I0107 20:03:11.687508  3312 net.cpp:137] Memory required for data: 2103457824
I0107 20:03:11.687532  3312 layer_factory.hpp:77] Creating layer stage4_unit1_bn3_scale
I0107 20:03:11.687554  3312 net.cpp:84] Creating Layer stage4_unit1_bn3_scale
I0107 20:03:11.687570  3312 net.cpp:406] stage4_unit1_bn3_scale <- stage4_unit1_bn3
I0107 20:03:11.687588  3312 net.cpp:367] stage4_unit1_bn3_scale -> stage4_unit1_bn3 (in-place)
I0107 20:03:11.687674  3312 layer_factory.hpp:77] Creating layer stage4_unit1_bn3_scale
I0107 20:03:11.687851  3312 net.cpp:122] Setting up stage4_unit1_bn3_scale
I0107 20:03:11.687876  3312 net.cpp:129] Top shape: 8 512 13 13 (692224)
I0107 20:03:11.687891  3312 net.cpp:137] Memory required for data: 2106226720
I0107 20:03:11.687940  3312 layer_factory.hpp:77] Creating layer stage4_unit1_conv1sc
I0107 20:03:11.687970  3312 net.cpp:84] Creating Layer stage4_unit1_conv1sc
I0107 20:03:11.687988  3312 net.cpp:406] stage4_unit1_conv1sc <- _plus5__plus5_0_split_1
I0107 20:03:11.688009  3312 net.cpp:380] stage4_unit1_conv1sc -> stage4_unit1_conv1sc
I0107 20:03:11.691004  3312 net.cpp:122] Setting up stage4_unit1_conv1sc
I0107 20:03:11.691062  3312 net.cpp:129] Top shape: 8 512 13 13 (692224)
I0107 20:03:11.691079  3312 net.cpp:137] Memory required for data: 2108995616
I0107 20:03:11.691102  3312 layer_factory.hpp:77] Creating layer stage4_unit1_sc
I0107 20:03:11.691128  3312 net.cpp:84] Creating Layer stage4_unit1_sc
I0107 20:03:11.691145  3312 net.cpp:406] stage4_unit1_sc <- stage4_unit1_conv1sc
I0107 20:03:11.691167  3312 net.cpp:380] stage4_unit1_sc -> stage4_unit1_sc
I0107 20:03:11.691498  3312 net.cpp:122] Setting up stage4_unit1_sc
I0107 20:03:11.691526  3312 net.cpp:129] Top shape: 8 512 13 13 (692224)
I0107 20:03:11.691541  3312 net.cpp:137] Memory required for data: 2111764512
I0107 20:03:11.691565  3312 layer_factory.hpp:77] Creating layer stage4_unit1_sc_scale
I0107 20:03:11.691586  3312 net.cpp:84] Creating Layer stage4_unit1_sc_scale
I0107 20:03:11.691603  3312 net.cpp:406] stage4_unit1_sc_scale <- stage4_unit1_sc
I0107 20:03:11.691622  3312 net.cpp:367] stage4_unit1_sc_scale -> stage4_unit1_sc (in-place)
I0107 20:03:11.691704  3312 layer_factory.hpp:77] Creating layer stage4_unit1_sc_scale
I0107 20:03:11.691879  3312 net.cpp:122] Setting up stage4_unit1_sc_scale
I0107 20:03:11.691915  3312 net.cpp:129] Top shape: 8 512 13 13 (692224)
I0107 20:03:11.691934  3312 net.cpp:137] Memory required for data: 2114533408
I0107 20:03:11.691956  3312 layer_factory.hpp:77] Creating layer _plus6
I0107 20:03:11.691979  3312 net.cpp:84] Creating Layer _plus6
I0107 20:03:11.691998  3312 net.cpp:406] _plus6 <- stage4_unit1_bn3
I0107 20:03:11.692014  3312 net.cpp:406] _plus6 <- stage4_unit1_sc
I0107 20:03:11.692036  3312 net.cpp:380] _plus6 -> _plus6
I0107 20:03:11.692090  3312 net.cpp:122] Setting up _plus6
I0107 20:03:11.692112  3312 net.cpp:129] Top shape: 8 512 13 13 (692224)
I0107 20:03:11.692128  3312 net.cpp:137] Memory required for data: 2117302304
I0107 20:03:11.692144  3312 layer_factory.hpp:77] Creating layer _plus6__plus6_0_split
I0107 20:03:11.692164  3312 net.cpp:84] Creating Layer _plus6__plus6_0_split
I0107 20:03:11.692181  3312 net.cpp:406] _plus6__plus6_0_split <- _plus6
I0107 20:03:11.692203  3312 net.cpp:380] _plus6__plus6_0_split -> _plus6__plus6_0_split_0
I0107 20:03:11.692224  3312 net.cpp:380] _plus6__plus6_0_split -> _plus6__plus6_0_split_1
I0107 20:03:11.692286  3312 net.cpp:122] Setting up _plus6__plus6_0_split
I0107 20:03:11.692307  3312 net.cpp:129] Top shape: 8 512 13 13 (692224)
I0107 20:03:11.692325  3312 net.cpp:129] Top shape: 8 512 13 13 (692224)
I0107 20:03:11.692340  3312 net.cpp:137] Memory required for data: 2122840096
I0107 20:03:11.692376  3312 layer_factory.hpp:77] Creating layer stage4_unit2_bn1
I0107 20:03:11.692399  3312 net.cpp:84] Creating Layer stage4_unit2_bn1
I0107 20:03:11.692415  3312 net.cpp:406] stage4_unit2_bn1 <- _plus6__plus6_0_split_0
I0107 20:03:11.692435  3312 net.cpp:380] stage4_unit2_bn1 -> stage4_unit2_bn1
I0107 20:03:11.692728  3312 net.cpp:122] Setting up stage4_unit2_bn1
I0107 20:03:11.692752  3312 net.cpp:129] Top shape: 8 512 13 13 (692224)
I0107 20:03:11.692768  3312 net.cpp:137] Memory required for data: 2125608992
I0107 20:03:11.692791  3312 layer_factory.hpp:77] Creating layer stage4_unit2_bn1_scale
I0107 20:03:11.692813  3312 net.cpp:84] Creating Layer stage4_unit2_bn1_scale
I0107 20:03:11.692831  3312 net.cpp:406] stage4_unit2_bn1_scale <- stage4_unit2_bn1
I0107 20:03:11.692848  3312 net.cpp:367] stage4_unit2_bn1_scale -> stage4_unit2_bn1 (in-place)
I0107 20:03:11.692920  3312 layer_factory.hpp:77] Creating layer stage4_unit2_bn1_scale
I0107 20:03:11.693087  3312 net.cpp:122] Setting up stage4_unit2_bn1_scale
I0107 20:03:11.693112  3312 net.cpp:129] Top shape: 8 512 13 13 (692224)
I0107 20:03:11.693127  3312 net.cpp:137] Memory required for data: 2128377888
I0107 20:03:11.693150  3312 layer_factory.hpp:77] Creating layer stage4_unit2_conv1
I0107 20:03:11.693179  3312 net.cpp:84] Creating Layer stage4_unit2_conv1
I0107 20:03:11.693197  3312 net.cpp:406] stage4_unit2_conv1 <- stage4_unit2_bn1
I0107 20:03:11.693219  3312 net.cpp:380] stage4_unit2_conv1 -> stage4_unit2_conv1
I0107 20:03:11.747153  3312 net.cpp:122] Setting up stage4_unit2_conv1
I0107 20:03:11.747241  3312 net.cpp:129] Top shape: 8 512 13 13 (692224)
I0107 20:03:11.747259  3312 net.cpp:137] Memory required for data: 2131146784
I0107 20:03:11.747287  3312 layer_factory.hpp:77] Creating layer stage4_unit2_bn2
I0107 20:03:11.747318  3312 net.cpp:84] Creating Layer stage4_unit2_bn2
I0107 20:03:11.747336  3312 net.cpp:406] stage4_unit2_bn2 <- stage4_unit2_conv1
I0107 20:03:11.747364  3312 net.cpp:380] stage4_unit2_bn2 -> stage4_unit2_bn2
I0107 20:03:11.747697  3312 net.cpp:122] Setting up stage4_unit2_bn2
I0107 20:03:11.747725  3312 net.cpp:129] Top shape: 8 512 13 13 (692224)
I0107 20:03:11.747741  3312 net.cpp:137] Memory required for data: 2133915680
I0107 20:03:11.747766  3312 layer_factory.hpp:77] Creating layer stage4_unit2_bn2_scale
I0107 20:03:11.747789  3312 net.cpp:84] Creating Layer stage4_unit2_bn2_scale
I0107 20:03:11.747804  3312 net.cpp:406] stage4_unit2_bn2_scale <- stage4_unit2_bn2
I0107 20:03:11.747834  3312 net.cpp:367] stage4_unit2_bn2_scale -> stage4_unit2_bn2 (in-place)
I0107 20:03:11.747939  3312 layer_factory.hpp:77] Creating layer stage4_unit2_bn2_scale
I0107 20:03:11.748126  3312 net.cpp:122] Setting up stage4_unit2_bn2_scale
I0107 20:03:11.748150  3312 net.cpp:129] Top shape: 8 512 13 13 (692224)
I0107 20:03:11.748165  3312 net.cpp:137] Memory required for data: 2136684576
I0107 20:03:11.748188  3312 layer_factory.hpp:77] Creating layer stage4_unit2_relu1
I0107 20:03:11.748210  3312 net.cpp:84] Creating Layer stage4_unit2_relu1
I0107 20:03:11.748226  3312 net.cpp:406] stage4_unit2_relu1 <- stage4_unit2_bn2
I0107 20:03:11.748245  3312 net.cpp:380] stage4_unit2_relu1 -> stage4_unit2_relu1
I0107 20:03:11.748911  3312 net.cpp:122] Setting up stage4_unit2_relu1
I0107 20:03:11.748950  3312 net.cpp:129] Top shape: 8 512 13 13 (692224)
I0107 20:03:11.748968  3312 net.cpp:137] Memory required for data: 2139453472
I0107 20:03:11.748987  3312 layer_factory.hpp:77] Creating layer stage4_unit2_conv2
I0107 20:03:11.749022  3312 net.cpp:84] Creating Layer stage4_unit2_conv2
I0107 20:03:11.749038  3312 net.cpp:406] stage4_unit2_conv2 <- stage4_unit2_relu1
I0107 20:03:11.749060  3312 net.cpp:380] stage4_unit2_conv2 -> stage4_unit2_conv2
I0107 20:03:11.803504  3312 net.cpp:122] Setting up stage4_unit2_conv2
I0107 20:03:11.803622  3312 net.cpp:129] Top shape: 8 512 13 13 (692224)
I0107 20:03:11.803640  3312 net.cpp:137] Memory required for data: 2142222368
I0107 20:03:11.803673  3312 layer_factory.hpp:77] Creating layer stage4_unit2_bn3
I0107 20:03:11.803735  3312 net.cpp:84] Creating Layer stage4_unit2_bn3
I0107 20:03:11.803755  3312 net.cpp:406] stage4_unit2_bn3 <- stage4_unit2_conv2
I0107 20:03:11.803778  3312 net.cpp:380] stage4_unit2_bn3 -> stage4_unit2_bn3
I0107 20:03:11.804142  3312 net.cpp:122] Setting up stage4_unit2_bn3
I0107 20:03:11.804175  3312 net.cpp:129] Top shape: 8 512 13 13 (692224)
I0107 20:03:11.804191  3312 net.cpp:137] Memory required for data: 2144991264
I0107 20:03:11.804216  3312 layer_factory.hpp:77] Creating layer stage4_unit2_bn3_scale
I0107 20:03:11.804239  3312 net.cpp:84] Creating Layer stage4_unit2_bn3_scale
I0107 20:03:11.804255  3312 net.cpp:406] stage4_unit2_bn3_scale <- stage4_unit2_bn3
I0107 20:03:11.804273  3312 net.cpp:367] stage4_unit2_bn3_scale -> stage4_unit2_bn3 (in-place)
I0107 20:03:11.804361  3312 layer_factory.hpp:77] Creating layer stage4_unit2_bn3_scale
I0107 20:03:11.804538  3312 net.cpp:122] Setting up stage4_unit2_bn3_scale
I0107 20:03:11.804561  3312 net.cpp:129] Top shape: 8 512 13 13 (692224)
I0107 20:03:11.804576  3312 net.cpp:137] Memory required for data: 2147760160
I0107 20:03:11.804597  3312 layer_factory.hpp:77] Creating layer _plus7
I0107 20:03:11.804622  3312 net.cpp:84] Creating Layer _plus7
I0107 20:03:11.804639  3312 net.cpp:406] _plus7 <- stage4_unit2_bn3
I0107 20:03:11.804658  3312 net.cpp:406] _plus7 <- _plus6__plus6_0_split_1
I0107 20:03:11.804677  3312 net.cpp:380] _plus7 -> _plus7
I0107 20:03:11.804728  3312 net.cpp:122] Setting up _plus7
I0107 20:03:11.804750  3312 net.cpp:129] Top shape: 8 512 13 13 (692224)
I0107 20:03:11.804766  3312 net.cpp:137] Memory required for data: 2150529056
I0107 20:03:11.804782  3312 layer_factory.hpp:77] Creating layer bn1
I0107 20:03:11.804811  3312 net.cpp:84] Creating Layer bn1
I0107 20:03:11.804828  3312 net.cpp:406] bn1 <- _plus7
I0107 20:03:11.804847  3312 net.cpp:380] bn1 -> bn1
I0107 20:03:11.805145  3312 net.cpp:122] Setting up bn1
I0107 20:03:11.805171  3312 net.cpp:129] Top shape: 8 512 13 13 (692224)
I0107 20:03:11.805186  3312 net.cpp:137] Memory required for data: 2153297952
I0107 20:03:11.805210  3312 layer_factory.hpp:77] Creating layer bn1_scale
I0107 20:03:11.805229  3312 net.cpp:84] Creating Layer bn1_scale
I0107 20:03:11.805244  3312 net.cpp:406] bn1_scale <- bn1
I0107 20:03:11.805264  3312 net.cpp:367] bn1_scale -> bn1 (in-place)
I0107 20:03:11.805337  3312 layer_factory.hpp:77] Creating layer bn1_scale
I0107 20:03:11.805505  3312 net.cpp:122] Setting up bn1_scale
I0107 20:03:11.805529  3312 net.cpp:129] Top shape: 8 512 13 13 (692224)
I0107 20:03:11.805544  3312 net.cpp:137] Memory required for data: 2156066848
I0107 20:03:11.805565  3312 layer_factory.hpp:77] Creating layer fc8
I0107 20:03:11.805593  3312 net.cpp:84] Creating Layer fc8
I0107 20:03:11.805609  3312 net.cpp:406] fc8 <- bn1
I0107 20:03:11.805629  3312 net.cpp:380] fc8 -> fc8
I0107 20:03:11.811152  3312 net.cpp:122] Setting up fc8
I0107 20:03:11.811250  3312 net.cpp:129] Top shape: 8 2 (16)
I0107 20:03:11.811267  3312 net.cpp:137] Memory required for data: 2156066912
I0107 20:03:11.811300  3312 layer_factory.hpp:77] Creating layer loss
I0107 20:03:11.811329  3312 net.cpp:84] Creating Layer loss
I0107 20:03:11.811347  3312 net.cpp:406] loss <- fc8
I0107 20:03:11.811367  3312 net.cpp:406] loss <- label
I0107 20:03:11.811393  3312 net.cpp:380] loss -> loss
I0107 20:03:11.811429  3312 layer_factory.hpp:77] Creating layer loss
…
I0107 20:03:11.815675  3312 solver.cpp:172] Creating test net (#0) specified by net file: r18_train_val.prototxt
I0107 20:03:11.815881  3312 net.cpp:294] The NetState phase (1) differed from the phase (0) specified by a rule in layer data
I0107 20:03:11.817010  3312 net.cpp:51] Initializing net from parameters: 
name: "r18"
state {
  phase: TEST
}
layer {
  name: "data"
  type: "Data"
  top: "data"
  top: "label"
  include {
    phase: TEST
  }
  transform_param {
    scale: 0.0078125
    mirror: true
    mean_value: 127
  }
  data_param {
    source: "/home/lc/gender/school/data/val.lmdb"
    batch_size: 8
    backend: LMDB
  }
}
layer {
  name: "conv0"
  type: "Convolution"
  bottom: "data"
  top: "conv0"
  param {
    lr_mult: 1
    decay_mult: 1
  }
  convolution_param {
    num_output: 64
    bias_term: false
    pad: 1
    kernel_size: 3
    stride: 1
    weight_filler {
      type: "gaussian"
      std: 0.01
    }
    engine: CAFFE
  }
}
layer {
  name: "bn0"
  type: "BatchNorm"
  bottom: "conv0"
  top: "bn0"
  batch_norm_param {
    use_global_stats: false
    moving_average_fraction: 0.9
    eps: 2e-05
  }
}
layer {
  name: "bn0_scale"
  type: "Scale"
  bottom: "bn0"
  top: "bn0"
  scale_param {
    bias_term: true
  }
}
layer {
  name: "relu0"
  type: "ReLU"
  bottom: "bn0"
  top: "relu0"
}
layer {
  name: "stage1_unit1_bn1"
  type: "BatchNorm"
  bottom: "relu0"
  top: "stage1_unit1_bn1"
  batch_norm_param {
    use_global_stats: false
    moving_average_fraction: 0.9
    eps: 2e-05
  }
}
layer {
  name: "stage1_unit1_bn1_scale"
  type: "Scale"
  bottom: "stage1_unit1_bn1"
  top: "stage1_unit1_bn1"
  scale_param {
    bias_term: true
  }
}
layer {
  name: "stage1_unit1_conv1"
  type: "Convolution"
  bottom: "stage1_unit1_bn1"
  top: "stage1_unit1_conv1"
  param {
    lr_mult: 1
    decay_mult: 1
  }
  convolution_param {
    num_output: 64
    bias_term: false
    pad: 1
    kernel_size: 3
    stride: 1
    weight_filler {
      type: "gaussian"
      std: 0.01
    }
    engine: CAFFE
  }
}
layer {
  name: "stage1_unit1_bn2"
  type: "BatchNorm"
  bottom: "stage1_unit1_conv1"
  top: "stage1_unit1_bn2"
  batch_norm_param {
    use_global_stats: false
    moving_average_fraction: 0.9
    eps: 2e-05
  }
}
layer {
  name: "stage1_unit1_bn2_scale"
  type: "Scale"
  bottom: "stage1_unit1_bn2"
  top: "stage1_unit1_bn2"
  scale_param {
    bias_term: true
  }
}
layer {
  name: "stage1_unit1_relu1"
  type: "ReLU"
  bottom: "stage1_unit1_bn2"
  top: "stage1_unit1_relu1"
}
layer {
  name: "stage1_unit1_conv2"
  type: "Convolution"
  bottom: "stage1_unit1_relu1"
  top: "stage1_unit1_conv2"
  param {
    lr_mult: 1
    decay_mult: 1
  }
  convolution_param {
    num_output: 64
    bias_term: false
    pad: 1
    kernel_size: 3
    stride: 2
    weight_filler {
      type: "gaussian"
      std: 0.01
    }
    engine: CAFFE
  }
}
layer {
  name: "stage1_unit1_bn3"
  type: "BatchNorm"
  bottom: "stage1_unit1_conv2"
  top: "stage1_unit1_bn3"
  batch_norm_param {
    use_global_stats: false
    moving_average_fraction: 0.9
    eps: 2e-05
  }
}
layer {
  name: "stage1_unit1_bn3_scale"
  type: "Scale"
  bottom: "stage1_unit1_bn3"
  top: "stage1_unit1_bn3"
  scale_param {
    bias_term: true
  }
}
layer {
  name: "stage1_unit1_conv1sc"
  type: "Convolution"
  bottom: "relu0"
  top: "stage1_unit1_conv1sc"
  param {
    lr_mult: 1
    decay_mult: 1
  }
  convolution_param {
    num_output: 64
    bias_term: false
    kernel_size: 1
    stride: 2
    weight_filler {
      type: "gaussian"
      std: 0.01
    }
    engine: CAFFE
  }
}
layer {
  name: "stage1_unit1_sc"
  type: "BatchNorm"
  bottom: "stage1_unit1_conv1sc"
  top: "stage1_unit1_sc"
  batch_norm_param {
    use_global_stats: false
    moving_average_fraction: 0.9
    eps: 2e-05
  }
}
layer {
  name: "stage1_unit1_sc_scale"
  type: "Scale"
  bottom: "stage1_unit1_sc"
  top: "stage1_unit1_sc"
  scale_param {
    bias_term: true
  }
}
layer {
  name: "_plus0"
  type: "Eltwise"
  bottom: "stage1_unit1_bn3"
  bottom: "stage1_unit1_sc"
  top: "_plus0"
  eltwise_param {
    operation: SUM
  }
}
layer {
  name: "stage1_unit2_bn1"
  type: "BatchNorm"
  bottom: "_plus0"
  top: "stage1_unit2_bn1"
  batch_norm_param {
    use_global_stats: false
    moving_average_fraction: 0.9
    eps: 2e-05
  }
}
layer {
  name: "stage1_unit2_bn1_scale"
  type: "Scale"
  bottom: "stage1_unit2_bn1"
  top: "stage1_unit2_bn1"
  scale_param {
    bias_term: true
  }
}
layer {
  name: "stage1_unit2_conv1"
  type: "Convolution"
  bottom: "stage1_unit2_bn1"
  top: "stage1_unit2_conv1"
  param {
    lr_mult: 1
    decay_mult: 1
  }
  convolution_param {
    num_output: 64
    bias_term: false
    pad: 1
    kernel_size: 3
    stride: 1
    weight_filler {
      type: "gaussian"
      std: 0.01
    }
    engine: CAFFE
  }
}
layer {
  name: "stage1_unit2_bn2"
  type: "BatchNorm"
  bottom: "stage1_unit2_conv1"
  top: "stage1_unit2_bn2"
  batch_norm_param {
    use_global_stats: false
    moving_average_fraction: 0.9
    eps: 2e-05
  }
}
layer {
  name: "stage1_unit2_bn2_scale"
  type: "Scale"
  bottom: "stage1_unit2_bn2"
  top: "stage1_unit2_bn2"
  scale_param {
    bias_term: true
  }
}
layer {
  name: "stage1_unit2_relu1"
  type: "ReLU"
  bottom: "stage1_unit2_bn2"
  top: "stage1_unit2_relu1"
}
layer {
  name: "stage1_unit2_conv2"
  type: "Convolution"
  bottom: "stage1_unit2_relu1"
  top: "stage1_unit2_conv2"
  param {
    lr_mult: 1
    decay_mult: 1
  }
  convolution_param {
    num_output: 64
    bias_term: false
    pad: 1
    kernel_size: 3
    stride: 1
    weight_filler {
      type: "gaussian"
      std: 0.01
    }
    engine: CAFFE
  }
}
layer {
  name: "stage1_unit2_bn3"
  type: "BatchNorm"
  bottom: "stage1_unit2_conv2"
  top: "stage1_unit2_bn3"
  batch_norm_param {
    use_global_stats: false
    moving_average_fraction: 0.9
    eps: 2e-05
  }
}
layer {
  name: "stage1_unit2_bn3_scale"
  type: "Scale"
  bottom: "stage1_unit2_bn3"
  top: "stage1_unit2_bn3"
  scale_param {
    bias_term: true
  }
}
layer {
  name: "_plus1"
  type: "Eltwise"
  bottom: "stage1_unit2_bn3"
  bottom: "_plus0"
  top: "_plus1"
  eltwise_param {
    operation: SUM
  }
}
layer {
  name: "stage2_unit1_bn1"
  type: "BatchNorm"
  bottom: "_plus1"
  top: "stage2_unit1_bn1"
  batch_norm_param {
    use_global_stats: false
    moving_average_fraction: 0.9
    eps: 2e-05
  }
}
layer {
  name: "stage2_unit1_bn1_scale"
  type: "Scale"
  bottom: "stage2_unit1_bn1"
  top: "stage2_unit1_bn1"
  scale_param {
    bias_term: true
  }
}
layer {
  name: "stage2_unit1_conv1"
  type: "Convolution"
  bottom: "stage2_unit1_bn1"
  top: "stage2_unit1_conv1"
  param {
    lr_mult: 1
    decay_mult: 1
  }
  convolution_param {
    num_output: 128
    bias_term: false
    pad: 1
    kernel_size: 3
    stride: 1
    weight_filler {
      type: "gaussian"
      std: 0.01
    }
    engine: CAFFE
  }
}
layer {
  name: "stage2_unit1_bn2"
  type: "BatchNorm"
  bottom: "stage2_unit1_conv1"
  top: "stage2_unit1_bn2"
  batch_norm_param {
    use_global_stats: false
    moving_average_fraction: 0.9
    eps: 2e-05
  }
}
layer {
  name: "stage2_unit1_bn2_scale"
  type: "Scale"
  bottom: "stage2_unit1_bn2"
  top: "stage2_unit1_bn2"
  scale_param {
    bias_term: true
  }
}
layer {
  name: "stage2_unit1_relu1"
  type: "ReLU"
  bottom: "stage2_unit1_bn2"
  top: "stage2_unit1_relu1"
}
layer {
  name: "stage2_unit1_conv2"
  type: "Convolution"
  bottom: "stage2_unit1_relu1"
  top: "stage2_unit1_conv2"
  param {
    lr_mult: 1
    decay_mult: 1
  }
  convolution_param {
    num_output: 128
    bias_term: false
    pad: 1
    kernel_size: 3
    stride: 2
    weight_filler {
      type: "gaussian"
      std: 0.01
    }
    engine: CAFFE
  }
}
layer {
  name: "stage2_unit1_bn3"
  type: "BatchNorm"
  bottom: "stage2_unit1_conv2"
  top: "stage2_unit1_bn3"
  batch_norm_param {
    use_global_stats: false
    moving_average_fraction: 0.9
    eps: 2e-05
  }
}
layer {
  name: "stage2_unit1_bn3_scale"
  type: "Scale"
  bottom: "stage2_unit1_bn3"
  top: "stage2_unit1_bn3"
  scale_param {
    bias_term: true
  }
}
layer {
  name: "stage2_unit1_conv1sc"
  type: "Convolution"
  bottom: "_plus1"
  top: "stage2_unit1_conv1sc"
  param {
    lr_mult: 1
    decay_mult: 1
  }
  convolution_param {
    num_output: 128
    bias_term: false
    kernel_size: 1
    stride: 2
    weight_filler {
      type: "gaussian"
      std: 0.01
    }
    engine: CAFFE
  }
}
layer {
  name: "stage2_unit1_sc"
  type: "BatchNorm"
  bottom: "stage2_unit1_conv1sc"
  top: "stage2_unit1_sc"
  batch_norm_param {
    use_global_stats: false
    moving_average_fraction: 0.9
    eps: 2e-05
  }
}
layer {
  name: "stage2_unit1_sc_scale"
  type: "Scale"
  bottom: "stage2_unit1_sc"
  top: "stage2_unit1_sc"
  scale_param {
    bias_term: true
  }
}
layer {
  name: "_plus2"
  type: "Eltwise"
  bottom: "stage2_unit1_bn3"
  bottom: "stage2_unit1_sc"
  top: "_plus2"
  eltwise_param {
    operation: SUM
  }
}
layer {
  name: "stage2_unit2_bn1"
  type: "BatchNorm"
  bottom: "_plus2"
  top: "stage2_unit2_bn1"
  batch_norm_param {
    use_global_stats: false
    moving_average_fraction: 0.9
    eps: 2e-05
  }
}
layer {
  name: "stage2_unit2_bn1_scale"
  type: "Scale"
  bottom: "stage2_unit2_bn1"
  top: "stage2_unit2_bn1"
  scale_param {
    bias_term: true
  }
}
layer {
  name: "stage2_unit2_conv1"
  type: "Convolution"
  bottom: "stage2_unit2_bn1"
  top: "stage2_unit2_conv1"
  param {
    lr_mult: 1
    decay_mult: 1
  }
  convolution_param {
    num_output: 128
    bias_term: false
    pad: 1
    kernel_size: 3
    stride: 1
    weight_filler {
      type: "gaussian"
      std: 0.01
    }
    engine: CAFFE
  }
}
layer {
  name: "stage2_unit2_bn2"
  type: "BatchNorm"
  bottom: "stage2_unit2_conv1"
  top: "stage2_unit2_bn2"
  batch_norm_param {
    use_global_stats: false
    moving_average_fraction: 0.9
    eps: 2e-05
  }
}
layer {
  name: "stage2_unit2_bn2_scale"
  type: "Scale"
  bottom: "stage2_unit2_bn2"
  top: "stage2_unit2_bn2"
  scale_param {
    bias_term: true
  }
}
layer {
  name: "stage2_unit2_relu1"
  type: "ReLU"
  bottom: "stage2_unit2_bn2"
  top: "stage2_unit2_relu1"
}
layer {
  name: "stage2_unit2_conv2"
  type: "Convolution"
  bottom: "stage2_unit2_relu1"
  top: "stage2_unit2_conv2"
  param {
    lr_mult: 1
    decay_mult: 1
  }
  convolution_param {
    num_output: 128
    bias_term: false
    pad: 1
    kernel_size: 3
    stride: 1
    weight_filler {
      type: "gaussian"
      std: 0.01
    }
    engine: CAFFE
  }
}
layer {
  name: "stage2_unit2_bn3"
  type: "BatchNorm"
  bottom: "stage2_unit2_conv2"
  top: "stage2_unit2_bn3"
  batch_norm_param {
    use_global_stats: false
    moving_average_fraction: 0.9
    eps: 2e-05
  }
}
layer {
  name: "stage2_unit2_bn3_scale"
  type: "Scale"
  bottom: "stage2_unit2_bn3"
  top: "stage2_unit2_bn3"
  scale_param {
    bias_term: true
  }
}
layer {
  name: "_plus3"
  type: "Eltwise"
  bottom: "stage2_unit2_bn3"
  bottom: "_plus2"
  top: "_plus3"
  eltwise_param {
    operation: SUM
  }
}
layer {
  name: "stage3_unit1_bn1"
  type: "BatchNorm"
  bottom: "_plus3"
  top: "stage3_unit1_bn1"
  batch_norm_param {
    use_global_stats: false
    moving_average_fraction: 0.9
    eps: 2e-05
  }
}
layer {
  name: "stage3_unit1_bn1_scale"
  type: "Scale"
  bottom: "stage3_unit1_bn1"
  top: "stage3_unit1_bn1"
  scale_param {
    bias_term: true
  }
}
layer {
  name: "stage3_unit1_conv1"
  type: "Convolution"
  bottom: "stage3_unit1_bn1"
  top: "stage3_unit1_conv1"
  param {
    lr_mult: 1
    decay_mult: 1
  }
  convolution_param {
    num_output: 256
    bias_term: false
    pad: 1
    kernel_size: 3
    stride: 1
    weight_filler {
      type: "gaussian"
      std: 0.01
    }
    engine: CAFFE
  }
}
layer {
  name: "stage3_unit1_bn2"
  type: "BatchNorm"
  bottom: "stage3_unit1_conv1"
  top: "stage3_unit1_bn2"
  batch_norm_param {
    use_global_stats: false
    moving_average_fraction: 0.9
    eps: 2e-05
  }
}
layer {
  name: "stage3_unit1_bn2_scale"
  type: "Scale"
  bottom: "stage3_unit1_bn2"
  top: "stage3_unit1_bn2"
  scale_param {
    bias_term: true
  }
}
layer {
  name: "stage3_unit1_relu1"
  type: "ReLU"
  bottom: "stage3_unit1_bn2"
  top: "stage3_unit1_relu1"
}
layer {
  name: "stage3_unit1_conv2"
  type: "Convolution"
  bottom: "stage3_unit1_relu1"
  top: "stage3_unit1_conv2"
  param {
    lr_mult: 1
    decay_mult: 1
  }
  convolution_param {
    num_output: 256
    bias_term: false
    pad: 1
    kernel_size: 3
    stride: 2
    weight_filler {
      type: "gaussian"
      std: 0.01
    }
    engine: CAFFE
  }
}
layer {
  name: "stage3_unit1_bn3"
  type: "BatchNorm"
  bottom: "stage3_unit1_conv2"
  top: "stage3_unit1_bn3"
  batch_norm_param {
    use_global_stats: false
    moving_average_fraction: 0.9
    eps: 2e-05
  }
}
layer {
  name: "stage3_unit1_bn3_scale"
  type: "Scale"
  bottom: "stage3_unit1_bn3"
  top: "stage3_unit1_bn3"
  scale_param {
    bias_term: true
  }
}
layer {
  name: "stage3_unit1_conv1sc"
  type: "Convolution"
  bottom: "_plus3"
  top: "stage3_unit1_conv1sc"
  param {
    lr_mult: 1
    decay_mult: 1
  }
  convolution_param {
    num_output: 256
    bias_term: false
    kernel_size: 1
    stride: 2
    weight_filler {
      type: "gaussian"
      std: 0.01
    }
    engine: CAFFE
  }
}
layer {
  name: "stage3_unit1_sc"
  type: "BatchNorm"
  bottom: "stage3_unit1_conv1sc"
  top: "stage3_unit1_sc"
  batch_norm_param {
    use_global_stats: false
    moving_average_fraction: 0.9
    eps: 2e-05
  }
}
layer {
  name: "stage3_unit1_sc_scale"
  type: "Scale"
  bottom: "stage3_unit1_sc"
  top: "stage3_unit1_sc"
  scale_param {
    bias_term: true
  }
}
layer {
  name: "_plus4"
  type: "Eltwise"
  bottom: "stage3_unit1_bn3"
  bottom: "stage3_unit1_sc"
  top: "_plus4"
  eltwise_param {
    operation: SUM
  }
}
layer {
  name: "stage3_unit2_bn1"
  type: "BatchNorm"
  bottom: "_plus4"
  top: "stage3_unit2_bn1"
  batch_norm_param {
    use_global_stats: false
    moving_average_fraction: 0.9
    eps: 2e-05
  }
}
layer {
  name: "stage3_unit2_bn1_scale"
  type: "Scale"
  bottom: "stage3_unit2_bn1"
  top: "stage3_unit2_bn1"
  scale_param {
    bias_term: true
  }
}
layer {
  name: "stage3_unit2_conv1"
  type: "Convolution"
  bottom: "stage3_unit2_bn1"
  top: "stage3_unit2_conv1"
  param {
    lr_mult: 1
    decay_mult: 1
  }
  convolution_param {
    num_output: 256
    bias_term: false
    pad: 1
    kernel_size: 3
    stride: 1
    weight_filler {
      type: "gaussian"
      std: 0.01
    }
    engine: CAFFE
  }
}
layer {
  name: "stage3_unit2_bn2"
  type: "BatchNorm"
  bottom: "stage3_unit2_conv1"
  top: "stage3_unit2_bn2"
  batch_norm_param {
    use_global_stats: false
    moving_average_fraction: 0.9
    eps: 2e-05
  }
}
layer {
  name: "stage3_unit2_bn2_scale"
  type: "Scale"
  bottom: "stage3_unit2_bn2"
  top: "stage3_unit2_bn2"
  scale_param {
    bias_term: true
  }
}
layer {
  name: "stage3_unit2_relu1"
  type: "ReLU"
  bottom: "stage3_unit2_bn2"
  top: "stage3_unit2_relu1"
}
layer {
  name: "stage3_unit2_conv2"
  type: "Convolution"
  bottom: "stage3_unit2_relu1"
  top: "stage3_unit2_conv2"
  param {
    lr_mult: 1
    decay_mult: 1
  }
  convolution_param {
    num_output: 256
    bias_term: false
    pad: 1
    kernel_size: 3
    stride: 1
    weight_filler {
      type: "gaussian"
      std: 0.01
    }
    engine: CAFFE
  }
}
layer {
  name: "stage3_unit2_bn3"
  type: "BatchNorm"
  bottom: "stage3_unit2_conv2"
  top: "stage3_unit2_bn3"
  batch_norm_param {
    use_global_stats: false
    moving_average_fraction: 0.9
    eps: 2e-05
  }
}
layer {
  name: "stage3_unit2_bn3_scale"
  type: "Scale"
  bottom: "stage3_unit2_bn3"
  top: "stage3_unit2_bn3"
  scale_param {
    bias_term: true
  }
}
layer {
  name: "_plus5"
  type: "Eltwise"
  bottom: "stage3_unit2_bn3"
  bottom: "_plus4"
  top: "_plus5"
  eltwise_param {
    operation: SUM
  }
}
layer {
  name: "stage4_unit1_bn1"
  type: "BatchNorm"
  bottom: "_plus5"
  top: "stage4_unit1_bn1"
  batch_norm_param {
    use_global_stats: false
    moving_average_fraction: 0.9
    eps: 2e-05
  }
}
layer {
  name: "stage4_unit1_bn1_scale"
  type: "Scale"
  bottom: "stage4_unit1_bn1"
  top: "stage4_unit1_bn1"
  scale_param {
    bias_term: true
  }
}
layer {
  name: "stage4_unit1_conv1"
  type: "Convolution"
  bottom: "stage4_unit1_bn1"
  top: "stage4_unit1_conv1"
  param {
    lr_mult: 1
    decay_mult: 1
  }
  convolution_param {
    num_output: 512
    bias_term: false
    pad: 1
    kernel_size: 3
    stride: 1
    weight_filler {
      type: "gaussian"
      std: 0.01
    }
    engine: CAFFE
  }
}
layer {
  name: "stage4_unit1_bn2"
  type: "BatchNorm"
  bottom: "stage4_unit1_conv1"
  top: "stage4_unit1_bn2"
  batch_norm_param {
    use_global_stats: false
    moving_average_fraction: 0.9
    eps: 2e-05
  }
}
layer {
  name: "stage4_unit1_bn2_scale"
  type: "Scale"
  bottom: "stage4_unit1_bn2"
  top: "stage4_unit1_bn2"
  scale_param {
    bias_term: true
  }
}
layer {
  name: "stage4_unit1_relu1"
  type: "ReLU"
  bottom: "stage4_unit1_bn2"
  top: "stage4_unit1_relu1"
}
layer {
  name: "stage4_unit1_conv2"
  type: "Convolution"
  bottom: "stage4_unit1_relu1"
  top: "stage4_unit1_conv2"
  param {
    lr_mult: 1
    decay_mult: 1
  }
  convolution_param {
    num_output: 512
    bias_term: false
    pad: 1
    kernel_size: 3
    stride: 2
    weight_filler {
      type: "gaussian"
      std: 0.01
    }
    engine: CAFFE
  }
}
layer {
  name: "stage4_unit1_bn3"
  type: "BatchNorm"
  bottom: "stage4_unit1_conv2"
  top: "stage4_unit1_bn3"
  batch_norm_param {
    use_global_stats: false
    moving_average_fraction: 0.9
    eps: 2e-05
  }
}
layer {
  name: "stage4_unit1_bn3_scale"
  type: "Scale"
  bottom: "stage4_unit1_bn3"
  top: "stage4_unit1_bn3"
  scale_param {
    bias_term: true
  }
}
layer {
  name: "stage4_unit1_conv1sc"
  type: "Convolution"
  bottom: "_plus5"
  top: "stage4_unit1_conv1sc"
  param {
    lr_mult: 1
    decay_mult: 1
  }
  convolution_param {
    num_output: 512
    bias_term: false
    kernel_size: 1
    stride: 2
    weight_filler {
      type: "gaussian"
      std: 0.01
    }
    engine: CAFFE
  }
}
layer {
  name: "stage4_unit1_sc"
  type: "BatchNorm"
  bottom: "stage4_unit1_conv1sc"
  top: "stage4_unit1_sc"
  batch_norm_param {
    use_global_stats: false
    moving_average_fraction: 0.9
    eps: 2e-05
  }
}
layer {
  name: "stage4_unit1_sc_scale"
  type: "Scale"
  bottom: "stage4_unit1_sc"
  top: "stage4_unit1_sc"
  scale_param {
    bias_term: true
  }
}
layer {
  name: "_plus6"
  type: "Eltwise"
  bottom: "stage4_unit1_bn3"
  bottom: "stage4_unit1_sc"
  top: "_plus6"
  eltwise_param {
    operation: SUM
  }
}
layer {
  name: "stage4_unit2_bn1"
  type: "BatchNorm"
  bottom: "_plus6"
  top: "stage4_unit2_bn1"
  batch_norm_param {
    use_global_stats: false
    moving_average_fraction: 0.9
    eps: 2e-05
  }
}
layer {
  name: "stage4_unit2_bn1_scale"
  type: "Scale"
  bottom: "stage4_unit2_bn1"
  top: "stage4_unit2_bn1"
  scale_param {
    bias_term: true
  }
}
layer {
  name: "stage4_unit2_conv1"
  type: "Convolution"
  bottom: "stage4_unit2_bn1"
  top: "stage4_unit2_conv1"
  param {
    lr_mult: 1
    decay_mult: 1
  }
  convolution_param {
    num_output: 512
    bias_term: false
    pad: 1
    kernel_size: 3
    stride: 1
    weight_filler {
      type: "gaussian"
      std: 0.01
    }
    engine: CAFFE
  }
}
layer {
  name: "stage4_unit2_bn2"
  type: "BatchNorm"
  bottom: "stage4_unit2_conv1"
  top: "stage4_unit2_bn2"
  batch_norm_param {
    use_global_stats: false
    moving_average_fraction: 0.9
    eps: 2e-05
  }
}
layer {
  name: "stage4_unit2_bn2_scale"
  type: "Scale"
  bottom: "stage4_unit2_bn2"
  top: "stage4_unit2_bn2"
  scale_param {
    bias_term: true
  }
}
layer {
  name: "stage4_unit2_relu1"
  type: "ReLU"
  bottom: "stage4_unit2_bn2"
  top: "stage4_unit2_relu1"
}
layer {
  name: "stage4_unit2_conv2"
  type: "Convolution"
  bottom: "stage4_unit2_relu1"
  top: "stage4_unit2_conv2"
  param {
    lr_mult: 1
    decay_mult: 1
  }
  convolution_param {
    num_output: 512
    bias_term: false
    pad: 1
    kernel_size: 3
    stride: 1
    weight_filler {
      type: "gaussian"
      std: 0.01
    }
    engine: CAFFE
  }
}
layer {
  name: "stage4_unit2_bn3"
  type: "BatchNorm"
  bottom: "stage4_unit2_conv2"
  top: "stage4_unit2_bn3"
  batch_norm_param {
    use_global_stats: false
    moving_average_fraction: 0.9
    eps: 2e-05
  }
}
layer {
  name: "stage4_unit2_bn3_scale"
  type: "Scale"
  bottom: "stage4_unit2_bn3"
  top: "stage4_unit2_bn3"
  scale_param {
    bias_term: true
  }
}
layer {
  name: "_plus7"
  type: "Eltwise"
  bottom: "stage4_unit2_bn3"
  bottom: "_plus6"
  top: "_plus7"
  eltwise_param {
    operation: SUM
  }
}
layer {
  name: "bn1"
  type: "BatchNorm"
  bottom: "_plus7"
  top: "bn1"
  batch_norm_param {
    use_global_stats: false
    moving_average_fraction: 0.9
    eps: 2e-05
  }
}
layer {
  name: "bn1_scale"
  type: "Scale"
  bottom: "bn1"
  top: "bn1"
  scale_param {
    bias_term: true
  }
}
layer {
  name: "fc8"
  type: "InnerProduct"
  bottom: "bn1"
  top: "fc8"
  param {
    lr_mult: 1
    decay_mult: 1
  }
  param {
    lr_mult: 2
    decay_mult: 0
  }
  inner_product_param {
    num_output: 2
    weight_filler {
      type: "msra"
      std: 0.01
    }
    bias_filler {
      type: "constant"
      value: 0
    }
  }
}
layer {
  name: "accuracy"
  type: "Accuracy"
  bottom: "fc8"
  bottom: "label"
  top: "accuracy"
  include {
    phase: TEST
  }
}
layer {
  name: "loss"
  type: "WeightedSoftmaxWithLoss"
  bottom: "fc8"
  bottom: "label"
  top: "loss"
  softmax_param {
    pos_mult: 1.3
    pos_cid: 1
  }
}
I0107 20:03:11.817772  3312 layer_factory.hpp:77] Creating layer data
I0107 20:03:11.817914  3312 db_lmdb.cpp:35] Opened lmdb /home/lc/gender/school/data/val.lmdb
I0107 20:03:11.817955  3312 net.cpp:84] Creating Layer data
I0107 20:03:11.817977  3312 net.cpp:380] data -> data
I0107 20:03:11.818009  3312 net.cpp:380] data -> label
I0107 20:03:11.818408  3312 data_layer.cpp:45] output data size: 8,3,200,200
I0107 20:03:11.834688  3312 net.cpp:122] Setting up data
I0107 20:03:11.834774  3312 net.cpp:129] Top shape: 8 3 200 200 (960000)
I0107 20:03:11.834795  3312 net.cpp:129] Top shape: 8 (8)
I0107 20:03:11.834810  3312 net.cpp:137] Memory required for data: 3840032
I0107 20:03:11.834830  3312 layer_factory.hpp:77] Creating layer label_data_1_split
I0107 20:03:11.834861  3312 net.cpp:84] Creating Layer label_data_1_split
I0107 20:03:11.834879  3312 net.cpp:406] label_data_1_split <- label
I0107 20:03:11.834903  3312 net.cpp:380] label_data_1_split -> label_data_1_split_0
I0107 20:03:11.834930  3312 net.cpp:380] label_data_1_split -> label_data_1_split_1
I0107 20:03:11.835027  3312 net.cpp:122] Setting up label_data_1_split
I0107 20:03:11.835049  3312 net.cpp:129] Top shape: 8 (8)
I0107 20:03:11.835067  3312 net.cpp:129] Top shape: 8 (8)
I0107 20:03:11.835080  3312 net.cpp:137] Memory required for data: 3840096
I0107 20:03:11.835096  3312 layer_factory.hpp:77] Creating layer conv0
I0107 20:03:11.835126  3312 net.cpp:84] Creating Layer conv0
I0107 20:03:11.835142  3312 net.cpp:406] conv0 <- data
I0107 20:03:11.835163  3312 net.cpp:380] conv0 -> conv0
I0107 20:03:11.835518  3312 net.cpp:122] Setting up conv0
I0107 20:03:11.835546  3312 net.cpp:129] Top shape: 8 64 200 200 (20480000)
I0107 20:03:11.835580  3312 net.cpp:137] Memory required for data: 85760096
I0107 20:03:11.835609  3312 layer_factory.hpp:77] Creating layer bn0
I0107 20:03:11.835631  3312 net.cpp:84] Creating Layer bn0
I0107 20:03:11.835647  3312 net.cpp:406] bn0 <- conv0
I0107 20:03:11.835665  3312 net.cpp:380] bn0 -> bn0
I0107 20:03:11.836045  3312 net.cpp:122] Setting up bn0
I0107 20:03:11.836071  3312 net.cpp:129] Top shape: 8 64 200 200 (20480000)
I0107 20:03:11.836087  3312 net.cpp:137] Memory required for data: 167680096
I0107 20:03:11.836114  3312 layer_factory.hpp:77] Creating layer bn0_scale
I0107 20:03:11.836138  3312 net.cpp:84] Creating Layer bn0_scale
I0107 20:03:11.836153  3312 net.cpp:406] bn0_scale <- bn0
I0107 20:03:11.836171  3312 net.cpp:367] bn0_scale -> bn0 (in-place)
I0107 20:03:11.836244  3312 layer_factory.hpp:77] Creating layer bn0_scale
I0107 20:03:11.836572  3312 net.cpp:122] Setting up bn0_scale
I0107 20:03:11.836596  3312 net.cpp:129] Top shape: 8 64 200 200 (20480000)
I0107 20:03:11.836612  3312 net.cpp:137] Memory required for data: 249600096
I0107 20:03:11.836634  3312 layer_factory.hpp:77] Creating layer relu0
I0107 20:03:11.836654  3312 net.cpp:84] Creating Layer relu0
I0107 20:03:11.836669  3312 net.cpp:406] relu0 <- bn0
I0107 20:03:11.836688  3312 net.cpp:380] relu0 -> relu0
I0107 20:03:11.837213  3312 net.cpp:122] Setting up relu0
I0107 20:03:11.837249  3312 net.cpp:129] Top shape: 8 64 200 200 (20480000)
I0107 20:03:11.837263  3312 net.cpp:137] Memory required for data: 331520096
I0107 20:03:11.837280  3312 layer_factory.hpp:77] Creating layer relu0_relu0_0_split
I0107 20:03:11.837301  3312 net.cpp:84] Creating Layer relu0_relu0_0_split
I0107 20:03:11.837316  3312 net.cpp:406] relu0_relu0_0_split <- relu0
I0107 20:03:11.837334  3312 net.cpp:380] relu0_relu0_0_split -> relu0_relu0_0_split_0
I0107 20:03:11.837357  3312 net.cpp:380] relu0_relu0_0_split -> relu0_relu0_0_split_1
I0107 20:03:11.837425  3312 net.cpp:122] Setting up relu0_relu0_0_split
I0107 20:03:11.837450  3312 net.cpp:129] Top shape: 8 64 200 200 (20480000)
I0107 20:03:11.837467  3312 net.cpp:129] Top shape: 8 64 200 200 (20480000)
I0107 20:03:11.837482  3312 net.cpp:137] Memory required for data: 495360096
I0107 20:03:11.837497  3312 layer_factory.hpp:77] Creating layer stage1_unit1_bn1
I0107 20:03:11.837518  3312 net.cpp:84] Creating Layer stage1_unit1_bn1
I0107 20:03:11.837533  3312 net.cpp:406] stage1_unit1_bn1 <- relu0_relu0_0_split_0
I0107 20:03:11.837553  3312 net.cpp:380] stage1_unit1_bn1 -> stage1_unit1_bn1
I0107 20:03:11.837929  3312 net.cpp:122] Setting up stage1_unit1_bn1
I0107 20:03:11.837957  3312 net.cpp:129] Top shape: 8 64 200 200 (20480000)
I0107 20:03:11.837972  3312 net.cpp:137] Memory required for data: 577280096
I0107 20:03:11.838001  3312 layer_factory.hpp:77] Creating layer stage1_unit1_bn1_scale
I0107 20:03:11.838024  3312 net.cpp:84] Creating Layer stage1_unit1_bn1_scale
I0107 20:03:11.838040  3312 net.cpp:406] stage1_unit1_bn1_scale <- stage1_unit1_bn1
I0107 20:03:11.838060  3312 net.cpp:367] stage1_unit1_bn1_scale -> stage1_unit1_bn1 (in-place)
I0107 20:03:11.838140  3312 layer_factory.hpp:77] Creating layer stage1_unit1_bn1_scale
I0107 20:03:11.838477  3312 net.cpp:122] Setting up stage1_unit1_bn1_scale
I0107 20:03:11.838508  3312 net.cpp:129] Top shape: 8 64 200 200 (20480000)
I0107 20:03:11.838524  3312 net.cpp:137] Memory required for data: 659200096
I0107 20:03:11.838546  3312 layer_factory.hpp:77] Creating layer stage1_unit1_conv1
I0107 20:03:11.838573  3312 net.cpp:84] Creating Layer stage1_unit1_conv1
I0107 20:03:11.838589  3312 net.cpp:406] stage1_unit1_conv1 <- stage1_unit1_bn1
I0107 20:03:11.838610  3312 net.cpp:380] stage1_unit1_conv1 -> stage1_unit1_conv1
I0107 20:03:11.839658  3312 net.cpp:122] Setting up stage1_unit1_conv1
I0107 20:03:11.839686  3312 net.cpp:129] Top shape: 8 64 200 200 (20480000)
I0107 20:03:11.839702  3312 net.cpp:137] Memory required for data: 741120096
I0107 20:03:11.839720  3312 layer_factory.hpp:77] Creating layer stage1_unit1_bn2
I0107 20:03:11.839741  3312 net.cpp:84] Creating Layer stage1_unit1_bn2
I0107 20:03:11.839776  3312 net.cpp:406] stage1_unit1_bn2 <- stage1_unit1_conv1
I0107 20:03:11.839799  3312 net.cpp:380] stage1_unit1_bn2 -> stage1_unit1_bn2
I0107 20:03:11.840252  3312 net.cpp:122] Setting up stage1_unit1_bn2
I0107 20:03:11.847983  3312 net.cpp:129] Top shape: 8 64 200 200 (20480000)
I0107 20:03:11.848052  3312 net.cpp:137] Memory required for data: 823040096
I0107 20:03:11.848093  3312 layer_factory.hpp:77] Creating layer stage1_unit1_bn2_scale
I0107 20:03:11.848126  3312 net.cpp:84] Creating Layer stage1_unit1_bn2_scale
I0107 20:03:11.848146  3312 net.cpp:406] stage1_unit1_bn2_scale <- stage1_unit1_bn2
I0107 20:03:11.848176  3312 net.cpp:367] stage1_unit1_bn2_scale -> stage1_unit1_bn2 (in-place)
I0107 20:03:11.848349  3312 layer_factory.hpp:77] Creating layer stage1_unit1_bn2_scale
I0107 20:03:11.848727  3312 net.cpp:122] Setting up stage1_unit1_bn2_scale
I0107 20:03:11.848757  3312 net.cpp:129] Top shape: 8 64 200 200 (20480000)
I0107 20:03:11.848773  3312 net.cpp:137] Memory required for data: 904960096
I0107 20:03:11.848803  3312 layer_factory.hpp:77] Creating layer stage1_unit1_relu1
I0107 20:03:11.848826  3312 net.cpp:84] Creating Layer stage1_unit1_relu1
I0107 20:03:11.848845  3312 net.cpp:406] stage1_unit1_relu1 <- stage1_unit1_bn2
I0107 20:03:11.848865  3312 net.cpp:380] stage1_unit1_relu1 -> stage1_unit1_relu1
I0107 20:03:11.849110  3312 net.cpp:122] Setting up stage1_unit1_relu1
I0107 20:03:11.849140  3312 net.cpp:129] Top shape: 8 64 200 200 (20480000)
I0107 20:03:11.849156  3312 net.cpp:137] Memory required for data: 986880096
I0107 20:03:11.849174  3312 layer_factory.hpp:77] Creating layer stage1_unit1_conv2
I0107 20:03:11.849200  3312 net.cpp:84] Creating Layer stage1_unit1_conv2
I0107 20:03:11.849217  3312 net.cpp:406] stage1_unit1_conv2 <- stage1_unit1_relu1
I0107 20:03:11.849241  3312 net.cpp:380] stage1_unit1_conv2 -> stage1_unit1_conv2
I0107 20:03:11.850319  3312 net.cpp:122] Setting up stage1_unit1_conv2
I0107 20:03:11.850349  3312 net.cpp:129] Top shape: 8 64 100 100 (5120000)
I0107 20:03:11.850364  3312 net.cpp:137] Memory required for data: 1007360096
I0107 20:03:11.850385  3312 layer_factory.hpp:77] Creating layer stage1_unit1_bn3
I0107 20:03:11.850411  3312 net.cpp:84] Creating Layer stage1_unit1_bn3
I0107 20:03:11.850428  3312 net.cpp:406] stage1_unit1_bn3 <- stage1_unit1_conv2
I0107 20:03:11.850450  3312 net.cpp:380] stage1_unit1_bn3 -> stage1_unit1_bn3
I0107 20:03:11.850807  3312 net.cpp:122] Setting up stage1_unit1_bn3
I0107 20:03:11.850834  3312 net.cpp:129] Top shape: 8 64 100 100 (5120000)
I0107 20:03:11.850850  3312 net.cpp:137] Memory required for data: 1027840096
I0107 20:03:11.850875  3312 layer_factory.hpp:77] Creating layer stage1_unit1_bn3_scale
I0107 20:03:11.850903  3312 net.cpp:84] Creating Layer stage1_unit1_bn3_scale
I0107 20:03:11.850919  3312 net.cpp:406] stage1_unit1_bn3_scale <- stage1_unit1_bn3
I0107 20:03:11.850937  3312 net.cpp:367] stage1_unit1_bn3_scale -> stage1_unit1_bn3 (in-place)
I0107 20:03:11.851017  3312 layer_factory.hpp:77] Creating layer stage1_unit1_bn3_scale
I0107 20:03:11.851269  3312 net.cpp:122] Setting up stage1_unit1_bn3_scale
I0107 20:03:11.851296  3312 net.cpp:129] Top shape: 8 64 100 100 (5120000)
I0107 20:03:11.851311  3312 net.cpp:137] Memory required for data: 1048320096
I0107 20:03:11.851332  3312 layer_factory.hpp:77] Creating layer stage1_unit1_conv1sc
I0107 20:03:11.851366  3312 net.cpp:84] Creating Layer stage1_unit1_conv1sc
I0107 20:03:11.851383  3312 net.cpp:406] stage1_unit1_conv1sc <- relu0_relu0_0_split_1
I0107 20:03:11.851404  3312 net.cpp:380] stage1_unit1_conv1sc -> stage1_unit1_conv1sc
I0107 20:03:11.851788  3312 net.cpp:122] Setting up stage1_unit1_conv1sc
I0107 20:03:11.851814  3312 net.cpp:129] Top shape: 8 64 100 100 (5120000)
I0107 20:03:11.851830  3312 net.cpp:137] Memory required for data: 1068800096
I0107 20:03:11.851847  3312 layer_factory.hpp:77] Creating layer stage1_unit1_sc
I0107 20:03:11.851867  3312 net.cpp:84] Creating Layer stage1_unit1_sc
I0107 20:03:11.851883  3312 net.cpp:406] stage1_unit1_sc <- stage1_unit1_conv1sc
I0107 20:03:11.851949  3312 net.cpp:380] stage1_unit1_sc -> stage1_unit1_sc
I0107 20:03:11.852316  3312 net.cpp:122] Setting up stage1_unit1_sc
I0107 20:03:11.852344  3312 net.cpp:129] Top shape: 8 64 100 100 (5120000)
I0107 20:03:11.852360  3312 net.cpp:137] Memory required for data: 1089280096
I0107 20:03:11.852382  3312 layer_factory.hpp:77] Creating layer stage1_unit1_sc_scale
I0107 20:03:11.852402  3312 net.cpp:84] Creating Layer stage1_unit1_sc_scale
I0107 20:03:11.852417  3312 net.cpp:406] stage1_unit1_sc_scale <- stage1_unit1_sc
I0107 20:03:11.852438  3312 net.cpp:367] stage1_unit1_sc_scale -> stage1_unit1_sc (in-place)
I0107 20:03:11.852519  3312 layer_factory.hpp:77] Creating layer stage1_unit1_sc_scale
I0107 20:03:11.854701  3312 net.cpp:122] Setting up stage1_unit1_sc_scale
I0107 20:03:11.859966  3312 net.cpp:129] Top shape: 8 64 100 100 (5120000)
I0107 20:03:11.860030  3312 net.cpp:137] Memory required for data: 1109760096
I0107 20:03:11.860070  3312 layer_factory.hpp:77] Creating layer _plus0
I0107 20:03:11.860106  3312 net.cpp:84] Creating Layer _plus0
I0107 20:03:11.860126  3312 net.cpp:406] _plus0 <- stage1_unit1_bn3
I0107 20:03:11.860149  3312 net.cpp:406] _plus0 <- stage1_unit1_sc
I0107 20:03:11.860172  3312 net.cpp:380] _plus0 -> _plus0
I0107 20:03:11.860292  3312 net.cpp:122] Setting up _plus0
I0107 20:03:11.860318  3312 net.cpp:129] Top shape: 8 64 100 100 (5120000)
I0107 20:03:11.860333  3312 net.cpp:137] Memory required for data: 1130240096
I0107 20:03:11.860349  3312 layer_factory.hpp:77] Creating layer _plus0__plus0_0_split
I0107 20:03:11.860369  3312 net.cpp:84] Creating Layer _plus0__plus0_0_split
I0107 20:03:11.860385  3312 net.cpp:406] _plus0__plus0_0_split <- _plus0
I0107 20:03:11.860415  3312 net.cpp:380] _plus0__plus0_0_split -> _plus0__plus0_0_split_0
I0107 20:03:11.860440  3312 net.cpp:380] _plus0__plus0_0_split -> _plus0__plus0_0_split_1
I0107 20:03:11.860527  3312 net.cpp:122] Setting up _plus0__plus0_0_split
I0107 20:03:11.860549  3312 net.cpp:129] Top shape: 8 64 100 100 (5120000)
I0107 20:03:11.860569  3312 net.cpp:129] Top shape: 8 64 100 100 (5120000)
I0107 20:03:11.860584  3312 net.cpp:137] Memory required for data: 1171200096
I0107 20:03:11.860599  3312 layer_factory.hpp:77] Creating layer stage1_unit2_bn1
I0107 20:03:11.860620  3312 net.cpp:84] Creating Layer stage1_unit2_bn1
I0107 20:03:11.860635  3312 net.cpp:406] stage1_unit2_bn1 <- _plus0__plus0_0_split_0
I0107 20:03:11.860654  3312 net.cpp:380] stage1_unit2_bn1 -> stage1_unit2_bn1
I0107 20:03:11.861066  3312 net.cpp:122] Setting up stage1_unit2_bn1
I0107 20:03:11.861102  3312 net.cpp:129] Top shape: 8 64 100 100 (5120000)
I0107 20:03:11.861119  3312 net.cpp:137] Memory required for data: 1191680096
I0107 20:03:11.861150  3312 layer_factory.hpp:77] Creating layer stage1_unit2_bn1_scale
I0107 20:03:11.861176  3312 net.cpp:84] Creating Layer stage1_unit2_bn1_scale
I0107 20:03:11.861193  3312 net.cpp:406] stage1_unit2_bn1_scale <- stage1_unit2_bn1
I0107 20:03:11.861217  3312 net.cpp:367] stage1_unit2_bn1_scale -> stage1_unit2_bn1 (in-place)
I0107 20:03:11.861308  3312 layer_factory.hpp:77] Creating layer stage1_unit2_bn1_scale
I0107 20:03:11.861546  3312 net.cpp:122] Setting up stage1_unit2_bn1_scale
I0107 20:03:11.861572  3312 net.cpp:129] Top shape: 8 64 100 100 (5120000)
I0107 20:03:11.861588  3312 net.cpp:137] Memory required for data: 1212160096
I0107 20:03:11.861620  3312 layer_factory.hpp:77] Creating layer stage1_unit2_conv1
I0107 20:03:11.861652  3312 net.cpp:84] Creating Layer stage1_unit2_conv1
I0107 20:03:11.861670  3312 net.cpp:406] stage1_unit2_conv1 <- stage1_unit2_bn1
I0107 20:03:11.861690  3312 net.cpp:380] stage1_unit2_conv1 -> stage1_unit2_conv1
I0107 20:03:11.862757  3312 net.cpp:122] Setting up stage1_unit2_conv1
I0107 20:03:11.862804  3312 net.cpp:129] Top shape: 8 64 100 100 (5120000)
I0107 20:03:11.862820  3312 net.cpp:137] Memory required for data: 1232640096
I0107 20:03:11.862841  3312 layer_factory.hpp:77] Creating layer stage1_unit2_bn2
I0107 20:03:11.862864  3312 net.cpp:84] Creating Layer stage1_unit2_bn2
I0107 20:03:11.862902  3312 net.cpp:406] stage1_unit2_bn2 <- stage1_unit2_conv1
I0107 20:03:11.862931  3312 net.cpp:380] stage1_unit2_bn2 -> stage1_unit2_bn2
I0107 20:03:11.863284  3312 net.cpp:122] Setting up stage1_unit2_bn2
I0107 20:03:11.863315  3312 net.cpp:129] Top shape: 8 64 100 100 (5120000)
I0107 20:03:11.863332  3312 net.cpp:137] Memory required for data: 1253120096
I0107 20:03:11.863356  3312 layer_factory.hpp:77] Creating layer stage1_unit2_bn2_scale
I0107 20:03:11.863379  3312 net.cpp:84] Creating Layer stage1_unit2_bn2_scale
I0107 20:03:11.863394  3312 net.cpp:406] stage1_unit2_bn2_scale <- stage1_unit2_bn2
I0107 20:03:11.863415  3312 net.cpp:367] stage1_unit2_bn2_scale -> stage1_unit2_bn2 (in-place)
I0107 20:03:11.863498  3312 layer_factory.hpp:77] Creating layer stage1_unit2_bn2_scale
I0107 20:03:11.863734  3312 net.cpp:122] Setting up stage1_unit2_bn2_scale
I0107 20:03:11.863759  3312 net.cpp:129] Top shape: 8 64 100 100 (5120000)
I0107 20:03:11.863775  3312 net.cpp:137] Memory required for data: 1273600096
I0107 20:03:11.863796  3312 layer_factory.hpp:77] Creating layer stage1_unit2_relu1
I0107 20:03:11.863817  3312 net.cpp:84] Creating Layer stage1_unit2_relu1
I0107 20:03:11.863833  3312 net.cpp:406] stage1_unit2_relu1 <- stage1_unit2_bn2
I0107 20:03:11.863860  3312 net.cpp:380] stage1_unit2_relu1 -> stage1_unit2_relu1
I0107 20:03:11.864543  3312 net.cpp:122] Setting up stage1_unit2_relu1
I0107 20:03:11.864590  3312 net.cpp:129] Top shape: 8 64 100 100 (5120000)
I0107 20:03:11.864607  3312 net.cpp:137] Memory required for data: 1294080096
I0107 20:03:11.864626  3312 layer_factory.hpp:77] Creating layer stage1_unit2_conv2
I0107 20:03:11.864658  3312 net.cpp:84] Creating Layer stage1_unit2_conv2
I0107 20:03:11.864676  3312 net.cpp:406] stage1_unit2_conv2 <- stage1_unit2_relu1
I0107 20:03:11.864701  3312 net.cpp:380] stage1_unit2_conv2 -> stage1_unit2_conv2
I0107 20:03:11.865756  3312 net.cpp:122] Setting up stage1_unit2_conv2
I0107 20:03:11.867949  3312 net.cpp:129] Top shape: 8 64 100 100 (5120000)
I0107 20:03:11.867995  3312 net.cpp:137] Memory required for data: 1314560096
I0107 20:03:11.868026  3312 layer_factory.hpp:77] Creating layer stage1_unit2_bn3
I0107 20:03:11.868059  3312 net.cpp:84] Creating Layer stage1_unit2_bn3
I0107 20:03:11.868078  3312 net.cpp:406] stage1_unit2_bn3 <- stage1_unit2_conv2
I0107 20:03:11.868103  3312 net.cpp:380] stage1_unit2_bn3 -> stage1_unit2_bn3
I0107 20:03:11.876521  3312 net.cpp:122] Setting up stage1_unit2_bn3
I0107 20:03:11.876562  3312 net.cpp:129] Top shape: 8 64 100 100 (5120000)
I0107 20:03:11.876569  3312 net.cpp:137] Memory required for data: 1335040096
I0107 20:03:11.876595  3312 layer_factory.hpp:77] Creating layer stage1_unit2_bn3_scale
I0107 20:03:11.876613  3312 net.cpp:84] Creating Layer stage1_unit2_bn3_scale
I0107 20:03:11.876621  3312 net.cpp:406] stage1_unit2_bn3_scale <- stage1_unit2_bn3
I0107 20:03:11.876636  3312 net.cpp:367] stage1_unit2_bn3_scale -> stage1_unit2_bn3 (in-place)
I0107 20:03:11.876713  3312 layer_factory.hpp:77] Creating layer stage1_unit2_bn3_scale
I0107 20:03:11.876920  3312 net.cpp:122] Setting up stage1_unit2_bn3_scale
I0107 20:03:11.876932  3312 net.cpp:129] Top shape: 8 64 100 100 (5120000)
I0107 20:03:11.876937  3312 net.cpp:137] Memory required for data: 1355520096
I0107 20:03:11.876948  3312 layer_factory.hpp:77] Creating layer _plus1
I0107 20:03:11.876962  3312 net.cpp:84] Creating Layer _plus1
I0107 20:03:11.876969  3312 net.cpp:406] _plus1 <- stage1_unit2_bn3
I0107 20:03:11.876978  3312 net.cpp:406] _plus1 <- _plus0__plus0_0_split_1
I0107 20:03:11.876991  3312 net.cpp:380] _plus1 -> _plus1
I0107 20:03:11.877032  3312 net.cpp:122] Setting up _plus1
I0107 20:03:11.877043  3312 net.cpp:129] Top shape: 8 64 100 100 (5120000)
I0107 20:03:11.877048  3312 net.cpp:137] Memory required for data: 1376000096
I0107 20:03:11.877055  3312 layer_factory.hpp:77] Creating layer _plus1__plus1_0_split
I0107 20:03:11.877065  3312 net.cpp:84] Creating Layer _plus1__plus1_0_split
I0107 20:03:11.877071  3312 net.cpp:406] _plus1__plus1_0_split <- _plus1
I0107 20:03:11.877082  3312 net.cpp:380] _plus1__plus1_0_split -> _plus1__plus1_0_split_0
I0107 20:03:11.877095  3312 net.cpp:380] _plus1__plus1_0_split -> _plus1__plus1_0_split_1
I0107 20:03:11.877147  3312 net.cpp:122] Setting up _plus1__plus1_0_split
I0107 20:03:11.877157  3312 net.cpp:129] Top shape: 8 64 100 100 (5120000)
I0107 20:03:11.877166  3312 net.cpp:129] Top shape: 8 64 100 100 (5120000)
I0107 20:03:11.877172  3312 net.cpp:137] Memory required for data: 1416960096
I0107 20:03:11.877179  3312 layer_factory.hpp:77] Creating layer stage2_unit1_bn1
I0107 20:03:11.877197  3312 net.cpp:84] Creating Layer stage2_unit1_bn1
I0107 20:03:11.877202  3312 net.cpp:406] stage2_unit1_bn1 <- _plus1__plus1_0_split_0
I0107 20:03:11.877212  3312 net.cpp:380] stage2_unit1_bn1 -> stage2_unit1_bn1
I0107 20:03:11.877537  3312 net.cpp:122] Setting up stage2_unit1_bn1
I0107 20:03:11.877548  3312 net.cpp:129] Top shape: 8 64 100 100 (5120000)
I0107 20:03:11.877554  3312 net.cpp:137] Memory required for data: 1437440096
I0107 20:03:11.877569  3312 layer_factory.hpp:77] Creating layer stage2_unit1_bn1_scale
I0107 20:03:11.877579  3312 net.cpp:84] Creating Layer stage2_unit1_bn1_scale
I0107 20:03:11.877585  3312 net.cpp:406] stage2_unit1_bn1_scale <- stage2_unit1_bn1
I0107 20:03:11.877593  3312 net.cpp:367] stage2_unit1_bn1_scale -> stage2_unit1_bn1 (in-place)
I0107 20:03:11.877655  3312 layer_factory.hpp:77] Creating layer stage2_unit1_bn1_scale
I0107 20:03:11.877857  3312 net.cpp:122] Setting up stage2_unit1_bn1_scale
I0107 20:03:11.877869  3312 net.cpp:129] Top shape: 8 64 100 100 (5120000)
I0107 20:03:11.877876  3312 net.cpp:137] Memory required for data: 1457920096
I0107 20:03:11.877887  3312 layer_factory.hpp:77] Creating layer stage2_unit1_conv1
I0107 20:03:11.877907  3312 net.cpp:84] Creating Layer stage2_unit1_conv1
I0107 20:03:11.877913  3312 net.cpp:406] stage2_unit1_conv1 <- stage2_unit1_bn1
I0107 20:03:11.877925  3312 net.cpp:380] stage2_unit1_conv1 -> stage2_unit1_conv1
I0107 20:03:11.879755  3312 net.cpp:122] Setting up stage2_unit1_conv1
I0107 20:03:11.879792  3312 net.cpp:129] Top shape: 8 128 100 100 (10240000)
I0107 20:03:11.879798  3312 net.cpp:137] Memory required for data: 1498880096
I0107 20:03:11.879814  3312 layer_factory.hpp:77] Creating layer stage2_unit1_bn2
I0107 20:03:11.879832  3312 net.cpp:84] Creating Layer stage2_unit1_bn2
I0107 20:03:11.879840  3312 net.cpp:406] stage2_unit1_bn2 <- stage2_unit1_conv1
I0107 20:03:11.879861  3312 net.cpp:380] stage2_unit1_bn2 -> stage2_unit1_bn2
I0107 20:03:11.880228  3312 net.cpp:122] Setting up stage2_unit1_bn2
I0107 20:03:11.880244  3312 net.cpp:129] Top shape: 8 128 100 100 (10240000)
I0107 20:03:11.880250  3312 net.cpp:137] Memory required for data: 1539840096
I0107 20:03:11.880265  3312 layer_factory.hpp:77] Creating layer stage2_unit1_bn2_scale
I0107 20:03:11.880278  3312 net.cpp:84] Creating Layer stage2_unit1_bn2_scale
I0107 20:03:11.880285  3312 net.cpp:406] stage2_unit1_bn2_scale <- stage2_unit1_bn2
I0107 20:03:11.880295  3312 net.cpp:367] stage2_unit1_bn2_scale -> stage2_unit1_bn2 (in-place)
I0107 20:03:11.880358  3312 layer_factory.hpp:77] Creating layer stage2_unit1_bn2_scale
I0107 20:03:11.880550  3312 net.cpp:122] Setting up stage2_unit1_bn2_scale
I0107 20:03:11.880563  3312 net.cpp:129] Top shape: 8 128 100 100 (10240000)
I0107 20:03:11.880568  3312 net.cpp:137] Memory required for data: 1580800096
I0107 20:03:11.880579  3312 layer_factory.hpp:77] Creating layer stage2_unit1_relu1
I0107 20:03:11.880591  3312 net.cpp:84] Creating Layer stage2_unit1_relu1
I0107 20:03:11.880597  3312 net.cpp:406] stage2_unit1_relu1 <- stage2_unit1_bn2
I0107 20:03:11.880609  3312 net.cpp:380] stage2_unit1_relu1 -> stage2_unit1_relu1
I0107 20:03:11.880837  3312 net.cpp:122] Setting up stage2_unit1_relu1
I0107 20:03:11.880851  3312 net.cpp:129] Top shape: 8 128 100 100 (10240000)
I0107 20:03:11.880858  3312 net.cpp:137] Memory required for data: 1621760096
I0107 20:03:11.880864  3312 layer_factory.hpp:77] Creating layer stage2_unit1_conv2
I0107 20:03:11.880883  3312 net.cpp:84] Creating Layer stage2_unit1_conv2
I0107 20:03:11.880890  3312 net.cpp:406] stage2_unit1_conv2 <- stage2_unit1_relu1
I0107 20:03:11.880901  3312 net.cpp:380] stage2_unit1_conv2 -> stage2_unit1_conv2
I0107 20:03:11.884372  3312 net.cpp:122] Setting up stage2_unit1_conv2
I0107 20:03:11.884438  3312 net.cpp:129] Top shape: 8 128 50 50 (2560000)
I0107 20:03:11.884454  3312 net.cpp:137] Memory required for data: 1632000096
I0107 20:03:11.884486  3312 layer_factory.hpp:77] Creating layer stage2_unit1_bn3
I0107 20:03:11.884517  3312 net.cpp:84] Creating Layer stage2_unit1_bn3
I0107 20:03:11.884537  3312 net.cpp:406] stage2_unit1_bn3 <- stage2_unit1_conv2
I0107 20:03:11.884562  3312 net.cpp:380] stage2_unit1_bn3 -> stage2_unit1_bn3
I0107 20:03:11.884915  3312 net.cpp:122] Setting up stage2_unit1_bn3
I0107 20:03:11.884943  3312 net.cpp:129] Top shape: 8 128 50 50 (2560000)
I0107 20:03:11.884958  3312 net.cpp:137] Memory required for data: 1642240096
I0107 20:03:11.884982  3312 layer_factory.hpp:77] Creating layer stage2_unit1_bn3_scale
I0107 20:03:11.885005  3312 net.cpp:84] Creating Layer stage2_unit1_bn3_scale
I0107 20:03:11.885021  3312 net.cpp:406] stage2_unit1_bn3_scale <- stage2_unit1_bn3
I0107 20:03:11.885040  3312 net.cpp:367] stage2_unit1_bn3_scale -> stage2_unit1_bn3 (in-place)
I0107 20:03:11.885125  3312 layer_factory.hpp:77] Creating layer stage2_unit1_bn3_scale
I0107 20:03:11.885316  3312 net.cpp:122] Setting up stage2_unit1_bn3_scale
I0107 20:03:11.885340  3312 net.cpp:129] Top shape: 8 128 50 50 (2560000)
I0107 20:03:11.885355  3312 net.cpp:137] Memory required for data: 1652480096
I0107 20:03:11.885377  3312 layer_factory.hpp:77] Creating layer stage2_unit1_conv1sc
I0107 20:03:11.885408  3312 net.cpp:84] Creating Layer stage2_unit1_conv1sc
I0107 20:03:11.885426  3312 net.cpp:406] stage2_unit1_conv1sc <- _plus1__plus1_0_split_1
I0107 20:03:11.885448  3312 net.cpp:380] stage2_unit1_conv1sc -> stage2_unit1_conv1sc
I0107 20:03:11.885920  3312 net.cpp:122] Setting up stage2_unit1_conv1sc
I0107 20:03:11.885947  3312 net.cpp:129] Top shape: 8 128 50 50 (2560000)
I0107 20:03:11.885962  3312 net.cpp:137] Memory required for data: 1662720096
I0107 20:03:11.885982  3312 layer_factory.hpp:77] Creating layer stage2_unit1_sc
I0107 20:03:11.886003  3312 net.cpp:84] Creating Layer stage2_unit1_sc
I0107 20:03:11.886019  3312 net.cpp:406] stage2_unit1_sc <- stage2_unit1_conv1sc
I0107 20:03:11.886039  3312 net.cpp:380] stage2_unit1_sc -> stage2_unit1_sc
I0107 20:03:11.893326  3312 net.cpp:122] Setting up stage2_unit1_sc
I0107 20:03:11.893401  3312 net.cpp:129] Top shape: 8 128 50 50 (2560000)
I0107 20:03:11.893419  3312 net.cpp:137] Memory required for data: 1672960096
I0107 20:03:11.893468  3312 layer_factory.hpp:77] Creating layer stage2_unit1_sc_scale
I0107 20:03:11.893497  3312 net.cpp:84] Creating Layer stage2_unit1_sc_scale
I0107 20:03:11.893514  3312 net.cpp:406] stage2_unit1_sc_scale <- stage2_unit1_sc
I0107 20:03:11.893535  3312 net.cpp:367] stage2_unit1_sc_scale -> stage2_unit1_sc (in-place)
I0107 20:03:11.893625  3312 layer_factory.hpp:77] Creating layer stage2_unit1_sc_scale
I0107 20:03:11.893824  3312 net.cpp:122] Setting up stage2_unit1_sc_scale
I0107 20:03:11.893854  3312 net.cpp:129] Top shape: 8 128 50 50 (2560000)
I0107 20:03:11.893870  3312 net.cpp:137] Memory required for data: 1683200096
I0107 20:03:11.893893  3312 layer_factory.hpp:77] Creating layer _plus2
I0107 20:03:11.893919  3312 net.cpp:84] Creating Layer _plus2
I0107 20:03:11.893936  3312 net.cpp:406] _plus2 <- stage2_unit1_bn3
I0107 20:03:11.893954  3312 net.cpp:406] _plus2 <- stage2_unit1_sc
I0107 20:03:11.893973  3312 net.cpp:380] _plus2 -> _plus2
I0107 20:03:11.894026  3312 net.cpp:122] Setting up _plus2
I0107 20:03:11.894049  3312 net.cpp:129] Top shape: 8 128 50 50 (2560000)
I0107 20:03:11.894064  3312 net.cpp:137] Memory required for data: 1693440096
I0107 20:03:11.894080  3312 layer_factory.hpp:77] Creating layer _plus2__plus2_0_split
I0107 20:03:11.894099  3312 net.cpp:84] Creating Layer _plus2__plus2_0_split
I0107 20:03:11.894140  3312 net.cpp:406] _plus2__plus2_0_split <- _plus2
I0107 20:03:11.894165  3312 net.cpp:380] _plus2__plus2_0_split -> _plus2__plus2_0_split_0
I0107 20:03:11.894186  3312 net.cpp:380] _plus2__plus2_0_split -> _plus2__plus2_0_split_1
I0107 20:03:11.894266  3312 net.cpp:122] Setting up _plus2__plus2_0_split
I0107 20:03:11.894290  3312 net.cpp:129] Top shape: 8 128 50 50 (2560000)
I0107 20:03:11.894309  3312 net.cpp:129] Top shape: 8 128 50 50 (2560000)
I0107 20:03:11.894323  3312 net.cpp:137] Memory required for data: 1713920096
I0107 20:03:11.894338  3312 layer_factory.hpp:77] Creating layer stage2_unit2_bn1
I0107 20:03:11.894359  3312 net.cpp:84] Creating Layer stage2_unit2_bn1
I0107 20:03:11.894376  3312 net.cpp:406] stage2_unit2_bn1 <- _plus2__plus2_0_split_0
I0107 20:03:11.894394  3312 net.cpp:380] stage2_unit2_bn1 -> stage2_unit2_bn1
I0107 20:03:11.894704  3312 net.cpp:122] Setting up stage2_unit2_bn1
I0107 20:03:11.894729  3312 net.cpp:129] Top shape: 8 128 50 50 (2560000)
I0107 20:03:11.894745  3312 net.cpp:137] Memory required for data: 1724160096
I0107 20:03:11.894768  3312 layer_factory.hpp:77] Creating layer stage2_unit2_bn1_scale
I0107 20:03:11.894788  3312 net.cpp:84] Creating Layer stage2_unit2_bn1_scale
I0107 20:03:11.894804  3312 net.cpp:406] stage2_unit2_bn1_scale <- stage2_unit2_bn1
I0107 20:03:11.894824  3312 net.cpp:367] stage2_unit2_bn1_scale -> stage2_unit2_bn1 (in-place)
I0107 20:03:11.894898  3312 layer_factory.hpp:77] Creating layer stage2_unit2_bn1_scale
I0107 20:03:11.895087  3312 net.cpp:122] Setting up stage2_unit2_bn1_scale
I0107 20:03:11.895110  3312 net.cpp:129] Top shape: 8 128 50 50 (2560000)
I0107 20:03:11.895125  3312 net.cpp:137] Memory required for data: 1734400096
I0107 20:03:11.895145  3312 layer_factory.hpp:77] Creating layer stage2_unit2_conv1
I0107 20:03:11.895174  3312 net.cpp:84] Creating Layer stage2_unit2_conv1
I0107 20:03:11.895191  3312 net.cpp:406] stage2_unit2_conv1 <- stage2_unit2_bn1
I0107 20:03:11.895215  3312 net.cpp:380] stage2_unit2_conv1 -> stage2_unit2_conv1
I0107 20:03:11.900282  3312 net.cpp:122] Setting up stage2_unit2_conv1
I0107 20:03:11.900377  3312 net.cpp:129] Top shape: 8 128 50 50 (2560000)
I0107 20:03:11.900398  3312 net.cpp:137] Memory required for data: 1744640096
I0107 20:03:11.900426  3312 layer_factory.hpp:77] Creating layer stage2_unit2_bn2
I0107 20:03:11.900455  3312 net.cpp:84] Creating Layer stage2_unit2_bn2
I0107 20:03:11.900473  3312 net.cpp:406] stage2_unit2_bn2 <- stage2_unit2_conv1
I0107 20:03:11.900501  3312 net.cpp:380] stage2_unit2_bn2 -> stage2_unit2_bn2
I0107 20:03:11.900863  3312 net.cpp:122] Setting up stage2_unit2_bn2
I0107 20:03:11.900890  3312 net.cpp:129] Top shape: 8 128 50 50 (2560000)
I0107 20:03:11.900907  3312 net.cpp:137] Memory required for data: 1754880096
I0107 20:03:11.900930  3312 layer_factory.hpp:77] Creating layer stage2_unit2_bn2_scale
I0107 20:03:11.900954  3312 net.cpp:84] Creating Layer stage2_unit2_bn2_scale
I0107 20:03:11.900969  3312 net.cpp:406] stage2_unit2_bn2_scale <- stage2_unit2_bn2
I0107 20:03:11.900990  3312 net.cpp:367] stage2_unit2_bn2_scale -> stage2_unit2_bn2 (in-place)
I0107 20:03:11.901070  3312 layer_factory.hpp:77] Creating layer stage2_unit2_bn2_scale
I0107 20:03:11.901264  3312 net.cpp:122] Setting up stage2_unit2_bn2_scale
I0107 20:03:11.901289  3312 net.cpp:129] Top shape: 8 128 50 50 (2560000)
I0107 20:03:11.901304  3312 net.cpp:137] Memory required for data: 1765120096
I0107 20:03:11.901325  3312 layer_factory.hpp:77] Creating layer stage2_unit2_relu1
I0107 20:03:11.901346  3312 net.cpp:84] Creating Layer stage2_unit2_relu1
I0107 20:03:11.901362  3312 net.cpp:406] stage2_unit2_relu1 <- stage2_unit2_bn2
I0107 20:03:11.901383  3312 net.cpp:380] stage2_unit2_relu1 -> stage2_unit2_relu1
I0107 20:03:11.904554  3312 net.cpp:122] Setting up stage2_unit2_relu1
I0107 20:03:11.904650  3312 net.cpp:129] Top shape: 8 128 50 50 (2560000)
I0107 20:03:11.904670  3312 net.cpp:137] Memory required for data: 1775360096
I0107 20:03:11.904688  3312 layer_factory.hpp:77] Creating layer stage2_unit2_conv2
I0107 20:03:11.904750  3312 net.cpp:84] Creating Layer stage2_unit2_conv2
I0107 20:03:11.904776  3312 net.cpp:406] stage2_unit2_conv2 <- stage2_unit2_relu1
I0107 20:03:11.904806  3312 net.cpp:380] stage2_unit2_conv2 -> stage2_unit2_conv2
I0107 20:03:11.908205  3312 net.cpp:122] Setting up stage2_unit2_conv2
I0107 20:03:11.908282  3312 net.cpp:129] Top shape: 8 128 50 50 (2560000)
I0107 20:03:11.908300  3312 net.cpp:137] Memory required for data: 1785600096
I0107 20:03:11.908329  3312 layer_factory.hpp:77] Creating layer stage2_unit2_bn3
I0107 20:03:11.908357  3312 net.cpp:84] Creating Layer stage2_unit2_bn3
I0107 20:03:11.908375  3312 net.cpp:406] stage2_unit2_bn3 <- stage2_unit2_conv2
I0107 20:03:11.908399  3312 net.cpp:380] stage2_unit2_bn3 -> stage2_unit2_bn3
I0107 20:03:11.908756  3312 net.cpp:122] Setting up stage2_unit2_bn3
I0107 20:03:11.908790  3312 net.cpp:129] Top shape: 8 128 50 50 (2560000)
I0107 20:03:11.908812  3312 net.cpp:137] Memory required for data: 1795840096
I0107 20:03:11.908843  3312 layer_factory.hpp:77] Creating layer stage2_unit2_bn3_scale
I0107 20:03:11.908870  3312 net.cpp:84] Creating Layer stage2_unit2_bn3_scale
I0107 20:03:11.908891  3312 net.cpp:406] stage2_unit2_bn3_scale <- stage2_unit2_bn3
I0107 20:03:11.908915  3312 net.cpp:367] stage2_unit2_bn3_scale -> stage2_unit2_bn3 (in-place)
I0107 20:03:11.909027  3312 layer_factory.hpp:77] Creating layer stage2_unit2_bn3_scale
I0107 20:03:11.909250  3312 net.cpp:122] Setting up stage2_unit2_bn3_scale
I0107 20:03:11.909281  3312 net.cpp:129] Top shape: 8 128 50 50 (2560000)
I0107 20:03:11.909299  3312 net.cpp:137] Memory required for data: 1806080096
I0107 20:03:11.909325  3312 layer_factory.hpp:77] Creating layer _plus3
I0107 20:03:11.909355  3312 net.cpp:84] Creating Layer _plus3
I0107 20:03:11.909376  3312 net.cpp:406] _plus3 <- stage2_unit2_bn3
I0107 20:03:11.909399  3312 net.cpp:406] _plus3 <- _plus2__plus2_0_split_1
I0107 20:03:11.909425  3312 net.cpp:380] _plus3 -> _plus3
I0107 20:03:11.909488  3312 net.cpp:122] Setting up _plus3
I0107 20:03:11.909516  3312 net.cpp:129] Top shape: 8 128 50 50 (2560000)
I0107 20:03:11.909536  3312 net.cpp:137] Memory required for data: 1816320096
I0107 20:03:11.909557  3312 layer_factory.hpp:77] Creating layer _plus3__plus3_0_split
I0107 20:03:11.909580  3312 net.cpp:84] Creating Layer _plus3__plus3_0_split
I0107 20:03:11.909601  3312 net.cpp:406] _plus3__plus3_0_split <- _plus3
I0107 20:03:11.909627  3312 net.cpp:380] _plus3__plus3_0_split -> _plus3__plus3_0_split_0
I0107 20:03:11.909657  3312 net.cpp:380] _plus3__plus3_0_split -> _plus3__plus3_0_split_1
I0107 20:03:11.909740  3312 net.cpp:122] Setting up _plus3__plus3_0_split
I0107 20:03:11.909767  3312 net.cpp:129] Top shape: 8 128 50 50 (2560000)
I0107 20:03:11.909790  3312 net.cpp:129] Top shape: 8 128 50 50 (2560000)
I0107 20:03:11.909809  3312 net.cpp:137] Memory required for data: 1836800096
I0107 20:03:11.909828  3312 layer_factory.hpp:77] Creating layer stage3_unit1_bn1
I0107 20:03:11.909852  3312 net.cpp:84] Creating Layer stage3_unit1_bn1
I0107 20:03:11.909873  3312 net.cpp:406] stage3_unit1_bn1 <- _plus3__plus3_0_split_0
I0107 20:03:11.909898  3312 net.cpp:380] stage3_unit1_bn1 -> stage3_unit1_bn1
I0107 20:03:11.910290  3312 net.cpp:122] Setting up stage3_unit1_bn1
I0107 20:03:11.910320  3312 net.cpp:129] Top shape: 8 128 50 50 (2560000)
I0107 20:03:11.910338  3312 net.cpp:137] Memory required for data: 1847040096
I0107 20:03:11.910369  3312 layer_factory.hpp:77] Creating layer stage3_unit1_bn1_scale
I0107 20:03:11.910401  3312 net.cpp:84] Creating Layer stage3_unit1_bn1_scale
I0107 20:03:11.910429  3312 net.cpp:406] stage3_unit1_bn1_scale <- stage3_unit1_bn1
I0107 20:03:11.910455  3312 net.cpp:367] stage3_unit1_bn1_scale -> stage3_unit1_bn1 (in-place)
I0107 20:03:11.910559  3312 layer_factory.hpp:77] Creating layer stage3_unit1_bn1_scale
I0107 20:03:11.910794  3312 net.cpp:122] Setting up stage3_unit1_bn1_scale
I0107 20:03:11.910826  3312 net.cpp:129] Top shape: 8 128 50 50 (2560000)
I0107 20:03:11.910878  3312 net.cpp:137] Memory required for data: 1857280096
I0107 20:03:11.910907  3312 layer_factory.hpp:77] Creating layer stage3_unit1_conv1
I0107 20:03:11.910944  3312 net.cpp:84] Creating Layer stage3_unit1_conv1
I0107 20:03:11.910966  3312 net.cpp:406] stage3_unit1_conv1 <- stage3_unit1_bn1
I0107 20:03:11.910996  3312 net.cpp:380] stage3_unit1_conv1 -> stage3_unit1_conv1
I0107 20:03:11.919360  3312 net.cpp:122] Setting up stage3_unit1_conv1
I0107 20:03:11.919471  3312 net.cpp:129] Top shape: 8 256 50 50 (5120000)
I0107 20:03:11.919487  3312 net.cpp:137] Memory required for data: 1877760096
I0107 20:03:11.919517  3312 layer_factory.hpp:77] Creating layer stage3_unit1_bn2
I0107 20:03:11.919550  3312 net.cpp:84] Creating Layer stage3_unit1_bn2
I0107 20:03:11.919571  3312 net.cpp:406] stage3_unit1_bn2 <- stage3_unit1_conv1
I0107 20:03:11.919596  3312 net.cpp:380] stage3_unit1_bn2 -> stage3_unit1_bn2
I0107 20:03:11.919999  3312 net.cpp:122] Setting up stage3_unit1_bn2
I0107 20:03:11.920028  3312 net.cpp:129] Top shape: 8 256 50 50 (5120000)
I0107 20:03:11.920044  3312 net.cpp:137] Memory required for data: 1898240096
I0107 20:03:11.920069  3312 layer_factory.hpp:77] Creating layer stage3_unit1_bn2_scale
I0107 20:03:11.920095  3312 net.cpp:84] Creating Layer stage3_unit1_bn2_scale
I0107 20:03:11.920112  3312 net.cpp:406] stage3_unit1_bn2_scale <- stage3_unit1_bn2
I0107 20:03:11.920131  3312 net.cpp:367] stage3_unit1_bn2_scale -> stage3_unit1_bn2 (in-place)
I0107 20:03:11.920219  3312 layer_factory.hpp:77] Creating layer stage3_unit1_bn2_scale
I0107 20:03:11.920413  3312 net.cpp:122] Setting up stage3_unit1_bn2_scale
I0107 20:03:11.920439  3312 net.cpp:129] Top shape: 8 256 50 50 (5120000)
I0107 20:03:11.920454  3312 net.cpp:137] Memory required for data: 1918720096
I0107 20:03:11.920476  3312 layer_factory.hpp:77] Creating layer stage3_unit1_relu1
I0107 20:03:11.920496  3312 net.cpp:84] Creating Layer stage3_unit1_relu1
I0107 20:03:11.920512  3312 net.cpp:406] stage3_unit1_relu1 <- stage3_unit1_bn2
I0107 20:03:11.920531  3312 net.cpp:380] stage3_unit1_relu1 -> stage3_unit1_relu1
I0107 20:03:11.920787  3312 net.cpp:122] Setting up stage3_unit1_relu1
I0107 20:03:11.920815  3312 net.cpp:129] Top shape: 8 256 50 50 (5120000)
I0107 20:03:11.920832  3312 net.cpp:137] Memory required for data: 1939200096
I0107 20:03:11.920847  3312 layer_factory.hpp:77] Creating layer stage3_unit1_conv2
I0107 20:03:11.920877  3312 net.cpp:84] Creating Layer stage3_unit1_conv2
I0107 20:03:11.920894  3312 net.cpp:406] stage3_unit1_conv2 <- stage3_unit1_relu1
I0107 20:03:11.920915  3312 net.cpp:380] stage3_unit1_conv2 -> stage3_unit1_conv2
I0107 20:03:11.935580  3312 net.cpp:122] Setting up stage3_unit1_conv2
I0107 20:03:11.935667  3312 net.cpp:129] Top shape: 8 256 25 25 (1280000)
I0107 20:03:11.935683  3312 net.cpp:137] Memory required for data: 1944320096
I0107 20:03:11.935714  3312 layer_factory.hpp:77] Creating layer stage3_unit1_bn3
I0107 20:03:11.935753  3312 net.cpp:84] Creating Layer stage3_unit1_bn3
I0107 20:03:11.935772  3312 net.cpp:406] stage3_unit1_bn3 <- stage3_unit1_conv2
I0107 20:03:11.935796  3312 net.cpp:380] stage3_unit1_bn3 -> stage3_unit1_bn3
I0107 20:03:11.936142  3312 net.cpp:122] Setting up stage3_unit1_bn3
I0107 20:03:11.936172  3312 net.cpp:129] Top shape: 8 256 25 25 (1280000)
I0107 20:03:11.936188  3312 net.cpp:137] Memory required for data: 1949440096
I0107 20:03:11.936213  3312 layer_factory.hpp:77] Creating layer stage3_unit1_bn3_scale
I0107 20:03:11.936235  3312 net.cpp:84] Creating Layer stage3_unit1_bn3_scale
I0107 20:03:11.936251  3312 net.cpp:406] stage3_unit1_bn3_scale <- stage3_unit1_bn3
I0107 20:03:11.936272  3312 net.cpp:367] stage3_unit1_bn3_scale -> stage3_unit1_bn3 (in-place)
I0107 20:03:11.936352  3312 layer_factory.hpp:77] Creating layer stage3_unit1_bn3_scale
I0107 20:03:11.936535  3312 net.cpp:122] Setting up stage3_unit1_bn3_scale
I0107 20:03:11.936559  3312 net.cpp:129] Top shape: 8 256 25 25 (1280000)
I0107 20:03:11.936574  3312 net.cpp:137] Memory required for data: 1954560096
I0107 20:03:11.936615  3312 layer_factory.hpp:77] Creating layer stage3_unit1_conv1sc
I0107 20:03:11.936646  3312 net.cpp:84] Creating Layer stage3_unit1_conv1sc
I0107 20:03:11.936663  3312 net.cpp:406] stage3_unit1_conv1sc <- _plus3__plus3_0_split_1
I0107 20:03:11.936683  3312 net.cpp:380] stage3_unit1_conv1sc -> stage3_unit1_conv1sc
I0107 20:03:11.937661  3312 net.cpp:122] Setting up stage3_unit1_conv1sc
I0107 20:03:11.937687  3312 net.cpp:129] Top shape: 8 256 25 25 (1280000)
I0107 20:03:11.937702  3312 net.cpp:137] Memory required for data: 1959680096
I0107 20:03:11.937721  3312 layer_factory.hpp:77] Creating layer stage3_unit1_sc
I0107 20:03:11.937741  3312 net.cpp:84] Creating Layer stage3_unit1_sc
I0107 20:03:11.937757  3312 net.cpp:406] stage3_unit1_sc <- stage3_unit1_conv1sc
I0107 20:03:11.937775  3312 net.cpp:380] stage3_unit1_sc -> stage3_unit1_sc
I0107 20:03:11.938081  3312 net.cpp:122] Setting up stage3_unit1_sc
I0107 20:03:11.938105  3312 net.cpp:129] Top shape: 8 256 25 25 (1280000)
I0107 20:03:11.938120  3312 net.cpp:137] Memory required for data: 1964800096
I0107 20:03:11.938143  3312 layer_factory.hpp:77] Creating layer stage3_unit1_sc_scale
I0107 20:03:11.938161  3312 net.cpp:84] Creating Layer stage3_unit1_sc_scale
I0107 20:03:11.938177  3312 net.cpp:406] stage3_unit1_sc_scale <- stage3_unit1_sc
I0107 20:03:11.938195  3312 net.cpp:367] stage3_unit1_sc_scale -> stage3_unit1_sc (in-place)
I0107 20:03:11.938275  3312 layer_factory.hpp:77] Creating layer stage3_unit1_sc_scale
I0107 20:03:11.938448  3312 net.cpp:122] Setting up stage3_unit1_sc_scale
I0107 20:03:11.938472  3312 net.cpp:129] Top shape: 8 256 25 25 (1280000)
I0107 20:03:11.938488  3312 net.cpp:137] Memory required for data: 1969920096
I0107 20:03:11.938508  3312 layer_factory.hpp:77] Creating layer _plus4
I0107 20:03:11.938531  3312 net.cpp:84] Creating Layer _plus4
I0107 20:03:11.938547  3312 net.cpp:406] _plus4 <- stage3_unit1_bn3
I0107 20:03:11.938565  3312 net.cpp:406] _plus4 <- stage3_unit1_sc
I0107 20:03:11.938583  3312 net.cpp:380] _plus4 -> _plus4
I0107 20:03:11.938633  3312 net.cpp:122] Setting up _plus4
I0107 20:03:11.938655  3312 net.cpp:129] Top shape: 8 256 25 25 (1280000)
I0107 20:03:11.938670  3312 net.cpp:137] Memory required for data: 1975040096
I0107 20:03:11.938685  3312 layer_factory.hpp:77] Creating layer _plus4__plus4_0_split
I0107 20:03:11.938704  3312 net.cpp:84] Creating Layer _plus4__plus4_0_split
I0107 20:03:11.938719  3312 net.cpp:406] _plus4__plus4_0_split <- _plus4
I0107 20:03:11.938741  3312 net.cpp:380] _plus4__plus4_0_split -> _plus4__plus4_0_split_0
I0107 20:03:11.938762  3312 net.cpp:380] _plus4__plus4_0_split -> _plus4__plus4_0_split_1
I0107 20:03:11.938835  3312 net.cpp:122] Setting up _plus4__plus4_0_split
I0107 20:03:11.938858  3312 net.cpp:129] Top shape: 8 256 25 25 (1280000)
I0107 20:03:11.938877  3312 net.cpp:129] Top shape: 8 256 25 25 (1280000)
I0107 20:03:11.938892  3312 net.cpp:137] Memory required for data: 1985280096
I0107 20:03:11.938907  3312 layer_factory.hpp:77] Creating layer stage3_unit2_bn1
I0107 20:03:11.938926  3312 net.cpp:84] Creating Layer stage3_unit2_bn1
I0107 20:03:11.938942  3312 net.cpp:406] stage3_unit2_bn1 <- _plus4__plus4_0_split_0
I0107 20:03:11.938961  3312 net.cpp:380] stage3_unit2_bn1 -> stage3_unit2_bn1
I0107 20:03:11.939262  3312 net.cpp:122] Setting up stage3_unit2_bn1
I0107 20:03:11.939286  3312 net.cpp:129] Top shape: 8 256 25 25 (1280000)
I0107 20:03:11.939301  3312 net.cpp:137] Memory required for data: 1990400096
I0107 20:03:11.939324  3312 layer_factory.hpp:77] Creating layer stage3_unit2_bn1_scale
I0107 20:03:11.939344  3312 net.cpp:84] Creating Layer stage3_unit2_bn1_scale
I0107 20:03:11.939359  3312 net.cpp:406] stage3_unit2_bn1_scale <- stage3_unit2_bn1
I0107 20:03:11.939378  3312 net.cpp:367] stage3_unit2_bn1_scale -> stage3_unit2_bn1 (in-place)
I0107 20:03:11.939455  3312 layer_factory.hpp:77] Creating layer stage3_unit2_bn1_scale
I0107 20:03:11.939630  3312 net.cpp:122] Setting up stage3_unit2_bn1_scale
I0107 20:03:11.939653  3312 net.cpp:129] Top shape: 8 256 25 25 (1280000)
I0107 20:03:11.939683  3312 net.cpp:137] Memory required for data: 1995520096
I0107 20:03:11.939704  3312 layer_factory.hpp:77] Creating layer stage3_unit2_conv1
I0107 20:03:11.939729  3312 net.cpp:84] Creating Layer stage3_unit2_conv1
I0107 20:03:11.939746  3312 net.cpp:406] stage3_unit2_conv1 <- stage3_unit2_bn1
I0107 20:03:11.939770  3312 net.cpp:380] stage3_unit2_conv1 -> stage3_unit2_conv1
I0107 20:03:11.954246  3312 net.cpp:122] Setting up stage3_unit2_conv1
I0107 20:03:11.954334  3312 net.cpp:129] Top shape: 8 256 25 25 (1280000)
I0107 20:03:11.954351  3312 net.cpp:137] Memory required for data: 2000640096
I0107 20:03:11.954380  3312 layer_factory.hpp:77] Creating layer stage3_unit2_bn2
I0107 20:03:11.954412  3312 net.cpp:84] Creating Layer stage3_unit2_bn2
I0107 20:03:11.954432  3312 net.cpp:406] stage3_unit2_bn2 <- stage3_unit2_conv1
I0107 20:03:11.954455  3312 net.cpp:380] stage3_unit2_bn2 -> stage3_unit2_bn2
I0107 20:03:11.954804  3312 net.cpp:122] Setting up stage3_unit2_bn2
I0107 20:03:11.954831  3312 net.cpp:129] Top shape: 8 256 25 25 (1280000)
I0107 20:03:11.954846  3312 net.cpp:137] Memory required for data: 2005760096
I0107 20:03:11.954869  3312 layer_factory.hpp:77] Creating layer stage3_unit2_bn2_scale
I0107 20:03:11.954891  3312 net.cpp:84] Creating Layer stage3_unit2_bn2_scale
I0107 20:03:11.954906  3312 net.cpp:406] stage3_unit2_bn2_scale <- stage3_unit2_bn2
I0107 20:03:11.954927  3312 net.cpp:367] stage3_unit2_bn2_scale -> stage3_unit2_bn2 (in-place)
I0107 20:03:11.955021  3312 layer_factory.hpp:77] Creating layer stage3_unit2_bn2_scale
I0107 20:03:11.955415  3312 net.cpp:122] Setting up stage3_unit2_bn2_scale
I0107 20:03:11.955442  3312 net.cpp:129] Top shape: 8 256 25 25 (1280000)
I0107 20:03:11.955458  3312 net.cpp:137] Memory required for data: 2010880096
I0107 20:03:11.955479  3312 layer_factory.hpp:77] Creating layer stage3_unit2_relu1
I0107 20:03:11.955500  3312 net.cpp:84] Creating Layer stage3_unit2_relu1
I0107 20:03:11.955516  3312 net.cpp:406] stage3_unit2_relu1 <- stage3_unit2_bn2
I0107 20:03:11.955534  3312 net.cpp:380] stage3_unit2_relu1 -> stage3_unit2_relu1
I0107 20:03:11.956231  3312 net.cpp:122] Setting up stage3_unit2_relu1
I0107 20:03:11.956271  3312 net.cpp:129] Top shape: 8 256 25 25 (1280000)
I0107 20:03:11.956288  3312 net.cpp:137] Memory required for data: 2016000096
I0107 20:03:11.956305  3312 layer_factory.hpp:77] Creating layer stage3_unit2_conv2
I0107 20:03:11.956337  3312 net.cpp:84] Creating Layer stage3_unit2_conv2
I0107 20:03:11.956355  3312 net.cpp:406] stage3_unit2_conv2 <- stage3_unit2_relu1
I0107 20:03:11.956379  3312 net.cpp:380] stage3_unit2_conv2 -> stage3_unit2_conv2
I0107 20:03:11.971177  3312 net.cpp:122] Setting up stage3_unit2_conv2
I0107 20:03:11.971361  3312 net.cpp:129] Top shape: 8 256 25 25 (1280000)
I0107 20:03:11.971405  3312 net.cpp:137] Memory required for data: 2021120096
I0107 20:03:11.971468  3312 layer_factory.hpp:77] Creating layer stage3_unit2_bn3
I0107 20:03:11.971544  3312 net.cpp:84] Creating Layer stage3_unit2_bn3
I0107 20:03:11.971597  3312 net.cpp:406] stage3_unit2_bn3 <- stage3_unit2_conv2
I0107 20:03:11.971664  3312 net.cpp:380] stage3_unit2_bn3 -> stage3_unit2_bn3
I0107 20:03:11.972522  3312 net.cpp:122] Setting up stage3_unit2_bn3
I0107 20:03:11.972585  3312 net.cpp:129] Top shape: 8 256 25 25 (1280000)
I0107 20:03:11.972625  3312 net.cpp:137] Memory required for data: 2026240096
I0107 20:03:11.972681  3312 layer_factory.hpp:77] Creating layer stage3_unit2_bn3_scale
I0107 20:03:11.972735  3312 net.cpp:84] Creating Layer stage3_unit2_bn3_scale
I0107 20:03:11.972779  3312 net.cpp:406] stage3_unit2_bn3_scale <- stage3_unit2_bn3
I0107 20:03:11.972826  3312 net.cpp:367] stage3_unit2_bn3_scale -> stage3_unit2_bn3 (in-place)
I0107 20:03:11.973052  3312 layer_factory.hpp:77] Creating layer stage3_unit2_bn3_scale
I0107 20:03:11.973456  3312 net.cpp:122] Setting up stage3_unit2_bn3_scale
I0107 20:03:11.973510  3312 net.cpp:129] Top shape: 8 256 25 25 (1280000)
I0107 20:03:11.973532  3312 net.cpp:137] Memory required for data: 2031360096
I0107 20:03:11.973583  3312 layer_factory.hpp:77] Creating layer _plus5
I0107 20:03:11.973613  3312 net.cpp:84] Creating Layer _plus5
I0107 20:03:11.973629  3312 net.cpp:406] _plus5 <- stage3_unit2_bn3
I0107 20:03:11.973660  3312 net.cpp:406] _plus5 <- _plus4__plus4_0_split_1
I0107 20:03:11.973717  3312 net.cpp:380] _plus5 -> _plus5
I0107 20:03:11.973858  3312 net.cpp:122] Setting up _plus5
I0107 20:03:11.973912  3312 net.cpp:129] Top shape: 8 256 25 25 (1280000)
I0107 20:03:11.973958  3312 net.cpp:137] Memory required for data: 2036480096
I0107 20:03:11.974002  3312 layer_factory.hpp:77] Creating layer _plus5__plus5_0_split
I0107 20:03:11.974057  3312 net.cpp:84] Creating Layer _plus5__plus5_0_split
I0107 20:03:11.974099  3312 net.cpp:406] _plus5__plus5_0_split <- _plus5
I0107 20:03:11.974153  3312 net.cpp:380] _plus5__plus5_0_split -> _plus5__plus5_0_split_0
I0107 20:03:11.974212  3312 net.cpp:380] _plus5__plus5_0_split -> _plus5__plus5_0_split_1
I0107 20:03:11.974391  3312 net.cpp:122] Setting up _plus5__plus5_0_split
I0107 20:03:11.974438  3312 net.cpp:129] Top shape: 8 256 25 25 (1280000)
I0107 20:03:11.974474  3312 net.cpp:129] Top shape: 8 256 25 25 (1280000)
I0107 20:03:11.974508  3312 net.cpp:137] Memory required for data: 2046720096
I0107 20:03:11.974539  3312 layer_factory.hpp:77] Creating layer stage4_unit1_bn1
I0107 20:03:11.974581  3312 net.cpp:84] Creating Layer stage4_unit1_bn1
I0107 20:03:11.974618  3312 net.cpp:406] stage4_unit1_bn1 <- _plus5__plus5_0_split_0
I0107 20:03:11.974665  3312 net.cpp:380] stage4_unit1_bn1 -> stage4_unit1_bn1
I0107 20:03:11.975471  3312 net.cpp:122] Setting up stage4_unit1_bn1
I0107 20:03:11.975505  3312 net.cpp:129] Top shape: 8 256 25 25 (1280000)
I0107 20:03:11.975522  3312 net.cpp:137] Memory required for data: 2051840096
I0107 20:03:11.975584  3312 layer_factory.hpp:77] Creating layer stage4_unit1_bn1_scale
I0107 20:03:11.975611  3312 net.cpp:84] Creating Layer stage4_unit1_bn1_scale
I0107 20:03:11.975628  3312 net.cpp:406] stage4_unit1_bn1_scale <- stage4_unit1_bn1
I0107 20:03:11.975648  3312 net.cpp:367] stage4_unit1_bn1_scale -> stage4_unit1_bn1 (in-place)
I0107 20:03:11.975749  3312 layer_factory.hpp:77] Creating layer stage4_unit1_bn1_scale
I0107 20:03:11.975956  3312 net.cpp:122] Setting up stage4_unit1_bn1_scale
I0107 20:03:11.975987  3312 net.cpp:129] Top shape: 8 256 25 25 (1280000)
I0107 20:03:11.976003  3312 net.cpp:137] Memory required for data: 2056960096
I0107 20:03:11.976024  3312 layer_factory.hpp:77] Creating layer stage4_unit1_conv1
I0107 20:03:11.976055  3312 net.cpp:84] Creating Layer stage4_unit1_conv1
I0107 20:03:11.976071  3312 net.cpp:406] stage4_unit1_conv1 <- stage4_unit1_bn1
I0107 20:03:11.976095  3312 net.cpp:380] stage4_unit1_conv1 -> stage4_unit1_conv1
I0107 20:03:12.005234  3312 net.cpp:122] Setting up stage4_unit1_conv1
I0107 20:03:12.005336  3312 net.cpp:129] Top shape: 8 512 25 25 (2560000)
I0107 20:03:12.005352  3312 net.cpp:137] Memory required for data: 2067200096
I0107 20:03:12.005383  3312 layer_factory.hpp:77] Creating layer stage4_unit1_bn2
I0107 20:03:12.005414  3312 net.cpp:84] Creating Layer stage4_unit1_bn2
I0107 20:03:12.005434  3312 net.cpp:406] stage4_unit1_bn2 <- stage4_unit1_conv1
I0107 20:03:12.005457  3312 net.cpp:380] stage4_unit1_bn2 -> stage4_unit1_bn2
I0107 20:03:12.005822  3312 net.cpp:122] Setting up stage4_unit1_bn2
I0107 20:03:12.005851  3312 net.cpp:129] Top shape: 8 512 25 25 (2560000)
I0107 20:03:12.005867  3312 net.cpp:137] Memory required for data: 2077440096
I0107 20:03:12.005890  3312 layer_factory.hpp:77] Creating layer stage4_unit1_bn2_scale
I0107 20:03:12.005914  3312 net.cpp:84] Creating Layer stage4_unit1_bn2_scale
I0107 20:03:12.005930  3312 net.cpp:406] stage4_unit1_bn2_scale <- stage4_unit1_bn2
I0107 20:03:12.005950  3312 net.cpp:367] stage4_unit1_bn2_scale -> stage4_unit1_bn2 (in-place)
I0107 20:03:12.006047  3312 layer_factory.hpp:77] Creating layer stage4_unit1_bn2_scale
I0107 20:03:12.006239  3312 net.cpp:122] Setting up stage4_unit1_bn2_scale
I0107 20:03:12.006263  3312 net.cpp:129] Top shape: 8 512 25 25 (2560000)
I0107 20:03:12.006301  3312 net.cpp:137] Memory required for data: 2087680096
I0107 20:03:12.006323  3312 layer_factory.hpp:77] Creating layer stage4_unit1_relu1
I0107 20:03:12.006345  3312 net.cpp:84] Creating Layer stage4_unit1_relu1
I0107 20:03:12.006362  3312 net.cpp:406] stage4_unit1_relu1 <- stage4_unit1_bn2
I0107 20:03:12.006381  3312 net.cpp:380] stage4_unit1_relu1 -> stage4_unit1_relu1
I0107 20:03:12.006621  3312 net.cpp:122] Setting up stage4_unit1_relu1
I0107 20:03:12.006651  3312 net.cpp:129] Top shape: 8 512 25 25 (2560000)
I0107 20:03:12.006669  3312 net.cpp:137] Memory required for data: 2097920096
I0107 20:03:12.006685  3312 layer_factory.hpp:77] Creating layer stage4_unit1_conv2
I0107 20:03:12.006711  3312 net.cpp:84] Creating Layer stage4_unit1_conv2
I0107 20:03:12.006728  3312 net.cpp:406] stage4_unit1_conv2 <- stage4_unit1_relu1
I0107 20:03:12.006753  3312 net.cpp:380] stage4_unit1_conv2 -> stage4_unit1_conv2
I0107 20:03:12.064086  3312 net.cpp:122] Setting up stage4_unit1_conv2
I0107 20:03:12.064198  3312 net.cpp:129] Top shape: 8 512 13 13 (692224)
I0107 20:03:12.064215  3312 net.cpp:137] Memory required for data: 2100688992
I0107 20:03:12.064250  3312 layer_factory.hpp:77] Creating layer stage4_unit1_bn3
I0107 20:03:12.064285  3312 net.cpp:84] Creating Layer stage4_unit1_bn3
I0107 20:03:12.064306  3312 net.cpp:406] stage4_unit1_bn3 <- stage4_unit1_conv2
I0107 20:03:12.064332  3312 net.cpp:380] stage4_unit1_bn3 -> stage4_unit1_bn3
I0107 20:03:12.064700  3312 net.cpp:122] Setting up stage4_unit1_bn3
I0107 20:03:12.064726  3312 net.cpp:129] Top shape: 8 512 13 13 (692224)
I0107 20:03:12.064741  3312 net.cpp:137] Memory required for data: 2103457888
I0107 20:03:12.064765  3312 layer_factory.hpp:77] Creating layer stage4_unit1_bn3_scale
I0107 20:03:12.064793  3312 net.cpp:84] Creating Layer stage4_unit1_bn3_scale
I0107 20:03:12.064810  3312 net.cpp:406] stage4_unit1_bn3_scale <- stage4_unit1_bn3
I0107 20:03:12.064827  3312 net.cpp:367] stage4_unit1_bn3_scale -> stage4_unit1_bn3 (in-place)
I0107 20:03:12.064921  3312 layer_factory.hpp:77] Creating layer stage4_unit1_bn3_scale
I0107 20:03:12.065104  3312 net.cpp:122] Setting up stage4_unit1_bn3_scale
I0107 20:03:12.065127  3312 net.cpp:129] Top shape: 8 512 13 13 (692224)
I0107 20:03:12.065141  3312 net.cpp:137] Memory required for data: 2106226784
I0107 20:03:12.065162  3312 layer_factory.hpp:77] Creating layer stage4_unit1_conv1sc
I0107 20:03:12.065192  3312 net.cpp:84] Creating Layer stage4_unit1_conv1sc
I0107 20:03:12.065210  3312 net.cpp:406] stage4_unit1_conv1sc <- _plus5__plus5_0_split_1
I0107 20:03:12.065232  3312 net.cpp:380] stage4_unit1_conv1sc -> stage4_unit1_conv1sc
I0107 20:03:12.068514  3312 net.cpp:122] Setting up stage4_unit1_conv1sc
I0107 20:03:12.068644  3312 net.cpp:129] Top shape: 8 512 13 13 (692224)
I0107 20:03:12.068668  3312 net.cpp:137] Memory required for data: 2108995680
I0107 20:03:12.068709  3312 layer_factory.hpp:77] Creating layer stage4_unit1_sc
I0107 20:03:12.068753  3312 net.cpp:84] Creating Layer stage4_unit1_sc
I0107 20:03:12.068783  3312 net.cpp:406] stage4_unit1_sc <- stage4_unit1_conv1sc
I0107 20:03:12.068816  3312 net.cpp:380] stage4_unit1_sc -> stage4_unit1_sc
I0107 20:03:12.069243  3312 net.cpp:122] Setting up stage4_unit1_sc
I0107 20:03:12.069278  3312 net.cpp:129] Top shape: 8 512 13 13 (692224)
I0107 20:03:12.069299  3312 net.cpp:137] Memory required for data: 2111764576
I0107 20:03:12.069329  3312 layer_factory.hpp:77] Creating layer stage4_unit1_sc_scale
I0107 20:03:12.069360  3312 net.cpp:84] Creating Layer stage4_unit1_sc_scale
I0107 20:03:12.069380  3312 net.cpp:406] stage4_unit1_sc_scale <- stage4_unit1_sc
I0107 20:03:12.069402  3312 net.cpp:367] stage4_unit1_sc_scale -> stage4_unit1_sc (in-place)
I0107 20:03:12.069495  3312 layer_factory.hpp:77] Creating layer stage4_unit1_sc_scale
I0107 20:03:12.069687  3312 net.cpp:122] Setting up stage4_unit1_sc_scale
I0107 20:03:12.069720  3312 net.cpp:129] Top shape: 8 512 13 13 (692224)
I0107 20:03:12.069741  3312 net.cpp:137] Memory required for data: 2114533472
I0107 20:03:12.069792  3312 layer_factory.hpp:77] Creating layer _plus6
I0107 20:03:12.069821  3312 net.cpp:84] Creating Layer _plus6
I0107 20:03:12.069844  3312 net.cpp:406] _plus6 <- stage4_unit1_bn3
I0107 20:03:12.069864  3312 net.cpp:406] _plus6 <- stage4_unit1_sc
I0107 20:03:12.069891  3312 net.cpp:380] _plus6 -> _plus6
I0107 20:03:12.069955  3312 net.cpp:122] Setting up _plus6
I0107 20:03:12.069983  3312 net.cpp:129] Top shape: 8 512 13 13 (692224)
I0107 20:03:12.070004  3312 net.cpp:137] Memory required for data: 2117302368
I0107 20:03:12.070024  3312 layer_factory.hpp:77] Creating layer _plus6__plus6_0_split
I0107 20:03:12.070046  3312 net.cpp:84] Creating Layer _plus6__plus6_0_split
I0107 20:03:12.070070  3312 net.cpp:406] _plus6__plus6_0_split <- _plus6
I0107 20:03:12.070091  3312 net.cpp:380] _plus6__plus6_0_split -> _plus6__plus6_0_split_0
I0107 20:03:12.070119  3312 net.cpp:380] _plus6__plus6_0_split -> _plus6__plus6_0_split_1
I0107 20:03:12.070194  3312 net.cpp:122] Setting up _plus6__plus6_0_split
I0107 20:03:12.070220  3312 net.cpp:129] Top shape: 8 512 13 13 (692224)
I0107 20:03:12.070245  3312 net.cpp:129] Top shape: 8 512 13 13 (692224)
I0107 20:03:12.070263  3312 net.cpp:137] Memory required for data: 2122840160
I0107 20:03:12.070282  3312 layer_factory.hpp:77] Creating layer stage4_unit2_bn1
I0107 20:03:12.070307  3312 net.cpp:84] Creating Layer stage4_unit2_bn1
I0107 20:03:12.070327  3312 net.cpp:406] stage4_unit2_bn1 <- _plus6__plus6_0_split_0
I0107 20:03:12.070356  3312 net.cpp:380] stage4_unit2_bn1 -> stage4_unit2_bn1
I0107 20:03:12.070699  3312 net.cpp:122] Setting up stage4_unit2_bn1
I0107 20:03:12.070732  3312 net.cpp:129] Top shape: 8 512 13 13 (692224)
I0107 20:03:12.070751  3312 net.cpp:137] Memory required for data: 2125609056
I0107 20:03:12.070780  3312 layer_factory.hpp:77] Creating layer stage4_unit2_bn1_scale
I0107 20:03:12.070806  3312 net.cpp:84] Creating Layer stage4_unit2_bn1_scale
I0107 20:03:12.070827  3312 net.cpp:406] stage4_unit2_bn1_scale <- stage4_unit2_bn1
I0107 20:03:12.070861  3312 net.cpp:367] stage4_unit2_bn1_scale -> stage4_unit2_bn1 (in-place)
I0107 20:03:12.070956  3312 layer_factory.hpp:77] Creating layer stage4_unit2_bn1_scale
I0107 20:03:12.071153  3312 net.cpp:122] Setting up stage4_unit2_bn1_scale
I0107 20:03:12.071182  3312 net.cpp:129] Top shape: 8 512 13 13 (692224)
I0107 20:03:12.071202  3312 net.cpp:137] Memory required for data: 2128377952
I0107 20:03:12.071224  3312 layer_factory.hpp:77] Creating layer stage4_unit2_conv1
I0107 20:03:12.071261  3312 net.cpp:84] Creating Layer stage4_unit2_conv1
I0107 20:03:12.071285  3312 net.cpp:406] stage4_unit2_conv1 <- stage4_unit2_bn1
I0107 20:03:12.071321  3312 net.cpp:380] stage4_unit2_conv1 -> stage4_unit2_conv1
I0107 20:03:12.127794  3312 net.cpp:122] Setting up stage4_unit2_conv1
I0107 20:03:12.127923  3312 net.cpp:129] Top shape: 8 512 13 13 (692224)
I0107 20:03:12.127943  3312 net.cpp:137] Memory required for data: 2131146848
I0107 20:03:12.127979  3312 layer_factory.hpp:77] Creating layer stage4_unit2_bn2
I0107 20:03:12.128015  3312 net.cpp:84] Creating Layer stage4_unit2_bn2
I0107 20:03:12.128036  3312 net.cpp:406] stage4_unit2_bn2 <- stage4_unit2_conv1
I0107 20:03:12.128060  3312 net.cpp:380] stage4_unit2_bn2 -> stage4_unit2_bn2
I0107 20:03:12.128443  3312 net.cpp:122] Setting up stage4_unit2_bn2
I0107 20:03:12.128473  3312 net.cpp:129] Top shape: 8 512 13 13 (692224)
I0107 20:03:12.128489  3312 net.cpp:137] Memory required for data: 2133915744
I0107 20:03:12.128515  3312 layer_factory.hpp:77] Creating layer stage4_unit2_bn2_scale
I0107 20:03:12.128541  3312 net.cpp:84] Creating Layer stage4_unit2_bn2_scale
I0107 20:03:12.128558  3312 net.cpp:406] stage4_unit2_bn2_scale <- stage4_unit2_bn2
I0107 20:03:12.128578  3312 net.cpp:367] stage4_unit2_bn2_scale -> stage4_unit2_bn2 (in-place)
I0107 20:03:12.128672  3312 layer_factory.hpp:77] Creating layer stage4_unit2_bn2_scale
I0107 20:03:12.128856  3312 net.cpp:122] Setting up stage4_unit2_bn2_scale
I0107 20:03:12.128881  3312 net.cpp:129] Top shape: 8 512 13 13 (692224)
I0107 20:03:12.128918  3312 net.cpp:137] Memory required for data: 2136684640
I0107 20:03:12.128940  3312 layer_factory.hpp:77] Creating layer stage4_unit2_relu1
I0107 20:03:12.128965  3312 net.cpp:84] Creating Layer stage4_unit2_relu1
I0107 20:03:12.128981  3312 net.cpp:406] stage4_unit2_relu1 <- stage4_unit2_bn2
I0107 20:03:12.129000  3312 net.cpp:380] stage4_unit2_relu1 -> stage4_unit2_relu1
I0107 20:03:12.129734  3312 net.cpp:122] Setting up stage4_unit2_relu1
I0107 20:03:12.129779  3312 net.cpp:129] Top shape: 8 512 13 13 (692224)
I0107 20:03:12.129796  3312 net.cpp:137] Memory required for data: 2139453536
I0107 20:03:12.129813  3312 layer_factory.hpp:77] Creating layer stage4_unit2_conv2
I0107 20:03:12.129846  3312 net.cpp:84] Creating Layer stage4_unit2_conv2
I0107 20:03:12.129865  3312 net.cpp:406] stage4_unit2_conv2 <- stage4_unit2_relu1
I0107 20:03:12.129901  3312 net.cpp:380] stage4_unit2_conv2 -> stage4_unit2_conv2
I0107 20:03:12.187126  3312 net.cpp:122] Setting up stage4_unit2_conv2
I0107 20:03:12.187225  3312 net.cpp:129] Top shape: 8 512 13 13 (692224)
I0107 20:03:12.187244  3312 net.cpp:137] Memory required for data: 2142222432
I0107 20:03:12.187275  3312 layer_factory.hpp:77] Creating layer stage4_unit2_bn3
I0107 20:03:12.187311  3312 net.cpp:84] Creating Layer stage4_unit2_bn3
I0107 20:03:12.187331  3312 net.cpp:406] stage4_unit2_bn3 <- stage4_unit2_conv2
I0107 20:03:12.187357  3312 net.cpp:380] stage4_unit2_bn3 -> stage4_unit2_bn3
I0107 20:03:12.187717  3312 net.cpp:122] Setting up stage4_unit2_bn3
I0107 20:03:12.187747  3312 net.cpp:129] Top shape: 8 512 13 13 (692224)
I0107 20:03:12.187762  3312 net.cpp:137] Memory required for data: 2144991328
I0107 20:03:12.187790  3312 layer_factory.hpp:77] Creating layer stage4_unit2_bn3_scale
I0107 20:03:12.187822  3312 net.cpp:84] Creating Layer stage4_unit2_bn3_scale
I0107 20:03:12.187840  3312 net.cpp:406] stage4_unit2_bn3_scale <- stage4_unit2_bn3
I0107 20:03:12.187858  3312 net.cpp:367] stage4_unit2_bn3_scale -> stage4_unit2_bn3 (in-place)
I0107 20:03:12.187958  3312 layer_factory.hpp:77] Creating layer stage4_unit2_bn3_scale
I0107 20:03:12.188145  3312 net.cpp:122] Setting up stage4_unit2_bn3_scale
I0107 20:03:12.188169  3312 net.cpp:129] Top shape: 8 512 13 13 (692224)
I0107 20:03:12.188184  3312 net.cpp:137] Memory required for data: 2147760224
I0107 20:03:12.188205  3312 layer_factory.hpp:77] Creating layer _plus7
I0107 20:03:12.188226  3312 net.cpp:84] Creating Layer _plus7
I0107 20:03:12.188242  3312 net.cpp:406] _plus7 <- stage4_unit2_bn3
I0107 20:03:12.188261  3312 net.cpp:406] _plus7 <- _plus6__plus6_0_split_1
I0107 20:03:12.188282  3312 net.cpp:380] _plus7 -> _plus7
I0107 20:03:12.188329  3312 net.cpp:122] Setting up _plus7
I0107 20:03:12.188354  3312 net.cpp:129] Top shape: 8 512 13 13 (692224)
I0107 20:03:12.188369  3312 net.cpp:137] Memory required for data: 2150529120
I0107 20:03:12.188385  3312 layer_factory.hpp:77] Creating layer bn1
I0107 20:03:12.188403  3312 net.cpp:84] Creating Layer bn1
I0107 20:03:12.188419  3312 net.cpp:406] bn1 <- _plus7
I0107 20:03:12.188441  3312 net.cpp:380] bn1 -> bn1
I0107 20:03:12.188743  3312 net.cpp:122] Setting up bn1
I0107 20:03:12.188767  3312 net.cpp:129] Top shape: 8 512 13 13 (692224)
I0107 20:03:12.188782  3312 net.cpp:137] Memory required for data: 2153298016
I0107 20:03:12.188804  3312 layer_factory.hpp:77] Creating layer bn1_scale
I0107 20:03:12.188824  3312 net.cpp:84] Creating Layer bn1_scale
I0107 20:03:12.188839  3312 net.cpp:406] bn1_scale <- bn1
I0107 20:03:12.188858  3312 net.cpp:367] bn1_scale -> bn1 (in-place)
I0107 20:03:12.188928  3312 layer_factory.hpp:77] Creating layer bn1_scale
I0107 20:03:12.189101  3312 net.cpp:122] Setting up bn1_scale
I0107 20:03:12.189124  3312 net.cpp:129] Top shape: 8 512 13 13 (692224)
I0107 20:03:12.189139  3312 net.cpp:137] Memory required for data: 2156066912
I0107 20:03:12.189159  3312 layer_factory.hpp:77] Creating layer fc8
I0107 20:03:12.189185  3312 net.cpp:84] Creating Layer fc8
I0107 20:03:12.189201  3312 net.cpp:406] fc8 <- bn1
I0107 20:03:12.189244  3312 net.cpp:380] fc8 -> fc8
I0107 20:03:12.194742  3312 net.cpp:122] Setting up fc8
I0107 20:03:12.194831  3312 net.cpp:129] Top shape: 8 2 (16)
I0107 20:03:12.194849  3312 net.cpp:137] Memory required for data: 2156066976
I0107 20:03:12.194881  3312 layer_factory.hpp:77] Creating layer fc8_fc8_0_split
I0107 20:03:12.194911  3312 net.cpp:84] Creating Layer fc8_fc8_0_split
I0107 20:03:12.194931  3312 net.cpp:406] fc8_fc8_0_split <- fc8
I0107 20:03:12.194955  3312 net.cpp:380] fc8_fc8_0_split -> fc8_fc8_0_split_0
I0107 20:03:12.194983  3312 net.cpp:380] fc8_fc8_0_split -> fc8_fc8_0_split_1
I0107 20:03:12.195075  3312 net.cpp:122] Setting up fc8_fc8_0_split
I0107 20:03:12.195096  3312 net.cpp:129] Top shape: 8 2 (16)
I0107 20:03:12.195113  3312 net.cpp:129] Top shape: 8 2 (16)
I0107 20:03:12.195128  3312 net.cpp:137] Memory required for data: 2156067104
I0107 20:03:12.195143  3312 layer_factory.hpp:77] Creating layer accuracy
I0107 20:03:12.195173  3312 net.cpp:84] Creating Layer accuracy
I0107 20:03:12.195190  3312 net.cpp:406] accuracy <- fc8_fc8_0_split_0
I0107 20:03:12.195207  3312 net.cpp:406] accuracy <- label_data_1_split_0
I0107 20:03:12.195227  3312 net.cpp:380] accuracy -> accuracy
…
