…
I0110 10:39:51.528429 15264 net.cpp:294] The NetState phase (0) differed from the phase (1) specified by a rule in layer accuracy
I0110 10:39:51.529076 15264 net.cpp:51] Initializing net from parameters: 
name: "r18"
state {
  phase: TRAIN
  level: 0
  stage: ""
}
layer {
  name: "data"
  type: "Data"
  top: "data"
  top: "label"
  include {
    phase: TRAIN
  }
  transform_param {
    scale: 0.0078125
    mirror: true
    mean_value: 127
  }
  data_param {
    source: "/home/lc/gender/school/data_3/train.lmdb"
    batch_size: 8
    backend: LMDB
  }
}
layer {
  name: "conv0"
  type: "Convolution"
  bottom: "data"
  top: "conv0"
  param {
    lr_mult: 1
    decay_mult: 1
  }
  convolution_param {
    num_output: 64
    bias_term: false
    pad: 1
    kernel_size: 3
    stride: 1
    weight_filler {
      type: "gaussian"
      std: 0.01
    }
    engine: CAFFE
  }
}
layer {
  name: "bn0"
  type: "BatchNorm"
  bottom: "conv0"
  top: "bn0"
  batch_norm_param {
    use_global_stats: false
    moving_average_fraction: 0.9
    eps: 2e-05
  }
}
layer {
  name: "bn0_scale"
  type: "Scale"
  bottom: "bn0"
  top: "bn0"
  scale_param {
    bias_term: true
  }
}
layer {
  name: "relu0"
  type: "ReLU"
  bottom: "bn0"
  top: "relu0"
}
layer {
  name: "stage1_unit1_bn1"
  type: "BatchNorm"
  bottom: "relu0"
  top: "stage1_unit1_bn1"
  batch_norm_param {
    use_global_stats: false
    moving_average_fraction: 0.9
    eps: 2e-05
  }
}
layer {
  name: "stage1_unit1_bn1_scale"
  type: "Scale"
  bottom: "stage1_unit1_bn1"
  top: "stage1_unit1_bn1"
  scale_param {
    bias_term: true
  }
}
layer {
  name: "stage1_unit1_conv1"
  type: "Convolution"
  bottom: "stage1_unit1_bn1"
  top: "stage1_unit1_conv1"
  param {
    lr_mult: 1
    decay_mult: 1
  }
  convolution_param {
    num_output: 64
    bias_term: false
    pad: 1
    kernel_size: 3
    stride: 1
    weight_filler {
      type: "gaussian"
      std: 0.01
    }
    engine: CAFFE
  }
}
layer {
  name: "stage1_unit1_bn2"
  type: "BatchNorm"
  bottom: "stage1_unit1_conv1"
  top: "stage1_unit1_bn2"
  batch_norm_param {
    use_global_stats: false
    moving_average_fraction: 0.9
    eps: 2e-05
  }
}
layer {
  name: "stage1_unit1_bn2_scale"
  type: "Scale"
  bottom: "stage1_unit1_bn2"
  top: "stage1_unit1_bn2"
  scale_param {
    bias_term: true
  }
}
layer {
  name: "stage1_unit1_relu1"
  type: "ReLU"
  bottom: "stage1_unit1_bn2"
  top: "stage1_unit1_relu1"
}
layer {
  name: "stage1_unit1_conv2"
  type: "Convolution"
  bottom: "stage1_unit1_relu1"
  top: "stage1_unit1_conv2"
  param {
    lr_mult: 1
    decay_mult: 1
  }
  convolution_param {
    num_output: 64
    bias_term: false
    pad: 1
    kernel_size: 3
    stride: 2
    weight_filler {
      type: "gaussian"
      std: 0.01
    }
    engine: CAFFE
  }
}
layer {
  name: "stage1_unit1_bn3"
  type: "BatchNorm"
  bottom: "stage1_unit1_conv2"
  top: "stage1_unit1_bn3"
  batch_norm_param {
    use_global_stats: false
    moving_average_fraction: 0.9
    eps: 2e-05
  }
}
layer {
  name: "stage1_unit1_bn3_scale"
  type: "Scale"
  bottom: "stage1_unit1_bn3"
  top: "stage1_unit1_bn3"
  scale_param {
    bias_term: true
  }
}
layer {
  name: "stage1_unit1_conv1sc"
  type: "Convolution"
  bottom: "relu0"
  top: "stage1_unit1_conv1sc"
  param {
    lr_mult: 1
    decay_mult: 1
  }
  convolution_param {
    num_output: 64
    bias_term: false
    kernel_size: 1
    stride: 2
    weight_filler {
      type: "gaussian"
      std: 0.01
    }
    engine: CAFFE
  }
}
layer {
  name: "stage1_unit1_sc"
  type: "BatchNorm"
  bottom: "stage1_unit1_conv1sc"
  top: "stage1_unit1_sc"
  batch_norm_param {
    use_global_stats: false
    moving_average_fraction: 0.9
    eps: 2e-05
  }
}
layer {
  name: "stage1_unit1_sc_scale"
  type: "Scale"
  bottom: "stage1_unit1_sc"
  top: "stage1_unit1_sc"
  scale_param {
    bias_term: true
  }
}
layer {
  name: "_plus0"
  type: "Eltwise"
  bottom: "stage1_unit1_bn3"
  bottom: "stage1_unit1_sc"
  top: "_plus0"
  eltwise_param {
    operation: SUM
  }
}
layer {
  name: "stage1_unit2_bn1"
  type: "BatchNorm"
  bottom: "_plus0"
  top: "stage1_unit2_bn1"
  batch_norm_param {
    use_global_stats: false
    moving_average_fraction: 0.9
    eps: 2e-05
  }
}
layer {
  name: "stage1_unit2_bn1_scale"
  type: "Scale"
  bottom: "stage1_unit2_bn1"
  top: "stage1_unit2_bn1"
  scale_param {
    bias_term: true
  }
}
layer {
  name: "stage1_unit2_conv1"
  type: "Convolution"
  bottom: "stage1_unit2_bn1"
  top: "stage1_unit2_conv1"
  param {
    lr_mult: 1
    decay_mult: 1
  }
  convolution_param {
    num_output: 64
    bias_term: false
    pad: 1
    kernel_size: 3
    stride: 1
    weight_filler {
      type: "gaussian"
      std: 0.01
    }
    engine: CAFFE
  }
}
layer {
  name: "stage1_unit2_bn2"
  type: "BatchNorm"
  bottom: "stage1_unit2_conv1"
  top: "stage1_unit2_bn2"
  batch_norm_param {
    use_global_stats: false
    moving_average_fraction: 0.9
    eps: 2e-05
  }
}
layer {
  name: "stage1_unit2_bn2_scale"
  type: "Scale"
  bottom: "stage1_unit2_bn2"
  top: "stage1_unit2_bn2"
  scale_param {
    bias_term: true
  }
}
layer {
  name: "stage1_unit2_relu1"
  type: "ReLU"
  bottom: "stage1_unit2_bn2"
  top: "stage1_unit2_relu1"
}
layer {
  name: "stage1_unit2_conv2"
  type: "Convolution"
  bottom: "stage1_unit2_relu1"
  top: "stage1_unit2_conv2"
  param {
    lr_mult: 1
    decay_mult: 1
  }
  convolution_param {
    num_output: 64
    bias_term: false
    pad: 1
    kernel_size: 3
    stride: 1
    weight_filler {
      type: "gaussian"
      std: 0.01
    }
    engine: CAFFE
  }
}
layer {
  name: "stage1_unit2_bn3"
  type: "BatchNorm"
  bottom: "stage1_unit2_conv2"
  top: "stage1_unit2_bn3"
  batch_norm_param {
    use_global_stats: false
    moving_average_fraction: 0.9
    eps: 2e-05
  }
}
layer {
  name: "stage1_unit2_bn3_scale"
  type: "Scale"
  bottom: "stage1_unit2_bn3"
  top: "stage1_unit2_bn3"
  scale_param {
    bias_term: true
  }
}
layer {
  name: "_plus1"
  type: "Eltwise"
  bottom: "stage1_unit2_bn3"
  bottom: "_plus0"
  top: "_plus1"
  eltwise_param {
    operation: SUM
  }
}
layer {
  name: "stage2_unit1_bn1"
  type: "BatchNorm"
  bottom: "_plus1"
  top: "stage2_unit1_bn1"
  batch_norm_param {
    use_global_stats: false
    moving_average_fraction: 0.9
    eps: 2e-05
  }
}
layer {
  name: "stage2_unit1_bn1_scale"
  type: "Scale"
  bottom: "stage2_unit1_bn1"
  top: "stage2_unit1_bn1"
  scale_param {
    bias_term: true
  }
}
layer {
  name: "stage2_unit1_conv1"
  type: "Convolution"
  bottom: "stage2_unit1_bn1"
  top: "stage2_unit1_conv1"
  param {
    lr_mult: 1
    decay_mult: 1
  }
  convolution_param {
    num_output: 128
    bias_term: false
    pad: 1
    kernel_size: 3
    stride: 1
    weight_filler {
      type: "gaussian"
      std: 0.01
    }
    engine: CAFFE
  }
}
layer {
  name: "stage2_unit1_bn2"
  type: "BatchNorm"
  bottom: "stage2_unit1_conv1"
  top: "stage2_unit1_bn2"
  batch_norm_param {
    use_global_stats: false
    moving_average_fraction: 0.9
    eps: 2e-05
  }
}
layer {
  name: "stage2_unit1_bn2_scale"
  type: "Scale"
  bottom: "stage2_unit1_bn2"
  top: "stage2_unit1_bn2"
  scale_param {
    bias_term: true
  }
}
layer {
  name: "stage2_unit1_relu1"
  type: "ReLU"
  bottom: "stage2_unit1_bn2"
  top: "stage2_unit1_relu1"
}
layer {
  name: "stage2_unit1_conv2"
  type: "Convolution"
  bottom: "stage2_unit1_relu1"
  top: "stage2_unit1_conv2"
  param {
    lr_mult: 1
    decay_mult: 1
  }
  convolution_param {
    num_output: 128
    bias_term: false
    pad: 1
    kernel_size: 3
    stride: 2
    weight_filler {
      type: "gaussian"
      std: 0.01
    }
    engine: CAFFE
  }
}
layer {
  name: "stage2_unit1_bn3"
  type: "BatchNorm"
  bottom: "stage2_unit1_conv2"
  top: "stage2_unit1_bn3"
  batch_norm_param {
    use_global_stats: false
    moving_average_fraction: 0.9
    eps: 2e-05
  }
}
layer {
  name: "stage2_unit1_bn3_scale"
  type: "Scale"
  bottom: "stage2_unit1_bn3"
  top: "stage2_unit1_bn3"
  scale_param {
    bias_term: true
  }
}
layer {
  name: "stage2_unit1_conv1sc"
  type: "Convolution"
  bottom: "_plus1"
  top: "stage2_unit1_conv1sc"
  param {
    lr_mult: 1
    decay_mult: 1
  }
  convolution_param {
    num_output: 128
    bias_term: false
    kernel_size: 1
    stride: 2
    weight_filler {
      type: "gaussian"
      std: 0.01
    }
    engine: CAFFE
  }
}
layer {
  name: "stage2_unit1_sc"
  type: "BatchNorm"
  bottom: "stage2_unit1_conv1sc"
  top: "stage2_unit1_sc"
  batch_norm_param {
    use_global_stats: false
    moving_average_fraction: 0.9
    eps: 2e-05
  }
}
layer {
  name: "stage2_unit1_sc_scale"
  type: "Scale"
  bottom: "stage2_unit1_sc"
  top: "stage2_unit1_sc"
  scale_param {
    bias_term: true
  }
}
layer {
  name: "_plus2"
  type: "Eltwise"
  bottom: "stage2_unit1_bn3"
  bottom: "stage2_unit1_sc"
  top: "_plus2"
  eltwise_param {
    operation: SUM
  }
}
layer {
  name: "stage2_unit2_bn1"
  type: "BatchNorm"
  bottom: "_plus2"
  top: "stage2_unit2_bn1"
  batch_norm_param {
    use_global_stats: false
    moving_average_fraction: 0.9
    eps: 2e-05
  }
}
layer {
  name: "stage2_unit2_bn1_scale"
  type: "Scale"
  bottom: "stage2_unit2_bn1"
  top: "stage2_unit2_bn1"
  scale_param {
    bias_term: true
  }
}
layer {
  name: "stage2_unit2_conv1"
  type: "Convolution"
  bottom: "stage2_unit2_bn1"
  top: "stage2_unit2_conv1"
  param {
    lr_mult: 1
    decay_mult: 1
  }
  convolution_param {
    num_output: 128
    bias_term: false
    pad: 1
    kernel_size: 3
    stride: 1
    weight_filler {
      type: "gaussian"
      std: 0.01
    }
    engine: CAFFE
  }
}
layer {
  name: "stage2_unit2_bn2"
  type: "BatchNorm"
  bottom: "stage2_unit2_conv1"
  top: "stage2_unit2_bn2"
  batch_norm_param {
    use_global_stats: false
    moving_average_fraction: 0.9
    eps: 2e-05
  }
}
layer {
  name: "stage2_unit2_bn2_scale"
  type: "Scale"
  bottom: "stage2_unit2_bn2"
  top: "stage2_unit2_bn2"
  scale_param {
    bias_term: true
  }
}
layer {
  name: "stage2_unit2_relu1"
  type: "ReLU"
  bottom: "stage2_unit2_bn2"
  top: "stage2_unit2_relu1"
}
layer {
  name: "stage2_unit2_conv2"
  type: "Convolution"
  bottom: "stage2_unit2_relu1"
  top: "stage2_unit2_conv2"
  param {
    lr_mult: 1
    decay_mult: 1
  }
  convolution_param {
    num_output: 128
    bias_term: false
    pad: 1
    kernel_size: 3
    stride: 1
    weight_filler {
      type: "gaussian"
      std: 0.01
    }
    engine: CAFFE
  }
}
layer {
  name: "stage2_unit2_bn3"
  type: "BatchNorm"
  bottom: "stage2_unit2_conv2"
  top: "stage2_unit2_bn3"
  batch_norm_param {
    use_global_stats: false
    moving_average_fraction: 0.9
    eps: 2e-05
  }
}
layer {
  name: "stage2_unit2_bn3_scale"
  type: "Scale"
  bottom: "stage2_unit2_bn3"
  top: "stage2_unit2_bn3"
  scale_param {
    bias_term: true
  }
}
layer {
  name: "_plus3"
  type: "Eltwise"
  bottom: "stage2_unit2_bn3"
  bottom: "_plus2"
  top: "_plus3"
  eltwise_param {
    operation: SUM
  }
}
layer {
  name: "stage3_unit1_bn1"
  type: "BatchNorm"
  bottom: "_plus3"
  top: "stage3_unit1_bn1"
  batch_norm_param {
    use_global_stats: false
    moving_average_fraction: 0.9
    eps: 2e-05
  }
}
layer {
  name: "stage3_unit1_bn1_scale"
  type: "Scale"
  bottom: "stage3_unit1_bn1"
  top: "stage3_unit1_bn1"
  scale_param {
    bias_term: true
  }
}
layer {
  name: "stage3_unit1_conv1"
  type: "Convolution"
  bottom: "stage3_unit1_bn1"
  top: "stage3_unit1_conv1"
  param {
    lr_mult: 1
    decay_mult: 1
  }
  convolution_param {
    num_output: 256
    bias_term: false
    pad: 1
    kernel_size: 3
    stride: 1
    weight_filler {
      type: "gaussian"
      std: 0.01
    }
    engine: CAFFE
  }
}
layer {
  name: "stage3_unit1_bn2"
  type: "BatchNorm"
  bottom: "stage3_unit1_conv1"
  top: "stage3_unit1_bn2"
  batch_norm_param {
    use_global_stats: false
    moving_average_fraction: 0.9
    eps: 2e-05
  }
}
layer {
  name: "stage3_unit1_bn2_scale"
  type: "Scale"
  bottom: "stage3_unit1_bn2"
  top: "stage3_unit1_bn2"
  scale_param {
    bias_term: true
  }
}
layer {
  name: "stage3_unit1_relu1"
  type: "ReLU"
  bottom: "stage3_unit1_bn2"
  top: "stage3_unit1_relu1"
}
layer {
  name: "stage3_unit1_conv2"
  type: "Convolution"
  bottom: "stage3_unit1_relu1"
  top: "stage3_unit1_conv2"
  param {
    lr_mult: 1
    decay_mult: 1
  }
  convolution_param {
    num_output: 256
    bias_term: false
    pad: 1
    kernel_size: 3
    stride: 2
    weight_filler {
      type: "gaussian"
      std: 0.01
    }
    engine: CAFFE
  }
}
layer {
  name: "stage3_unit1_bn3"
  type: "BatchNorm"
  bottom: "stage3_unit1_conv2"
  top: "stage3_unit1_bn3"
  batch_norm_param {
    use_global_stats: false
    moving_average_fraction: 0.9
    eps: 2e-05
  }
}
layer {
  name: "stage3_unit1_bn3_scale"
  type: "Scale"
  bottom: "stage3_unit1_bn3"
  top: "stage3_unit1_bn3"
  scale_param {
    bias_term: true
  }
}
layer {
  name: "stage3_unit1_conv1sc"
  type: "Convolution"
  bottom: "_plus3"
  top: "stage3_unit1_conv1sc"
  param {
    lr_mult: 1
    decay_mult: 1
  }
  convolution_param {
    num_output: 256
    bias_term: false
    kernel_size: 1
    stride: 2
    weight_filler {
      type: "gaussian"
      std: 0.01
    }
    engine: CAFFE
  }
}
layer {
  name: "stage3_unit1_sc"
  type: "BatchNorm"
  bottom: "stage3_unit1_conv1sc"
  top: "stage3_unit1_sc"
  batch_norm_param {
    use_global_stats: false
    moving_average_fraction: 0.9
    eps: 2e-05
  }
}
layer {
  name: "stage3_unit1_sc_scale"
  type: "Scale"
  bottom: "stage3_unit1_sc"
  top: "stage3_unit1_sc"
  scale_param {
    bias_term: true
  }
}
layer {
  name: "_plus4"
  type: "Eltwise"
  bottom: "stage3_unit1_bn3"
  bottom: "stage3_unit1_sc"
  top: "_plus4"
  eltwise_param {
    operation: SUM
  }
}
layer {
  name: "stage3_unit2_bn1"
  type: "BatchNorm"
  bottom: "_plus4"
  top: "stage3_unit2_bn1"
  batch_norm_param {
    use_global_stats: false
    moving_average_fraction: 0.9
    eps: 2e-05
  }
}
layer {
  name: "stage3_unit2_bn1_scale"
  type: "Scale"
  bottom: "stage3_unit2_bn1"
  top: "stage3_unit2_bn1"
  scale_param {
    bias_term: true
  }
}
layer {
  name: "stage3_unit2_conv1"
  type: "Convolution"
  bottom: "stage3_unit2_bn1"
  top: "stage3_unit2_conv1"
  param {
    lr_mult: 1
    decay_mult: 1
  }
  convolution_param {
    num_output: 256
    bias_term: false
    pad: 1
    kernel_size: 3
    stride: 1
    weight_filler {
      type: "gaussian"
      std: 0.01
    }
    engine: CAFFE
  }
}
layer {
  name: "stage3_unit2_bn2"
  type: "BatchNorm"
  bottom: "stage3_unit2_conv1"
  top: "stage3_unit2_bn2"
  batch_norm_param {
    use_global_stats: false
    moving_average_fraction: 0.9
    eps: 2e-05
  }
}
layer {
  name: "stage3_unit2_bn2_scale"
  type: "Scale"
  bottom: "stage3_unit2_bn2"
  top: "stage3_unit2_bn2"
  scale_param {
    bias_term: true
  }
}
layer {
  name: "stage3_unit2_relu1"
  type: "ReLU"
  bottom: "stage3_unit2_bn2"
  top: "stage3_unit2_relu1"
}
layer {
  name: "stage3_unit2_conv2"
  type: "Convolution"
  bottom: "stage3_unit2_relu1"
  top: "stage3_unit2_conv2"
  param {
    lr_mult: 1
    decay_mult: 1
  }
  convolution_param {
    num_output: 256
    bias_term: false
    pad: 1
    kernel_size: 3
    stride: 1
    weight_filler {
      type: "gaussian"
      std: 0.01
    }
    engine: CAFFE
  }
}
layer {
  name: "stage3_unit2_bn3"
  type: "BatchNorm"
  bottom: "stage3_unit2_conv2"
  top: "stage3_unit2_bn3"
  batch_norm_param {
    use_global_stats: false
    moving_average_fraction: 0.9
    eps: 2e-05
  }
}
layer {
  name: "stage3_unit2_bn3_scale"
  type: "Scale"
  bottom: "stage3_unit2_bn3"
  top: "stage3_unit2_bn3"
  scale_param {
    bias_term: true
  }
}
layer {
  name: "_plus5"
  type: "Eltwise"
  bottom: "stage3_unit2_bn3"
  bottom: "_plus4"
  top: "_plus5"
  eltwise_param {
    operation: SUM
  }
}
layer {
  name: "stage4_unit1_bn1"
  type: "BatchNorm"
  bottom: "_plus5"
  top: "stage4_unit1_bn1"
  batch_norm_param {
    use_global_stats: false
    moving_average_fraction: 0.9
    eps: 2e-05
  }
}
layer {
  name: "stage4_unit1_bn1_scale"
  type: "Scale"
  bottom: "stage4_unit1_bn1"
  top: "stage4_unit1_bn1"
  scale_param {
    bias_term: true
  }
}
layer {
  name: "stage4_unit1_conv1"
  type: "Convolution"
  bottom: "stage4_unit1_bn1"
  top: "stage4_unit1_conv1"
  param {
    lr_mult: 1
    decay_mult: 1
  }
  convolution_param {
    num_output: 512
    bias_term: false
    pad: 1
    kernel_size: 3
    stride: 1
    weight_filler {
      type: "gaussian"
      std: 0.01
    }
    engine: CAFFE
  }
}
layer {
  name: "stage4_unit1_bn2"
  type: "BatchNorm"
  bottom: "stage4_unit1_conv1"
  top: "stage4_unit1_bn2"
  batch_norm_param {
    use_global_stats: false
    moving_average_fraction: 0.9
    eps: 2e-05
  }
}
layer {
  name: "stage4_unit1_bn2_scale"
  type: "Scale"
  bottom: "stage4_unit1_bn2"
  top: "stage4_unit1_bn2"
  scale_param {
    bias_term: true
  }
}
layer {
  name: "stage4_unit1_relu1"
  type: "ReLU"
  bottom: "stage4_unit1_bn2"
  top: "stage4_unit1_relu1"
}
layer {
  name: "stage4_unit1_conv2"
  type: "Convolution"
  bottom: "stage4_unit1_relu1"
  top: "stage4_unit1_conv2"
  param {
    lr_mult: 1
    decay_mult: 1
  }
  convolution_param {
    num_output: 512
    bias_term: false
    pad: 1
    kernel_size: 3
    stride: 2
    weight_filler {
      type: "gaussian"
      std: 0.01
    }
    engine: CAFFE
  }
}
layer {
  name: "stage4_unit1_bn3"
  type: "BatchNorm"
  bottom: "stage4_unit1_conv2"
  top: "stage4_unit1_bn3"
  batch_norm_param {
    use_global_stats: false
    moving_average_fraction: 0.9
    eps: 2e-05
  }
}
layer {
  name: "stage4_unit1_bn3_scale"
  type: "Scale"
  bottom: "stage4_unit1_bn3"
  top: "stage4_unit1_bn3"
  scale_param {
    bias_term: true
  }
}
layer {
  name: "stage4_unit1_conv1sc"
  type: "Convolution"
  bottom: "_plus5"
  top: "stage4_unit1_conv1sc"
  param {
    lr_mult: 1
    decay_mult: 1
  }
  convolution_param {
    num_output: 512
    bias_term: false
    kernel_size: 1
    stride: 2
    weight_filler {
      type: "gaussian"
      std: 0.01
    }
    engine: CAFFE
  }
}
layer {
  name: "stage4_unit1_sc"
  type: "BatchNorm"
  bottom: "stage4_unit1_conv1sc"
  top: "stage4_unit1_sc"
  batch_norm_param {
    use_global_stats: false
    moving_average_fraction: 0.9
    eps: 2e-05
  }
}
layer {
  name: "stage4_unit1_sc_scale"
  type: "Scale"
  bottom: "stage4_unit1_sc"
  top: "stage4_unit1_sc"
  scale_param {
    bias_term: true
  }
}
layer {
  name: "_plus6"
  type: "Eltwise"
  bottom: "stage4_unit1_bn3"
  bottom: "stage4_unit1_sc"
  top: "_plus6"
  eltwise_param {
    operation: SUM
  }
}
layer {
  name: "stage4_unit2_bn1"
  type: "BatchNorm"
  bottom: "_plus6"
  top: "stage4_unit2_bn1"
  batch_norm_param {
    use_global_stats: false
    moving_average_fraction: 0.9
    eps: 2e-05
  }
}
layer {
  name: "stage4_unit2_bn1_scale"
  type: "Scale"
  bottom: "stage4_unit2_bn1"
  top: "stage4_unit2_bn1"
  scale_param {
    bias_term: true
  }
}
layer {
  name: "stage4_unit2_conv1"
  type: "Convolution"
  bottom: "stage4_unit2_bn1"
  top: "stage4_unit2_conv1"
  param {
    lr_mult: 1
    decay_mult: 1
  }
  convolution_param {
    num_output: 512
    bias_term: false
    pad: 1
    kernel_size: 3
    stride: 1
    weight_filler {
      type: "gaussian"
      std: 0.01
    }
    engine: CAFFE
  }
}
layer {
  name: "stage4_unit2_bn2"
  type: "BatchNorm"
  bottom: "stage4_unit2_conv1"
  top: "stage4_unit2_bn2"
  batch_norm_param {
    use_global_stats: false
    moving_average_fraction: 0.9
    eps: 2e-05
  }
}
layer {
  name: "stage4_unit2_bn2_scale"
  type: "Scale"
  bottom: "stage4_unit2_bn2"
  top: "stage4_unit2_bn2"
  scale_param {
    bias_term: true
  }
}
layer {
  name: "stage4_unit2_relu1"
  type: "ReLU"
  bottom: "stage4_unit2_bn2"
  top: "stage4_unit2_relu1"
}
layer {
  name: "stage4_unit2_conv2"
  type: "Convolution"
  bottom: "stage4_unit2_relu1"
  top: "stage4_unit2_conv2"
  param {
    lr_mult: 1
    decay_mult: 1
  }
  convolution_param {
    num_output: 512
    bias_term: false
    pad: 1
    kernel_size: 3
    stride: 1
    weight_filler {
      type: "gaussian"
      std: 0.01
    }
    engine: CAFFE
  }
}
layer {
  name: "stage4_unit2_bn3"
  type: "BatchNorm"
  bottom: "stage4_unit2_conv2"
  top: "stage4_unit2_bn3"
  batch_norm_param {
    use_global_stats: false
    moving_average_fraction: 0.9
    eps: 2e-05
  }
}
layer {
  name: "stage4_unit2_bn3_scale"
  type: "Scale"
  bottom: "stage4_unit2_bn3"
  top: "stage4_unit2_bn3"
  scale_param {
    bias_term: true
  }
}
layer {
  name: "_plus7"
  type: "Eltwise"
  bottom: "stage4_unit2_bn3"
  bottom: "_plus6"
  top: "_plus7"
  eltwise_param {
    operation: SUM
  }
}
layer {
  name: "bn1"
  type: "BatchNorm"
  bottom: "_plus7"
  top: "bn1"
  batch_norm_param {
    use_global_stats: false
    moving_average_fraction: 0.9
    eps: 2e-05
  }
}
layer {
  name: "bn1_scale"
  type: "Scale"
  bottom: "bn1"
  top: "bn1"
  scale_param {
    bias_term: true
  }
}
layer {
  name: "fc8"
  type: "InnerProduct"
  bottom: "bn1"
  top: "fc8"
  param {
    lr_mult: 1
    decay_mult: 1
  }
  param {
    lr_mult: 2
    decay_mult: 0
  }
  inner_product_param {
    num_output: 2
    weight_filler {
      type: "msra"
      std: 0.01
    }
    bias_filler {
      type: "constant"
      value: 0
    }
  }
}
layer {
  name: "loss"
  type: "WeightedSoftmaxWithLoss"
  bottom: "fc8"
  bottom: "label"
  top: "loss"
  softmax_param {
    pos_mult: 1.3
    pos_cid: 1
  }
}
I0110 10:39:51.529525 15264 layer_factory.hpp:77] Creating layer data
I0110 10:39:51.529664 15264 db_lmdb.cpp:35] Opened lmdb /home/lc/gender/school/data_3/train.lmdb
I0110 10:39:51.529695 15264 net.cpp:84] Creating Layer data
I0110 10:39:51.529705 15264 net.cpp:380] data -> data
I0110 10:39:51.529731 15264 net.cpp:380] data -> label
I0110 10:39:51.531126 15264 data_layer.cpp:45] output data size: 8,3,200,200
I0110 10:39:51.541342 15264 net.cpp:122] Setting up data
I0110 10:39:51.541381 15264 net.cpp:129] Top shape: 8 3 200 200 (960000)
I0110 10:39:51.541388 15264 net.cpp:129] Top shape: 8 (8)
I0110 10:39:51.541390 15264 net.cpp:137] Memory required for data: 3840032
I0110 10:39:51.541399 15264 layer_factory.hpp:77] Creating layer conv0
I0110 10:39:51.541421 15264 net.cpp:84] Creating Layer conv0
I0110 10:39:51.541429 15264 net.cpp:406] conv0 <- data
I0110 10:39:51.541443 15264 net.cpp:380] conv0 -> conv0
I0110 10:39:51.541775 15264 net.cpp:122] Setting up conv0
I0110 10:39:51.541785 15264 net.cpp:129] Top shape: 8 64 200 200 (20480000)
I0110 10:39:51.541788 15264 net.cpp:137] Memory required for data: 85760032
I0110 10:39:51.541818 15264 layer_factory.hpp:77] Creating layer bn0
I0110 10:39:51.541829 15264 net.cpp:84] Creating Layer bn0
I0110 10:39:51.541832 15264 net.cpp:406] bn0 <- conv0
I0110 10:39:51.541839 15264 net.cpp:380] bn0 -> bn0
I0110 10:39:51.542066 15264 net.cpp:122] Setting up bn0
I0110 10:39:51.542075 15264 net.cpp:129] Top shape: 8 64 200 200 (20480000)
I0110 10:39:51.542079 15264 net.cpp:137] Memory required for data: 167680032
I0110 10:39:51.542090 15264 layer_factory.hpp:77] Creating layer bn0_scale
I0110 10:39:51.542098 15264 net.cpp:84] Creating Layer bn0_scale
I0110 10:39:51.542102 15264 net.cpp:406] bn0_scale <- bn0
I0110 10:39:51.542107 15264 net.cpp:367] bn0_scale -> bn0 (in-place)
I0110 10:39:51.542148 15264 layer_factory.hpp:77] Creating layer bn0_scale
I0110 10:39:51.542341 15264 net.cpp:122] Setting up bn0_scale
I0110 10:39:51.542349 15264 net.cpp:129] Top shape: 8 64 200 200 (20480000)
I0110 10:39:51.542353 15264 net.cpp:137] Memory required for data: 249600032
I0110 10:39:51.542361 15264 layer_factory.hpp:77] Creating layer relu0
I0110 10:39:51.542368 15264 net.cpp:84] Creating Layer relu0
I0110 10:39:51.542373 15264 net.cpp:406] relu0 <- bn0
I0110 10:39:51.542379 15264 net.cpp:380] relu0 -> relu0
I0110 10:39:52.028095 15264 net.cpp:122] Setting up relu0
I0110 10:39:52.028139 15264 net.cpp:129] Top shape: 8 64 200 200 (20480000)
I0110 10:39:52.028146 15264 net.cpp:137] Memory required for data: 331520032
I0110 10:39:52.028156 15264 layer_factory.hpp:77] Creating layer relu0_relu0_0_split
I0110 10:39:52.028170 15264 net.cpp:84] Creating Layer relu0_relu0_0_split
I0110 10:39:52.028179 15264 net.cpp:406] relu0_relu0_0_split <- relu0
I0110 10:39:52.028194 15264 net.cpp:380] relu0_relu0_0_split -> relu0_relu0_0_split_0
I0110 10:39:52.028208 15264 net.cpp:380] relu0_relu0_0_split -> relu0_relu0_0_split_1
I0110 10:39:52.028251 15264 net.cpp:122] Setting up relu0_relu0_0_split
I0110 10:39:52.028261 15264 net.cpp:129] Top shape: 8 64 200 200 (20480000)
I0110 10:39:52.028271 15264 net.cpp:129] Top shape: 8 64 200 200 (20480000)
I0110 10:39:52.028278 15264 net.cpp:137] Memory required for data: 495360032
I0110 10:39:52.028283 15264 layer_factory.hpp:77] Creating layer stage1_unit1_bn1
I0110 10:39:52.028296 15264 net.cpp:84] Creating Layer stage1_unit1_bn1
I0110 10:39:52.028302 15264 net.cpp:406] stage1_unit1_bn1 <- relu0_relu0_0_split_0
I0110 10:39:52.028311 15264 net.cpp:380] stage1_unit1_bn1 -> stage1_unit1_bn1
I0110 10:39:52.028549 15264 net.cpp:122] Setting up stage1_unit1_bn1
I0110 10:39:52.028559 15264 net.cpp:129] Top shape: 8 64 200 200 (20480000)
I0110 10:39:52.028566 15264 net.cpp:137] Memory required for data: 577280032
I0110 10:39:52.028589 15264 layer_factory.hpp:77] Creating layer stage1_unit1_bn1_scale
I0110 10:39:52.028600 15264 net.cpp:84] Creating Layer stage1_unit1_bn1_scale
I0110 10:39:52.028606 15264 net.cpp:406] stage1_unit1_bn1_scale <- stage1_unit1_bn1
I0110 10:39:52.028616 15264 net.cpp:367] stage1_unit1_bn1_scale -> stage1_unit1_bn1 (in-place)
I0110 10:39:52.028663 15264 layer_factory.hpp:77] Creating layer stage1_unit1_bn1_scale
I0110 10:39:52.028863 15264 net.cpp:122] Setting up stage1_unit1_bn1_scale
I0110 10:39:52.028874 15264 net.cpp:129] Top shape: 8 64 200 200 (20480000)
I0110 10:39:52.028882 15264 net.cpp:137] Memory required for data: 659200032
I0110 10:39:52.028894 15264 layer_factory.hpp:77] Creating layer stage1_unit1_conv1
I0110 10:39:52.028911 15264 net.cpp:84] Creating Layer stage1_unit1_conv1
I0110 10:39:52.028916 15264 net.cpp:406] stage1_unit1_conv1 <- stage1_unit1_bn1
I0110 10:39:52.028928 15264 net.cpp:380] stage1_unit1_conv1 -> stage1_unit1_conv1
I0110 10:39:52.029554 15264 net.cpp:122] Setting up stage1_unit1_conv1
I0110 10:39:52.029567 15264 net.cpp:129] Top shape: 8 64 200 200 (20480000)
I0110 10:39:52.029572 15264 net.cpp:137] Memory required for data: 741120032
I0110 10:39:52.029583 15264 layer_factory.hpp:77] Creating layer stage1_unit1_bn2
I0110 10:39:52.029594 15264 net.cpp:84] Creating Layer stage1_unit1_bn2
I0110 10:39:52.029600 15264 net.cpp:406] stage1_unit1_bn2 <- stage1_unit1_conv1
I0110 10:39:52.029611 15264 net.cpp:380] stage1_unit1_bn2 -> stage1_unit1_bn2
I0110 10:39:52.029844 15264 net.cpp:122] Setting up stage1_unit1_bn2
I0110 10:39:52.029853 15264 net.cpp:129] Top shape: 8 64 200 200 (20480000)
I0110 10:39:52.029860 15264 net.cpp:137] Memory required for data: 823040032
I0110 10:39:52.029875 15264 layer_factory.hpp:77] Creating layer stage1_unit1_bn2_scale
I0110 10:39:52.029884 15264 net.cpp:84] Creating Layer stage1_unit1_bn2_scale
I0110 10:39:52.029891 15264 net.cpp:406] stage1_unit1_bn2_scale <- stage1_unit1_bn2
I0110 10:39:52.029901 15264 net.cpp:367] stage1_unit1_bn2_scale -> stage1_unit1_bn2 (in-place)
I0110 10:39:52.029942 15264 layer_factory.hpp:77] Creating layer stage1_unit1_bn2_scale
I0110 10:39:52.030139 15264 net.cpp:122] Setting up stage1_unit1_bn2_scale
I0110 10:39:52.030149 15264 net.cpp:129] Top shape: 8 64 200 200 (20480000)
I0110 10:39:52.030156 15264 net.cpp:137] Memory required for data: 904960032
I0110 10:39:52.030171 15264 layer_factory.hpp:77] Creating layer stage1_unit1_relu1
I0110 10:39:52.030181 15264 net.cpp:84] Creating Layer stage1_unit1_relu1
I0110 10:39:52.030187 15264 net.cpp:406] stage1_unit1_relu1 <- stage1_unit1_bn2
I0110 10:39:52.030196 15264 net.cpp:380] stage1_unit1_relu1 -> stage1_unit1_relu1
I0110 10:39:52.030300 15264 net.cpp:122] Setting up stage1_unit1_relu1
I0110 10:39:52.030313 15264 net.cpp:129] Top shape: 8 64 200 200 (20480000)
I0110 10:39:52.030319 15264 net.cpp:137] Memory required for data: 986880032
I0110 10:39:52.030326 15264 layer_factory.hpp:77] Creating layer stage1_unit1_conv2
I0110 10:39:52.030340 15264 net.cpp:84] Creating Layer stage1_unit1_conv2
I0110 10:39:52.030346 15264 net.cpp:406] stage1_unit1_conv2 <- stage1_unit1_relu1
I0110 10:39:52.030357 15264 net.cpp:380] stage1_unit1_conv2 -> stage1_unit1_conv2
I0110 10:39:52.030966 15264 net.cpp:122] Setting up stage1_unit1_conv2
I0110 10:39:52.030977 15264 net.cpp:129] Top shape: 8 64 100 100 (5120000)
I0110 10:39:52.030983 15264 net.cpp:137] Memory required for data: 1007360032
I0110 10:39:52.030992 15264 layer_factory.hpp:77] Creating layer stage1_unit1_bn3
I0110 10:39:52.031002 15264 net.cpp:84] Creating Layer stage1_unit1_bn3
I0110 10:39:52.031009 15264 net.cpp:406] stage1_unit1_bn3 <- stage1_unit1_conv2
I0110 10:39:52.031020 15264 net.cpp:380] stage1_unit1_bn3 -> stage1_unit1_bn3
I0110 10:39:52.031216 15264 net.cpp:122] Setting up stage1_unit1_bn3
I0110 10:39:52.031226 15264 net.cpp:129] Top shape: 8 64 100 100 (5120000)
I0110 10:39:52.031234 15264 net.cpp:137] Memory required for data: 1027840032
I0110 10:39:52.031247 15264 layer_factory.hpp:77] Creating layer stage1_unit1_bn3_scale
I0110 10:39:52.031256 15264 net.cpp:84] Creating Layer stage1_unit1_bn3_scale
I0110 10:39:52.031263 15264 net.cpp:406] stage1_unit1_bn3_scale <- stage1_unit1_bn3
I0110 10:39:52.031272 15264 net.cpp:367] stage1_unit1_bn3_scale -> stage1_unit1_bn3 (in-place)
I0110 10:39:52.031316 15264 layer_factory.hpp:77] Creating layer stage1_unit1_bn3_scale
I0110 10:39:52.031442 15264 net.cpp:122] Setting up stage1_unit1_bn3_scale
I0110 10:39:52.031453 15264 net.cpp:129] Top shape: 8 64 100 100 (5120000)
I0110 10:39:52.031460 15264 net.cpp:137] Memory required for data: 1048320032
I0110 10:39:52.031472 15264 layer_factory.hpp:77] Creating layer stage1_unit1_conv1sc
I0110 10:39:52.031484 15264 net.cpp:84] Creating Layer stage1_unit1_conv1sc
I0110 10:39:52.031491 15264 net.cpp:406] stage1_unit1_conv1sc <- relu0_relu0_0_split_1
I0110 10:39:52.031500 15264 net.cpp:380] stage1_unit1_conv1sc -> stage1_unit1_conv1sc
I0110 10:39:52.031749 15264 net.cpp:122] Setting up stage1_unit1_conv1sc
I0110 10:39:52.031761 15264 net.cpp:129] Top shape: 8 64 100 100 (5120000)
I0110 10:39:52.031767 15264 net.cpp:137] Memory required for data: 1068800032
I0110 10:39:52.031777 15264 layer_factory.hpp:77] Creating layer stage1_unit1_sc
I0110 10:39:52.031790 15264 net.cpp:84] Creating Layer stage1_unit1_sc
I0110 10:39:52.031796 15264 net.cpp:406] stage1_unit1_sc <- stage1_unit1_conv1sc
I0110 10:39:52.031806 15264 net.cpp:380] stage1_unit1_sc -> stage1_unit1_sc
I0110 10:39:52.032003 15264 net.cpp:122] Setting up stage1_unit1_sc
I0110 10:39:52.032014 15264 net.cpp:129] Top shape: 8 64 100 100 (5120000)
I0110 10:39:52.032021 15264 net.cpp:137] Memory required for data: 1089280032
I0110 10:39:52.032035 15264 layer_factory.hpp:77] Creating layer stage1_unit1_sc_scale
I0110 10:39:52.032044 15264 net.cpp:84] Creating Layer stage1_unit1_sc_scale
I0110 10:39:52.032052 15264 net.cpp:406] stage1_unit1_sc_scale <- stage1_unit1_sc
I0110 10:39:52.032060 15264 net.cpp:367] stage1_unit1_sc_scale -> stage1_unit1_sc (in-place)
I0110 10:39:52.032101 15264 layer_factory.hpp:77] Creating layer stage1_unit1_sc_scale
I0110 10:39:52.033355 15264 net.cpp:122] Setting up stage1_unit1_sc_scale
I0110 10:39:52.033373 15264 net.cpp:129] Top shape: 8 64 100 100 (5120000)
I0110 10:39:52.033380 15264 net.cpp:137] Memory required for data: 1109760032
I0110 10:39:52.033392 15264 layer_factory.hpp:77] Creating layer _plus0
I0110 10:39:52.033404 15264 net.cpp:84] Creating Layer _plus0
I0110 10:39:52.033411 15264 net.cpp:406] _plus0 <- stage1_unit1_bn3
I0110 10:39:52.033421 15264 net.cpp:406] _plus0 <- stage1_unit1_sc
I0110 10:39:52.033430 15264 net.cpp:380] _plus0 -> _plus0
I0110 10:39:52.033471 15264 net.cpp:122] Setting up _plus0
I0110 10:39:52.033483 15264 net.cpp:129] Top shape: 8 64 100 100 (5120000)
I0110 10:39:52.033488 15264 net.cpp:137] Memory required for data: 1130240032
I0110 10:39:52.033494 15264 layer_factory.hpp:77] Creating layer _plus0__plus0_0_split
I0110 10:39:52.033504 15264 net.cpp:84] Creating Layer _plus0__plus0_0_split
I0110 10:39:52.033511 15264 net.cpp:406] _plus0__plus0_0_split <- _plus0
I0110 10:39:52.033521 15264 net.cpp:380] _plus0__plus0_0_split -> _plus0__plus0_0_split_0
I0110 10:39:52.033535 15264 net.cpp:380] _plus0__plus0_0_split -> _plus0__plus0_0_split_1
I0110 10:39:52.033576 15264 net.cpp:122] Setting up _plus0__plus0_0_split
I0110 10:39:52.033586 15264 net.cpp:129] Top shape: 8 64 100 100 (5120000)
I0110 10:39:52.033596 15264 net.cpp:129] Top shape: 8 64 100 100 (5120000)
I0110 10:39:52.033601 15264 net.cpp:137] Memory required for data: 1171200032
I0110 10:39:52.033608 15264 layer_factory.hpp:77] Creating layer stage1_unit2_bn1
I0110 10:39:52.033619 15264 net.cpp:84] Creating Layer stage1_unit2_bn1
I0110 10:39:52.033625 15264 net.cpp:406] stage1_unit2_bn1 <- _plus0__plus0_0_split_0
I0110 10:39:52.033637 15264 net.cpp:380] stage1_unit2_bn1 -> stage1_unit2_bn1
I0110 10:39:52.033838 15264 net.cpp:122] Setting up stage1_unit2_bn1
I0110 10:39:52.033848 15264 net.cpp:129] Top shape: 8 64 100 100 (5120000)
I0110 10:39:52.033854 15264 net.cpp:137] Memory required for data: 1191680032
I0110 10:39:52.033869 15264 layer_factory.hpp:77] Creating layer stage1_unit2_bn1_scale
I0110 10:39:52.033879 15264 net.cpp:84] Creating Layer stage1_unit2_bn1_scale
I0110 10:39:52.033886 15264 net.cpp:406] stage1_unit2_bn1_scale <- stage1_unit2_bn1
I0110 10:39:52.033896 15264 net.cpp:367] stage1_unit2_bn1_scale -> stage1_unit2_bn1 (in-place)
I0110 10:39:52.033942 15264 layer_factory.hpp:77] Creating layer stage1_unit2_bn1_scale
I0110 10:39:52.034075 15264 net.cpp:122] Setting up stage1_unit2_bn1_scale
I0110 10:39:52.034085 15264 net.cpp:129] Top shape: 8 64 100 100 (5120000)
I0110 10:39:52.034091 15264 net.cpp:137] Memory required for data: 1212160032
I0110 10:39:52.034106 15264 layer_factory.hpp:77] Creating layer stage1_unit2_conv1
I0110 10:39:52.034119 15264 net.cpp:84] Creating Layer stage1_unit2_conv1
I0110 10:39:52.034126 15264 net.cpp:406] stage1_unit2_conv1 <- stage1_unit2_bn1
I0110 10:39:52.034137 15264 net.cpp:380] stage1_unit2_conv1 -> stage1_unit2_conv1
I0110 10:39:52.034744 15264 net.cpp:122] Setting up stage1_unit2_conv1
I0110 10:39:52.034756 15264 net.cpp:129] Top shape: 8 64 100 100 (5120000)
I0110 10:39:52.034763 15264 net.cpp:137] Memory required for data: 1232640032
I0110 10:39:52.034773 15264 layer_factory.hpp:77] Creating layer stage1_unit2_bn2
I0110 10:39:52.034785 15264 net.cpp:84] Creating Layer stage1_unit2_bn2
I0110 10:39:52.034790 15264 net.cpp:406] stage1_unit2_bn2 <- stage1_unit2_conv1
I0110 10:39:52.034803 15264 net.cpp:380] stage1_unit2_bn2 -> stage1_unit2_bn2
I0110 10:39:52.035009 15264 net.cpp:122] Setting up stage1_unit2_bn2
I0110 10:39:52.035019 15264 net.cpp:129] Top shape: 8 64 100 100 (5120000)
I0110 10:39:52.035025 15264 net.cpp:137] Memory required for data: 1253120032
I0110 10:39:52.035040 15264 layer_factory.hpp:77] Creating layer stage1_unit2_bn2_scale
I0110 10:39:52.035051 15264 net.cpp:84] Creating Layer stage1_unit2_bn2_scale
I0110 10:39:52.035058 15264 net.cpp:406] stage1_unit2_bn2_scale <- stage1_unit2_bn2
I0110 10:39:52.035068 15264 net.cpp:367] stage1_unit2_bn2_scale -> stage1_unit2_bn2 (in-place)
I0110 10:39:52.035111 15264 layer_factory.hpp:77] Creating layer stage1_unit2_bn2_scale
I0110 10:39:52.035244 15264 net.cpp:122] Setting up stage1_unit2_bn2_scale
I0110 10:39:52.035254 15264 net.cpp:129] Top shape: 8 64 100 100 (5120000)
I0110 10:39:52.035261 15264 net.cpp:137] Memory required for data: 1273600032
I0110 10:39:52.035274 15264 layer_factory.hpp:77] Creating layer stage1_unit2_relu1
I0110 10:39:52.035282 15264 net.cpp:84] Creating Layer stage1_unit2_relu1
I0110 10:39:52.035290 15264 net.cpp:406] stage1_unit2_relu1 <- stage1_unit2_bn2
I0110 10:39:52.035300 15264 net.cpp:380] stage1_unit2_relu1 -> stage1_unit2_relu1
I0110 10:39:52.035665 15264 net.cpp:122] Setting up stage1_unit2_relu1
I0110 10:39:52.035681 15264 net.cpp:129] Top shape: 8 64 100 100 (5120000)
I0110 10:39:52.035687 15264 net.cpp:137] Memory required for data: 1294080032
I0110 10:39:52.035693 15264 layer_factory.hpp:77] Creating layer stage1_unit2_conv2
I0110 10:39:52.035712 15264 net.cpp:84] Creating Layer stage1_unit2_conv2
I0110 10:39:52.035717 15264 net.cpp:406] stage1_unit2_conv2 <- stage1_unit2_relu1
I0110 10:39:52.035732 15264 net.cpp:380] stage1_unit2_conv2 -> stage1_unit2_conv2
I0110 10:39:52.036353 15264 net.cpp:122] Setting up stage1_unit2_conv2
I0110 10:39:52.036366 15264 net.cpp:129] Top shape: 8 64 100 100 (5120000)
I0110 10:39:52.036372 15264 net.cpp:137] Memory required for data: 1314560032
I0110 10:39:52.036382 15264 layer_factory.hpp:77] Creating layer stage1_unit2_bn3
I0110 10:39:52.036392 15264 net.cpp:84] Creating Layer stage1_unit2_bn3
I0110 10:39:52.036401 15264 net.cpp:406] stage1_unit2_bn3 <- stage1_unit2_conv2
I0110 10:39:52.036413 15264 net.cpp:380] stage1_unit2_bn3 -> stage1_unit2_bn3
I0110 10:39:52.036630 15264 net.cpp:122] Setting up stage1_unit2_bn3
I0110 10:39:52.036641 15264 net.cpp:129] Top shape: 8 64 100 100 (5120000)
I0110 10:39:52.036648 15264 net.cpp:137] Memory required for data: 1335040032
I0110 10:39:52.036664 15264 layer_factory.hpp:77] Creating layer stage1_unit2_bn3_scale
I0110 10:39:52.036674 15264 net.cpp:84] Creating Layer stage1_unit2_bn3_scale
I0110 10:39:52.036680 15264 net.cpp:406] stage1_unit2_bn3_scale <- stage1_unit2_bn3
I0110 10:39:52.036690 15264 net.cpp:367] stage1_unit2_bn3_scale -> stage1_unit2_bn3 (in-place)
I0110 10:39:52.036737 15264 layer_factory.hpp:77] Creating layer stage1_unit2_bn3_scale
I0110 10:39:52.036870 15264 net.cpp:122] Setting up stage1_unit2_bn3_scale
I0110 10:39:52.036880 15264 net.cpp:129] Top shape: 8 64 100 100 (5120000)
I0110 10:39:52.036887 15264 net.cpp:137] Memory required for data: 1355520032
I0110 10:39:52.036900 15264 layer_factory.hpp:77] Creating layer _plus1
I0110 10:39:52.036908 15264 net.cpp:84] Creating Layer _plus1
I0110 10:39:52.036916 15264 net.cpp:406] _plus1 <- stage1_unit2_bn3
I0110 10:39:52.036924 15264 net.cpp:406] _plus1 <- _plus0__plus0_0_split_1
I0110 10:39:52.036936 15264 net.cpp:380] _plus1 -> _plus1
I0110 10:39:52.036965 15264 net.cpp:122] Setting up _plus1
I0110 10:39:52.036974 15264 net.cpp:129] Top shape: 8 64 100 100 (5120000)
I0110 10:39:52.036983 15264 net.cpp:137] Memory required for data: 1376000032
I0110 10:39:52.036988 15264 layer_factory.hpp:77] Creating layer _plus1__plus1_0_split
I0110 10:39:52.036998 15264 net.cpp:84] Creating Layer _plus1__plus1_0_split
I0110 10:39:52.037004 15264 net.cpp:406] _plus1__plus1_0_split <- _plus1
I0110 10:39:52.037017 15264 net.cpp:380] _plus1__plus1_0_split -> _plus1__plus1_0_split_0
I0110 10:39:52.037029 15264 net.cpp:380] _plus1__plus1_0_split -> _plus1__plus1_0_split_1
I0110 10:39:52.037065 15264 net.cpp:122] Setting up _plus1__plus1_0_split
I0110 10:39:52.037073 15264 net.cpp:129] Top shape: 8 64 100 100 (5120000)
I0110 10:39:52.037083 15264 net.cpp:129] Top shape: 8 64 100 100 (5120000)
I0110 10:39:52.037089 15264 net.cpp:137] Memory required for data: 1416960032
I0110 10:39:52.037096 15264 layer_factory.hpp:77] Creating layer stage2_unit1_bn1
I0110 10:39:52.037108 15264 net.cpp:84] Creating Layer stage2_unit1_bn1
I0110 10:39:52.037114 15264 net.cpp:406] stage2_unit1_bn1 <- _plus1__plus1_0_split_0
I0110 10:39:52.037124 15264 net.cpp:380] stage2_unit1_bn1 -> stage2_unit1_bn1
I0110 10:39:52.037325 15264 net.cpp:122] Setting up stage2_unit1_bn1
I0110 10:39:52.037335 15264 net.cpp:129] Top shape: 8 64 100 100 (5120000)
I0110 10:39:52.037343 15264 net.cpp:137] Memory required for data: 1437440032
I0110 10:39:52.037358 15264 layer_factory.hpp:77] Creating layer stage2_unit1_bn1_scale
I0110 10:39:52.037370 15264 net.cpp:84] Creating Layer stage2_unit1_bn1_scale
I0110 10:39:52.037376 15264 net.cpp:406] stage2_unit1_bn1_scale <- stage2_unit1_bn1
I0110 10:39:52.037385 15264 net.cpp:367] stage2_unit1_bn1_scale -> stage2_unit1_bn1 (in-place)
I0110 10:39:52.037431 15264 layer_factory.hpp:77] Creating layer stage2_unit1_bn1_scale
I0110 10:39:52.037562 15264 net.cpp:122] Setting up stage2_unit1_bn1_scale
I0110 10:39:52.037573 15264 net.cpp:129] Top shape: 8 64 100 100 (5120000)
I0110 10:39:52.037580 15264 net.cpp:137] Memory required for data: 1457920032
I0110 10:39:52.037592 15264 layer_factory.hpp:77] Creating layer stage2_unit1_conv1
I0110 10:39:52.037607 15264 net.cpp:84] Creating Layer stage2_unit1_conv1
I0110 10:39:52.037612 15264 net.cpp:406] stage2_unit1_conv1 <- stage2_unit1_bn1
I0110 10:39:52.037628 15264 net.cpp:380] stage2_unit1_conv1 -> stage2_unit1_conv1
I0110 10:39:52.038648 15264 net.cpp:122] Setting up stage2_unit1_conv1
I0110 10:39:52.038659 15264 net.cpp:129] Top shape: 8 128 100 100 (10240000)
I0110 10:39:52.038666 15264 net.cpp:137] Memory required for data: 1498880032
I0110 10:39:52.038676 15264 layer_factory.hpp:77] Creating layer stage2_unit1_bn2
I0110 10:39:52.038689 15264 net.cpp:84] Creating Layer stage2_unit1_bn2
I0110 10:39:52.038695 15264 net.cpp:406] stage2_unit1_bn2 <- stage2_unit1_conv1
I0110 10:39:52.038705 15264 net.cpp:380] stage2_unit1_bn2 -> stage2_unit1_bn2
I0110 10:39:52.038905 15264 net.cpp:122] Setting up stage2_unit1_bn2
I0110 10:39:52.038915 15264 net.cpp:129] Top shape: 8 128 100 100 (10240000)
I0110 10:39:52.038923 15264 net.cpp:137] Memory required for data: 1539840032
I0110 10:39:52.038936 15264 layer_factory.hpp:77] Creating layer stage2_unit1_bn2_scale
I0110 10:39:52.038949 15264 net.cpp:84] Creating Layer stage2_unit1_bn2_scale
I0110 10:39:52.038954 15264 net.cpp:406] stage2_unit1_bn2_scale <- stage2_unit1_bn2
I0110 10:39:52.038964 15264 net.cpp:367] stage2_unit1_bn2_scale -> stage2_unit1_bn2 (in-place)
I0110 10:39:52.039008 15264 layer_factory.hpp:77] Creating layer stage2_unit1_bn2_scale
I0110 10:39:52.039127 15264 net.cpp:122] Setting up stage2_unit1_bn2_scale
I0110 10:39:52.039136 15264 net.cpp:129] Top shape: 8 128 100 100 (10240000)
I0110 10:39:52.039144 15264 net.cpp:137] Memory required for data: 1580800032
I0110 10:39:52.039155 15264 layer_factory.hpp:77] Creating layer stage2_unit1_relu1
I0110 10:39:52.039165 15264 net.cpp:84] Creating Layer stage2_unit1_relu1
I0110 10:39:52.039171 15264 net.cpp:406] stage2_unit1_relu1 <- stage2_unit1_bn2
I0110 10:39:52.039183 15264 net.cpp:380] stage2_unit1_relu1 -> stage2_unit1_relu1
I0110 10:39:52.039290 15264 net.cpp:122] Setting up stage2_unit1_relu1
I0110 10:39:52.039304 15264 net.cpp:129] Top shape: 8 128 100 100 (10240000)
I0110 10:39:52.039309 15264 net.cpp:137] Memory required for data: 1621760032
I0110 10:39:52.039316 15264 layer_factory.hpp:77] Creating layer stage2_unit1_conv2
I0110 10:39:52.039331 15264 net.cpp:84] Creating Layer stage2_unit1_conv2
I0110 10:39:52.039337 15264 net.cpp:406] stage2_unit1_conv2 <- stage2_unit1_relu1
I0110 10:39:52.039347 15264 net.cpp:380] stage2_unit1_conv2 -> stage2_unit1_conv2
I0110 10:39:52.041220 15264 net.cpp:122] Setting up stage2_unit1_conv2
I0110 10:39:52.041234 15264 net.cpp:129] Top shape: 8 128 50 50 (2560000)
I0110 10:39:52.041239 15264 net.cpp:137] Memory required for data: 1632000032
I0110 10:39:52.041250 15264 layer_factory.hpp:77] Creating layer stage2_unit1_bn3
I0110 10:39:52.041260 15264 net.cpp:84] Creating Layer stage2_unit1_bn3
I0110 10:39:52.041267 15264 net.cpp:406] stage2_unit1_bn3 <- stage2_unit1_conv2
I0110 10:39:52.041277 15264 net.cpp:380] stage2_unit1_bn3 -> stage2_unit1_bn3
I0110 10:39:52.041488 15264 net.cpp:122] Setting up stage2_unit1_bn3
I0110 10:39:52.041499 15264 net.cpp:129] Top shape: 8 128 50 50 (2560000)
I0110 10:39:52.041507 15264 net.cpp:137] Memory required for data: 1642240032
I0110 10:39:52.041520 15264 layer_factory.hpp:77] Creating layer stage2_unit1_bn3_scale
I0110 10:39:52.041529 15264 net.cpp:84] Creating Layer stage2_unit1_bn3_scale
I0110 10:39:52.041537 15264 net.cpp:406] stage2_unit1_bn3_scale <- stage2_unit1_bn3
I0110 10:39:52.041549 15264 net.cpp:367] stage2_unit1_bn3_scale -> stage2_unit1_bn3 (in-place)
I0110 10:39:52.041595 15264 layer_factory.hpp:77] Creating layer stage2_unit1_bn3_scale
I0110 10:39:52.041705 15264 net.cpp:122] Setting up stage2_unit1_bn3_scale
I0110 10:39:52.041715 15264 net.cpp:129] Top shape: 8 128 50 50 (2560000)
I0110 10:39:52.041721 15264 net.cpp:137] Memory required for data: 1652480032
I0110 10:39:52.041735 15264 layer_factory.hpp:77] Creating layer stage2_unit1_conv1sc
I0110 10:39:52.041749 15264 net.cpp:84] Creating Layer stage2_unit1_conv1sc
I0110 10:39:52.041755 15264 net.cpp:406] stage2_unit1_conv1sc <- _plus1__plus1_0_split_1
I0110 10:39:52.041769 15264 net.cpp:380] stage2_unit1_conv1sc -> stage2_unit1_conv1sc
I0110 10:39:52.042042 15264 net.cpp:122] Setting up stage2_unit1_conv1sc
I0110 10:39:52.042052 15264 net.cpp:129] Top shape: 8 128 50 50 (2560000)
I0110 10:39:52.042059 15264 net.cpp:137] Memory required for data: 1662720032
I0110 10:39:52.042069 15264 layer_factory.hpp:77] Creating layer stage2_unit1_sc
I0110 10:39:52.042079 15264 net.cpp:84] Creating Layer stage2_unit1_sc
I0110 10:39:52.042086 15264 net.cpp:406] stage2_unit1_sc <- stage2_unit1_conv1sc
I0110 10:39:52.042098 15264 net.cpp:380] stage2_unit1_sc -> stage2_unit1_sc
I0110 10:39:52.042289 15264 net.cpp:122] Setting up stage2_unit1_sc
I0110 10:39:52.042299 15264 net.cpp:129] Top shape: 8 128 50 50 (2560000)
I0110 10:39:52.042306 15264 net.cpp:137] Memory required for data: 1672960032
I0110 10:39:52.042327 15264 layer_factory.hpp:77] Creating layer stage2_unit1_sc_scale
I0110 10:39:52.042338 15264 net.cpp:84] Creating Layer stage2_unit1_sc_scale
I0110 10:39:52.042345 15264 net.cpp:406] stage2_unit1_sc_scale <- stage2_unit1_sc
I0110 10:39:52.042356 15264 net.cpp:367] stage2_unit1_sc_scale -> stage2_unit1_sc (in-place)
I0110 10:39:52.042402 15264 layer_factory.hpp:77] Creating layer stage2_unit1_sc_scale
I0110 10:39:52.042507 15264 net.cpp:122] Setting up stage2_unit1_sc_scale
I0110 10:39:52.042522 15264 net.cpp:129] Top shape: 8 128 50 50 (2560000)
I0110 10:39:52.042528 15264 net.cpp:137] Memory required for data: 1683200032
I0110 10:39:52.042539 15264 layer_factory.hpp:77] Creating layer _plus2
I0110 10:39:52.042547 15264 net.cpp:84] Creating Layer _plus2
I0110 10:39:52.042556 15264 net.cpp:406] _plus2 <- stage2_unit1_bn3
I0110 10:39:52.042563 15264 net.cpp:406] _plus2 <- stage2_unit1_sc
I0110 10:39:52.042573 15264 net.cpp:380] _plus2 -> _plus2
I0110 10:39:52.042603 15264 net.cpp:122] Setting up _plus2
I0110 10:39:52.042613 15264 net.cpp:129] Top shape: 8 128 50 50 (2560000)
I0110 10:39:52.042619 15264 net.cpp:137] Memory required for data: 1693440032
I0110 10:39:52.042625 15264 layer_factory.hpp:77] Creating layer _plus2__plus2_0_split
I0110 10:39:52.042635 15264 net.cpp:84] Creating Layer _plus2__plus2_0_split
I0110 10:39:52.042642 15264 net.cpp:406] _plus2__plus2_0_split <- _plus2
I0110 10:39:52.042652 15264 net.cpp:380] _plus2__plus2_0_split -> _plus2__plus2_0_split_0
I0110 10:39:52.042665 15264 net.cpp:380] _plus2__plus2_0_split -> _plus2__plus2_0_split_1
I0110 10:39:52.042703 15264 net.cpp:122] Setting up _plus2__plus2_0_split
I0110 10:39:52.042713 15264 net.cpp:129] Top shape: 8 128 50 50 (2560000)
I0110 10:39:52.042721 15264 net.cpp:129] Top shape: 8 128 50 50 (2560000)
I0110 10:39:52.042728 15264 net.cpp:137] Memory required for data: 1713920032
I0110 10:39:52.042734 15264 layer_factory.hpp:77] Creating layer stage2_unit2_bn1
I0110 10:39:52.042744 15264 net.cpp:84] Creating Layer stage2_unit2_bn1
I0110 10:39:52.042752 15264 net.cpp:406] stage2_unit2_bn1 <- _plus2__plus2_0_split_0
I0110 10:39:52.042763 15264 net.cpp:380] stage2_unit2_bn1 -> stage2_unit2_bn1
I0110 10:39:52.042953 15264 net.cpp:122] Setting up stage2_unit2_bn1
I0110 10:39:52.042964 15264 net.cpp:129] Top shape: 8 128 50 50 (2560000)
I0110 10:39:52.042970 15264 net.cpp:137] Memory required for data: 1724160032
I0110 10:39:52.042984 15264 layer_factory.hpp:77] Creating layer stage2_unit2_bn1_scale
I0110 10:39:52.042994 15264 net.cpp:84] Creating Layer stage2_unit2_bn1_scale
I0110 10:39:52.043000 15264 net.cpp:406] stage2_unit2_bn1_scale <- stage2_unit2_bn1
I0110 10:39:52.043011 15264 net.cpp:367] stage2_unit2_bn1_scale -> stage2_unit2_bn1 (in-place)
I0110 10:39:52.043053 15264 layer_factory.hpp:77] Creating layer stage2_unit2_bn1_scale
I0110 10:39:52.043160 15264 net.cpp:122] Setting up stage2_unit2_bn1_scale
I0110 10:39:52.043170 15264 net.cpp:129] Top shape: 8 128 50 50 (2560000)
I0110 10:39:52.043176 15264 net.cpp:137] Memory required for data: 1734400032
I0110 10:39:52.043188 15264 layer_factory.hpp:77] Creating layer stage2_unit2_conv1
I0110 10:39:52.043202 15264 net.cpp:84] Creating Layer stage2_unit2_conv1
I0110 10:39:52.043208 15264 net.cpp:406] stage2_unit2_conv1 <- stage2_unit2_bn1
I0110 10:39:52.043220 15264 net.cpp:380] stage2_unit2_conv1 -> stage2_unit2_conv1
I0110 10:39:52.046155 15264 net.cpp:122] Setting up stage2_unit2_conv1
I0110 10:39:52.046172 15264 net.cpp:129] Top shape: 8 128 50 50 (2560000)
I0110 10:39:52.046180 15264 net.cpp:137] Memory required for data: 1744640032
I0110 10:39:52.046190 15264 layer_factory.hpp:77] Creating layer stage2_unit2_bn2
I0110 10:39:52.046203 15264 net.cpp:84] Creating Layer stage2_unit2_bn2
I0110 10:39:52.046209 15264 net.cpp:406] stage2_unit2_bn2 <- stage2_unit2_conv1
I0110 10:39:52.046221 15264 net.cpp:380] stage2_unit2_bn2 -> stage2_unit2_bn2
I0110 10:39:52.046423 15264 net.cpp:122] Setting up stage2_unit2_bn2
I0110 10:39:52.046433 15264 net.cpp:129] Top shape: 8 128 50 50 (2560000)
I0110 10:39:52.046439 15264 net.cpp:137] Memory required for data: 1754880032
I0110 10:39:52.046454 15264 layer_factory.hpp:77] Creating layer stage2_unit2_bn2_scale
I0110 10:39:52.046466 15264 net.cpp:84] Creating Layer stage2_unit2_bn2_scale
I0110 10:39:52.046473 15264 net.cpp:406] stage2_unit2_bn2_scale <- stage2_unit2_bn2
I0110 10:39:52.046480 15264 net.cpp:367] stage2_unit2_bn2_scale -> stage2_unit2_bn2 (in-place)
I0110 10:39:52.046526 15264 layer_factory.hpp:77] Creating layer stage2_unit2_bn2_scale
I0110 10:39:52.046638 15264 net.cpp:122] Setting up stage2_unit2_bn2_scale
I0110 10:39:52.046648 15264 net.cpp:129] Top shape: 8 128 50 50 (2560000)
I0110 10:39:52.046654 15264 net.cpp:137] Memory required for data: 1765120032
I0110 10:39:52.046667 15264 layer_factory.hpp:77] Creating layer stage2_unit2_relu1
I0110 10:39:52.046675 15264 net.cpp:84] Creating Layer stage2_unit2_relu1
I0110 10:39:52.046682 15264 net.cpp:406] stage2_unit2_relu1 <- stage2_unit2_bn2
I0110 10:39:52.046695 15264 net.cpp:380] stage2_unit2_relu1 -> stage2_unit2_relu1
I0110 10:39:52.047016 15264 net.cpp:122] Setting up stage2_unit2_relu1
I0110 10:39:52.047032 15264 net.cpp:129] Top shape: 8 128 50 50 (2560000)
I0110 10:39:52.047039 15264 net.cpp:137] Memory required for data: 1775360032
I0110 10:39:52.047046 15264 layer_factory.hpp:77] Creating layer stage2_unit2_conv2
I0110 10:39:52.047068 15264 net.cpp:84] Creating Layer stage2_unit2_conv2
I0110 10:39:52.047075 15264 net.cpp:406] stage2_unit2_conv2 <- stage2_unit2_relu1
I0110 10:39:52.047086 15264 net.cpp:380] stage2_unit2_conv2 -> stage2_unit2_conv2
I0110 10:39:52.048974 15264 net.cpp:122] Setting up stage2_unit2_conv2
I0110 10:39:52.048987 15264 net.cpp:129] Top shape: 8 128 50 50 (2560000)
I0110 10:39:52.048993 15264 net.cpp:137] Memory required for data: 1785600032
I0110 10:39:52.049003 15264 layer_factory.hpp:77] Creating layer stage2_unit2_bn3
I0110 10:39:52.049015 15264 net.cpp:84] Creating Layer stage2_unit2_bn3
I0110 10:39:52.049021 15264 net.cpp:406] stage2_unit2_bn3 <- stage2_unit2_conv2
I0110 10:39:52.049031 15264 net.cpp:380] stage2_unit2_bn3 -> stage2_unit2_bn3
I0110 10:39:52.049229 15264 net.cpp:122] Setting up stage2_unit2_bn3
I0110 10:39:52.049239 15264 net.cpp:129] Top shape: 8 128 50 50 (2560000)
I0110 10:39:52.049247 15264 net.cpp:137] Memory required for data: 1795840032
I0110 10:39:52.049262 15264 layer_factory.hpp:77] Creating layer stage2_unit2_bn3_scale
I0110 10:39:52.049270 15264 net.cpp:84] Creating Layer stage2_unit2_bn3_scale
I0110 10:39:52.049276 15264 net.cpp:406] stage2_unit2_bn3_scale <- stage2_unit2_bn3
I0110 10:39:52.049286 15264 net.cpp:367] stage2_unit2_bn3_scale -> stage2_unit2_bn3 (in-place)
I0110 10:39:52.049335 15264 layer_factory.hpp:77] Creating layer stage2_unit2_bn3_scale
I0110 10:39:52.049448 15264 net.cpp:122] Setting up stage2_unit2_bn3_scale
I0110 10:39:52.049458 15264 net.cpp:129] Top shape: 8 128 50 50 (2560000)
I0110 10:39:52.049464 15264 net.cpp:137] Memory required for data: 1806080032
I0110 10:39:52.049475 15264 layer_factory.hpp:77] Creating layer _plus3
I0110 10:39:52.049484 15264 net.cpp:84] Creating Layer _plus3
I0110 10:39:52.049491 15264 net.cpp:406] _plus3 <- stage2_unit2_bn3
I0110 10:39:52.049500 15264 net.cpp:406] _plus3 <- _plus2__plus2_0_split_1
I0110 10:39:52.049512 15264 net.cpp:380] _plus3 -> _plus3
I0110 10:39:52.049542 15264 net.cpp:122] Setting up _plus3
I0110 10:39:52.049551 15264 net.cpp:129] Top shape: 8 128 50 50 (2560000)
I0110 10:39:52.049558 15264 net.cpp:137] Memory required for data: 1816320032
I0110 10:39:52.049566 15264 layer_factory.hpp:77] Creating layer _plus3__plus3_0_split
I0110 10:39:52.049576 15264 net.cpp:84] Creating Layer _plus3__plus3_0_split
I0110 10:39:52.049582 15264 net.cpp:406] _plus3__plus3_0_split <- _plus3
I0110 10:39:52.049594 15264 net.cpp:380] _plus3__plus3_0_split -> _plus3__plus3_0_split_0
I0110 10:39:52.049605 15264 net.cpp:380] _plus3__plus3_0_split -> _plus3__plus3_0_split_1
I0110 10:39:52.049643 15264 net.cpp:122] Setting up _plus3__plus3_0_split
I0110 10:39:52.049651 15264 net.cpp:129] Top shape: 8 128 50 50 (2560000)
I0110 10:39:52.049661 15264 net.cpp:129] Top shape: 8 128 50 50 (2560000)
I0110 10:39:52.049667 15264 net.cpp:137] Memory required for data: 1836800032
I0110 10:39:52.049674 15264 layer_factory.hpp:77] Creating layer stage3_unit1_bn1
I0110 10:39:52.049686 15264 net.cpp:84] Creating Layer stage3_unit1_bn1
I0110 10:39:52.049692 15264 net.cpp:406] stage3_unit1_bn1 <- _plus3__plus3_0_split_0
I0110 10:39:52.049701 15264 net.cpp:380] stage3_unit1_bn1 -> stage3_unit1_bn1
I0110 10:39:52.049887 15264 net.cpp:122] Setting up stage3_unit1_bn1
I0110 10:39:52.049897 15264 net.cpp:129] Top shape: 8 128 50 50 (2560000)
I0110 10:39:52.049904 15264 net.cpp:137] Memory required for data: 1847040032
I0110 10:39:52.049918 15264 layer_factory.hpp:77] Creating layer stage3_unit1_bn1_scale
I0110 10:39:52.049929 15264 net.cpp:84] Creating Layer stage3_unit1_bn1_scale
I0110 10:39:52.049935 15264 net.cpp:406] stage3_unit1_bn1_scale <- stage3_unit1_bn1
I0110 10:39:52.049945 15264 net.cpp:367] stage3_unit1_bn1_scale -> stage3_unit1_bn1 (in-place)
I0110 10:39:52.049988 15264 layer_factory.hpp:77] Creating layer stage3_unit1_bn1_scale
I0110 10:39:52.050096 15264 net.cpp:122] Setting up stage3_unit1_bn1_scale
I0110 10:39:52.050105 15264 net.cpp:129] Top shape: 8 128 50 50 (2560000)
I0110 10:39:52.050112 15264 net.cpp:137] Memory required for data: 1857280032
I0110 10:39:52.050124 15264 layer_factory.hpp:77] Creating layer stage3_unit1_conv1
I0110 10:39:52.050139 15264 net.cpp:84] Creating Layer stage3_unit1_conv1
I0110 10:39:52.050144 15264 net.cpp:406] stage3_unit1_conv1 <- stage3_unit1_bn1
I0110 10:39:52.050158 15264 net.cpp:380] stage3_unit1_conv1 -> stage3_unit1_conv1
I0110 10:39:52.054756 15264 net.cpp:122] Setting up stage3_unit1_conv1
I0110 10:39:52.054774 15264 net.cpp:129] Top shape: 8 256 50 50 (5120000)
I0110 10:39:52.054780 15264 net.cpp:137] Memory required for data: 1877760032
I0110 10:39:52.054790 15264 layer_factory.hpp:77] Creating layer stage3_unit1_bn2
I0110 10:39:52.054802 15264 net.cpp:84] Creating Layer stage3_unit1_bn2
I0110 10:39:52.054810 15264 net.cpp:406] stage3_unit1_bn2 <- stage3_unit1_conv1
I0110 10:39:52.054821 15264 net.cpp:380] stage3_unit1_bn2 -> stage3_unit1_bn2
I0110 10:39:52.055023 15264 net.cpp:122] Setting up stage3_unit1_bn2
I0110 10:39:52.055034 15264 net.cpp:129] Top shape: 8 256 50 50 (5120000)
I0110 10:39:52.055040 15264 net.cpp:137] Memory required for data: 1898240032
I0110 10:39:52.055055 15264 layer_factory.hpp:77] Creating layer stage3_unit1_bn2_scale
I0110 10:39:52.055064 15264 net.cpp:84] Creating Layer stage3_unit1_bn2_scale
I0110 10:39:52.055070 15264 net.cpp:406] stage3_unit1_bn2_scale <- stage3_unit1_bn2
I0110 10:39:52.055079 15264 net.cpp:367] stage3_unit1_bn2_scale -> stage3_unit1_bn2 (in-place)
I0110 10:39:52.055126 15264 layer_factory.hpp:77] Creating layer stage3_unit1_bn2_scale
I0110 10:39:52.055238 15264 net.cpp:122] Setting up stage3_unit1_bn2_scale
I0110 10:39:52.055248 15264 net.cpp:129] Top shape: 8 256 50 50 (5120000)
I0110 10:39:52.055254 15264 net.cpp:137] Memory required for data: 1918720032
I0110 10:39:52.055266 15264 layer_factory.hpp:77] Creating layer stage3_unit1_relu1
I0110 10:39:52.055275 15264 net.cpp:84] Creating Layer stage3_unit1_relu1
I0110 10:39:52.055282 15264 net.cpp:406] stage3_unit1_relu1 <- stage3_unit1_bn2
I0110 10:39:52.055294 15264 net.cpp:380] stage3_unit1_relu1 -> stage3_unit1_relu1
I0110 10:39:52.055408 15264 net.cpp:122] Setting up stage3_unit1_relu1
I0110 10:39:52.055420 15264 net.cpp:129] Top shape: 8 256 50 50 (5120000)
I0110 10:39:52.055428 15264 net.cpp:137] Memory required for data: 1939200032
I0110 10:39:52.055433 15264 layer_factory.hpp:77] Creating layer stage3_unit1_conv2
I0110 10:39:52.055447 15264 net.cpp:84] Creating Layer stage3_unit1_conv2
I0110 10:39:52.055454 15264 net.cpp:406] stage3_unit1_conv2 <- stage3_unit1_relu1
I0110 10:39:52.055467 15264 net.cpp:380] stage3_unit1_conv2 -> stage3_unit1_conv2
I0110 10:39:52.063526 15264 net.cpp:122] Setting up stage3_unit1_conv2
I0110 10:39:52.063549 15264 net.cpp:129] Top shape: 8 256 25 25 (1280000)
I0110 10:39:52.063555 15264 net.cpp:137] Memory required for data: 1944320032
I0110 10:39:52.063565 15264 layer_factory.hpp:77] Creating layer stage3_unit1_bn3
I0110 10:39:52.063587 15264 net.cpp:84] Creating Layer stage3_unit1_bn3
I0110 10:39:52.063594 15264 net.cpp:406] stage3_unit1_bn3 <- stage3_unit1_conv2
I0110 10:39:52.063609 15264 net.cpp:380] stage3_unit1_bn3 -> stage3_unit1_bn3
I0110 10:39:52.063814 15264 net.cpp:122] Setting up stage3_unit1_bn3
I0110 10:39:52.063824 15264 net.cpp:129] Top shape: 8 256 25 25 (1280000)
I0110 10:39:52.063830 15264 net.cpp:137] Memory required for data: 1949440032
I0110 10:39:52.063845 15264 layer_factory.hpp:77] Creating layer stage3_unit1_bn3_scale
I0110 10:39:52.063863 15264 net.cpp:84] Creating Layer stage3_unit1_bn3_scale
I0110 10:39:52.063868 15264 net.cpp:406] stage3_unit1_bn3_scale <- stage3_unit1_bn3
I0110 10:39:52.063877 15264 net.cpp:367] stage3_unit1_bn3_scale -> stage3_unit1_bn3 (in-place)
I0110 10:39:52.063926 15264 layer_factory.hpp:77] Creating layer stage3_unit1_bn3_scale
I0110 10:39:52.064034 15264 net.cpp:122] Setting up stage3_unit1_bn3_scale
I0110 10:39:52.064044 15264 net.cpp:129] Top shape: 8 256 25 25 (1280000)
I0110 10:39:52.064050 15264 net.cpp:137] Memory required for data: 1954560032
I0110 10:39:52.064064 15264 layer_factory.hpp:77] Creating layer stage3_unit1_conv1sc
I0110 10:39:52.064079 15264 net.cpp:84] Creating Layer stage3_unit1_conv1sc
I0110 10:39:52.064085 15264 net.cpp:406] stage3_unit1_conv1sc <- _plus3__plus3_0_split_1
I0110 10:39:52.064097 15264 net.cpp:380] stage3_unit1_conv1sc -> stage3_unit1_conv1sc
I0110 10:39:52.064687 15264 net.cpp:122] Setting up stage3_unit1_conv1sc
I0110 10:39:52.064700 15264 net.cpp:129] Top shape: 8 256 25 25 (1280000)
I0110 10:39:52.064707 15264 net.cpp:137] Memory required for data: 1959680032
I0110 10:39:52.064718 15264 layer_factory.hpp:77] Creating layer stage3_unit1_sc
I0110 10:39:52.064730 15264 net.cpp:84] Creating Layer stage3_unit1_sc
I0110 10:39:52.064738 15264 net.cpp:406] stage3_unit1_sc <- stage3_unit1_conv1sc
I0110 10:39:52.064747 15264 net.cpp:380] stage3_unit1_sc -> stage3_unit1_sc
I0110 10:39:52.064942 15264 net.cpp:122] Setting up stage3_unit1_sc
I0110 10:39:52.064952 15264 net.cpp:129] Top shape: 8 256 25 25 (1280000)
I0110 10:39:52.064960 15264 net.cpp:137] Memory required for data: 1964800032
I0110 10:39:52.064972 15264 layer_factory.hpp:77] Creating layer stage3_unit1_sc_scale
I0110 10:39:52.064982 15264 net.cpp:84] Creating Layer stage3_unit1_sc_scale
I0110 10:39:52.064990 15264 net.cpp:406] stage3_unit1_sc_scale <- stage3_unit1_sc
I0110 10:39:52.064998 15264 net.cpp:367] stage3_unit1_sc_scale -> stage3_unit1_sc (in-place)
I0110 10:39:52.065043 15264 layer_factory.hpp:77] Creating layer stage3_unit1_sc_scale
I0110 10:39:52.065152 15264 net.cpp:122] Setting up stage3_unit1_sc_scale
I0110 10:39:52.065162 15264 net.cpp:129] Top shape: 8 256 25 25 (1280000)
I0110 10:39:52.065169 15264 net.cpp:137] Memory required for data: 1969920032
I0110 10:39:52.065181 15264 layer_factory.hpp:77] Creating layer _plus4
I0110 10:39:52.065191 15264 net.cpp:84] Creating Layer _plus4
I0110 10:39:52.065198 15264 net.cpp:406] _plus4 <- stage3_unit1_bn3
I0110 10:39:52.065207 15264 net.cpp:406] _plus4 <- stage3_unit1_sc
I0110 10:39:52.065219 15264 net.cpp:380] _plus4 -> _plus4
I0110 10:39:52.065250 15264 net.cpp:122] Setting up _plus4
I0110 10:39:52.065260 15264 net.cpp:129] Top shape: 8 256 25 25 (1280000)
I0110 10:39:52.065266 15264 net.cpp:137] Memory required for data: 1975040032
I0110 10:39:52.065273 15264 layer_factory.hpp:77] Creating layer _plus4__plus4_0_split
I0110 10:39:52.065281 15264 net.cpp:84] Creating Layer _plus4__plus4_0_split
I0110 10:39:52.065289 15264 net.cpp:406] _plus4__plus4_0_split <- _plus4
I0110 10:39:52.065299 15264 net.cpp:380] _plus4__plus4_0_split -> _plus4__plus4_0_split_0
I0110 10:39:52.065310 15264 net.cpp:380] _plus4__plus4_0_split -> _plus4__plus4_0_split_1
I0110 10:39:52.065346 15264 net.cpp:122] Setting up _plus4__plus4_0_split
I0110 10:39:52.065356 15264 net.cpp:129] Top shape: 8 256 25 25 (1280000)
I0110 10:39:52.065366 15264 net.cpp:129] Top shape: 8 256 25 25 (1280000)
I0110 10:39:52.065371 15264 net.cpp:137] Memory required for data: 1985280032
I0110 10:39:52.065377 15264 layer_factory.hpp:77] Creating layer stage3_unit2_bn1
I0110 10:39:52.065390 15264 net.cpp:84] Creating Layer stage3_unit2_bn1
I0110 10:39:52.065397 15264 net.cpp:406] stage3_unit2_bn1 <- _plus4__plus4_0_split_0
I0110 10:39:52.065407 15264 net.cpp:380] stage3_unit2_bn1 -> stage3_unit2_bn1
I0110 10:39:52.065591 15264 net.cpp:122] Setting up stage3_unit2_bn1
I0110 10:39:52.065601 15264 net.cpp:129] Top shape: 8 256 25 25 (1280000)
I0110 10:39:52.065608 15264 net.cpp:137] Memory required for data: 1990400032
I0110 10:39:52.065619 15264 layer_factory.hpp:77] Creating layer stage3_unit2_bn1_scale
I0110 10:39:52.065631 15264 net.cpp:84] Creating Layer stage3_unit2_bn1_scale
I0110 10:39:52.065637 15264 net.cpp:406] stage3_unit2_bn1_scale <- stage3_unit2_bn1
I0110 10:39:52.065647 15264 net.cpp:367] stage3_unit2_bn1_scale -> stage3_unit2_bn1 (in-place)
I0110 10:39:52.065690 15264 layer_factory.hpp:77] Creating layer stage3_unit2_bn1_scale
I0110 10:39:52.065799 15264 net.cpp:122] Setting up stage3_unit2_bn1_scale
I0110 10:39:52.065810 15264 net.cpp:129] Top shape: 8 256 25 25 (1280000)
I0110 10:39:52.065816 15264 net.cpp:137] Memory required for data: 1995520032
I0110 10:39:52.065829 15264 layer_factory.hpp:77] Creating layer stage3_unit2_conv1
I0110 10:39:52.065843 15264 net.cpp:84] Creating Layer stage3_unit2_conv1
I0110 10:39:52.065850 15264 net.cpp:406] stage3_unit2_conv1 <- stage3_unit2_bn1
I0110 10:39:52.065861 15264 net.cpp:380] stage3_unit2_conv1 -> stage3_unit2_conv1
I0110 10:39:52.074041 15264 net.cpp:122] Setting up stage3_unit2_conv1
I0110 10:39:52.074079 15264 net.cpp:129] Top shape: 8 256 25 25 (1280000)
I0110 10:39:52.074084 15264 net.cpp:137] Memory required for data: 2000640032
I0110 10:39:52.074097 15264 layer_factory.hpp:77] Creating layer stage3_unit2_bn2
I0110 10:39:52.074112 15264 net.cpp:84] Creating Layer stage3_unit2_bn2
I0110 10:39:52.074120 15264 net.cpp:406] stage3_unit2_bn2 <- stage3_unit2_conv1
I0110 10:39:52.074136 15264 net.cpp:380] stage3_unit2_bn2 -> stage3_unit2_bn2
I0110 10:39:52.074347 15264 net.cpp:122] Setting up stage3_unit2_bn2
I0110 10:39:52.074358 15264 net.cpp:129] Top shape: 8 256 25 25 (1280000)
I0110 10:39:52.074365 15264 net.cpp:137] Memory required for data: 2005760032
I0110 10:39:52.074380 15264 layer_factory.hpp:77] Creating layer stage3_unit2_bn2_scale
I0110 10:39:52.074390 15264 net.cpp:84] Creating Layer stage3_unit2_bn2_scale
I0110 10:39:52.074395 15264 net.cpp:406] stage3_unit2_bn2_scale <- stage3_unit2_bn2
I0110 10:39:52.074406 15264 net.cpp:367] stage3_unit2_bn2_scale -> stage3_unit2_bn2 (in-place)
I0110 10:39:52.074455 15264 layer_factory.hpp:77] Creating layer stage3_unit2_bn2_scale
I0110 10:39:52.074568 15264 net.cpp:122] Setting up stage3_unit2_bn2_scale
I0110 10:39:52.074579 15264 net.cpp:129] Top shape: 8 256 25 25 (1280000)
I0110 10:39:52.074585 15264 net.cpp:137] Memory required for data: 2010880032
I0110 10:39:52.074597 15264 layer_factory.hpp:77] Creating layer stage3_unit2_relu1
I0110 10:39:52.074607 15264 net.cpp:84] Creating Layer stage3_unit2_relu1
I0110 10:39:52.074615 15264 net.cpp:406] stage3_unit2_relu1 <- stage3_unit2_bn2
I0110 10:39:52.074626 15264 net.cpp:380] stage3_unit2_relu1 -> stage3_unit2_relu1
I0110 10:39:52.075050 15264 net.cpp:122] Setting up stage3_unit2_relu1
I0110 10:39:52.075067 15264 net.cpp:129] Top shape: 8 256 25 25 (1280000)
I0110 10:39:52.075073 15264 net.cpp:137] Memory required for data: 2016000032
I0110 10:39:52.075080 15264 layer_factory.hpp:77] Creating layer stage3_unit2_conv2
I0110 10:39:52.075101 15264 net.cpp:84] Creating Layer stage3_unit2_conv2
I0110 10:39:52.075107 15264 net.cpp:406] stage3_unit2_conv2 <- stage3_unit2_relu1
I0110 10:39:52.075119 15264 net.cpp:380] stage3_unit2_conv2 -> stage3_unit2_conv2
I0110 10:39:52.083339 15264 net.cpp:122] Setting up stage3_unit2_conv2
I0110 10:39:52.083356 15264 net.cpp:129] Top shape: 8 256 25 25 (1280000)
I0110 10:39:52.083362 15264 net.cpp:137] Memory required for data: 2021120032
I0110 10:39:52.083374 15264 layer_factory.hpp:77] Creating layer stage3_unit2_bn3
I0110 10:39:52.083385 15264 net.cpp:84] Creating Layer stage3_unit2_bn3
I0110 10:39:52.083392 15264 net.cpp:406] stage3_unit2_bn3 <- stage3_unit2_conv2
I0110 10:39:52.083407 15264 net.cpp:380] stage3_unit2_bn3 -> stage3_unit2_bn3
I0110 10:39:52.083637 15264 net.cpp:122] Setting up stage3_unit2_bn3
I0110 10:39:52.083649 15264 net.cpp:129] Top shape: 8 256 25 25 (1280000)
I0110 10:39:52.083655 15264 net.cpp:137] Memory required for data: 2026240032
I0110 10:39:52.083670 15264 layer_factory.hpp:77] Creating layer stage3_unit2_bn3_scale
I0110 10:39:52.083679 15264 net.cpp:84] Creating Layer stage3_unit2_bn3_scale
I0110 10:39:52.083688 15264 net.cpp:406] stage3_unit2_bn3_scale <- stage3_unit2_bn3
I0110 10:39:52.083700 15264 net.cpp:367] stage3_unit2_bn3_scale -> stage3_unit2_bn3 (in-place)
I0110 10:39:52.083743 15264 layer_factory.hpp:77] Creating layer stage3_unit2_bn3_scale
I0110 10:39:52.083858 15264 net.cpp:122] Setting up stage3_unit2_bn3_scale
I0110 10:39:52.083868 15264 net.cpp:129] Top shape: 8 256 25 25 (1280000)
I0110 10:39:52.083874 15264 net.cpp:137] Memory required for data: 2031360032
I0110 10:39:52.083887 15264 layer_factory.hpp:77] Creating layer _plus5
I0110 10:39:52.083899 15264 net.cpp:84] Creating Layer _plus5
I0110 10:39:52.083905 15264 net.cpp:406] _plus5 <- stage3_unit2_bn3
I0110 10:39:52.083914 15264 net.cpp:406] _plus5 <- _plus4__plus4_0_split_1
I0110 10:39:52.083925 15264 net.cpp:380] _plus5 -> _plus5
I0110 10:39:52.083961 15264 net.cpp:122] Setting up _plus5
I0110 10:39:52.083971 15264 net.cpp:129] Top shape: 8 256 25 25 (1280000)
I0110 10:39:52.083978 15264 net.cpp:137] Memory required for data: 2036480032
I0110 10:39:52.083986 15264 layer_factory.hpp:77] Creating layer _plus5__plus5_0_split
I0110 10:39:52.083995 15264 net.cpp:84] Creating Layer _plus5__plus5_0_split
I0110 10:39:52.084002 15264 net.cpp:406] _plus5__plus5_0_split <- _plus5
I0110 10:39:52.084013 15264 net.cpp:380] _plus5__plus5_0_split -> _plus5__plus5_0_split_0
I0110 10:39:52.084025 15264 net.cpp:380] _plus5__plus5_0_split -> _plus5__plus5_0_split_1
I0110 10:39:52.084064 15264 net.cpp:122] Setting up _plus5__plus5_0_split
I0110 10:39:52.084074 15264 net.cpp:129] Top shape: 8 256 25 25 (1280000)
I0110 10:39:52.084084 15264 net.cpp:129] Top shape: 8 256 25 25 (1280000)
I0110 10:39:52.084089 15264 net.cpp:137] Memory required for data: 2046720032
I0110 10:39:52.084096 15264 layer_factory.hpp:77] Creating layer stage4_unit1_bn1
I0110 10:39:52.084105 15264 net.cpp:84] Creating Layer stage4_unit1_bn1
I0110 10:39:52.084112 15264 net.cpp:406] stage4_unit1_bn1 <- _plus5__plus5_0_split_0
I0110 10:39:52.084121 15264 net.cpp:380] stage4_unit1_bn1 -> stage4_unit1_bn1
I0110 10:39:52.084313 15264 net.cpp:122] Setting up stage4_unit1_bn1
I0110 10:39:52.084322 15264 net.cpp:129] Top shape: 8 256 25 25 (1280000)
I0110 10:39:52.084329 15264 net.cpp:137] Memory required for data: 2051840032
I0110 10:39:52.084357 15264 layer_factory.hpp:77] Creating layer stage4_unit1_bn1_scale
I0110 10:39:52.084368 15264 net.cpp:84] Creating Layer stage4_unit1_bn1_scale
I0110 10:39:52.084374 15264 net.cpp:406] stage4_unit1_bn1_scale <- stage4_unit1_bn1
I0110 10:39:52.084384 15264 net.cpp:367] stage4_unit1_bn1_scale -> stage4_unit1_bn1 (in-place)
I0110 10:39:52.084429 15264 layer_factory.hpp:77] Creating layer stage4_unit1_bn1_scale
I0110 10:39:52.084535 15264 net.cpp:122] Setting up stage4_unit1_bn1_scale
I0110 10:39:52.084545 15264 net.cpp:129] Top shape: 8 256 25 25 (1280000)
I0110 10:39:52.084553 15264 net.cpp:137] Memory required for data: 2056960032
I0110 10:39:52.084563 15264 layer_factory.hpp:77] Creating layer stage4_unit1_conv1
I0110 10:39:52.084578 15264 net.cpp:84] Creating Layer stage4_unit1_conv1
I0110 10:39:52.084583 15264 net.cpp:406] stage4_unit1_conv1 <- stage4_unit1_bn1
I0110 10:39:52.084595 15264 net.cpp:380] stage4_unit1_conv1 -> stage4_unit1_conv1
I0110 10:39:52.100662 15264 net.cpp:122] Setting up stage4_unit1_conv1
I0110 10:39:52.100680 15264 net.cpp:129] Top shape: 8 512 25 25 (2560000)
I0110 10:39:52.100687 15264 net.cpp:137] Memory required for data: 2067200032
I0110 10:39:52.100697 15264 layer_factory.hpp:77] Creating layer stage4_unit1_bn2
I0110 10:39:52.100709 15264 net.cpp:84] Creating Layer stage4_unit1_bn2
I0110 10:39:52.100716 15264 net.cpp:406] stage4_unit1_bn2 <- stage4_unit1_conv1
I0110 10:39:52.100729 15264 net.cpp:380] stage4_unit1_bn2 -> stage4_unit1_bn2
I0110 10:39:52.100934 15264 net.cpp:122] Setting up stage4_unit1_bn2
I0110 10:39:52.100945 15264 net.cpp:129] Top shape: 8 512 25 25 (2560000)
I0110 10:39:52.100951 15264 net.cpp:137] Memory required for data: 2077440032
I0110 10:39:52.100966 15264 layer_factory.hpp:77] Creating layer stage4_unit1_bn2_scale
I0110 10:39:52.100975 15264 net.cpp:84] Creating Layer stage4_unit1_bn2_scale
I0110 10:39:52.100982 15264 net.cpp:406] stage4_unit1_bn2_scale <- stage4_unit1_bn2
I0110 10:39:52.100991 15264 net.cpp:367] stage4_unit1_bn2_scale -> stage4_unit1_bn2 (in-place)
I0110 10:39:52.101037 15264 layer_factory.hpp:77] Creating layer stage4_unit1_bn2_scale
I0110 10:39:52.101150 15264 net.cpp:122] Setting up stage4_unit1_bn2_scale
I0110 10:39:52.101159 15264 net.cpp:129] Top shape: 8 512 25 25 (2560000)
I0110 10:39:52.101166 15264 net.cpp:137] Memory required for data: 2087680032
I0110 10:39:52.101177 15264 layer_factory.hpp:77] Creating layer stage4_unit1_relu1
I0110 10:39:52.101187 15264 net.cpp:84] Creating Layer stage4_unit1_relu1
I0110 10:39:52.101193 15264 net.cpp:406] stage4_unit1_relu1 <- stage4_unit1_bn2
I0110 10:39:52.101207 15264 net.cpp:380] stage4_unit1_relu1 -> stage4_unit1_relu1
I0110 10:39:52.101321 15264 net.cpp:122] Setting up stage4_unit1_relu1
I0110 10:39:52.101333 15264 net.cpp:129] Top shape: 8 512 25 25 (2560000)
I0110 10:39:52.101341 15264 net.cpp:137] Memory required for data: 2097920032
I0110 10:39:52.101346 15264 layer_factory.hpp:77] Creating layer stage4_unit1_conv2
I0110 10:39:52.101362 15264 net.cpp:84] Creating Layer stage4_unit1_conv2
I0110 10:39:52.101368 15264 net.cpp:406] stage4_unit1_conv2 <- stage4_unit1_relu1
I0110 10:39:52.101379 15264 net.cpp:380] stage4_unit1_conv2 -> stage4_unit1_conv2
I0110 10:39:52.132447 15264 net.cpp:122] Setting up stage4_unit1_conv2
I0110 10:39:52.132483 15264 net.cpp:129] Top shape: 8 512 13 13 (692224)
I0110 10:39:52.132489 15264 net.cpp:137] Memory required for data: 2100688928
I0110 10:39:52.132503 15264 layer_factory.hpp:77] Creating layer stage4_unit1_bn3
I0110 10:39:52.132517 15264 net.cpp:84] Creating Layer stage4_unit1_bn3
I0110 10:39:52.132524 15264 net.cpp:406] stage4_unit1_bn3 <- stage4_unit1_conv2
I0110 10:39:52.132539 15264 net.cpp:380] stage4_unit1_bn3 -> stage4_unit1_bn3
I0110 10:39:52.132768 15264 net.cpp:122] Setting up stage4_unit1_bn3
I0110 10:39:52.132779 15264 net.cpp:129] Top shape: 8 512 13 13 (692224)
I0110 10:39:52.132786 15264 net.cpp:137] Memory required for data: 2103457824
I0110 10:39:52.132800 15264 layer_factory.hpp:77] Creating layer stage4_unit1_bn3_scale
I0110 10:39:52.132810 15264 net.cpp:84] Creating Layer stage4_unit1_bn3_scale
I0110 10:39:52.132817 15264 net.cpp:406] stage4_unit1_bn3_scale <- stage4_unit1_bn3
I0110 10:39:52.132827 15264 net.cpp:367] stage4_unit1_bn3_scale -> stage4_unit1_bn3 (in-place)
I0110 10:39:52.132886 15264 layer_factory.hpp:77] Creating layer stage4_unit1_bn3_scale
I0110 10:39:52.132997 15264 net.cpp:122] Setting up stage4_unit1_bn3_scale
I0110 10:39:52.133008 15264 net.cpp:129] Top shape: 8 512 13 13 (692224)
I0110 10:39:52.133014 15264 net.cpp:137] Memory required for data: 2106226720
I0110 10:39:52.133028 15264 layer_factory.hpp:77] Creating layer stage4_unit1_conv1sc
I0110 10:39:52.133044 15264 net.cpp:84] Creating Layer stage4_unit1_conv1sc
I0110 10:39:52.133051 15264 net.cpp:406] stage4_unit1_conv1sc <- _plus5__plus5_0_split_1
I0110 10:39:52.133062 15264 net.cpp:380] stage4_unit1_conv1sc -> stage4_unit1_conv1sc
I0110 10:39:52.134797 15264 net.cpp:122] Setting up stage4_unit1_conv1sc
I0110 10:39:52.134809 15264 net.cpp:129] Top shape: 8 512 13 13 (692224)
I0110 10:39:52.134815 15264 net.cpp:137] Memory required for data: 2108995616
I0110 10:39:52.134824 15264 layer_factory.hpp:77] Creating layer stage4_unit1_sc
I0110 10:39:52.134835 15264 net.cpp:84] Creating Layer stage4_unit1_sc
I0110 10:39:52.134841 15264 net.cpp:406] stage4_unit1_sc <- stage4_unit1_conv1sc
I0110 10:39:52.134851 15264 net.cpp:380] stage4_unit1_sc -> stage4_unit1_sc
I0110 10:39:52.135051 15264 net.cpp:122] Setting up stage4_unit1_sc
I0110 10:39:52.135062 15264 net.cpp:129] Top shape: 8 512 13 13 (692224)
I0110 10:39:52.135068 15264 net.cpp:137] Memory required for data: 2111764512
I0110 10:39:52.135082 15264 layer_factory.hpp:77] Creating layer stage4_unit1_sc_scale
I0110 10:39:52.135093 15264 net.cpp:84] Creating Layer stage4_unit1_sc_scale
I0110 10:39:52.135099 15264 net.cpp:406] stage4_unit1_sc_scale <- stage4_unit1_sc
I0110 10:39:52.135109 15264 net.cpp:367] stage4_unit1_sc_scale -> stage4_unit1_sc (in-place)
I0110 10:39:52.135154 15264 layer_factory.hpp:77] Creating layer stage4_unit1_sc_scale
I0110 10:39:52.135265 15264 net.cpp:122] Setting up stage4_unit1_sc_scale
I0110 10:39:52.135277 15264 net.cpp:129] Top shape: 8 512 13 13 (692224)
I0110 10:39:52.135282 15264 net.cpp:137] Memory required for data: 2114533408
I0110 10:39:52.135294 15264 layer_factory.hpp:77] Creating layer _plus6
I0110 10:39:52.135304 15264 net.cpp:84] Creating Layer _plus6
I0110 10:39:52.135311 15264 net.cpp:406] _plus6 <- stage4_unit1_bn3
I0110 10:39:52.135319 15264 net.cpp:406] _plus6 <- stage4_unit1_sc
I0110 10:39:52.135332 15264 net.cpp:380] _plus6 -> _plus6
I0110 10:39:52.135361 15264 net.cpp:122] Setting up _plus6
I0110 10:39:52.135371 15264 net.cpp:129] Top shape: 8 512 13 13 (692224)
I0110 10:39:52.135377 15264 net.cpp:137] Memory required for data: 2117302304
I0110 10:39:52.135385 15264 layer_factory.hpp:77] Creating layer _plus6__plus6_0_split
I0110 10:39:52.135394 15264 net.cpp:84] Creating Layer _plus6__plus6_0_split
I0110 10:39:52.135401 15264 net.cpp:406] _plus6__plus6_0_split <- _plus6
I0110 10:39:52.135412 15264 net.cpp:380] _plus6__plus6_0_split -> _plus6__plus6_0_split_0
I0110 10:39:52.135423 15264 net.cpp:380] _plus6__plus6_0_split -> _plus6__plus6_0_split_1
I0110 10:39:52.135462 15264 net.cpp:122] Setting up _plus6__plus6_0_split
I0110 10:39:52.135470 15264 net.cpp:129] Top shape: 8 512 13 13 (692224)
I0110 10:39:52.135479 15264 net.cpp:129] Top shape: 8 512 13 13 (692224)
I0110 10:39:52.135485 15264 net.cpp:137] Memory required for data: 2122840096
I0110 10:39:52.135491 15264 layer_factory.hpp:77] Creating layer stage4_unit2_bn1
I0110 10:39:52.135502 15264 net.cpp:84] Creating Layer stage4_unit2_bn1
I0110 10:39:52.135509 15264 net.cpp:406] stage4_unit2_bn1 <- _plus6__plus6_0_split_0
I0110 10:39:52.135519 15264 net.cpp:380] stage4_unit2_bn1 -> stage4_unit2_bn1
I0110 10:39:52.135738 15264 net.cpp:122] Setting up stage4_unit2_bn1
I0110 10:39:52.135749 15264 net.cpp:129] Top shape: 8 512 13 13 (692224)
I0110 10:39:52.135756 15264 net.cpp:137] Memory required for data: 2125608992
I0110 10:39:52.135769 15264 layer_factory.hpp:77] Creating layer stage4_unit2_bn1_scale
I0110 10:39:52.135782 15264 net.cpp:84] Creating Layer stage4_unit2_bn1_scale
I0110 10:39:52.135787 15264 net.cpp:406] stage4_unit2_bn1_scale <- stage4_unit2_bn1
I0110 10:39:52.135797 15264 net.cpp:367] stage4_unit2_bn1_scale -> stage4_unit2_bn1 (in-place)
I0110 10:39:52.135843 15264 layer_factory.hpp:77] Creating layer stage4_unit2_bn1_scale
I0110 10:39:52.135953 15264 net.cpp:122] Setting up stage4_unit2_bn1_scale
I0110 10:39:52.135963 15264 net.cpp:129] Top shape: 8 512 13 13 (692224)
I0110 10:39:52.135970 15264 net.cpp:137] Memory required for data: 2128377888
I0110 10:39:52.135982 15264 layer_factory.hpp:77] Creating layer stage4_unit2_conv1
I0110 10:39:52.135995 15264 net.cpp:84] Creating Layer stage4_unit2_conv1
I0110 10:39:52.136001 15264 net.cpp:406] stage4_unit2_conv1 <- stage4_unit2_bn1
I0110 10:39:52.136013 15264 net.cpp:380] stage4_unit2_conv1 -> stage4_unit2_conv1
I0110 10:39:52.167348 15264 net.cpp:122] Setting up stage4_unit2_conv1
I0110 10:39:52.167392 15264 net.cpp:129] Top shape: 8 512 13 13 (692224)
I0110 10:39:52.167398 15264 net.cpp:137] Memory required for data: 2131146784
I0110 10:39:52.167414 15264 layer_factory.hpp:77] Creating layer stage4_unit2_bn2
I0110 10:39:52.167431 15264 net.cpp:84] Creating Layer stage4_unit2_bn2
I0110 10:39:52.167448 15264 net.cpp:406] stage4_unit2_bn2 <- stage4_unit2_conv1
I0110 10:39:52.167464 15264 net.cpp:380] stage4_unit2_bn2 -> stage4_unit2_bn2
I0110 10:39:52.167714 15264 net.cpp:122] Setting up stage4_unit2_bn2
I0110 10:39:52.167726 15264 net.cpp:129] Top shape: 8 512 13 13 (692224)
I0110 10:39:52.167732 15264 net.cpp:137] Memory required for data: 2133915680
I0110 10:39:52.167747 15264 layer_factory.hpp:77] Creating layer stage4_unit2_bn2_scale
I0110 10:39:52.167758 15264 net.cpp:84] Creating Layer stage4_unit2_bn2_scale
I0110 10:39:52.167765 15264 net.cpp:406] stage4_unit2_bn2_scale <- stage4_unit2_bn2
I0110 10:39:52.167776 15264 net.cpp:367] stage4_unit2_bn2_scale -> stage4_unit2_bn2 (in-place)
I0110 10:39:52.167826 15264 layer_factory.hpp:77] Creating layer stage4_unit2_bn2_scale
I0110 10:39:52.167937 15264 net.cpp:122] Setting up stage4_unit2_bn2_scale
I0110 10:39:52.167946 15264 net.cpp:129] Top shape: 8 512 13 13 (692224)
I0110 10:39:52.167953 15264 net.cpp:137] Memory required for data: 2136684576
I0110 10:39:52.167966 15264 layer_factory.hpp:77] Creating layer stage4_unit2_relu1
I0110 10:39:52.167979 15264 net.cpp:84] Creating Layer stage4_unit2_relu1
I0110 10:39:52.167984 15264 net.cpp:406] stage4_unit2_relu1 <- stage4_unit2_bn2
I0110 10:39:52.167992 15264 net.cpp:380] stage4_unit2_relu1 -> stage4_unit2_relu1
I0110 10:39:52.168447 15264 net.cpp:122] Setting up stage4_unit2_relu1
I0110 10:39:52.168467 15264 net.cpp:129] Top shape: 8 512 13 13 (692224)
I0110 10:39:52.168471 15264 net.cpp:137] Memory required for data: 2139453472
I0110 10:39:52.168480 15264 layer_factory.hpp:77] Creating layer stage4_unit2_conv2
I0110 10:39:52.168499 15264 net.cpp:84] Creating Layer stage4_unit2_conv2
I0110 10:39:52.168505 15264 net.cpp:406] stage4_unit2_conv2 <- stage4_unit2_relu1
I0110 10:39:52.168516 15264 net.cpp:380] stage4_unit2_conv2 -> stage4_unit2_conv2
I0110 10:39:52.199652 15264 net.cpp:122] Setting up stage4_unit2_conv2
I0110 10:39:52.199687 15264 net.cpp:129] Top shape: 8 512 13 13 (692224)
I0110 10:39:52.199692 15264 net.cpp:137] Memory required for data: 2142222368
I0110 10:39:52.199707 15264 layer_factory.hpp:77] Creating layer stage4_unit2_bn3
I0110 10:39:52.199719 15264 net.cpp:84] Creating Layer stage4_unit2_bn3
I0110 10:39:52.199728 15264 net.cpp:406] stage4_unit2_bn3 <- stage4_unit2_conv2
I0110 10:39:52.199738 15264 net.cpp:380] stage4_unit2_bn3 -> stage4_unit2_bn3
I0110 10:39:52.199960 15264 net.cpp:122] Setting up stage4_unit2_bn3
I0110 10:39:52.199971 15264 net.cpp:129] Top shape: 8 512 13 13 (692224)
I0110 10:39:52.199978 15264 net.cpp:137] Memory required for data: 2144991264
I0110 10:39:52.199991 15264 layer_factory.hpp:77] Creating layer stage4_unit2_bn3_scale
I0110 10:39:52.200001 15264 net.cpp:84] Creating Layer stage4_unit2_bn3_scale
I0110 10:39:52.200008 15264 net.cpp:406] stage4_unit2_bn3_scale <- stage4_unit2_bn3
I0110 10:39:52.200018 15264 net.cpp:367] stage4_unit2_bn3_scale -> stage4_unit2_bn3 (in-place)
I0110 10:39:52.200073 15264 layer_factory.hpp:77] Creating layer stage4_unit2_bn3_scale
I0110 10:39:52.200182 15264 net.cpp:122] Setting up stage4_unit2_bn3_scale
I0110 10:39:52.200192 15264 net.cpp:129] Top shape: 8 512 13 13 (692224)
I0110 10:39:52.200201 15264 net.cpp:137] Memory required for data: 2147760160
I0110 10:39:52.200212 15264 layer_factory.hpp:77] Creating layer _plus7
I0110 10:39:52.200225 15264 net.cpp:84] Creating Layer _plus7
I0110 10:39:52.200230 15264 net.cpp:406] _plus7 <- stage4_unit2_bn3
I0110 10:39:52.200240 15264 net.cpp:406] _plus7 <- _plus6__plus6_0_split_1
I0110 10:39:52.200250 15264 net.cpp:380] _plus7 -> _plus7
I0110 10:39:52.200280 15264 net.cpp:122] Setting up _plus7
I0110 10:39:52.200290 15264 net.cpp:129] Top shape: 8 512 13 13 (692224)
I0110 10:39:52.200297 15264 net.cpp:137] Memory required for data: 2150529056
I0110 10:39:52.200304 15264 layer_factory.hpp:77] Creating layer bn1
I0110 10:39:52.200315 15264 net.cpp:84] Creating Layer bn1
I0110 10:39:52.200320 15264 net.cpp:406] bn1 <- _plus7
I0110 10:39:52.200331 15264 net.cpp:380] bn1 -> bn1
I0110 10:39:52.200523 15264 net.cpp:122] Setting up bn1
I0110 10:39:52.200532 15264 net.cpp:129] Top shape: 8 512 13 13 (692224)
I0110 10:39:52.200538 15264 net.cpp:137] Memory required for data: 2153297952
I0110 10:39:52.200553 15264 layer_factory.hpp:77] Creating layer bn1_scale
I0110 10:39:52.200562 15264 net.cpp:84] Creating Layer bn1_scale
I0110 10:39:52.200567 15264 net.cpp:406] bn1_scale <- bn1
I0110 10:39:52.200578 15264 net.cpp:367] bn1_scale -> bn1 (in-place)
I0110 10:39:52.200619 15264 layer_factory.hpp:77] Creating layer bn1_scale
I0110 10:39:52.200728 15264 net.cpp:122] Setting up bn1_scale
I0110 10:39:52.200738 15264 net.cpp:129] Top shape: 8 512 13 13 (692224)
I0110 10:39:52.200744 15264 net.cpp:137] Memory required for data: 2156066848
I0110 10:39:52.200757 15264 layer_factory.hpp:77] Creating layer fc8
I0110 10:39:52.200770 15264 net.cpp:84] Creating Layer fc8
I0110 10:39:52.200776 15264 net.cpp:406] fc8 <- bn1
I0110 10:39:52.200785 15264 net.cpp:380] fc8 -> fc8
I0110 10:39:52.204007 15264 net.cpp:122] Setting up fc8
I0110 10:39:52.204022 15264 net.cpp:129] Top shape: 8 2 (16)
I0110 10:39:52.204027 15264 net.cpp:137] Memory required for data: 2156066912
I0110 10:39:52.204041 15264 layer_factory.hpp:77] Creating layer loss
I0110 10:39:52.204053 15264 net.cpp:84] Creating Layer loss
I0110 10:39:52.204059 15264 net.cpp:406] loss <- fc8
I0110 10:39:52.204068 15264 net.cpp:406] loss <- label
I0110 10:39:52.204083 15264 net.cpp:380] loss -> loss
I0110 10:39:52.204099 15264 layer_factory.hpp:77] Creating layer loss
…
I0110 10:39:52.206339 15264 solver.cpp:172] Creating test net (#0) specified by net file: r18_train_val.prototxt
I0110 10:39:52.206444 15264 net.cpp:294] The NetState phase (1) differed from the phase (0) specified by a rule in layer data
I0110 10:39:52.207113 15264 net.cpp:51] Initializing net from parameters: 
name: "r18"
state {
  phase: TEST
}
layer {
  name: "data"
  type: "Data"
  top: "data"
  top: "label"
  include {
    phase: TEST
  }
  transform_param {
    scale: 0.0078125
    mirror: true
    mean_value: 127
  }
  data_param {
    source: "/home/lc/gender/school/data_3/val.lmdb"
    batch_size: 8
    backend: LMDB
  }
}
layer {
  name: "conv0"
  type: "Convolution"
  bottom: "data"
  top: "conv0"
  param {
    lr_mult: 1
    decay_mult: 1
  }
  convolution_param {
    num_output: 64
    bias_term: false
    pad: 1
    kernel_size: 3
    stride: 1
    weight_filler {
      type: "gaussian"
      std: 0.01
    }
    engine: CAFFE
  }
}
layer {
  name: "bn0"
  type: "BatchNorm"
  bottom: "conv0"
  top: "bn0"
  batch_norm_param {
    use_global_stats: false
    moving_average_fraction: 0.9
    eps: 2e-05
  }
}
layer {
  name: "bn0_scale"
  type: "Scale"
  bottom: "bn0"
  top: "bn0"
  scale_param {
    bias_term: true
  }
}
layer {
  name: "relu0"
  type: "ReLU"
  bottom: "bn0"
  top: "relu0"
}
layer {
  name: "stage1_unit1_bn1"
  type: "BatchNorm"
  bottom: "relu0"
  top: "stage1_unit1_bn1"
  batch_norm_param {
    use_global_stats: false
    moving_average_fraction: 0.9
    eps: 2e-05
  }
}
layer {
  name: "stage1_unit1_bn1_scale"
  type: "Scale"
  bottom: "stage1_unit1_bn1"
  top: "stage1_unit1_bn1"
  scale_param {
    bias_term: true
  }
}
layer {
  name: "stage1_unit1_conv1"
  type: "Convolution"
  bottom: "stage1_unit1_bn1"
  top: "stage1_unit1_conv1"
  param {
    lr_mult: 1
    decay_mult: 1
  }
  convolution_param {
    num_output: 64
    bias_term: false
    pad: 1
    kernel_size: 3
    stride: 1
    weight_filler {
      type: "gaussian"
      std: 0.01
    }
    engine: CAFFE
  }
}
layer {
  name: "stage1_unit1_bn2"
  type: "BatchNorm"
  bottom: "stage1_unit1_conv1"
  top: "stage1_unit1_bn2"
  batch_norm_param {
    use_global_stats: false
    moving_average_fraction: 0.9
    eps: 2e-05
  }
}
layer {
  name: "stage1_unit1_bn2_scale"
  type: "Scale"
  bottom: "stage1_unit1_bn2"
  top: "stage1_unit1_bn2"
  scale_param {
    bias_term: true
  }
}
layer {
  name: "stage1_unit1_relu1"
  type: "ReLU"
  bottom: "stage1_unit1_bn2"
  top: "stage1_unit1_relu1"
}
layer {
  name: "stage1_unit1_conv2"
  type: "Convolution"
  bottom: "stage1_unit1_relu1"
  top: "stage1_unit1_conv2"
  param {
    lr_mult: 1
    decay_mult: 1
  }
  convolution_param {
    num_output: 64
    bias_term: false
    pad: 1
    kernel_size: 3
    stride: 2
    weight_filler {
      type: "gaussian"
      std: 0.01
    }
    engine: CAFFE
  }
}
layer {
  name: "stage1_unit1_bn3"
  type: "BatchNorm"
  bottom: "stage1_unit1_conv2"
  top: "stage1_unit1_bn3"
  batch_norm_param {
    use_global_stats: false
    moving_average_fraction: 0.9
    eps: 2e-05
  }
}
layer {
  name: "stage1_unit1_bn3_scale"
  type: "Scale"
  bottom: "stage1_unit1_bn3"
  top: "stage1_unit1_bn3"
  scale_param {
    bias_term: true
  }
}
layer {
  name: "stage1_unit1_conv1sc"
  type: "Convolution"
  bottom: "relu0"
  top: "stage1_unit1_conv1sc"
  param {
    lr_mult: 1
    decay_mult: 1
  }
  convolution_param {
    num_output: 64
    bias_term: false
    kernel_size: 1
    stride: 2
    weight_filler {
      type: "gaussian"
      std: 0.01
    }
    engine: CAFFE
  }
}
layer {
  name: "stage1_unit1_sc"
  type: "BatchNorm"
  bottom: "stage1_unit1_conv1sc"
  top: "stage1_unit1_sc"
  batch_norm_param {
    use_global_stats: false
    moving_average_fraction: 0.9
    eps: 2e-05
  }
}
layer {
  name: "stage1_unit1_sc_scale"
  type: "Scale"
  bottom: "stage1_unit1_sc"
  top: "stage1_unit1_sc"
  scale_param {
    bias_term: true
  }
}
layer {
  name: "_plus0"
  type: "Eltwise"
  bottom: "stage1_unit1_bn3"
  bottom: "stage1_unit1_sc"
  top: "_plus0"
  eltwise_param {
    operation: SUM
  }
}
layer {
  name: "stage1_unit2_bn1"
  type: "BatchNorm"
  bottom: "_plus0"
  top: "stage1_unit2_bn1"
  batch_norm_param {
    use_global_stats: false
    moving_average_fraction: 0.9
    eps: 2e-05
  }
}
layer {
  name: "stage1_unit2_bn1_scale"
  type: "Scale"
  bottom: "stage1_unit2_bn1"
  top: "stage1_unit2_bn1"
  scale_param {
    bias_term: true
  }
}
layer {
  name: "stage1_unit2_conv1"
  type: "Convolution"
  bottom: "stage1_unit2_bn1"
  top: "stage1_unit2_conv1"
  param {
    lr_mult: 1
    decay_mult: 1
  }
  convolution_param {
    num_output: 64
    bias_term: false
    pad: 1
    kernel_size: 3
    stride: 1
    weight_filler {
      type: "gaussian"
      std: 0.01
    }
    engine: CAFFE
  }
}
layer {
  name: "stage1_unit2_bn2"
  type: "BatchNorm"
  bottom: "stage1_unit2_conv1"
  top: "stage1_unit2_bn2"
  batch_norm_param {
    use_global_stats: false
    moving_average_fraction: 0.9
    eps: 2e-05
  }
}
layer {
  name: "stage1_unit2_bn2_scale"
  type: "Scale"
  bottom: "stage1_unit2_bn2"
  top: "stage1_unit2_bn2"
  scale_param {
    bias_term: true
  }
}
layer {
  name: "stage1_unit2_relu1"
  type: "ReLU"
  bottom: "stage1_unit2_bn2"
  top: "stage1_unit2_relu1"
}
layer {
  name: "stage1_unit2_conv2"
  type: "Convolution"
  bottom: "stage1_unit2_relu1"
  top: "stage1_unit2_conv2"
  param {
    lr_mult: 1
    decay_mult: 1
  }
  convolution_param {
    num_output: 64
    bias_term: false
    pad: 1
    kernel_size: 3
    stride: 1
    weight_filler {
      type: "gaussian"
      std: 0.01
    }
    engine: CAFFE
  }
}
layer {
  name: "stage1_unit2_bn3"
  type: "BatchNorm"
  bottom: "stage1_unit2_conv2"
  top: "stage1_unit2_bn3"
  batch_norm_param {
    use_global_stats: false
    moving_average_fraction: 0.9
    eps: 2e-05
  }
}
layer {
  name: "stage1_unit2_bn3_scale"
  type: "Scale"
  bottom: "stage1_unit2_bn3"
  top: "stage1_unit2_bn3"
  scale_param {
    bias_term: true
  }
}
layer {
  name: "_plus1"
  type: "Eltwise"
  bottom: "stage1_unit2_bn3"
  bottom: "_plus0"
  top: "_plus1"
  eltwise_param {
    operation: SUM
  }
}
layer {
  name: "stage2_unit1_bn1"
  type: "BatchNorm"
  bottom: "_plus1"
  top: "stage2_unit1_bn1"
  batch_norm_param {
    use_global_stats: false
    moving_average_fraction: 0.9
    eps: 2e-05
  }
}
layer {
  name: "stage2_unit1_bn1_scale"
  type: "Scale"
  bottom: "stage2_unit1_bn1"
  top: "stage2_unit1_bn1"
  scale_param {
    bias_term: true
  }
}
layer {
  name: "stage2_unit1_conv1"
  type: "Convolution"
  bottom: "stage2_unit1_bn1"
  top: "stage2_unit1_conv1"
  param {
    lr_mult: 1
    decay_mult: 1
  }
  convolution_param {
    num_output: 128
    bias_term: false
    pad: 1
    kernel_size: 3
    stride: 1
    weight_filler {
      type: "gaussian"
      std: 0.01
    }
    engine: CAFFE
  }
}
layer {
  name: "stage2_unit1_bn2"
  type: "BatchNorm"
  bottom: "stage2_unit1_conv1"
  top: "stage2_unit1_bn2"
  batch_norm_param {
    use_global_stats: false
    moving_average_fraction: 0.9
    eps: 2e-05
  }
}
layer {
  name: "stage2_unit1_bn2_scale"
  type: "Scale"
  bottom: "stage2_unit1_bn2"
  top: "stage2_unit1_bn2"
  scale_param {
    bias_term: true
  }
}
layer {
  name: "stage2_unit1_relu1"
  type: "ReLU"
  bottom: "stage2_unit1_bn2"
  top: "stage2_unit1_relu1"
}
layer {
  name: "stage2_unit1_conv2"
  type: "Convolution"
  bottom: "stage2_unit1_relu1"
  top: "stage2_unit1_conv2"
  param {
    lr_mult: 1
    decay_mult: 1
  }
  convolution_param {
    num_output: 128
    bias_term: false
    pad: 1
    kernel_size: 3
    stride: 2
    weight_filler {
      type: "gaussian"
      std: 0.01
    }
    engine: CAFFE
  }
}
layer {
  name: "stage2_unit1_bn3"
  type: "BatchNorm"
  bottom: "stage2_unit1_conv2"
  top: "stage2_unit1_bn3"
  batch_norm_param {
    use_global_stats: false
    moving_average_fraction: 0.9
    eps: 2e-05
  }
}
layer {
  name: "stage2_unit1_bn3_scale"
  type: "Scale"
  bottom: "stage2_unit1_bn3"
  top: "stage2_unit1_bn3"
  scale_param {
    bias_term: true
  }
}
layer {
  name: "stage2_unit1_conv1sc"
  type: "Convolution"
  bottom: "_plus1"
  top: "stage2_unit1_conv1sc"
  param {
    lr_mult: 1
    decay_mult: 1
  }
  convolution_param {
    num_output: 128
    bias_term: false
    kernel_size: 1
    stride: 2
    weight_filler {
      type: "gaussian"
      std: 0.01
    }
    engine: CAFFE
  }
}
layer {
  name: "stage2_unit1_sc"
  type: "BatchNorm"
  bottom: "stage2_unit1_conv1sc"
  top: "stage2_unit1_sc"
  batch_norm_param {
    use_global_stats: false
    moving_average_fraction: 0.9
    eps: 2e-05
  }
}
layer {
  name: "stage2_unit1_sc_scale"
  type: "Scale"
  bottom: "stage2_unit1_sc"
  top: "stage2_unit1_sc"
  scale_param {
    bias_term: true
  }
}
layer {
  name: "_plus2"
  type: "Eltwise"
  bottom: "stage2_unit1_bn3"
  bottom: "stage2_unit1_sc"
  top: "_plus2"
  eltwise_param {
    operation: SUM
  }
}
layer {
  name: "stage2_unit2_bn1"
  type: "BatchNorm"
  bottom: "_plus2"
  top: "stage2_unit2_bn1"
  batch_norm_param {
    use_global_stats: false
    moving_average_fraction: 0.9
    eps: 2e-05
  }
}
layer {
  name: "stage2_unit2_bn1_scale"
  type: "Scale"
  bottom: "stage2_unit2_bn1"
  top: "stage2_unit2_bn1"
  scale_param {
    bias_term: true
  }
}
layer {
  name: "stage2_unit2_conv1"
  type: "Convolution"
  bottom: "stage2_unit2_bn1"
  top: "stage2_unit2_conv1"
  param {
    lr_mult: 1
    decay_mult: 1
  }
  convolution_param {
    num_output: 128
    bias_term: false
    pad: 1
    kernel_size: 3
    stride: 1
    weight_filler {
      type: "gaussian"
      std: 0.01
    }
    engine: CAFFE
  }
}
layer {
  name: "stage2_unit2_bn2"
  type: "BatchNorm"
  bottom: "stage2_unit2_conv1"
  top: "stage2_unit2_bn2"
  batch_norm_param {
    use_global_stats: false
    moving_average_fraction: 0.9
    eps: 2e-05
  }
}
layer {
  name: "stage2_unit2_bn2_scale"
  type: "Scale"
  bottom: "stage2_unit2_bn2"
  top: "stage2_unit2_bn2"
  scale_param {
    bias_term: true
  }
}
layer {
  name: "stage2_unit2_relu1"
  type: "ReLU"
  bottom: "stage2_unit2_bn2"
  top: "stage2_unit2_relu1"
}
layer {
  name: "stage2_unit2_conv2"
  type: "Convolution"
  bottom: "stage2_unit2_relu1"
  top: "stage2_unit2_conv2"
  param {
    lr_mult: 1
    decay_mult: 1
  }
  convolution_param {
    num_output: 128
    bias_term: false
    pad: 1
    kernel_size: 3
    stride: 1
    weight_filler {
      type: "gaussian"
      std: 0.01
    }
    engine: CAFFE
  }
}
layer {
  name: "stage2_unit2_bn3"
  type: "BatchNorm"
  bottom: "stage2_unit2_conv2"
  top: "stage2_unit2_bn3"
  batch_norm_param {
    use_global_stats: false
    moving_average_fraction: 0.9
    eps: 2e-05
  }
}
layer {
  name: "stage2_unit2_bn3_scale"
  type: "Scale"
  bottom: "stage2_unit2_bn3"
  top: "stage2_unit2_bn3"
  scale_param {
    bias_term: true
  }
}
layer {
  name: "_plus3"
  type: "Eltwise"
  bottom: "stage2_unit2_bn3"
  bottom: "_plus2"
  top: "_plus3"
  eltwise_param {
    operation: SUM
  }
}
layer {
  name: "stage3_unit1_bn1"
  type: "BatchNorm"
  bottom: "_plus3"
  top: "stage3_unit1_bn1"
  batch_norm_param {
    use_global_stats: false
    moving_average_fraction: 0.9
    eps: 2e-05
  }
}
layer {
  name: "stage3_unit1_bn1_scale"
  type: "Scale"
  bottom: "stage3_unit1_bn1"
  top: "stage3_unit1_bn1"
  scale_param {
    bias_term: true
  }
}
layer {
  name: "stage3_unit1_conv1"
  type: "Convolution"
  bottom: "stage3_unit1_bn1"
  top: "stage3_unit1_conv1"
  param {
    lr_mult: 1
    decay_mult: 1
  }
  convolution_param {
    num_output: 256
    bias_term: false
    pad: 1
    kernel_size: 3
    stride: 1
    weight_filler {
      type: "gaussian"
      std: 0.01
    }
    engine: CAFFE
  }
}
layer {
  name: "stage3_unit1_bn2"
  type: "BatchNorm"
  bottom: "stage3_unit1_conv1"
  top: "stage3_unit1_bn2"
  batch_norm_param {
    use_global_stats: false
    moving_average_fraction: 0.9
    eps: 2e-05
  }
}
layer {
  name: "stage3_unit1_bn2_scale"
  type: "Scale"
  bottom: "stage3_unit1_bn2"
  top: "stage3_unit1_bn2"
  scale_param {
    bias_term: true
  }
}
layer {
  name: "stage3_unit1_relu1"
  type: "ReLU"
  bottom: "stage3_unit1_bn2"
  top: "stage3_unit1_relu1"
}
layer {
  name: "stage3_unit1_conv2"
  type: "Convolution"
  bottom: "stage3_unit1_relu1"
  top: "stage3_unit1_conv2"
  param {
    lr_mult: 1
    decay_mult: 1
  }
  convolution_param {
    num_output: 256
    bias_term: false
    pad: 1
    kernel_size: 3
    stride: 2
    weight_filler {
      type: "gaussian"
      std: 0.01
    }
    engine: CAFFE
  }
}
layer {
  name: "stage3_unit1_bn3"
  type: "BatchNorm"
  bottom: "stage3_unit1_conv2"
  top: "stage3_unit1_bn3"
  batch_norm_param {
    use_global_stats: false
    moving_average_fraction: 0.9
    eps: 2e-05
  }
}
layer {
  name: "stage3_unit1_bn3_scale"
  type: "Scale"
  bottom: "stage3_unit1_bn3"
  top: "stage3_unit1_bn3"
  scale_param {
    bias_term: true
  }
}
layer {
  name: "stage3_unit1_conv1sc"
  type: "Convolution"
  bottom: "_plus3"
  top: "stage3_unit1_conv1sc"
  param {
    lr_mult: 1
    decay_mult: 1
  }
  convolution_param {
    num_output: 256
    bias_term: false
    kernel_size: 1
    stride: 2
    weight_filler {
      type: "gaussian"
      std: 0.01
    }
    engine: CAFFE
  }
}
layer {
  name: "stage3_unit1_sc"
  type: "BatchNorm"
  bottom: "stage3_unit1_conv1sc"
  top: "stage3_unit1_sc"
  batch_norm_param {
    use_global_stats: false
    moving_average_fraction: 0.9
    eps: 2e-05
  }
}
layer {
  name: "stage3_unit1_sc_scale"
  type: "Scale"
  bottom: "stage3_unit1_sc"
  top: "stage3_unit1_sc"
  scale_param {
    bias_term: true
  }
}
layer {
  name: "_plus4"
  type: "Eltwise"
  bottom: "stage3_unit1_bn3"
  bottom: "stage3_unit1_sc"
  top: "_plus4"
  eltwise_param {
    operation: SUM
  }
}
layer {
  name: "stage3_unit2_bn1"
  type: "BatchNorm"
  bottom: "_plus4"
  top: "stage3_unit2_bn1"
  batch_norm_param {
    use_global_stats: false
    moving_average_fraction: 0.9
    eps: 2e-05
  }
}
layer {
  name: "stage3_unit2_bn1_scale"
  type: "Scale"
  bottom: "stage3_unit2_bn1"
  top: "stage3_unit2_bn1"
  scale_param {
    bias_term: true
  }
}
layer {
  name: "stage3_unit2_conv1"
  type: "Convolution"
  bottom: "stage3_unit2_bn1"
  top: "stage3_unit2_conv1"
  param {
    lr_mult: 1
    decay_mult: 1
  }
  convolution_param {
    num_output: 256
    bias_term: false
    pad: 1
    kernel_size: 3
    stride: 1
    weight_filler {
      type: "gaussian"
      std: 0.01
    }
    engine: CAFFE
  }
}
layer {
  name: "stage3_unit2_bn2"
  type: "BatchNorm"
  bottom: "stage3_unit2_conv1"
  top: "stage3_unit2_bn2"
  batch_norm_param {
    use_global_stats: false
    moving_average_fraction: 0.9
    eps: 2e-05
  }
}
layer {
  name: "stage3_unit2_bn2_scale"
  type: "Scale"
  bottom: "stage3_unit2_bn2"
  top: "stage3_unit2_bn2"
  scale_param {
    bias_term: true
  }
}
layer {
  name: "stage3_unit2_relu1"
  type: "ReLU"
  bottom: "stage3_unit2_bn2"
  top: "stage3_unit2_relu1"
}
layer {
  name: "stage3_unit2_conv2"
  type: "Convolution"
  bottom: "stage3_unit2_relu1"
  top: "stage3_unit2_conv2"
  param {
    lr_mult: 1
    decay_mult: 1
  }
  convolution_param {
    num_output: 256
    bias_term: false
    pad: 1
    kernel_size: 3
    stride: 1
    weight_filler {
      type: "gaussian"
      std: 0.01
    }
    engine: CAFFE
  }
}
layer {
  name: "stage3_unit2_bn3"
  type: "BatchNorm"
  bottom: "stage3_unit2_conv2"
  top: "stage3_unit2_bn3"
  batch_norm_param {
    use_global_stats: false
    moving_average_fraction: 0.9
    eps: 2e-05
  }
}
layer {
  name: "stage3_unit2_bn3_scale"
  type: "Scale"
  bottom: "stage3_unit2_bn3"
  top: "stage3_unit2_bn3"
  scale_param {
    bias_term: true
  }
}
layer {
  name: "_plus5"
  type: "Eltwise"
  bottom: "stage3_unit2_bn3"
  bottom: "_plus4"
  top: "_plus5"
  eltwise_param {
    operation: SUM
  }
}
layer {
  name: "stage4_unit1_bn1"
  type: "BatchNorm"
  bottom: "_plus5"
  top: "stage4_unit1_bn1"
  batch_norm_param {
    use_global_stats: false
    moving_average_fraction: 0.9
    eps: 2e-05
  }
}
layer {
  name: "stage4_unit1_bn1_scale"
  type: "Scale"
  bottom: "stage4_unit1_bn1"
  top: "stage4_unit1_bn1"
  scale_param {
    bias_term: true
  }
}
layer {
  name: "stage4_unit1_conv1"
  type: "Convolution"
  bottom: "stage4_unit1_bn1"
  top: "stage4_unit1_conv1"
  param {
    lr_mult: 1
    decay_mult: 1
  }
  convolution_param {
    num_output: 512
    bias_term: false
    pad: 1
    kernel_size: 3
    stride: 1
    weight_filler {
      type: "gaussian"
      std: 0.01
    }
    engine: CAFFE
  }
}
layer {
  name: "stage4_unit1_bn2"
  type: "BatchNorm"
  bottom: "stage4_unit1_conv1"
  top: "stage4_unit1_bn2"
  batch_norm_param {
    use_global_stats: false
    moving_average_fraction: 0.9
    eps: 2e-05
  }
}
layer {
  name: "stage4_unit1_bn2_scale"
  type: "Scale"
  bottom: "stage4_unit1_bn2"
  top: "stage4_unit1_bn2"
  scale_param {
    bias_term: true
  }
}
layer {
  name: "stage4_unit1_relu1"
  type: "ReLU"
  bottom: "stage4_unit1_bn2"
  top: "stage4_unit1_relu1"
}
layer {
  name: "stage4_unit1_conv2"
  type: "Convolution"
  bottom: "stage4_unit1_relu1"
  top: "stage4_unit1_conv2"
  param {
    lr_mult: 1
    decay_mult: 1
  }
  convolution_param {
    num_output: 512
    bias_term: false
    pad: 1
    kernel_size: 3
    stride: 2
    weight_filler {
      type: "gaussian"
      std: 0.01
    }
    engine: CAFFE
  }
}
layer {
  name: "stage4_unit1_bn3"
  type: "BatchNorm"
  bottom: "stage4_unit1_conv2"
  top: "stage4_unit1_bn3"
  batch_norm_param {
    use_global_stats: false
    moving_average_fraction: 0.9
    eps: 2e-05
  }
}
layer {
  name: "stage4_unit1_bn3_scale"
  type: "Scale"
  bottom: "stage4_unit1_bn3"
  top: "stage4_unit1_bn3"
  scale_param {
    bias_term: true
  }
}
layer {
  name: "stage4_unit1_conv1sc"
  type: "Convolution"
  bottom: "_plus5"
  top: "stage4_unit1_conv1sc"
  param {
    lr_mult: 1
    decay_mult: 1
  }
  convolution_param {
    num_output: 512
    bias_term: false
    kernel_size: 1
    stride: 2
    weight_filler {
      type: "gaussian"
      std: 0.01
    }
    engine: CAFFE
  }
}
layer {
  name: "stage4_unit1_sc"
  type: "BatchNorm"
  bottom: "stage4_unit1_conv1sc"
  top: "stage4_unit1_sc"
  batch_norm_param {
    use_global_stats: false
    moving_average_fraction: 0.9
    eps: 2e-05
  }
}
layer {
  name: "stage4_unit1_sc_scale"
  type: "Scale"
  bottom: "stage4_unit1_sc"
  top: "stage4_unit1_sc"
  scale_param {
    bias_term: true
  }
}
layer {
  name: "_plus6"
  type: "Eltwise"
  bottom: "stage4_unit1_bn3"
  bottom: "stage4_unit1_sc"
  top: "_plus6"
  eltwise_param {
    operation: SUM
  }
}
layer {
  name: "stage4_unit2_bn1"
  type: "BatchNorm"
  bottom: "_plus6"
  top: "stage4_unit2_bn1"
  batch_norm_param {
    use_global_stats: false
    moving_average_fraction: 0.9
    eps: 2e-05
  }
}
layer {
  name: "stage4_unit2_bn1_scale"
  type: "Scale"
  bottom: "stage4_unit2_bn1"
  top: "stage4_unit2_bn1"
  scale_param {
    bias_term: true
  }
}
layer {
  name: "stage4_unit2_conv1"
  type: "Convolution"
  bottom: "stage4_unit2_bn1"
  top: "stage4_unit2_conv1"
  param {
    lr_mult: 1
    decay_mult: 1
  }
  convolution_param {
    num_output: 512
    bias_term: false
    pad: 1
    kernel_size: 3
    stride: 1
    weight_filler {
      type: "gaussian"
      std: 0.01
    }
    engine: CAFFE
  }
}
layer {
  name: "stage4_unit2_bn2"
  type: "BatchNorm"
  bottom: "stage4_unit2_conv1"
  top: "stage4_unit2_bn2"
  batch_norm_param {
    use_global_stats: false
    moving_average_fraction: 0.9
    eps: 2e-05
  }
}
layer {
  name: "stage4_unit2_bn2_scale"
  type: "Scale"
  bottom: "stage4_unit2_bn2"
  top: "stage4_unit2_bn2"
  scale_param {
    bias_term: true
  }
}
layer {
  name: "stage4_unit2_relu1"
  type: "ReLU"
  bottom: "stage4_unit2_bn2"
  top: "stage4_unit2_relu1"
}
layer {
  name: "stage4_unit2_conv2"
  type: "Convolution"
  bottom: "stage4_unit2_relu1"
  top: "stage4_unit2_conv2"
  param {
    lr_mult: 1
    decay_mult: 1
  }
  convolution_param {
    num_output: 512
    bias_term: false
    pad: 1
    kernel_size: 3
    stride: 1
    weight_filler {
      type: "gaussian"
      std: 0.01
    }
    engine: CAFFE
  }
}
layer {
  name: "stage4_unit2_bn3"
  type: "BatchNorm"
  bottom: "stage4_unit2_conv2"
  top: "stage4_unit2_bn3"
  batch_norm_param {
    use_global_stats: false
    moving_average_fraction: 0.9
    eps: 2e-05
  }
}
layer {
  name: "stage4_unit2_bn3_scale"
  type: "Scale"
  bottom: "stage4_unit2_bn3"
  top: "stage4_unit2_bn3"
  scale_param {
    bias_term: true
  }
}
layer {
  name: "_plus7"
  type: "Eltwise"
  bottom: "stage4_unit2_bn3"
  bottom: "_plus6"
  top: "_plus7"
  eltwise_param {
    operation: SUM
  }
}
layer {
  name: "bn1"
  type: "BatchNorm"
  bottom: "_plus7"
  top: "bn1"
  batch_norm_param {
    use_global_stats: false
    moving_average_fraction: 0.9
    eps: 2e-05
  }
}
layer {
  name: "bn1_scale"
  type: "Scale"
  bottom: "bn1"
  top: "bn1"
  scale_param {
    bias_term: true
  }
}
layer {
  name: "fc8"
  type: "InnerProduct"
  bottom: "bn1"
  top: "fc8"
  param {
    lr_mult: 1
    decay_mult: 1
  }
  param {
    lr_mult: 2
    decay_mult: 0
  }
  inner_product_param {
    num_output: 2
    weight_filler {
      type: "msra"
      std: 0.01
    }
    bias_filler {
      type: "constant"
      value: 0
    }
  }
}
layer {
  name: "accuracy"
  type: "Accuracy"
  bottom: "fc8"
  bottom: "label"
  top: "accuracy"
  include {
    phase: TEST
  }
}
layer {
  name: "loss"
  type: "WeightedSoftmaxWithLoss"
  bottom: "fc8"
  bottom: "label"
  top: "loss"
  softmax_param {
    pos_mult: 1.3
    pos_cid: 1
  }
}
I0110 10:39:52.207520 15264 layer_factory.hpp:77] Creating layer data
I0110 10:39:52.207625 15264 db_lmdb.cpp:35] Opened lmdb /home/lc/gender/school/data_3/val.lmdb
I0110 10:39:52.207648 15264 net.cpp:84] Creating Layer data
I0110 10:39:52.207656 15264 net.cpp:380] data -> data
I0110 10:39:52.207672 15264 net.cpp:380] data -> label
I0110 10:39:52.207918 15264 data_layer.cpp:45] output data size: 8,3,200,200
I0110 10:39:52.218286 15264 net.cpp:122] Setting up data
I0110 10:39:52.218317 15264 net.cpp:129] Top shape: 8 3 200 200 (960000)
I0110 10:39:52.218327 15264 net.cpp:129] Top shape: 8 (8)
I0110 10:39:52.218331 15264 net.cpp:137] Memory required for data: 3840032
I0110 10:39:52.218338 15264 layer_factory.hpp:77] Creating layer label_data_1_split
I0110 10:39:52.218353 15264 net.cpp:84] Creating Layer label_data_1_split
I0110 10:39:52.218361 15264 net.cpp:406] label_data_1_split <- label
I0110 10:39:52.218371 15264 net.cpp:380] label_data_1_split -> label_data_1_split_0
I0110 10:39:52.218386 15264 net.cpp:380] label_data_1_split -> label_data_1_split_1
I0110 10:39:52.218475 15264 net.cpp:122] Setting up label_data_1_split
I0110 10:39:52.218488 15264 net.cpp:129] Top shape: 8 (8)
I0110 10:39:52.218497 15264 net.cpp:129] Top shape: 8 (8)
I0110 10:39:52.218503 15264 net.cpp:137] Memory required for data: 3840096
I0110 10:39:52.218510 15264 layer_factory.hpp:77] Creating layer conv0
I0110 10:39:52.218528 15264 net.cpp:84] Creating Layer conv0
I0110 10:39:52.218534 15264 net.cpp:406] conv0 <- data
I0110 10:39:52.218544 15264 net.cpp:380] conv0 -> conv0
I0110 10:39:52.218864 15264 net.cpp:122] Setting up conv0
I0110 10:39:52.218879 15264 net.cpp:129] Top shape: 8 64 200 200 (20480000)
I0110 10:39:52.218885 15264 net.cpp:137] Memory required for data: 85760096
I0110 10:39:52.218899 15264 layer_factory.hpp:77] Creating layer bn0
I0110 10:39:52.218909 15264 net.cpp:84] Creating Layer bn0
I0110 10:39:52.218916 15264 net.cpp:406] bn0 <- conv0
I0110 10:39:52.218924 15264 net.cpp:380] bn0 -> bn0
I0110 10:39:52.219242 15264 net.cpp:122] Setting up bn0
I0110 10:39:52.219254 15264 net.cpp:129] Top shape: 8 64 200 200 (20480000)
I0110 10:39:52.219261 15264 net.cpp:137] Memory required for data: 167680096
I0110 10:39:52.219278 15264 layer_factory.hpp:77] Creating layer bn0_scale
I0110 10:39:52.219290 15264 net.cpp:84] Creating Layer bn0_scale
I0110 10:39:52.219296 15264 net.cpp:406] bn0_scale <- bn0
I0110 10:39:52.219305 15264 net.cpp:367] bn0_scale -> bn0 (in-place)
I0110 10:39:52.219358 15264 layer_factory.hpp:77] Creating layer bn0_scale
I0110 10:39:52.219655 15264 net.cpp:122] Setting up bn0_scale
I0110 10:39:52.219669 15264 net.cpp:129] Top shape: 8 64 200 200 (20480000)
I0110 10:39:52.219676 15264 net.cpp:137] Memory required for data: 249600096
I0110 10:39:52.219689 15264 layer_factory.hpp:77] Creating layer relu0
I0110 10:39:52.219700 15264 net.cpp:84] Creating Layer relu0
I0110 10:39:52.219707 15264 net.cpp:406] relu0 <- bn0
I0110 10:39:52.219715 15264 net.cpp:380] relu0 -> relu0
I0110 10:39:52.220122 15264 net.cpp:122] Setting up relu0
I0110 10:39:52.220142 15264 net.cpp:129] Top shape: 8 64 200 200 (20480000)
I0110 10:39:52.220150 15264 net.cpp:137] Memory required for data: 331520096
I0110 10:39:52.220160 15264 layer_factory.hpp:77] Creating layer relu0_relu0_0_split
I0110 10:39:52.220172 15264 net.cpp:84] Creating Layer relu0_relu0_0_split
I0110 10:39:52.220180 15264 net.cpp:406] relu0_relu0_0_split <- relu0
I0110 10:39:52.220191 15264 net.cpp:380] relu0_relu0_0_split -> relu0_relu0_0_split_0
I0110 10:39:52.220207 15264 net.cpp:380] relu0_relu0_0_split -> relu0_relu0_0_split_1
I0110 10:39:52.220569 15264 net.cpp:122] Setting up relu0_relu0_0_split
I0110 10:39:52.220582 15264 net.cpp:129] Top shape: 8 64 200 200 (20480000)
I0110 10:39:52.220590 15264 net.cpp:129] Top shape: 8 64 200 200 (20480000)
I0110 10:39:52.220597 15264 net.cpp:137] Memory required for data: 495360096
I0110 10:39:52.220602 15264 layer_factory.hpp:77] Creating layer stage1_unit1_bn1
I0110 10:39:52.220613 15264 net.cpp:84] Creating Layer stage1_unit1_bn1
I0110 10:39:52.220619 15264 net.cpp:406] stage1_unit1_bn1 <- relu0_relu0_0_split_0
I0110 10:39:52.220629 15264 net.cpp:380] stage1_unit1_bn1 -> stage1_unit1_bn1
I0110 10:39:52.220973 15264 net.cpp:122] Setting up stage1_unit1_bn1
I0110 10:39:52.220985 15264 net.cpp:129] Top shape: 8 64 200 200 (20480000)
I0110 10:39:52.220991 15264 net.cpp:137] Memory required for data: 577280096
I0110 10:39:52.221009 15264 layer_factory.hpp:77] Creating layer stage1_unit1_bn1_scale
I0110 10:39:52.221021 15264 net.cpp:84] Creating Layer stage1_unit1_bn1_scale
I0110 10:39:52.221029 15264 net.cpp:406] stage1_unit1_bn1_scale <- stage1_unit1_bn1
I0110 10:39:52.221037 15264 net.cpp:367] stage1_unit1_bn1_scale -> stage1_unit1_bn1 (in-place)
I0110 10:39:52.221098 15264 layer_factory.hpp:77] Creating layer stage1_unit1_bn1_scale
I0110 10:39:52.221441 15264 net.cpp:122] Setting up stage1_unit1_bn1_scale
I0110 10:39:52.221454 15264 net.cpp:129] Top shape: 8 64 200 200 (20480000)
I0110 10:39:52.221462 15264 net.cpp:137] Memory required for data: 659200096
I0110 10:39:52.221474 15264 layer_factory.hpp:77] Creating layer stage1_unit1_conv1
I0110 10:39:52.221493 15264 net.cpp:84] Creating Layer stage1_unit1_conv1
I0110 10:39:52.221499 15264 net.cpp:406] stage1_unit1_conv1 <- stage1_unit1_bn1
I0110 10:39:52.221510 15264 net.cpp:380] stage1_unit1_conv1 -> stage1_unit1_conv1
I0110 10:39:52.222484 15264 net.cpp:122] Setting up stage1_unit1_conv1
I0110 10:39:52.222497 15264 net.cpp:129] Top shape: 8 64 200 200 (20480000)
I0110 10:39:52.222503 15264 net.cpp:137] Memory required for data: 741120096
I0110 10:39:52.222512 15264 layer_factory.hpp:77] Creating layer stage1_unit1_bn2
I0110 10:39:52.222523 15264 net.cpp:84] Creating Layer stage1_unit1_bn2
I0110 10:39:52.222529 15264 net.cpp:406] stage1_unit1_bn2 <- stage1_unit1_conv1
I0110 10:39:52.222539 15264 net.cpp:380] stage1_unit1_bn2 -> stage1_unit1_bn2
I0110 10:39:52.222913 15264 net.cpp:122] Setting up stage1_unit1_bn2
I0110 10:39:52.222926 15264 net.cpp:129] Top shape: 8 64 200 200 (20480000)
I0110 10:39:52.222934 15264 net.cpp:137] Memory required for data: 823040096
I0110 10:39:52.222946 15264 layer_factory.hpp:77] Creating layer stage1_unit1_bn2_scale
I0110 10:39:52.222956 15264 net.cpp:84] Creating Layer stage1_unit1_bn2_scale
I0110 10:39:52.222965 15264 net.cpp:406] stage1_unit1_bn2_scale <- stage1_unit1_bn2
I0110 10:39:52.222975 15264 net.cpp:367] stage1_unit1_bn2_scale -> stage1_unit1_bn2 (in-place)
I0110 10:39:52.223031 15264 layer_factory.hpp:77] Creating layer stage1_unit1_bn2_scale
I0110 10:39:52.223325 15264 net.cpp:122] Setting up stage1_unit1_bn2_scale
I0110 10:39:52.223338 15264 net.cpp:129] Top shape: 8 64 200 200 (20480000)
I0110 10:39:52.223345 15264 net.cpp:137] Memory required for data: 904960096
I0110 10:39:52.223358 15264 layer_factory.hpp:77] Creating layer stage1_unit1_relu1
I0110 10:39:52.223371 15264 net.cpp:84] Creating Layer stage1_unit1_relu1
I0110 10:39:52.223378 15264 net.cpp:406] stage1_unit1_relu1 <- stage1_unit1_bn2
I0110 10:39:52.223387 15264 net.cpp:380] stage1_unit1_relu1 -> stage1_unit1_relu1
I0110 10:39:52.223534 15264 net.cpp:122] Setting up stage1_unit1_relu1
I0110 10:39:52.223559 15264 net.cpp:129] Top shape: 8 64 200 200 (20480000)
I0110 10:39:52.223567 15264 net.cpp:137] Memory required for data: 986880096
I0110 10:39:52.223572 15264 layer_factory.hpp:77] Creating layer stage1_unit1_conv2
I0110 10:39:52.223588 15264 net.cpp:84] Creating Layer stage1_unit1_conv2
I0110 10:39:52.223599 15264 net.cpp:406] stage1_unit1_conv2 <- stage1_unit1_relu1
I0110 10:39:52.223620 15264 net.cpp:380] stage1_unit1_conv2 -> stage1_unit1_conv2
I0110 10:39:52.224611 15264 net.cpp:122] Setting up stage1_unit1_conv2
I0110 10:39:52.224623 15264 net.cpp:129] Top shape: 8 64 100 100 (5120000)
I0110 10:39:52.224630 15264 net.cpp:137] Memory required for data: 1007360096
I0110 10:39:52.224639 15264 layer_factory.hpp:77] Creating layer stage1_unit1_bn3
I0110 10:39:52.224650 15264 net.cpp:84] Creating Layer stage1_unit1_bn3
I0110 10:39:52.224658 15264 net.cpp:406] stage1_unit1_bn3 <- stage1_unit1_conv2
I0110 10:39:52.224670 15264 net.cpp:380] stage1_unit1_bn3 -> stage1_unit1_bn3
I0110 10:39:52.225021 15264 net.cpp:122] Setting up stage1_unit1_bn3
I0110 10:39:52.225041 15264 net.cpp:129] Top shape: 8 64 100 100 (5120000)
I0110 10:39:52.225046 15264 net.cpp:137] Memory required for data: 1027840096
I0110 10:39:52.225061 15264 layer_factory.hpp:77] Creating layer stage1_unit1_bn3_scale
I0110 10:39:52.225083 15264 net.cpp:84] Creating Layer stage1_unit1_bn3_scale
I0110 10:39:52.225090 15264 net.cpp:406] stage1_unit1_bn3_scale <- stage1_unit1_bn3
I0110 10:39:52.225100 15264 net.cpp:367] stage1_unit1_bn3_scale -> stage1_unit1_bn3 (in-place)
I0110 10:39:52.225157 15264 layer_factory.hpp:77] Creating layer stage1_unit1_bn3_scale
I0110 10:39:52.225389 15264 net.cpp:122] Setting up stage1_unit1_bn3_scale
I0110 10:39:52.225401 15264 net.cpp:129] Top shape: 8 64 100 100 (5120000)
I0110 10:39:52.225409 15264 net.cpp:137] Memory required for data: 1048320096
I0110 10:39:52.225419 15264 layer_factory.hpp:77] Creating layer stage1_unit1_conv1sc
I0110 10:39:52.225437 15264 net.cpp:84] Creating Layer stage1_unit1_conv1sc
I0110 10:39:52.225445 15264 net.cpp:406] stage1_unit1_conv1sc <- relu0_relu0_0_split_1
I0110 10:39:52.225455 15264 net.cpp:380] stage1_unit1_conv1sc -> stage1_unit1_conv1sc
I0110 10:39:52.225798 15264 net.cpp:122] Setting up stage1_unit1_conv1sc
I0110 10:39:52.225811 15264 net.cpp:129] Top shape: 8 64 100 100 (5120000)
I0110 10:39:52.225817 15264 net.cpp:137] Memory required for data: 1068800096
I0110 10:39:52.225826 15264 layer_factory.hpp:77] Creating layer stage1_unit1_sc
I0110 10:39:52.225836 15264 net.cpp:84] Creating Layer stage1_unit1_sc
I0110 10:39:52.225843 15264 net.cpp:406] stage1_unit1_sc <- stage1_unit1_conv1sc
I0110 10:39:52.225850 15264 net.cpp:380] stage1_unit1_sc -> stage1_unit1_sc
I0110 10:39:52.226193 15264 net.cpp:122] Setting up stage1_unit1_sc
I0110 10:39:52.226207 15264 net.cpp:129] Top shape: 8 64 100 100 (5120000)
I0110 10:39:52.226213 15264 net.cpp:137] Memory required for data: 1089280096
I0110 10:39:52.226225 15264 layer_factory.hpp:77] Creating layer stage1_unit1_sc_scale
I0110 10:39:52.226235 15264 net.cpp:84] Creating Layer stage1_unit1_sc_scale
I0110 10:39:52.226243 15264 net.cpp:406] stage1_unit1_sc_scale <- stage1_unit1_sc
I0110 10:39:52.226253 15264 net.cpp:367] stage1_unit1_sc_scale -> stage1_unit1_sc (in-place)
I0110 10:39:52.226311 15264 layer_factory.hpp:77] Creating layer stage1_unit1_sc_scale
I0110 10:39:52.227789 15264 net.cpp:122] Setting up stage1_unit1_sc_scale
I0110 10:39:52.227808 15264 net.cpp:129] Top shape: 8 64 100 100 (5120000)
I0110 10:39:52.227818 15264 net.cpp:137] Memory required for data: 1109760096
I0110 10:39:52.227829 15264 layer_factory.hpp:77] Creating layer _plus0
I0110 10:39:52.227846 15264 net.cpp:84] Creating Layer _plus0
I0110 10:39:52.227854 15264 net.cpp:406] _plus0 <- stage1_unit1_bn3
I0110 10:39:52.227864 15264 net.cpp:406] _plus0 <- stage1_unit1_sc
I0110 10:39:52.227875 15264 net.cpp:380] _plus0 -> _plus0
I0110 10:39:52.227921 15264 net.cpp:122] Setting up _plus0
I0110 10:39:52.227933 15264 net.cpp:129] Top shape: 8 64 100 100 (5120000)
I0110 10:39:52.227941 15264 net.cpp:137] Memory required for data: 1130240096
I0110 10:39:52.227947 15264 layer_factory.hpp:77] Creating layer _plus0__plus0_0_split
I0110 10:39:52.227957 15264 net.cpp:84] Creating Layer _plus0__plus0_0_split
I0110 10:39:52.227964 15264 net.cpp:406] _plus0__plus0_0_split <- _plus0
I0110 10:39:52.227977 15264 net.cpp:380] _plus0__plus0_0_split -> _plus0__plus0_0_split_0
I0110 10:39:52.227988 15264 net.cpp:380] _plus0__plus0_0_split -> _plus0__plus0_0_split_1
I0110 10:39:52.228054 15264 net.cpp:122] Setting up _plus0__plus0_0_split
I0110 10:39:52.228065 15264 net.cpp:129] Top shape: 8 64 100 100 (5120000)
I0110 10:39:52.228075 15264 net.cpp:129] Top shape: 8 64 100 100 (5120000)
I0110 10:39:52.228081 15264 net.cpp:137] Memory required for data: 1171200096
I0110 10:39:52.228087 15264 layer_factory.hpp:77] Creating layer stage1_unit2_bn1
I0110 10:39:52.228098 15264 net.cpp:84] Creating Layer stage1_unit2_bn1
I0110 10:39:52.228106 15264 net.cpp:406] stage1_unit2_bn1 <- _plus0__plus0_0_split_0
I0110 10:39:52.228116 15264 net.cpp:380] stage1_unit2_bn1 -> stage1_unit2_bn1
I0110 10:39:52.228773 15264 net.cpp:122] Setting up stage1_unit2_bn1
I0110 10:39:52.228788 15264 net.cpp:129] Top shape: 8 64 100 100 (5120000)
I0110 10:39:52.228796 15264 net.cpp:137] Memory required for data: 1191680096
I0110 10:39:52.228809 15264 layer_factory.hpp:77] Creating layer stage1_unit2_bn1_scale
I0110 10:39:52.228821 15264 net.cpp:84] Creating Layer stage1_unit2_bn1_scale
I0110 10:39:52.228827 15264 net.cpp:406] stage1_unit2_bn1_scale <- stage1_unit2_bn1
I0110 10:39:52.228837 15264 net.cpp:367] stage1_unit2_bn1_scale -> stage1_unit2_bn1 (in-place)
I0110 10:39:52.228896 15264 layer_factory.hpp:77] Creating layer stage1_unit2_bn1_scale
I0110 10:39:52.229082 15264 net.cpp:122] Setting up stage1_unit2_bn1_scale
I0110 10:39:52.229095 15264 net.cpp:129] Top shape: 8 64 100 100 (5120000)
I0110 10:39:52.229102 15264 net.cpp:137] Memory required for data: 1212160096
I0110 10:39:52.229121 15264 layer_factory.hpp:77] Creating layer stage1_unit2_conv1
I0110 10:39:52.229136 15264 net.cpp:84] Creating Layer stage1_unit2_conv1
I0110 10:39:52.229146 15264 net.cpp:406] stage1_unit2_conv1 <- stage1_unit2_bn1
I0110 10:39:52.229156 15264 net.cpp:380] stage1_unit2_conv1 -> stage1_unit2_conv1
I0110 10:39:52.230170 15264 net.cpp:122] Setting up stage1_unit2_conv1
I0110 10:39:52.230185 15264 net.cpp:129] Top shape: 8 64 100 100 (5120000)
I0110 10:39:52.230192 15264 net.cpp:137] Memory required for data: 1232640096
I0110 10:39:52.230201 15264 layer_factory.hpp:77] Creating layer stage1_unit2_bn2
I0110 10:39:52.230212 15264 net.cpp:84] Creating Layer stage1_unit2_bn2
I0110 10:39:52.230218 15264 net.cpp:406] stage1_unit2_bn2 <- stage1_unit2_conv1
I0110 10:39:52.230226 15264 net.cpp:380] stage1_unit2_bn2 -> stage1_unit2_bn2
I0110 10:39:52.230520 15264 net.cpp:122] Setting up stage1_unit2_bn2
I0110 10:39:52.230532 15264 net.cpp:129] Top shape: 8 64 100 100 (5120000)
I0110 10:39:52.230538 15264 net.cpp:137] Memory required for data: 1253120096
I0110 10:39:52.230551 15264 layer_factory.hpp:77] Creating layer stage1_unit2_bn2_scale
I0110 10:39:52.230561 15264 net.cpp:84] Creating Layer stage1_unit2_bn2_scale
I0110 10:39:52.230568 15264 net.cpp:406] stage1_unit2_bn2_scale <- stage1_unit2_bn2
I0110 10:39:52.230578 15264 net.cpp:367] stage1_unit2_bn2_scale -> stage1_unit2_bn2 (in-place)
I0110 10:39:52.230636 15264 layer_factory.hpp:77] Creating layer stage1_unit2_bn2_scale
I0110 10:39:52.230824 15264 net.cpp:122] Setting up stage1_unit2_bn2_scale
I0110 10:39:52.230839 15264 net.cpp:129] Top shape: 8 64 100 100 (5120000)
I0110 10:39:52.230846 15264 net.cpp:137] Memory required for data: 1273600096
I0110 10:39:52.230856 15264 layer_factory.hpp:77] Creating layer stage1_unit2_relu1
I0110 10:39:52.230868 15264 net.cpp:84] Creating Layer stage1_unit2_relu1
I0110 10:39:52.230880 15264 net.cpp:406] stage1_unit2_relu1 <- stage1_unit2_bn2
I0110 10:39:52.230892 15264 net.cpp:380] stage1_unit2_relu1 -> stage1_unit2_relu1
I0110 10:39:52.231362 15264 net.cpp:122] Setting up stage1_unit2_relu1
I0110 10:39:52.231381 15264 net.cpp:129] Top shape: 8 64 100 100 (5120000)
I0110 10:39:52.231389 15264 net.cpp:137] Memory required for data: 1294080096
I0110 10:39:52.231395 15264 layer_factory.hpp:77] Creating layer stage1_unit2_conv2
I0110 10:39:52.231411 15264 net.cpp:84] Creating Layer stage1_unit2_conv2
I0110 10:39:52.231420 15264 net.cpp:406] stage1_unit2_conv2 <- stage1_unit2_relu1
I0110 10:39:52.231432 15264 net.cpp:380] stage1_unit2_conv2 -> stage1_unit2_conv2
I0110 10:39:52.232439 15264 net.cpp:122] Setting up stage1_unit2_conv2
I0110 10:39:52.232453 15264 net.cpp:129] Top shape: 8 64 100 100 (5120000)
I0110 10:39:52.232461 15264 net.cpp:137] Memory required for data: 1314560096
I0110 10:39:52.232471 15264 layer_factory.hpp:77] Creating layer stage1_unit2_bn3
I0110 10:39:52.232484 15264 net.cpp:84] Creating Layer stage1_unit2_bn3
I0110 10:39:52.232491 15264 net.cpp:406] stage1_unit2_bn3 <- stage1_unit2_conv2
I0110 10:39:52.232501 15264 net.cpp:380] stage1_unit2_bn3 -> stage1_unit2_bn3
I0110 10:39:52.232795 15264 net.cpp:122] Setting up stage1_unit2_bn3
I0110 10:39:52.232808 15264 net.cpp:129] Top shape: 8 64 100 100 (5120000)
I0110 10:39:52.232815 15264 net.cpp:137] Memory required for data: 1335040096
I0110 10:39:52.232826 15264 layer_factory.hpp:77] Creating layer stage1_unit2_bn3_scale
I0110 10:39:52.232836 15264 net.cpp:84] Creating Layer stage1_unit2_bn3_scale
I0110 10:39:52.232843 15264 net.cpp:406] stage1_unit2_bn3_scale <- stage1_unit2_bn3
I0110 10:39:52.232851 15264 net.cpp:367] stage1_unit2_bn3_scale -> stage1_unit2_bn3 (in-place)
I0110 10:39:52.232911 15264 layer_factory.hpp:77] Creating layer stage1_unit2_bn3_scale
I0110 10:39:52.233098 15264 net.cpp:122] Setting up stage1_unit2_bn3_scale
I0110 10:39:52.233109 15264 net.cpp:129] Top shape: 8 64 100 100 (5120000)
I0110 10:39:52.233116 15264 net.cpp:137] Memory required for data: 1355520096
I0110 10:39:52.233134 15264 layer_factory.hpp:77] Creating layer _plus1
I0110 10:39:52.233147 15264 net.cpp:84] Creating Layer _plus1
I0110 10:39:52.233157 15264 net.cpp:406] _plus1 <- stage1_unit2_bn3
I0110 10:39:52.233167 15264 net.cpp:406] _plus1 <- _plus0__plus0_0_split_1
I0110 10:39:52.233181 15264 net.cpp:380] _plus1 -> _plus1
I0110 10:39:52.233216 15264 net.cpp:122] Setting up _plus1
I0110 10:39:52.233227 15264 net.cpp:129] Top shape: 8 64 100 100 (5120000)
I0110 10:39:52.233232 15264 net.cpp:137] Memory required for data: 1376000096
I0110 10:39:52.233239 15264 layer_factory.hpp:77] Creating layer _plus1__plus1_0_split
I0110 10:39:52.233251 15264 net.cpp:84] Creating Layer _plus1__plus1_0_split
I0110 10:39:52.233258 15264 net.cpp:406] _plus1__plus1_0_split <- _plus1
I0110 10:39:52.233266 15264 net.cpp:380] _plus1__plus1_0_split -> _plus1__plus1_0_split_0
I0110 10:39:52.233278 15264 net.cpp:380] _plus1__plus1_0_split -> _plus1__plus1_0_split_1
I0110 10:39:52.233327 15264 net.cpp:122] Setting up _plus1__plus1_0_split
I0110 10:39:52.233337 15264 net.cpp:129] Top shape: 8 64 100 100 (5120000)
I0110 10:39:52.233346 15264 net.cpp:129] Top shape: 8 64 100 100 (5120000)
I0110 10:39:52.233353 15264 net.cpp:137] Memory required for data: 1416960096
I0110 10:39:52.233358 15264 layer_factory.hpp:77] Creating layer stage2_unit1_bn1
I0110 10:39:52.233371 15264 net.cpp:84] Creating Layer stage2_unit1_bn1
I0110 10:39:52.233378 15264 net.cpp:406] stage2_unit1_bn1 <- _plus1__plus1_0_split_0
I0110 10:39:52.233386 15264 net.cpp:380] stage2_unit1_bn1 -> stage2_unit1_bn1
I0110 10:39:52.233680 15264 net.cpp:122] Setting up stage2_unit1_bn1
I0110 10:39:52.233690 15264 net.cpp:129] Top shape: 8 64 100 100 (5120000)
I0110 10:39:52.233697 15264 net.cpp:137] Memory required for data: 1437440096
I0110 10:39:52.233709 15264 layer_factory.hpp:77] Creating layer stage2_unit1_bn1_scale
I0110 10:39:52.233722 15264 net.cpp:84] Creating Layer stage2_unit1_bn1_scale
I0110 10:39:52.233729 15264 net.cpp:406] stage2_unit1_bn1_scale <- stage2_unit1_bn1
I0110 10:39:52.233737 15264 net.cpp:367] stage2_unit1_bn1_scale -> stage2_unit1_bn1 (in-place)
I0110 10:39:52.233793 15264 layer_factory.hpp:77] Creating layer stage2_unit1_bn1_scale
I0110 10:39:52.233995 15264 net.cpp:122] Setting up stage2_unit1_bn1_scale
I0110 10:39:52.234006 15264 net.cpp:129] Top shape: 8 64 100 100 (5120000)
I0110 10:39:52.234014 15264 net.cpp:137] Memory required for data: 1457920096
I0110 10:39:52.234023 15264 layer_factory.hpp:77] Creating layer stage2_unit1_conv1
I0110 10:39:52.234042 15264 net.cpp:84] Creating Layer stage2_unit1_conv1
I0110 10:39:52.234050 15264 net.cpp:406] stage2_unit1_conv1 <- stage2_unit1_bn1
I0110 10:39:52.234058 15264 net.cpp:380] stage2_unit1_conv1 -> stage2_unit1_conv1
I0110 10:39:52.235741 15264 net.cpp:122] Setting up stage2_unit1_conv1
I0110 10:39:52.235759 15264 net.cpp:129] Top shape: 8 128 100 100 (10240000)
I0110 10:39:52.235765 15264 net.cpp:137] Memory required for data: 1498880096
I0110 10:39:52.235774 15264 layer_factory.hpp:77] Creating layer stage2_unit1_bn2
I0110 10:39:52.235785 15264 net.cpp:84] Creating Layer stage2_unit1_bn2
I0110 10:39:52.235792 15264 net.cpp:406] stage2_unit1_bn2 <- stage2_unit1_conv1
I0110 10:39:52.235801 15264 net.cpp:380] stage2_unit1_bn2 -> stage2_unit1_bn2
I0110 10:39:52.236085 15264 net.cpp:122] Setting up stage2_unit1_bn2
I0110 10:39:52.236097 15264 net.cpp:129] Top shape: 8 128 100 100 (10240000)
I0110 10:39:52.236105 15264 net.cpp:137] Memory required for data: 1539840096
I0110 10:39:52.236117 15264 layer_factory.hpp:77] Creating layer stage2_unit1_bn2_scale
I0110 10:39:52.236129 15264 net.cpp:84] Creating Layer stage2_unit1_bn2_scale
I0110 10:39:52.236137 15264 net.cpp:406] stage2_unit1_bn2_scale <- stage2_unit1_bn2
I0110 10:39:52.236150 15264 net.cpp:367] stage2_unit1_bn2_scale -> stage2_unit1_bn2 (in-place)
I0110 10:39:52.236219 15264 layer_factory.hpp:77] Creating layer stage2_unit1_bn2_scale
I0110 10:39:52.236387 15264 net.cpp:122] Setting up stage2_unit1_bn2_scale
I0110 10:39:52.236398 15264 net.cpp:129] Top shape: 8 128 100 100 (10240000)
I0110 10:39:52.236405 15264 net.cpp:137] Memory required for data: 1580800096
I0110 10:39:52.236415 15264 layer_factory.hpp:77] Creating layer stage2_unit1_relu1
I0110 10:39:52.236428 15264 net.cpp:84] Creating Layer stage2_unit1_relu1
I0110 10:39:52.236434 15264 net.cpp:406] stage2_unit1_relu1 <- stage2_unit1_bn2
I0110 10:39:52.236443 15264 net.cpp:380] stage2_unit1_relu1 -> stage2_unit1_relu1
I0110 10:39:52.236593 15264 net.cpp:122] Setting up stage2_unit1_relu1
I0110 10:39:52.236608 15264 net.cpp:129] Top shape: 8 128 100 100 (10240000)
I0110 10:39:52.236614 15264 net.cpp:137] Memory required for data: 1621760096
I0110 10:39:52.236620 15264 layer_factory.hpp:77] Creating layer stage2_unit1_conv2
I0110 10:39:52.236637 15264 net.cpp:84] Creating Layer stage2_unit1_conv2
I0110 10:39:52.236644 15264 net.cpp:406] stage2_unit1_conv2 <- stage2_unit1_relu1
I0110 10:39:52.236654 15264 net.cpp:380] stage2_unit1_conv2 -> stage2_unit1_conv2
I0110 10:39:52.239691 15264 net.cpp:122] Setting up stage2_unit1_conv2
I0110 10:39:52.239706 15264 net.cpp:129] Top shape: 8 128 50 50 (2560000)
I0110 10:39:52.239712 15264 net.cpp:137] Memory required for data: 1632000096
I0110 10:39:52.239722 15264 layer_factory.hpp:77] Creating layer stage2_unit1_bn3
I0110 10:39:52.239735 15264 net.cpp:84] Creating Layer stage2_unit1_bn3
I0110 10:39:52.239743 15264 net.cpp:406] stage2_unit1_bn3 <- stage2_unit1_conv2
I0110 10:39:52.239751 15264 net.cpp:380] stage2_unit1_bn3 -> stage2_unit1_bn3
I0110 10:39:52.240051 15264 net.cpp:122] Setting up stage2_unit1_bn3
I0110 10:39:52.240063 15264 net.cpp:129] Top shape: 8 128 50 50 (2560000)
I0110 10:39:52.240069 15264 net.cpp:137] Memory required for data: 1642240096
I0110 10:39:52.240082 15264 layer_factory.hpp:77] Creating layer stage2_unit1_bn3_scale
I0110 10:39:52.240095 15264 net.cpp:84] Creating Layer stage2_unit1_bn3_scale
I0110 10:39:52.240103 15264 net.cpp:406] stage2_unit1_bn3_scale <- stage2_unit1_bn3
I0110 10:39:52.240110 15264 net.cpp:367] stage2_unit1_bn3_scale -> stage2_unit1_bn3 (in-place)
I0110 10:39:52.240164 15264 layer_factory.hpp:77] Creating layer stage2_unit1_bn3_scale
I0110 10:39:52.240320 15264 net.cpp:122] Setting up stage2_unit1_bn3_scale
I0110 10:39:52.240332 15264 net.cpp:129] Top shape: 8 128 50 50 (2560000)
I0110 10:39:52.240339 15264 net.cpp:137] Memory required for data: 1652480096
I0110 10:39:52.240350 15264 layer_factory.hpp:77] Creating layer stage2_unit1_conv1sc
I0110 10:39:52.240365 15264 net.cpp:84] Creating Layer stage2_unit1_conv1sc
I0110 10:39:52.240371 15264 net.cpp:406] stage2_unit1_conv1sc <- _plus1__plus1_0_split_1
I0110 10:39:52.240383 15264 net.cpp:380] stage2_unit1_conv1sc -> stage2_unit1_conv1sc
I0110 10:39:52.240806 15264 net.cpp:122] Setting up stage2_unit1_conv1sc
I0110 10:39:52.240819 15264 net.cpp:129] Top shape: 8 128 50 50 (2560000)
I0110 10:39:52.240826 15264 net.cpp:137] Memory required for data: 1662720096
I0110 10:39:52.240835 15264 layer_factory.hpp:77] Creating layer stage2_unit1_sc
I0110 10:39:52.240847 15264 net.cpp:84] Creating Layer stage2_unit1_sc
I0110 10:39:52.240854 15264 net.cpp:406] stage2_unit1_sc <- stage2_unit1_conv1sc
I0110 10:39:52.240862 15264 net.cpp:380] stage2_unit1_sc -> stage2_unit1_sc
I0110 10:39:52.241142 15264 net.cpp:122] Setting up stage2_unit1_sc
I0110 10:39:52.241155 15264 net.cpp:129] Top shape: 8 128 50 50 (2560000)
I0110 10:39:52.241161 15264 net.cpp:137] Memory required for data: 1672960096
I0110 10:39:52.241183 15264 layer_factory.hpp:77] Creating layer stage2_unit1_sc_scale
I0110 10:39:52.241194 15264 net.cpp:84] Creating Layer stage2_unit1_sc_scale
I0110 10:39:52.241201 15264 net.cpp:406] stage2_unit1_sc_scale <- stage2_unit1_sc
I0110 10:39:52.241209 15264 net.cpp:367] stage2_unit1_sc_scale -> stage2_unit1_sc (in-place)
I0110 10:39:52.241266 15264 layer_factory.hpp:77] Creating layer stage2_unit1_sc_scale
I0110 10:39:52.241418 15264 net.cpp:122] Setting up stage2_unit1_sc_scale
I0110 10:39:52.241430 15264 net.cpp:129] Top shape: 8 128 50 50 (2560000)
I0110 10:39:52.241436 15264 net.cpp:137] Memory required for data: 1683200096
I0110 10:39:52.241446 15264 layer_factory.hpp:77] Creating layer _plus2
I0110 10:39:52.241458 15264 net.cpp:84] Creating Layer _plus2
I0110 10:39:52.241466 15264 net.cpp:406] _plus2 <- stage2_unit1_bn3
I0110 10:39:52.241472 15264 net.cpp:406] _plus2 <- stage2_unit1_sc
I0110 10:39:52.241482 15264 net.cpp:380] _plus2 -> _plus2
I0110 10:39:52.241514 15264 net.cpp:122] Setting up _plus2
I0110 10:39:52.241525 15264 net.cpp:129] Top shape: 8 128 50 50 (2560000)
I0110 10:39:52.241533 15264 net.cpp:137] Memory required for data: 1693440096
I0110 10:39:52.241539 15264 layer_factory.hpp:77] Creating layer _plus2__plus2_0_split
I0110 10:39:52.241549 15264 net.cpp:84] Creating Layer _plus2__plus2_0_split
I0110 10:39:52.241557 15264 net.cpp:406] _plus2__plus2_0_split <- _plus2
I0110 10:39:52.241572 15264 net.cpp:380] _plus2__plus2_0_split -> _plus2__plus2_0_split_0
I0110 10:39:52.241586 15264 net.cpp:380] _plus2__plus2_0_split -> _plus2__plus2_0_split_1
I0110 10:39:52.241641 15264 net.cpp:122] Setting up _plus2__plus2_0_split
I0110 10:39:52.241652 15264 net.cpp:129] Top shape: 8 128 50 50 (2560000)
I0110 10:39:52.241662 15264 net.cpp:129] Top shape: 8 128 50 50 (2560000)
I0110 10:39:52.241668 15264 net.cpp:137] Memory required for data: 1713920096
I0110 10:39:52.241674 15264 layer_factory.hpp:77] Creating layer stage2_unit2_bn1
I0110 10:39:52.241688 15264 net.cpp:84] Creating Layer stage2_unit2_bn1
I0110 10:39:52.241694 15264 net.cpp:406] stage2_unit2_bn1 <- _plus2__plus2_0_split_0
I0110 10:39:52.241704 15264 net.cpp:380] stage2_unit2_bn1 -> stage2_unit2_bn1
I0110 10:39:52.242333 15264 net.cpp:122] Setting up stage2_unit2_bn1
I0110 10:39:52.242347 15264 net.cpp:129] Top shape: 8 128 50 50 (2560000)
I0110 10:39:52.242354 15264 net.cpp:137] Memory required for data: 1724160096
I0110 10:39:52.242368 15264 layer_factory.hpp:77] Creating layer stage2_unit2_bn1_scale
I0110 10:39:52.242383 15264 net.cpp:84] Creating Layer stage2_unit2_bn1_scale
I0110 10:39:52.242389 15264 net.cpp:406] stage2_unit2_bn1_scale <- stage2_unit2_bn1
I0110 10:39:52.242398 15264 net.cpp:367] stage2_unit2_bn1_scale -> stage2_unit2_bn1 (in-place)
I0110 10:39:52.242455 15264 layer_factory.hpp:77] Creating layer stage2_unit2_bn1_scale
I0110 10:39:52.242611 15264 net.cpp:122] Setting up stage2_unit2_bn1_scale
I0110 10:39:52.242622 15264 net.cpp:129] Top shape: 8 128 50 50 (2560000)
I0110 10:39:52.242630 15264 net.cpp:137] Memory required for data: 1734400096
I0110 10:39:52.242640 15264 layer_factory.hpp:77] Creating layer stage2_unit2_conv1
I0110 10:39:52.242655 15264 net.cpp:84] Creating Layer stage2_unit2_conv1
I0110 10:39:52.242662 15264 net.cpp:406] stage2_unit2_conv1 <- stage2_unit2_bn1
I0110 10:39:52.242673 15264 net.cpp:380] stage2_unit2_conv1 -> stage2_unit2_conv1
I0110 10:39:52.246837 15264 net.cpp:122] Setting up stage2_unit2_conv1
I0110 10:39:52.246857 15264 net.cpp:129] Top shape: 8 128 50 50 (2560000)
I0110 10:39:52.246865 15264 net.cpp:137] Memory required for data: 1744640096
I0110 10:39:52.246876 15264 layer_factory.hpp:77] Creating layer stage2_unit2_bn2
I0110 10:39:52.246887 15264 net.cpp:84] Creating Layer stage2_unit2_bn2
I0110 10:39:52.246896 15264 net.cpp:406] stage2_unit2_bn2 <- stage2_unit2_conv1
I0110 10:39:52.246907 15264 net.cpp:380] stage2_unit2_bn2 -> stage2_unit2_bn2
I0110 10:39:52.247218 15264 net.cpp:122] Setting up stage2_unit2_bn2
I0110 10:39:52.247231 15264 net.cpp:129] Top shape: 8 128 50 50 (2560000)
I0110 10:39:52.247237 15264 net.cpp:137] Memory required for data: 1754880096
I0110 10:39:52.247251 15264 layer_factory.hpp:77] Creating layer stage2_unit2_bn2_scale
I0110 10:39:52.247261 15264 net.cpp:84] Creating Layer stage2_unit2_bn2_scale
I0110 10:39:52.247268 15264 net.cpp:406] stage2_unit2_bn2_scale <- stage2_unit2_bn2
I0110 10:39:52.247277 15264 net.cpp:367] stage2_unit2_bn2_scale -> stage2_unit2_bn2 (in-place)
I0110 10:39:52.247334 15264 layer_factory.hpp:77] Creating layer stage2_unit2_bn2_scale
I0110 10:39:52.247483 15264 net.cpp:122] Setting up stage2_unit2_bn2_scale
I0110 10:39:52.247496 15264 net.cpp:129] Top shape: 8 128 50 50 (2560000)
I0110 10:39:52.247503 15264 net.cpp:137] Memory required for data: 1765120096
I0110 10:39:52.247512 15264 layer_factory.hpp:77] Creating layer stage2_unit2_relu1
I0110 10:39:52.247524 15264 net.cpp:84] Creating Layer stage2_unit2_relu1
I0110 10:39:52.247532 15264 net.cpp:406] stage2_unit2_relu1 <- stage2_unit2_bn2
I0110 10:39:52.247540 15264 net.cpp:380] stage2_unit2_relu1 -> stage2_unit2_relu1
I0110 10:39:52.250012 15264 net.cpp:122] Setting up stage2_unit2_relu1
I0110 10:39:52.250033 15264 net.cpp:129] Top shape: 8 128 50 50 (2560000)
I0110 10:39:52.250041 15264 net.cpp:137] Memory required for data: 1775360096
I0110 10:39:52.250048 15264 layer_factory.hpp:77] Creating layer stage2_unit2_conv2
I0110 10:39:52.250067 15264 net.cpp:84] Creating Layer stage2_unit2_conv2
I0110 10:39:52.250077 15264 net.cpp:406] stage2_unit2_conv2 <- stage2_unit2_relu1
I0110 10:39:52.250092 15264 net.cpp:380] stage2_unit2_conv2 -> stage2_unit2_conv2
I0110 10:39:52.252007 15264 net.cpp:122] Setting up stage2_unit2_conv2
I0110 10:39:52.252018 15264 net.cpp:129] Top shape: 8 128 50 50 (2560000)
I0110 10:39:52.252022 15264 net.cpp:137] Memory required for data: 1785600096
I0110 10:39:52.252029 15264 layer_factory.hpp:77] Creating layer stage2_unit2_bn3
I0110 10:39:52.252036 15264 net.cpp:84] Creating Layer stage2_unit2_bn3
I0110 10:39:52.252041 15264 net.cpp:406] stage2_unit2_bn3 <- stage2_unit2_conv2
I0110 10:39:52.252048 15264 net.cpp:380] stage2_unit2_bn3 -> stage2_unit2_bn3
I0110 10:39:52.252245 15264 net.cpp:122] Setting up stage2_unit2_bn3
I0110 10:39:52.252254 15264 net.cpp:129] Top shape: 8 128 50 50 (2560000)
I0110 10:39:52.252256 15264 net.cpp:137] Memory required for data: 1795840096
I0110 10:39:52.252265 15264 layer_factory.hpp:77] Creating layer stage2_unit2_bn3_scale
I0110 10:39:52.252274 15264 net.cpp:84] Creating Layer stage2_unit2_bn3_scale
I0110 10:39:52.252279 15264 net.cpp:406] stage2_unit2_bn3_scale <- stage2_unit2_bn3
I0110 10:39:52.252285 15264 net.cpp:367] stage2_unit2_bn3_scale -> stage2_unit2_bn3 (in-place)
I0110 10:39:52.252323 15264 layer_factory.hpp:77] Creating layer stage2_unit2_bn3_scale
I0110 10:39:52.252430 15264 net.cpp:122] Setting up stage2_unit2_bn3_scale
I0110 10:39:52.252439 15264 net.cpp:129] Top shape: 8 128 50 50 (2560000)
I0110 10:39:52.252441 15264 net.cpp:137] Memory required for data: 1806080096
I0110 10:39:52.252449 15264 layer_factory.hpp:77] Creating layer _plus3
I0110 10:39:52.252457 15264 net.cpp:84] Creating Layer _plus3
I0110 10:39:52.252462 15264 net.cpp:406] _plus3 <- stage2_unit2_bn3
I0110 10:39:52.252467 15264 net.cpp:406] _plus3 <- _plus2__plus2_0_split_1
I0110 10:39:52.252475 15264 net.cpp:380] _plus3 -> _plus3
I0110 10:39:52.252499 15264 net.cpp:122] Setting up _plus3
I0110 10:39:52.252506 15264 net.cpp:129] Top shape: 8 128 50 50 (2560000)
I0110 10:39:52.252511 15264 net.cpp:137] Memory required for data: 1816320096
I0110 10:39:52.252513 15264 layer_factory.hpp:77] Creating layer _plus3__plus3_0_split
I0110 10:39:52.252519 15264 net.cpp:84] Creating Layer _plus3__plus3_0_split
I0110 10:39:52.252523 15264 net.cpp:406] _plus3__plus3_0_split <- _plus3
I0110 10:39:52.252530 15264 net.cpp:380] _plus3__plus3_0_split -> _plus3__plus3_0_split_0
I0110 10:39:52.252537 15264 net.cpp:380] _plus3__plus3_0_split -> _plus3__plus3_0_split_1
I0110 10:39:52.252570 15264 net.cpp:122] Setting up _plus3__plus3_0_split
I0110 10:39:52.252576 15264 net.cpp:129] Top shape: 8 128 50 50 (2560000)
I0110 10:39:52.252581 15264 net.cpp:129] Top shape: 8 128 50 50 (2560000)
I0110 10:39:52.252584 15264 net.cpp:137] Memory required for data: 1836800096
I0110 10:39:52.252588 15264 layer_factory.hpp:77] Creating layer stage3_unit1_bn1
I0110 10:39:52.252595 15264 net.cpp:84] Creating Layer stage3_unit1_bn1
I0110 10:39:52.252599 15264 net.cpp:406] stage3_unit1_bn1 <- _plus3__plus3_0_split_0
I0110 10:39:52.252604 15264 net.cpp:380] stage3_unit1_bn1 -> stage3_unit1_bn1
I0110 10:39:52.252797 15264 net.cpp:122] Setting up stage3_unit1_bn1
I0110 10:39:52.252805 15264 net.cpp:129] Top shape: 8 128 50 50 (2560000)
I0110 10:39:52.252809 15264 net.cpp:137] Memory required for data: 1847040096
I0110 10:39:52.252817 15264 layer_factory.hpp:77] Creating layer stage3_unit1_bn1_scale
I0110 10:39:52.252825 15264 net.cpp:84] Creating Layer stage3_unit1_bn1_scale
I0110 10:39:52.252830 15264 net.cpp:406] stage3_unit1_bn1_scale <- stage3_unit1_bn1
I0110 10:39:52.252835 15264 net.cpp:367] stage3_unit1_bn1_scale -> stage3_unit1_bn1 (in-place)
I0110 10:39:52.252876 15264 layer_factory.hpp:77] Creating layer stage3_unit1_bn1_scale
I0110 10:39:52.252985 15264 net.cpp:122] Setting up stage3_unit1_bn1_scale
I0110 10:39:52.252992 15264 net.cpp:129] Top shape: 8 128 50 50 (2560000)
I0110 10:39:52.252995 15264 net.cpp:137] Memory required for data: 1857280096
I0110 10:39:52.253002 15264 layer_factory.hpp:77] Creating layer stage3_unit1_conv1
I0110 10:39:52.253012 15264 net.cpp:84] Creating Layer stage3_unit1_conv1
I0110 10:39:52.253017 15264 net.cpp:406] stage3_unit1_conv1 <- stage3_unit1_bn1
I0110 10:39:52.253024 15264 net.cpp:380] stage3_unit1_conv1 -> stage3_unit1_conv1
I0110 10:39:52.257632 15264 net.cpp:122] Setting up stage3_unit1_conv1
I0110 10:39:52.257647 15264 net.cpp:129] Top shape: 8 256 50 50 (5120000)
I0110 10:39:52.257652 15264 net.cpp:137] Memory required for data: 1877760096
I0110 10:39:52.257658 15264 layer_factory.hpp:77] Creating layer stage3_unit1_bn2
I0110 10:39:52.257668 15264 net.cpp:84] Creating Layer stage3_unit1_bn2
I0110 10:39:52.257673 15264 net.cpp:406] stage3_unit1_bn2 <- stage3_unit1_conv1
I0110 10:39:52.257680 15264 net.cpp:380] stage3_unit1_bn2 -> stage3_unit1_bn2
I0110 10:39:52.257889 15264 net.cpp:122] Setting up stage3_unit1_bn2
I0110 10:39:52.257897 15264 net.cpp:129] Top shape: 8 256 50 50 (5120000)
I0110 10:39:52.257901 15264 net.cpp:137] Memory required for data: 1898240096
I0110 10:39:52.257910 15264 layer_factory.hpp:77] Creating layer stage3_unit1_bn2_scale
I0110 10:39:52.257916 15264 net.cpp:84] Creating Layer stage3_unit1_bn2_scale
I0110 10:39:52.257920 15264 net.cpp:406] stage3_unit1_bn2_scale <- stage3_unit1_bn2
I0110 10:39:52.257927 15264 net.cpp:367] stage3_unit1_bn2_scale -> stage3_unit1_bn2 (in-place)
I0110 10:39:52.257968 15264 layer_factory.hpp:77] Creating layer stage3_unit1_bn2_scale
I0110 10:39:52.258076 15264 net.cpp:122] Setting up stage3_unit1_bn2_scale
I0110 10:39:52.258085 15264 net.cpp:129] Top shape: 8 256 50 50 (5120000)
I0110 10:39:52.258088 15264 net.cpp:137] Memory required for data: 1918720096
I0110 10:39:52.258095 15264 layer_factory.hpp:77] Creating layer stage3_unit1_relu1
I0110 10:39:52.258101 15264 net.cpp:84] Creating Layer stage3_unit1_relu1
I0110 10:39:52.258106 15264 net.cpp:406] stage3_unit1_relu1 <- stage3_unit1_bn2
I0110 10:39:52.258112 15264 net.cpp:380] stage3_unit1_relu1 -> stage3_unit1_relu1
I0110 10:39:52.258216 15264 net.cpp:122] Setting up stage3_unit1_relu1
I0110 10:39:52.258226 15264 net.cpp:129] Top shape: 8 256 50 50 (5120000)
I0110 10:39:52.258229 15264 net.cpp:137] Memory required for data: 1939200096
I0110 10:39:52.258234 15264 layer_factory.hpp:77] Creating layer stage3_unit1_conv2
I0110 10:39:52.258244 15264 net.cpp:84] Creating Layer stage3_unit1_conv2
I0110 10:39:52.258249 15264 net.cpp:406] stage3_unit1_conv2 <- stage3_unit1_relu1
I0110 10:39:52.258256 15264 net.cpp:380] stage3_unit1_conv2 -> stage3_unit1_conv2
I0110 10:39:52.266328 15264 net.cpp:122] Setting up stage3_unit1_conv2
I0110 10:39:52.266348 15264 net.cpp:129] Top shape: 8 256 25 25 (1280000)
I0110 10:39:52.266352 15264 net.cpp:137] Memory required for data: 1944320096
I0110 10:39:52.266360 15264 layer_factory.hpp:77] Creating layer stage3_unit1_bn3
I0110 10:39:52.266371 15264 net.cpp:84] Creating Layer stage3_unit1_bn3
I0110 10:39:52.266377 15264 net.cpp:406] stage3_unit1_bn3 <- stage3_unit1_conv2
I0110 10:39:52.266384 15264 net.cpp:380] stage3_unit1_bn3 -> stage3_unit1_bn3
I0110 10:39:52.266593 15264 net.cpp:122] Setting up stage3_unit1_bn3
I0110 10:39:52.266602 15264 net.cpp:129] Top shape: 8 256 25 25 (1280000)
I0110 10:39:52.266605 15264 net.cpp:137] Memory required for data: 1949440096
I0110 10:39:52.266613 15264 layer_factory.hpp:77] Creating layer stage3_unit1_bn3_scale
I0110 10:39:52.266623 15264 net.cpp:84] Creating Layer stage3_unit1_bn3_scale
I0110 10:39:52.266628 15264 net.cpp:406] stage3_unit1_bn3_scale <- stage3_unit1_bn3
I0110 10:39:52.266633 15264 net.cpp:367] stage3_unit1_bn3_scale -> stage3_unit1_bn3 (in-place)
I0110 10:39:52.266674 15264 layer_factory.hpp:77] Creating layer stage3_unit1_bn3_scale
I0110 10:39:52.266780 15264 net.cpp:122] Setting up stage3_unit1_bn3_scale
I0110 10:39:52.266788 15264 net.cpp:129] Top shape: 8 256 25 25 (1280000)
I0110 10:39:52.266791 15264 net.cpp:137] Memory required for data: 1954560096
I0110 10:39:52.266798 15264 layer_factory.hpp:77] Creating layer stage3_unit1_conv1sc
I0110 10:39:52.266809 15264 net.cpp:84] Creating Layer stage3_unit1_conv1sc
I0110 10:39:52.266814 15264 net.cpp:406] stage3_unit1_conv1sc <- _plus3__plus3_0_split_1
I0110 10:39:52.266820 15264 net.cpp:380] stage3_unit1_conv1sc -> stage3_unit1_conv1sc
I0110 10:39:52.267385 15264 net.cpp:122] Setting up stage3_unit1_conv1sc
I0110 10:39:52.267395 15264 net.cpp:129] Top shape: 8 256 25 25 (1280000)
I0110 10:39:52.267400 15264 net.cpp:137] Memory required for data: 1959680096
I0110 10:39:52.267405 15264 layer_factory.hpp:77] Creating layer stage3_unit1_sc
I0110 10:39:52.267410 15264 net.cpp:84] Creating Layer stage3_unit1_sc
I0110 10:39:52.267416 15264 net.cpp:406] stage3_unit1_sc <- stage3_unit1_conv1sc
I0110 10:39:52.267421 15264 net.cpp:380] stage3_unit1_sc -> stage3_unit1_sc
I0110 10:39:52.267653 15264 net.cpp:122] Setting up stage3_unit1_sc
I0110 10:39:52.267663 15264 net.cpp:129] Top shape: 8 256 25 25 (1280000)
I0110 10:39:52.267666 15264 net.cpp:137] Memory required for data: 1964800096
I0110 10:39:52.267675 15264 layer_factory.hpp:77] Creating layer stage3_unit1_sc_scale
I0110 10:39:52.267683 15264 net.cpp:84] Creating Layer stage3_unit1_sc_scale
I0110 10:39:52.267686 15264 net.cpp:406] stage3_unit1_sc_scale <- stage3_unit1_sc
I0110 10:39:52.267691 15264 net.cpp:367] stage3_unit1_sc_scale -> stage3_unit1_sc (in-place)
I0110 10:39:52.267735 15264 layer_factory.hpp:77] Creating layer stage3_unit1_sc_scale
I0110 10:39:52.267838 15264 net.cpp:122] Setting up stage3_unit1_sc_scale
I0110 10:39:52.267845 15264 net.cpp:129] Top shape: 8 256 25 25 (1280000)
I0110 10:39:52.267848 15264 net.cpp:137] Memory required for data: 1969920096
I0110 10:39:52.267855 15264 layer_factory.hpp:77] Creating layer _plus4
I0110 10:39:52.267863 15264 net.cpp:84] Creating Layer _plus4
I0110 10:39:52.267868 15264 net.cpp:406] _plus4 <- stage3_unit1_bn3
I0110 10:39:52.267872 15264 net.cpp:406] _plus4 <- stage3_unit1_sc
I0110 10:39:52.267879 15264 net.cpp:380] _plus4 -> _plus4
I0110 10:39:52.267904 15264 net.cpp:122] Setting up _plus4
I0110 10:39:52.267910 15264 net.cpp:129] Top shape: 8 256 25 25 (1280000)
I0110 10:39:52.267913 15264 net.cpp:137] Memory required for data: 1975040096
I0110 10:39:52.267917 15264 layer_factory.hpp:77] Creating layer _plus4__plus4_0_split
I0110 10:39:52.267922 15264 net.cpp:84] Creating Layer _plus4__plus4_0_split
I0110 10:39:52.267926 15264 net.cpp:406] _plus4__plus4_0_split <- _plus4
I0110 10:39:52.267933 15264 net.cpp:380] _plus4__plus4_0_split -> _plus4__plus4_0_split_0
I0110 10:39:52.267942 15264 net.cpp:380] _plus4__plus4_0_split -> _plus4__plus4_0_split_1
I0110 10:39:52.267976 15264 net.cpp:122] Setting up _plus4__plus4_0_split
I0110 10:39:52.267982 15264 net.cpp:129] Top shape: 8 256 25 25 (1280000)
I0110 10:39:52.267987 15264 net.cpp:129] Top shape: 8 256 25 25 (1280000)
I0110 10:39:52.267989 15264 net.cpp:137] Memory required for data: 1985280096
I0110 10:39:52.267993 15264 layer_factory.hpp:77] Creating layer stage3_unit2_bn1
I0110 10:39:52.268003 15264 net.cpp:84] Creating Layer stage3_unit2_bn1
I0110 10:39:52.268008 15264 net.cpp:406] stage3_unit2_bn1 <- _plus4__plus4_0_split_0
I0110 10:39:52.268014 15264 net.cpp:380] stage3_unit2_bn1 -> stage3_unit2_bn1
I0110 10:39:52.268204 15264 net.cpp:122] Setting up stage3_unit2_bn1
I0110 10:39:52.268213 15264 net.cpp:129] Top shape: 8 256 25 25 (1280000)
I0110 10:39:52.268215 15264 net.cpp:137] Memory required for data: 1990400096
I0110 10:39:52.268224 15264 layer_factory.hpp:77] Creating layer stage3_unit2_bn1_scale
I0110 10:39:52.268232 15264 net.cpp:84] Creating Layer stage3_unit2_bn1_scale
I0110 10:39:52.268237 15264 net.cpp:406] stage3_unit2_bn1_scale <- stage3_unit2_bn1
I0110 10:39:52.268242 15264 net.cpp:367] stage3_unit2_bn1_scale -> stage3_unit2_bn1 (in-place)
I0110 10:39:52.268282 15264 layer_factory.hpp:77] Creating layer stage3_unit2_bn1_scale
I0110 10:39:52.268391 15264 net.cpp:122] Setting up stage3_unit2_bn1_scale
I0110 10:39:52.268399 15264 net.cpp:129] Top shape: 8 256 25 25 (1280000)
I0110 10:39:52.268402 15264 net.cpp:137] Memory required for data: 1995520096
I0110 10:39:52.268409 15264 layer_factory.hpp:77] Creating layer stage3_unit2_conv1
I0110 10:39:52.268419 15264 net.cpp:84] Creating Layer stage3_unit2_conv1
I0110 10:39:52.268424 15264 net.cpp:406] stage3_unit2_conv1 <- stage3_unit2_bn1
I0110 10:39:52.268431 15264 net.cpp:380] stage3_unit2_conv1 -> stage3_unit2_conv1
I0110 10:39:52.276510 15264 net.cpp:122] Setting up stage3_unit2_conv1
I0110 10:39:52.276525 15264 net.cpp:129] Top shape: 8 256 25 25 (1280000)
I0110 10:39:52.276527 15264 net.cpp:137] Memory required for data: 2000640096
I0110 10:39:52.276535 15264 layer_factory.hpp:77] Creating layer stage3_unit2_bn2
I0110 10:39:52.276543 15264 net.cpp:84] Creating Layer stage3_unit2_bn2
I0110 10:39:52.276548 15264 net.cpp:406] stage3_unit2_bn2 <- stage3_unit2_conv1
I0110 10:39:52.276556 15264 net.cpp:380] stage3_unit2_bn2 -> stage3_unit2_bn2
I0110 10:39:52.276768 15264 net.cpp:122] Setting up stage3_unit2_bn2
I0110 10:39:52.276777 15264 net.cpp:129] Top shape: 8 256 25 25 (1280000)
I0110 10:39:52.276780 15264 net.cpp:137] Memory required for data: 2005760096
I0110 10:39:52.276788 15264 layer_factory.hpp:77] Creating layer stage3_unit2_bn2_scale
I0110 10:39:52.276795 15264 net.cpp:84] Creating Layer stage3_unit2_bn2_scale
I0110 10:39:52.276801 15264 net.cpp:406] stage3_unit2_bn2_scale <- stage3_unit2_bn2
I0110 10:39:52.276808 15264 net.cpp:367] stage3_unit2_bn2_scale -> stage3_unit2_bn2 (in-place)
I0110 10:39:52.276849 15264 layer_factory.hpp:77] Creating layer stage3_unit2_bn2_scale
I0110 10:39:52.276958 15264 net.cpp:122] Setting up stage3_unit2_bn2_scale
I0110 10:39:52.276968 15264 net.cpp:129] Top shape: 8 256 25 25 (1280000)
I0110 10:39:52.276970 15264 net.cpp:137] Memory required for data: 2010880096
I0110 10:39:52.276976 15264 layer_factory.hpp:77] Creating layer stage3_unit2_relu1
I0110 10:39:52.276984 15264 net.cpp:84] Creating Layer stage3_unit2_relu1
I0110 10:39:52.276989 15264 net.cpp:406] stage3_unit2_relu1 <- stage3_unit2_bn2
I0110 10:39:52.276994 15264 net.cpp:380] stage3_unit2_relu1 -> stage3_unit2_relu1
I0110 10:39:52.277340 15264 net.cpp:122] Setting up stage3_unit2_relu1
I0110 10:39:52.277356 15264 net.cpp:129] Top shape: 8 256 25 25 (1280000)
I0110 10:39:52.277361 15264 net.cpp:137] Memory required for data: 2016000096
I0110 10:39:52.277366 15264 layer_factory.hpp:77] Creating layer stage3_unit2_conv2
I0110 10:39:52.277377 15264 net.cpp:84] Creating Layer stage3_unit2_conv2
I0110 10:39:52.277384 15264 net.cpp:406] stage3_unit2_conv2 <- stage3_unit2_relu1
I0110 10:39:52.277390 15264 net.cpp:380] stage3_unit2_conv2 -> stage3_unit2_conv2
I0110 10:39:52.285459 15264 net.cpp:122] Setting up stage3_unit2_conv2
I0110 10:39:52.285476 15264 net.cpp:129] Top shape: 8 256 25 25 (1280000)
I0110 10:39:52.285481 15264 net.cpp:137] Memory required for data: 2021120096
I0110 10:39:52.285490 15264 layer_factory.hpp:77] Creating layer stage3_unit2_bn3
I0110 10:39:52.285497 15264 net.cpp:84] Creating Layer stage3_unit2_bn3
I0110 10:39:52.285503 15264 net.cpp:406] stage3_unit2_bn3 <- stage3_unit2_conv2
I0110 10:39:52.285509 15264 net.cpp:380] stage3_unit2_bn3 -> stage3_unit2_bn3
I0110 10:39:52.285725 15264 net.cpp:122] Setting up stage3_unit2_bn3
I0110 10:39:52.285733 15264 net.cpp:129] Top shape: 8 256 25 25 (1280000)
I0110 10:39:52.285737 15264 net.cpp:137] Memory required for data: 2026240096
I0110 10:39:52.285744 15264 layer_factory.hpp:77] Creating layer stage3_unit2_bn3_scale
I0110 10:39:52.285754 15264 net.cpp:84] Creating Layer stage3_unit2_bn3_scale
I0110 10:39:52.285759 15264 net.cpp:406] stage3_unit2_bn3_scale <- stage3_unit2_bn3
I0110 10:39:52.285764 15264 net.cpp:367] stage3_unit2_bn3_scale -> stage3_unit2_bn3 (in-place)
I0110 10:39:52.285804 15264 layer_factory.hpp:77] Creating layer stage3_unit2_bn3_scale
I0110 10:39:52.285917 15264 net.cpp:122] Setting up stage3_unit2_bn3_scale
I0110 10:39:52.285924 15264 net.cpp:129] Top shape: 8 256 25 25 (1280000)
I0110 10:39:52.285928 15264 net.cpp:137] Memory required for data: 2031360096
I0110 10:39:52.285934 15264 layer_factory.hpp:77] Creating layer _plus5
I0110 10:39:52.285941 15264 net.cpp:84] Creating Layer _plus5
I0110 10:39:52.285945 15264 net.cpp:406] _plus5 <- stage3_unit2_bn3
I0110 10:39:52.285949 15264 net.cpp:406] _plus5 <- _plus4__plus4_0_split_1
I0110 10:39:52.285957 15264 net.cpp:380] _plus5 -> _plus5
I0110 10:39:52.285984 15264 net.cpp:122] Setting up _plus5
I0110 10:39:52.285990 15264 net.cpp:129] Top shape: 8 256 25 25 (1280000)
I0110 10:39:52.285993 15264 net.cpp:137] Memory required for data: 2036480096
I0110 10:39:52.285996 15264 layer_factory.hpp:77] Creating layer _plus5__plus5_0_split
I0110 10:39:52.286003 15264 net.cpp:84] Creating Layer _plus5__plus5_0_split
I0110 10:39:52.286006 15264 net.cpp:406] _plus5__plus5_0_split <- _plus5
I0110 10:39:52.286013 15264 net.cpp:380] _plus5__plus5_0_split -> _plus5__plus5_0_split_0
I0110 10:39:52.286020 15264 net.cpp:380] _plus5__plus5_0_split -> _plus5__plus5_0_split_1
I0110 10:39:52.286054 15264 net.cpp:122] Setting up _plus5__plus5_0_split
I0110 10:39:52.286062 15264 net.cpp:129] Top shape: 8 256 25 25 (1280000)
I0110 10:39:52.286065 15264 net.cpp:129] Top shape: 8 256 25 25 (1280000)
I0110 10:39:52.286069 15264 net.cpp:137] Memory required for data: 2046720096
I0110 10:39:52.286073 15264 layer_factory.hpp:77] Creating layer stage4_unit1_bn1
I0110 10:39:52.286080 15264 net.cpp:84] Creating Layer stage4_unit1_bn1
I0110 10:39:52.286084 15264 net.cpp:406] stage4_unit1_bn1 <- _plus5__plus5_0_split_0
I0110 10:39:52.286089 15264 net.cpp:380] stage4_unit1_bn1 -> stage4_unit1_bn1
I0110 10:39:52.286284 15264 net.cpp:122] Setting up stage4_unit1_bn1
I0110 10:39:52.286291 15264 net.cpp:129] Top shape: 8 256 25 25 (1280000)
I0110 10:39:52.286295 15264 net.cpp:137] Memory required for data: 2051840096
I0110 10:39:52.286315 15264 layer_factory.hpp:77] Creating layer stage4_unit1_bn1_scale
I0110 10:39:52.286324 15264 net.cpp:84] Creating Layer stage4_unit1_bn1_scale
I0110 10:39:52.286329 15264 net.cpp:406] stage4_unit1_bn1_scale <- stage4_unit1_bn1
I0110 10:39:52.286335 15264 net.cpp:367] stage4_unit1_bn1_scale -> stage4_unit1_bn1 (in-place)
I0110 10:39:52.286375 15264 layer_factory.hpp:77] Creating layer stage4_unit1_bn1_scale
I0110 10:39:52.286485 15264 net.cpp:122] Setting up stage4_unit1_bn1_scale
I0110 10:39:52.286494 15264 net.cpp:129] Top shape: 8 256 25 25 (1280000)
I0110 10:39:52.286497 15264 net.cpp:137] Memory required for data: 2056960096
I0110 10:39:52.286504 15264 layer_factory.hpp:77] Creating layer stage4_unit1_conv1
I0110 10:39:52.286515 15264 net.cpp:84] Creating Layer stage4_unit1_conv1
I0110 10:39:52.286520 15264 net.cpp:406] stage4_unit1_conv1 <- stage4_unit1_bn1
I0110 10:39:52.286528 15264 net.cpp:380] stage4_unit1_conv1 -> stage4_unit1_conv1
I0110 10:39:52.302373 15264 net.cpp:122] Setting up stage4_unit1_conv1
I0110 10:39:52.302412 15264 net.cpp:129] Top shape: 8 512 25 25 (2560000)
I0110 10:39:52.302417 15264 net.cpp:137] Memory required for data: 2067200096
I0110 10:39:52.302428 15264 layer_factory.hpp:77] Creating layer stage4_unit1_bn2
I0110 10:39:52.302441 15264 net.cpp:84] Creating Layer stage4_unit1_bn2
I0110 10:39:52.302448 15264 net.cpp:406] stage4_unit1_bn2 <- stage4_unit1_conv1
I0110 10:39:52.302457 15264 net.cpp:380] stage4_unit1_bn2 -> stage4_unit1_bn2
I0110 10:39:52.302687 15264 net.cpp:122] Setting up stage4_unit1_bn2
I0110 10:39:52.302695 15264 net.cpp:129] Top shape: 8 512 25 25 (2560000)
I0110 10:39:52.302700 15264 net.cpp:137] Memory required for data: 2077440096
I0110 10:39:52.302707 15264 layer_factory.hpp:77] Creating layer stage4_unit1_bn2_scale
I0110 10:39:52.302717 15264 net.cpp:84] Creating Layer stage4_unit1_bn2_scale
I0110 10:39:52.302722 15264 net.cpp:406] stage4_unit1_bn2_scale <- stage4_unit1_bn2
I0110 10:39:52.302727 15264 net.cpp:367] stage4_unit1_bn2_scale -> stage4_unit1_bn2 (in-place)
I0110 10:39:52.302776 15264 layer_factory.hpp:77] Creating layer stage4_unit1_bn2_scale
I0110 10:39:52.302896 15264 net.cpp:122] Setting up stage4_unit1_bn2_scale
I0110 10:39:52.302903 15264 net.cpp:129] Top shape: 8 512 25 25 (2560000)
I0110 10:39:52.302907 15264 net.cpp:137] Memory required for data: 2087680096
I0110 10:39:52.302914 15264 layer_factory.hpp:77] Creating layer stage4_unit1_relu1
I0110 10:39:52.302920 15264 net.cpp:84] Creating Layer stage4_unit1_relu1
I0110 10:39:52.302923 15264 net.cpp:406] stage4_unit1_relu1 <- stage4_unit1_bn2
I0110 10:39:52.302932 15264 net.cpp:380] stage4_unit1_relu1 -> stage4_unit1_relu1
I0110 10:39:52.303086 15264 net.cpp:122] Setting up stage4_unit1_relu1
I0110 10:39:52.303097 15264 net.cpp:129] Top shape: 8 512 25 25 (2560000)
I0110 10:39:52.303100 15264 net.cpp:137] Memory required for data: 2097920096
I0110 10:39:52.303104 15264 layer_factory.hpp:77] Creating layer stage4_unit1_conv2
I0110 10:39:52.303114 15264 net.cpp:84] Creating Layer stage4_unit1_conv2
I0110 10:39:52.303119 15264 net.cpp:406] stage4_unit1_conv2 <- stage4_unit1_relu1
I0110 10:39:52.303126 15264 net.cpp:380] stage4_unit1_conv2 -> stage4_unit1_conv2
I0110 10:39:52.334259 15264 net.cpp:122] Setting up stage4_unit1_conv2
I0110 10:39:52.334276 15264 net.cpp:129] Top shape: 8 512 13 13 (692224)
I0110 10:39:52.334280 15264 net.cpp:137] Memory required for data: 2100688992
I0110 10:39:52.334287 15264 layer_factory.hpp:77] Creating layer stage4_unit1_bn3
I0110 10:39:52.334297 15264 net.cpp:84] Creating Layer stage4_unit1_bn3
I0110 10:39:52.334302 15264 net.cpp:406] stage4_unit1_bn3 <- stage4_unit1_conv2
I0110 10:39:52.334309 15264 net.cpp:380] stage4_unit1_bn3 -> stage4_unit1_bn3
I0110 10:39:52.334530 15264 net.cpp:122] Setting up stage4_unit1_bn3
I0110 10:39:52.334539 15264 net.cpp:129] Top shape: 8 512 13 13 (692224)
I0110 10:39:52.334542 15264 net.cpp:137] Memory required for data: 2103457888
I0110 10:39:52.334550 15264 layer_factory.hpp:77] Creating layer stage4_unit1_bn3_scale
I0110 10:39:52.334560 15264 net.cpp:84] Creating Layer stage4_unit1_bn3_scale
I0110 10:39:52.334565 15264 net.cpp:406] stage4_unit1_bn3_scale <- stage4_unit1_bn3
I0110 10:39:52.334570 15264 net.cpp:367] stage4_unit1_bn3_scale -> stage4_unit1_bn3 (in-place)
I0110 10:39:52.334612 15264 layer_factory.hpp:77] Creating layer stage4_unit1_bn3_scale
I0110 10:39:52.334722 15264 net.cpp:122] Setting up stage4_unit1_bn3_scale
I0110 10:39:52.334730 15264 net.cpp:129] Top shape: 8 512 13 13 (692224)
I0110 10:39:52.334734 15264 net.cpp:137] Memory required for data: 2106226784
I0110 10:39:52.334740 15264 layer_factory.hpp:77] Creating layer stage4_unit1_conv1sc
I0110 10:39:52.334750 15264 net.cpp:84] Creating Layer stage4_unit1_conv1sc
I0110 10:39:52.334756 15264 net.cpp:406] stage4_unit1_conv1sc <- _plus5__plus5_0_split_1
I0110 10:39:52.334762 15264 net.cpp:380] stage4_unit1_conv1sc -> stage4_unit1_conv1sc
I0110 10:39:52.336542 15264 net.cpp:122] Setting up stage4_unit1_conv1sc
I0110 10:39:52.336553 15264 net.cpp:129] Top shape: 8 512 13 13 (692224)
I0110 10:39:52.336557 15264 net.cpp:137] Memory required for data: 2108995680
I0110 10:39:52.336562 15264 layer_factory.hpp:77] Creating layer stage4_unit1_sc
I0110 10:39:52.336568 15264 net.cpp:84] Creating Layer stage4_unit1_sc
I0110 10:39:52.336572 15264 net.cpp:406] stage4_unit1_sc <- stage4_unit1_conv1sc
I0110 10:39:52.336582 15264 net.cpp:380] stage4_unit1_sc -> stage4_unit1_sc
I0110 10:39:52.336788 15264 net.cpp:122] Setting up stage4_unit1_sc
I0110 10:39:52.336796 15264 net.cpp:129] Top shape: 8 512 13 13 (692224)
I0110 10:39:52.336799 15264 net.cpp:137] Memory required for data: 2111764576
I0110 10:39:52.336807 15264 layer_factory.hpp:77] Creating layer stage4_unit1_sc_scale
I0110 10:39:52.336814 15264 net.cpp:84] Creating Layer stage4_unit1_sc_scale
I0110 10:39:52.336818 15264 net.cpp:406] stage4_unit1_sc_scale <- stage4_unit1_sc
I0110 10:39:52.336825 15264 net.cpp:367] stage4_unit1_sc_scale -> stage4_unit1_sc (in-place)
I0110 10:39:52.336865 15264 layer_factory.hpp:77] Creating layer stage4_unit1_sc_scale
I0110 10:39:52.336967 15264 net.cpp:122] Setting up stage4_unit1_sc_scale
I0110 10:39:52.336975 15264 net.cpp:129] Top shape: 8 512 13 13 (692224)
I0110 10:39:52.336978 15264 net.cpp:137] Memory required for data: 2114533472
I0110 10:39:52.336985 15264 layer_factory.hpp:77] Creating layer _plus6
I0110 10:39:52.336993 15264 net.cpp:84] Creating Layer _plus6
I0110 10:39:52.336998 15264 net.cpp:406] _plus6 <- stage4_unit1_bn3
I0110 10:39:52.337002 15264 net.cpp:406] _plus6 <- stage4_unit1_sc
I0110 10:39:52.337008 15264 net.cpp:380] _plus6 -> _plus6
I0110 10:39:52.337034 15264 net.cpp:122] Setting up _plus6
I0110 10:39:52.337041 15264 net.cpp:129] Top shape: 8 512 13 13 (692224)
I0110 10:39:52.337044 15264 net.cpp:137] Memory required for data: 2117302368
I0110 10:39:52.337049 15264 layer_factory.hpp:77] Creating layer _plus6__plus6_0_split
I0110 10:39:52.337054 15264 net.cpp:84] Creating Layer _plus6__plus6_0_split
I0110 10:39:52.337059 15264 net.cpp:406] _plus6__plus6_0_split <- _plus6
I0110 10:39:52.337065 15264 net.cpp:380] _plus6__plus6_0_split -> _plus6__plus6_0_split_0
I0110 10:39:52.337074 15264 net.cpp:380] _plus6__plus6_0_split -> _plus6__plus6_0_split_1
I0110 10:39:52.337110 15264 net.cpp:122] Setting up _plus6__plus6_0_split
I0110 10:39:52.337116 15264 net.cpp:129] Top shape: 8 512 13 13 (692224)
I0110 10:39:52.337121 15264 net.cpp:129] Top shape: 8 512 13 13 (692224)
I0110 10:39:52.337124 15264 net.cpp:137] Memory required for data: 2122840160
I0110 10:39:52.337127 15264 layer_factory.hpp:77] Creating layer stage4_unit2_bn1
I0110 10:39:52.337133 15264 net.cpp:84] Creating Layer stage4_unit2_bn1
I0110 10:39:52.337137 15264 net.cpp:406] stage4_unit2_bn1 <- _plus6__plus6_0_split_0
I0110 10:39:52.337144 15264 net.cpp:380] stage4_unit2_bn1 -> stage4_unit2_bn1
I0110 10:39:52.337335 15264 net.cpp:122] Setting up stage4_unit2_bn1
I0110 10:39:52.337343 15264 net.cpp:129] Top shape: 8 512 13 13 (692224)
I0110 10:39:52.337347 15264 net.cpp:137] Memory required for data: 2125609056
I0110 10:39:52.337355 15264 layer_factory.hpp:77] Creating layer stage4_unit2_bn1_scale
I0110 10:39:52.337363 15264 net.cpp:84] Creating Layer stage4_unit2_bn1_scale
I0110 10:39:52.337366 15264 net.cpp:406] stage4_unit2_bn1_scale <- stage4_unit2_bn1
I0110 10:39:52.337375 15264 net.cpp:367] stage4_unit2_bn1_scale -> stage4_unit2_bn1 (in-place)
I0110 10:39:52.337415 15264 layer_factory.hpp:77] Creating layer stage4_unit2_bn1_scale
I0110 10:39:52.337522 15264 net.cpp:122] Setting up stage4_unit2_bn1_scale
I0110 10:39:52.337529 15264 net.cpp:129] Top shape: 8 512 13 13 (692224)
I0110 10:39:52.337533 15264 net.cpp:137] Memory required for data: 2128377952
I0110 10:39:52.337539 15264 layer_factory.hpp:77] Creating layer stage4_unit2_conv1
I0110 10:39:52.337553 15264 net.cpp:84] Creating Layer stage4_unit2_conv1
I0110 10:39:52.337556 15264 net.cpp:406] stage4_unit2_conv1 <- stage4_unit2_bn1
I0110 10:39:52.337565 15264 net.cpp:380] stage4_unit2_conv1 -> stage4_unit2_conv1
I0110 10:39:52.368937 15264 net.cpp:122] Setting up stage4_unit2_conv1
I0110 10:39:52.368973 15264 net.cpp:129] Top shape: 8 512 13 13 (692224)
I0110 10:39:52.368978 15264 net.cpp:137] Memory required for data: 2131146848
I0110 10:39:52.368988 15264 layer_factory.hpp:77] Creating layer stage4_unit2_bn2
I0110 10:39:52.368999 15264 net.cpp:84] Creating Layer stage4_unit2_bn2
I0110 10:39:52.369005 15264 net.cpp:406] stage4_unit2_bn2 <- stage4_unit2_conv1
I0110 10:39:52.369014 15264 net.cpp:380] stage4_unit2_bn2 -> stage4_unit2_bn2
I0110 10:39:52.369237 15264 net.cpp:122] Setting up stage4_unit2_bn2
I0110 10:39:52.369246 15264 net.cpp:129] Top shape: 8 512 13 13 (692224)
I0110 10:39:52.369248 15264 net.cpp:137] Memory required for data: 2133915744
I0110 10:39:52.369257 15264 layer_factory.hpp:77] Creating layer stage4_unit2_bn2_scale
I0110 10:39:52.369266 15264 net.cpp:84] Creating Layer stage4_unit2_bn2_scale
I0110 10:39:52.369269 15264 net.cpp:406] stage4_unit2_bn2_scale <- stage4_unit2_bn2
I0110 10:39:52.369274 15264 net.cpp:367] stage4_unit2_bn2_scale -> stage4_unit2_bn2 (in-place)
I0110 10:39:52.369319 15264 layer_factory.hpp:77] Creating layer stage4_unit2_bn2_scale
I0110 10:39:52.369427 15264 net.cpp:122] Setting up stage4_unit2_bn2_scale
I0110 10:39:52.369436 15264 net.cpp:129] Top shape: 8 512 13 13 (692224)
I0110 10:39:52.369438 15264 net.cpp:137] Memory required for data: 2136684640
I0110 10:39:52.369446 15264 layer_factory.hpp:77] Creating layer stage4_unit2_relu1
I0110 10:39:52.369453 15264 net.cpp:84] Creating Layer stage4_unit2_relu1
I0110 10:39:52.369457 15264 net.cpp:406] stage4_unit2_relu1 <- stage4_unit2_bn2
I0110 10:39:52.369462 15264 net.cpp:380] stage4_unit2_relu1 -> stage4_unit2_relu1
I0110 10:39:52.369885 15264 net.cpp:122] Setting up stage4_unit2_relu1
I0110 10:39:52.369900 15264 net.cpp:129] Top shape: 8 512 13 13 (692224)
I0110 10:39:52.369904 15264 net.cpp:137] Memory required for data: 2139453536
I0110 10:39:52.369910 15264 layer_factory.hpp:77] Creating layer stage4_unit2_conv2
I0110 10:39:52.369925 15264 net.cpp:84] Creating Layer stage4_unit2_conv2
I0110 10:39:52.369930 15264 net.cpp:406] stage4_unit2_conv2 <- stage4_unit2_relu1
I0110 10:39:52.369936 15264 net.cpp:380] stage4_unit2_conv2 -> stage4_unit2_conv2
I0110 10:39:52.403328 15264 net.cpp:122] Setting up stage4_unit2_conv2
I0110 10:39:52.403373 15264 net.cpp:129] Top shape: 8 512 13 13 (692224)
I0110 10:39:52.403376 15264 net.cpp:137] Memory required for data: 2142222432
I0110 10:39:52.403390 15264 layer_factory.hpp:77] Creating layer stage4_unit2_bn3
I0110 10:39:52.403407 15264 net.cpp:84] Creating Layer stage4_unit2_bn3
I0110 10:39:52.403414 15264 net.cpp:406] stage4_unit2_bn3 <- stage4_unit2_conv2
I0110 10:39:52.403424 15264 net.cpp:380] stage4_unit2_bn3 -> stage4_unit2_bn3
I0110 10:39:52.403700 15264 net.cpp:122] Setting up stage4_unit2_bn3
I0110 10:39:52.403709 15264 net.cpp:129] Top shape: 8 512 13 13 (692224)
I0110 10:39:52.403713 15264 net.cpp:137] Memory required for data: 2144991328
I0110 10:39:52.403721 15264 layer_factory.hpp:77] Creating layer stage4_unit2_bn3_scale
I0110 10:39:52.403734 15264 net.cpp:84] Creating Layer stage4_unit2_bn3_scale
I0110 10:39:52.403740 15264 net.cpp:406] stage4_unit2_bn3_scale <- stage4_unit2_bn3
I0110 10:39:52.403745 15264 net.cpp:367] stage4_unit2_bn3_scale -> stage4_unit2_bn3 (in-place)
I0110 10:39:52.403793 15264 layer_factory.hpp:77] Creating layer stage4_unit2_bn3_scale
I0110 10:39:52.403906 15264 net.cpp:122] Setting up stage4_unit2_bn3_scale
I0110 10:39:52.403913 15264 net.cpp:129] Top shape: 8 512 13 13 (692224)
I0110 10:39:52.403918 15264 net.cpp:137] Memory required for data: 2147760224
I0110 10:39:52.403924 15264 layer_factory.hpp:77] Creating layer _plus7
I0110 10:39:52.403932 15264 net.cpp:84] Creating Layer _plus7
I0110 10:39:52.403937 15264 net.cpp:406] _plus7 <- stage4_unit2_bn3
I0110 10:39:52.403942 15264 net.cpp:406] _plus7 <- _plus6__plus6_0_split_1
I0110 10:39:52.403949 15264 net.cpp:380] _plus7 -> _plus7
I0110 10:39:52.403975 15264 net.cpp:122] Setting up _plus7
I0110 10:39:52.403981 15264 net.cpp:129] Top shape: 8 512 13 13 (692224)
I0110 10:39:52.403985 15264 net.cpp:137] Memory required for data: 2150529120
I0110 10:39:52.403988 15264 layer_factory.hpp:77] Creating layer bn1
I0110 10:39:52.403995 15264 net.cpp:84] Creating Layer bn1
I0110 10:39:52.404000 15264 net.cpp:406] bn1 <- _plus7
I0110 10:39:52.404006 15264 net.cpp:380] bn1 -> bn1
I0110 10:39:52.404193 15264 net.cpp:122] Setting up bn1
I0110 10:39:52.404201 15264 net.cpp:129] Top shape: 8 512 13 13 (692224)
I0110 10:39:52.404204 15264 net.cpp:137] Memory required for data: 2153298016
I0110 10:39:52.404212 15264 layer_factory.hpp:77] Creating layer bn1_scale
I0110 10:39:52.404218 15264 net.cpp:84] Creating Layer bn1_scale
I0110 10:39:52.404223 15264 net.cpp:406] bn1_scale <- bn1
I0110 10:39:52.404227 15264 net.cpp:367] bn1_scale -> bn1 (in-place)
I0110 10:39:52.404268 15264 layer_factory.hpp:77] Creating layer bn1_scale
I0110 10:39:52.404372 15264 net.cpp:122] Setting up bn1_scale
I0110 10:39:52.404381 15264 net.cpp:129] Top shape: 8 512 13 13 (692224)
I0110 10:39:52.404383 15264 net.cpp:137] Memory required for data: 2156066912
I0110 10:39:52.404389 15264 layer_factory.hpp:77] Creating layer fc8
I0110 10:39:52.404402 15264 net.cpp:84] Creating Layer fc8
I0110 10:39:52.404407 15264 net.cpp:406] fc8 <- bn1
I0110 10:39:52.404415 15264 net.cpp:380] fc8 -> fc8
I0110 10:39:52.407829 15264 net.cpp:122] Setting up fc8
I0110 10:39:52.407842 15264 net.cpp:129] Top shape: 8 2 (16)
I0110 10:39:52.407846 15264 net.cpp:137] Memory required for data: 2156066976
I0110 10:39:52.407855 15264 layer_factory.hpp:77] Creating layer fc8_fc8_0_split
I0110 10:39:52.407862 15264 net.cpp:84] Creating Layer fc8_fc8_0_split
I0110 10:39:52.407867 15264 net.cpp:406] fc8_fc8_0_split <- fc8
I0110 10:39:52.407876 15264 net.cpp:380] fc8_fc8_0_split -> fc8_fc8_0_split_0
I0110 10:39:52.407884 15264 net.cpp:380] fc8_fc8_0_split -> fc8_fc8_0_split_1
I0110 10:39:52.407927 15264 net.cpp:122] Setting up fc8_fc8_0_split
I0110 10:39:52.407933 15264 net.cpp:129] Top shape: 8 2 (16)
I0110 10:39:52.407938 15264 net.cpp:129] Top shape: 8 2 (16)
I0110 10:39:52.407940 15264 net.cpp:137] Memory required for data: 2156067104
I0110 10:39:52.407944 15264 layer_factory.hpp:77] Creating layer accuracy
I0110 10:39:52.407950 15264 net.cpp:84] Creating Layer accuracy
I0110 10:39:52.407954 15264 net.cpp:406] accuracy <- fc8_fc8_0_split_0
I0110 10:39:52.407958 15264 net.cpp:406] accuracy <- label_data_1_split_0
I0110 10:39:52.407968 15264 net.cpp:380] accuracy -> accuracy
…
