…
I0110 15:06:13.239738 17384 net.cpp:294] The NetState phase (0) differed from the phase (1) specified by a rule in layer accuracy
I0110 15:06:13.241026 17384 net.cpp:51] Initializing net from parameters: 
name: "r18"
state {
  phase: TRAIN
  level: 0
  stage: ""
}
layer {
  name: "data"
  type: "Data"
  top: "data"
  top: "label"
  include {
    phase: TRAIN
  }
  transform_param {
    scale: 0.0078125
    mirror: true
    mean_value: 127
  }
  data_param {
    source: "/home/lc/gender/school/data_3/train.lmdb"
    batch_size: 8
    backend: LMDB
  }
}
layer {
  name: "conv0"
  type: "Convolution"
  bottom: "data"
  top: "conv0"
  param {
    lr_mult: 1
    decay_mult: 1
  }
  convolution_param {
    num_output: 64
    bias_term: false
    pad: 1
    kernel_size: 3
    stride: 1
    weight_filler {
      type: "gaussian"
      std: 0.01
    }
    engine: CAFFE
  }
}
layer {
  name: "bn0"
  type: "BatchNorm"
  bottom: "conv0"
  top: "bn0"
  batch_norm_param {
    use_global_stats: false
    moving_average_fraction: 0.9
    eps: 2e-05
  }
}
layer {
  name: "bn0_scale"
  type: "Scale"
  bottom: "bn0"
  top: "bn0"
  scale_param {
    bias_term: true
  }
}
layer {
  name: "relu0"
  type: "ReLU"
  bottom: "bn0"
  top: "relu0"
}
layer {
  name: "stage1_unit1_bn1"
  type: "BatchNorm"
  bottom: "relu0"
  top: "stage1_unit1_bn1"
  batch_norm_param {
    use_global_stats: false
    moving_average_fraction: 0.9
    eps: 2e-05
  }
}
layer {
  name: "stage1_unit1_bn1_scale"
  type: "Scale"
  bottom: "stage1_unit1_bn1"
  top: "stage1_unit1_bn1"
  scale_param {
    bias_term: true
  }
}
layer {
  name: "stage1_unit1_conv1"
  type: "Convolution"
  bottom: "stage1_unit1_bn1"
  top: "stage1_unit1_conv1"
  param {
    lr_mult: 1
    decay_mult: 1
  }
  convolution_param {
    num_output: 64
    bias_term: false
    pad: 1
    kernel_size: 3
    stride: 1
    weight_filler {
      type: "gaussian"
      std: 0.01
    }
    engine: CAFFE
  }
}
layer {
  name: "stage1_unit1_bn2"
  type: "BatchNorm"
  bottom: "stage1_unit1_conv1"
  top: "stage1_unit1_bn2"
  batch_norm_param {
    use_global_stats: false
    moving_average_fraction: 0.9
    eps: 2e-05
  }
}
layer {
  name: "stage1_unit1_bn2_scale"
  type: "Scale"
  bottom: "stage1_unit1_bn2"
  top: "stage1_unit1_bn2"
  scale_param {
    bias_term: true
  }
}
layer {
  name: "stage1_unit1_relu1"
  type: "ReLU"
  bottom: "stage1_unit1_bn2"
  top: "stage1_unit1_relu1"
}
layer {
  name: "stage1_unit1_conv2"
  type: "Convolution"
  bottom: "stage1_unit1_relu1"
  top: "stage1_unit1_conv2"
  param {
    lr_mult: 1
    decay_mult: 1
  }
  convolution_param {
    num_output: 64
    bias_term: false
    pad: 1
    kernel_size: 3
    stride: 2
    weight_filler {
      type: "gaussian"
      std: 0.01
    }
    engine: CAFFE
  }
}
layer {
  name: "stage1_unit1_bn3"
  type: "BatchNorm"
  bottom: "stage1_unit1_conv2"
  top: "stage1_unit1_bn3"
  batch_norm_param {
    use_global_stats: false
    moving_average_fraction: 0.9
    eps: 2e-05
  }
}
layer {
  name: "stage1_unit1_bn3_scale"
  type: "Scale"
  bottom: "stage1_unit1_bn3"
  top: "stage1_unit1_bn3"
  scale_param {
    bias_term: true
  }
}
layer {
  name: "stage1_unit1_conv1sc"
  type: "Convolution"
  bottom: "relu0"
  top: "stage1_unit1_conv1sc"
  param {
    lr_mult: 1
    decay_mult: 1
  }
  convolution_param {
    num_output: 64
    bias_term: false
    kernel_size: 1
    stride: 2
    weight_filler {
      type: "gaussian"
      std: 0.01
    }
    engine: CAFFE
  }
}
layer {
  name: "stage1_unit1_sc"
  type: "BatchNorm"
  bottom: "stage1_unit1_conv1sc"
  top: "stage1_unit1_sc"
  batch_norm_param {
    use_global_stats: false
    moving_average_fraction: 0.9
    eps: 2e-05
  }
}
layer {
  name: "stage1_unit1_sc_scale"
  type: "Scale"
  bottom: "stage1_unit1_sc"
  top: "stage1_unit1_sc"
  scale_param {
    bias_term: true
  }
}
layer {
  name: "_plus0"
  type: "Eltwise"
  bottom: "stage1_unit1_bn3"
  bottom: "stage1_unit1_sc"
  top: "_plus0"
  eltwise_param {
    operation: SUM
  }
}
layer {
  name: "stage1_unit2_bn1"
  type: "BatchNorm"
  bottom: "_plus0"
  top: "stage1_unit2_bn1"
  batch_norm_param {
    use_global_stats: false
    moving_average_fraction: 0.9
    eps: 2e-05
  }
}
layer {
  name: "stage1_unit2_bn1_scale"
  type: "Scale"
  bottom: "stage1_unit2_bn1"
  top: "stage1_unit2_bn1"
  scale_param {
    bias_term: true
  }
}
layer {
  name: "stage1_unit2_conv1"
  type: "Convolution"
  bottom: "stage1_unit2_bn1"
  top: "stage1_unit2_conv1"
  param {
    lr_mult: 1
    decay_mult: 1
  }
  convolution_param {
    num_output: 64
    bias_term: false
    pad: 1
    kernel_size: 3
    stride: 1
    weight_filler {
      type: "gaussian"
      std: 0.01
    }
    engine: CAFFE
  }
}
layer {
  name: "stage1_unit2_bn2"
  type: "BatchNorm"
  bottom: "stage1_unit2_conv1"
  top: "stage1_unit2_bn2"
  batch_norm_param {
    use_global_stats: false
    moving_average_fraction: 0.9
    eps: 2e-05
  }
}
layer {
  name: "stage1_unit2_bn2_scale"
  type: "Scale"
  bottom: "stage1_unit2_bn2"
  top: "stage1_unit2_bn2"
  scale_param {
    bias_term: true
  }
}
layer {
  name: "stage1_unit2_relu1"
  type: "ReLU"
  bottom: "stage1_unit2_bn2"
  top: "stage1_unit2_relu1"
}
layer {
  name: "stage1_unit2_conv2"
  type: "Convolution"
  bottom: "stage1_unit2_relu1"
  top: "stage1_unit2_conv2"
  param {
    lr_mult: 1
    decay_mult: 1
  }
  convolution_param {
    num_output: 64
    bias_term: false
    pad: 1
    kernel_size: 3
    stride: 1
    weight_filler {
      type: "gaussian"
      std: 0.01
    }
    engine: CAFFE
  }
}
layer {
  name: "stage1_unit2_bn3"
  type: "BatchNorm"
  bottom: "stage1_unit2_conv2"
  top: "stage1_unit2_bn3"
  batch_norm_param {
    use_global_stats: false
    moving_average_fraction: 0.9
    eps: 2e-05
  }
}
layer {
  name: "stage1_unit2_bn3_scale"
  type: "Scale"
  bottom: "stage1_unit2_bn3"
  top: "stage1_unit2_bn3"
  scale_param {
    bias_term: true
  }
}
layer {
  name: "_plus1"
  type: "Eltwise"
  bottom: "stage1_unit2_bn3"
  bottom: "_plus0"
  top: "_plus1"
  eltwise_param {
    operation: SUM
  }
}
layer {
  name: "stage2_unit1_bn1"
  type: "BatchNorm"
  bottom: "_plus1"
  top: "stage2_unit1_bn1"
  batch_norm_param {
    use_global_stats: false
    moving_average_fraction: 0.9
    eps: 2e-05
  }
}
layer {
  name: "stage2_unit1_bn1_scale"
  type: "Scale"
  bottom: "stage2_unit1_bn1"
  top: "stage2_unit1_bn1"
  scale_param {
    bias_term: true
  }
}
layer {
  name: "stage2_unit1_conv1"
  type: "Convolution"
  bottom: "stage2_unit1_bn1"
  top: "stage2_unit1_conv1"
  param {
    lr_mult: 1
    decay_mult: 1
  }
  convolution_param {
    num_output: 128
    bias_term: false
    pad: 1
    kernel_size: 3
    stride: 1
    weight_filler {
      type: "gaussian"
      std: 0.01
    }
    engine: CAFFE
  }
}
layer {
  name: "stage2_unit1_bn2"
  type: "BatchNorm"
  bottom: "stage2_unit1_conv1"
  top: "stage2_unit1_bn2"
  batch_norm_param {
    use_global_stats: false
    moving_average_fraction: 0.9
    eps: 2e-05
  }
}
layer {
  name: "stage2_unit1_bn2_scale"
  type: "Scale"
  bottom: "stage2_unit1_bn2"
  top: "stage2_unit1_bn2"
  scale_param {
    bias_term: true
  }
}
layer {
  name: "stage2_unit1_relu1"
  type: "ReLU"
  bottom: "stage2_unit1_bn2"
  top: "stage2_unit1_relu1"
}
layer {
  name: "stage2_unit1_conv2"
  type: "Convolution"
  bottom: "stage2_unit1_relu1"
  top: "stage2_unit1_conv2"
  param {
    lr_mult: 1
    decay_mult: 1
  }
  convolution_param {
    num_output: 128
    bias_term: false
    pad: 1
    kernel_size: 3
    stride: 2
    weight_filler {
      type: "gaussian"
      std: 0.01
    }
    engine: CAFFE
  }
}
layer {
  name: "stage2_unit1_bn3"
  type: "BatchNorm"
  bottom: "stage2_unit1_conv2"
  top: "stage2_unit1_bn3"
  batch_norm_param {
    use_global_stats: false
    moving_average_fraction: 0.9
    eps: 2e-05
  }
}
layer {
  name: "stage2_unit1_bn3_scale"
  type: "Scale"
  bottom: "stage2_unit1_bn3"
  top: "stage2_unit1_bn3"
  scale_param {
    bias_term: true
  }
}
layer {
  name: "stage2_unit1_conv1sc"
  type: "Convolution"
  bottom: "_plus1"
  top: "stage2_unit1_conv1sc"
  param {
    lr_mult: 1
    decay_mult: 1
  }
  convolution_param {
    num_output: 128
    bias_term: false
    kernel_size: 1
    stride: 2
    weight_filler {
      type: "gaussian"
      std: 0.01
    }
    engine: CAFFE
  }
}
layer {
  name: "stage2_unit1_sc"
  type: "BatchNorm"
  bottom: "stage2_unit1_conv1sc"
  top: "stage2_unit1_sc"
  batch_norm_param {
    use_global_stats: false
    moving_average_fraction: 0.9
    eps: 2e-05
  }
}
layer {
  name: "stage2_unit1_sc_scale"
  type: "Scale"
  bottom: "stage2_unit1_sc"
  top: "stage2_unit1_sc"
  scale_param {
    bias_term: true
  }
}
layer {
  name: "_plus2"
  type: "Eltwise"
  bottom: "stage2_unit1_bn3"
  bottom: "stage2_unit1_sc"
  top: "_plus2"
  eltwise_param {
    operation: SUM
  }
}
layer {
  name: "stage2_unit2_bn1"
  type: "BatchNorm"
  bottom: "_plus2"
  top: "stage2_unit2_bn1"
  batch_norm_param {
    use_global_stats: false
    moving_average_fraction: 0.9
    eps: 2e-05
  }
}
layer {
  name: "stage2_unit2_bn1_scale"
  type: "Scale"
  bottom: "stage2_unit2_bn1"
  top: "stage2_unit2_bn1"
  scale_param {
    bias_term: true
  }
}
layer {
  name: "stage2_unit2_conv1"
  type: "Convolution"
  bottom: "stage2_unit2_bn1"
  top: "stage2_unit2_conv1"
  param {
    lr_mult: 1
    decay_mult: 1
  }
  convolution_param {
    num_output: 128
    bias_term: false
    pad: 1
    kernel_size: 3
    stride: 1
    weight_filler {
      type: "gaussian"
      std: 0.01
    }
    engine: CAFFE
  }
}
layer {
  name: "stage2_unit2_bn2"
  type: "BatchNorm"
  bottom: "stage2_unit2_conv1"
  top: "stage2_unit2_bn2"
  batch_norm_param {
    use_global_stats: false
    moving_average_fraction: 0.9
    eps: 2e-05
  }
}
layer {
  name: "stage2_unit2_bn2_scale"
  type: "Scale"
  bottom: "stage2_unit2_bn2"
  top: "stage2_unit2_bn2"
  scale_param {
    bias_term: true
  }
}
layer {
  name: "stage2_unit2_relu1"
  type: "ReLU"
  bottom: "stage2_unit2_bn2"
  top: "stage2_unit2_relu1"
}
layer {
  name: "stage2_unit2_conv2"
  type: "Convolution"
  bottom: "stage2_unit2_relu1"
  top: "stage2_unit2_conv2"
  param {
    lr_mult: 1
    decay_mult: 1
  }
  convolution_param {
    num_output: 128
    bias_term: false
    pad: 1
    kernel_size: 3
    stride: 1
    weight_filler {
      type: "gaussian"
      std: 0.01
    }
    engine: CAFFE
  }
}
layer {
  name: "stage2_unit2_bn3"
  type: "BatchNorm"
  bottom: "stage2_unit2_conv2"
  top: "stage2_unit2_bn3"
  batch_norm_param {
    use_global_stats: false
    moving_average_fraction: 0.9
    eps: 2e-05
  }
}
layer {
  name: "stage2_unit2_bn3_scale"
  type: "Scale"
  bottom: "stage2_unit2_bn3"
  top: "stage2_unit2_bn3"
  scale_param {
    bias_term: true
  }
}
layer {
  name: "_plus3"
  type: "Eltwise"
  bottom: "stage2_unit2_bn3"
  bottom: "_plus2"
  top: "_plus3"
  eltwise_param {
    operation: SUM
  }
}
layer {
  name: "stage3_unit1_bn1"
  type: "BatchNorm"
  bottom: "_plus3"
  top: "stage3_unit1_bn1"
  batch_norm_param {
    use_global_stats: false
    moving_average_fraction: 0.9
    eps: 2e-05
  }
}
layer {
  name: "stage3_unit1_bn1_scale"
  type: "Scale"
  bottom: "stage3_unit1_bn1"
  top: "stage3_unit1_bn1"
  scale_param {
    bias_term: true
  }
}
layer {
  name: "stage3_unit1_conv1"
  type: "Convolution"
  bottom: "stage3_unit1_bn1"
  top: "stage3_unit1_conv1"
  param {
    lr_mult: 1
    decay_mult: 1
  }
  convolution_param {
    num_output: 256
    bias_term: false
    pad: 1
    kernel_size: 3
    stride: 1
    weight_filler {
      type: "gaussian"
      std: 0.01
    }
    engine: CAFFE
  }
}
layer {
  name: "stage3_unit1_bn2"
  type: "BatchNorm"
  bottom: "stage3_unit1_conv1"
  top: "stage3_unit1_bn2"
  batch_norm_param {
    use_global_stats: false
    moving_average_fraction: 0.9
    eps: 2e-05
  }
}
layer {
  name: "stage3_unit1_bn2_scale"
  type: "Scale"
  bottom: "stage3_unit1_bn2"
  top: "stage3_unit1_bn2"
  scale_param {
    bias_term: true
  }
}
layer {
  name: "stage3_unit1_relu1"
  type: "ReLU"
  bottom: "stage3_unit1_bn2"
  top: "stage3_unit1_relu1"
}
layer {
  name: "stage3_unit1_conv2"
  type: "Convolution"
  bottom: "stage3_unit1_relu1"
  top: "stage3_unit1_conv2"
  param {
    lr_mult: 1
    decay_mult: 1
  }
  convolution_param {
    num_output: 256
    bias_term: false
    pad: 1
    kernel_size: 3
    stride: 2
    weight_filler {
      type: "gaussian"
      std: 0.01
    }
    engine: CAFFE
  }
}
layer {
  name: "stage3_unit1_bn3"
  type: "BatchNorm"
  bottom: "stage3_unit1_conv2"
  top: "stage3_unit1_bn3"
  batch_norm_param {
    use_global_stats: false
    moving_average_fraction: 0.9
    eps: 2e-05
  }
}
layer {
  name: "stage3_unit1_bn3_scale"
  type: "Scale"
  bottom: "stage3_unit1_bn3"
  top: "stage3_unit1_bn3"
  scale_param {
    bias_term: true
  }
}
layer {
  name: "stage3_unit1_conv1sc"
  type: "Convolution"
  bottom: "_plus3"
  top: "stage3_unit1_conv1sc"
  param {
    lr_mult: 1
    decay_mult: 1
  }
  convolution_param {
    num_output: 256
    bias_term: false
    kernel_size: 1
    stride: 2
    weight_filler {
      type: "gaussian"
      std: 0.01
    }
    engine: CAFFE
  }
}
layer {
  name: "stage3_unit1_sc"
  type: "BatchNorm"
  bottom: "stage3_unit1_conv1sc"
  top: "stage3_unit1_sc"
  batch_norm_param {
    use_global_stats: false
    moving_average_fraction: 0.9
    eps: 2e-05
  }
}
layer {
  name: "stage3_unit1_sc_scale"
  type: "Scale"
  bottom: "stage3_unit1_sc"
  top: "stage3_unit1_sc"
  scale_param {
    bias_term: true
  }
}
layer {
  name: "_plus4"
  type: "Eltwise"
  bottom: "stage3_unit1_bn3"
  bottom: "stage3_unit1_sc"
  top: "_plus4"
  eltwise_param {
    operation: SUM
  }
}
layer {
  name: "stage3_unit2_bn1"
  type: "BatchNorm"
  bottom: "_plus4"
  top: "stage3_unit2_bn1"
  batch_norm_param {
    use_global_stats: false
    moving_average_fraction: 0.9
    eps: 2e-05
  }
}
layer {
  name: "stage3_unit2_bn1_scale"
  type: "Scale"
  bottom: "stage3_unit2_bn1"
  top: "stage3_unit2_bn1"
  scale_param {
    bias_term: true
  }
}
layer {
  name: "stage3_unit2_conv1"
  type: "Convolution"
  bottom: "stage3_unit2_bn1"
  top: "stage3_unit2_conv1"
  param {
    lr_mult: 1
    decay_mult: 1
  }
  convolution_param {
    num_output: 256
    bias_term: false
    pad: 1
    kernel_size: 3
    stride: 1
    weight_filler {
      type: "gaussian"
      std: 0.01
    }
    engine: CAFFE
  }
}
layer {
  name: "stage3_unit2_bn2"
  type: "BatchNorm"
  bottom: "stage3_unit2_conv1"
  top: "stage3_unit2_bn2"
  batch_norm_param {
    use_global_stats: false
    moving_average_fraction: 0.9
    eps: 2e-05
  }
}
layer {
  name: "stage3_unit2_bn2_scale"
  type: "Scale"
  bottom: "stage3_unit2_bn2"
  top: "stage3_unit2_bn2"
  scale_param {
    bias_term: true
  }
}
layer {
  name: "stage3_unit2_relu1"
  type: "ReLU"
  bottom: "stage3_unit2_bn2"
  top: "stage3_unit2_relu1"
}
layer {
  name: "stage3_unit2_conv2"
  type: "Convolution"
  bottom: "stage3_unit2_relu1"
  top: "stage3_unit2_conv2"
  param {
    lr_mult: 1
    decay_mult: 1
  }
  convolution_param {
    num_output: 256
    bias_term: false
    pad: 1
    kernel_size: 3
    stride: 1
    weight_filler {
      type: "gaussian"
      std: 0.01
    }
    engine: CAFFE
  }
}
layer {
  name: "stage3_unit2_bn3"
  type: "BatchNorm"
  bottom: "stage3_unit2_conv2"
  top: "stage3_unit2_bn3"
  batch_norm_param {
    use_global_stats: false
    moving_average_fraction: 0.9
    eps: 2e-05
  }
}
layer {
  name: "stage3_unit2_bn3_scale"
  type: "Scale"
  bottom: "stage3_unit2_bn3"
  top: "stage3_unit2_bn3"
  scale_param {
    bias_term: true
  }
}
layer {
  name: "_plus5"
  type: "Eltwise"
  bottom: "stage3_unit2_bn3"
  bottom: "_plus4"
  top: "_plus5"
  eltwise_param {
    operation: SUM
  }
}
layer {
  name: "stage4_unit1_bn1"
  type: "BatchNorm"
  bottom: "_plus5"
  top: "stage4_unit1_bn1"
  batch_norm_param {
    use_global_stats: false
    moving_average_fraction: 0.9
    eps: 2e-05
  }
}
layer {
  name: "stage4_unit1_bn1_scale"
  type: "Scale"
  bottom: "stage4_unit1_bn1"
  top: "stage4_unit1_bn1"
  scale_param {
    bias_term: true
  }
}
layer {
  name: "stage4_unit1_conv1"
  type: "Convolution"
  bottom: "stage4_unit1_bn1"
  top: "stage4_unit1_conv1"
  param {
    lr_mult: 1
    decay_mult: 1
  }
  convolution_param {
    num_output: 512
    bias_term: false
    pad: 1
    kernel_size: 3
    stride: 1
    weight_filler {
      type: "gaussian"
      std: 0.01
    }
    engine: CAFFE
  }
}
layer {
  name: "stage4_unit1_bn2"
  type: "BatchNorm"
  bottom: "stage4_unit1_conv1"
  top: "stage4_unit1_bn2"
  batch_norm_param {
    use_global_stats: false
    moving_average_fraction: 0.9
    eps: 2e-05
  }
}
layer {
  name: "stage4_unit1_bn2_scale"
  type: "Scale"
  bottom: "stage4_unit1_bn2"
  top: "stage4_unit1_bn2"
  scale_param {
    bias_term: true
  }
}
layer {
  name: "stage4_unit1_relu1"
  type: "ReLU"
  bottom: "stage4_unit1_bn2"
  top: "stage4_unit1_relu1"
}
layer {
  name: "stage4_unit1_conv2"
  type: "Convolution"
  bottom: "stage4_unit1_relu1"
  top: "stage4_unit1_conv2"
  param {
    lr_mult: 1
    decay_mult: 1
  }
  convolution_param {
    num_output: 512
    bias_term: false
    pad: 1
    kernel_size: 3
    stride: 2
    weight_filler {
      type: "gaussian"
      std: 0.01
    }
    engine: CAFFE
  }
}
layer {
  name: "stage4_unit1_bn3"
  type: "BatchNorm"
  bottom: "stage4_unit1_conv2"
  top: "stage4_unit1_bn3"
  batch_norm_param {
    use_global_stats: false
    moving_average_fraction: 0.9
    eps: 2e-05
  }
}
layer {
  name: "stage4_unit1_bn3_scale"
  type: "Scale"
  bottom: "stage4_unit1_bn3"
  top: "stage4_unit1_bn3"
  scale_param {
    bias_term: true
  }
}
layer {
  name: "stage4_unit1_conv1sc"
  type: "Convolution"
  bottom: "_plus5"
  top: "stage4_unit1_conv1sc"
  param {
    lr_mult: 1
    decay_mult: 1
  }
  convolution_param {
    num_output: 512
    bias_term: false
    kernel_size: 1
    stride: 2
    weight_filler {
      type: "gaussian"
      std: 0.01
    }
    engine: CAFFE
  }
}
layer {
  name: "stage4_unit1_sc"
  type: "BatchNorm"
  bottom: "stage4_unit1_conv1sc"
  top: "stage4_unit1_sc"
  batch_norm_param {
    use_global_stats: false
    moving_average_fraction: 0.9
    eps: 2e-05
  }
}
layer {
  name: "stage4_unit1_sc_scale"
  type: "Scale"
  bottom: "stage4_unit1_sc"
  top: "stage4_unit1_sc"
  scale_param {
    bias_term: true
  }
}
layer {
  name: "_plus6"
  type: "Eltwise"
  bottom: "stage4_unit1_bn3"
  bottom: "stage4_unit1_sc"
  top: "_plus6"
  eltwise_param {
    operation: SUM
  }
}
layer {
  name: "stage4_unit2_bn1"
  type: "BatchNorm"
  bottom: "_plus6"
  top: "stage4_unit2_bn1"
  batch_norm_param {
    use_global_stats: false
    moving_average_fraction: 0.9
    eps: 2e-05
  }
}
layer {
  name: "stage4_unit2_bn1_scale"
  type: "Scale"
  bottom: "stage4_unit2_bn1"
  top: "stage4_unit2_bn1"
  scale_param {
    bias_term: true
  }
}
layer {
  name: "stage4_unit2_conv1"
  type: "Convolution"
  bottom: "stage4_unit2_bn1"
  top: "stage4_unit2_conv1"
  param {
    lr_mult: 1
    decay_mult: 1
  }
  convolution_param {
    num_output: 512
    bias_term: false
    pad: 1
    kernel_size: 3
    stride: 1
    weight_filler {
      type: "gaussian"
      std: 0.01
    }
    engine: CAFFE
  }
}
layer {
  name: "stage4_unit2_bn2"
  type: "BatchNorm"
  bottom: "stage4_unit2_conv1"
  top: "stage4_unit2_bn2"
  batch_norm_param {
    use_global_stats: false
    moving_average_fraction: 0.9
    eps: 2e-05
  }
}
layer {
  name: "stage4_unit2_bn2_scale"
  type: "Scale"
  bottom: "stage4_unit2_bn2"
  top: "stage4_unit2_bn2"
  scale_param {
    bias_term: true
  }
}
layer {
  name: "stage4_unit2_relu1"
  type: "ReLU"
  bottom: "stage4_unit2_bn2"
  top: "stage4_unit2_relu1"
}
layer {
  name: "stage4_unit2_conv2"
  type: "Convolution"
  bottom: "stage4_unit2_relu1"
  top: "stage4_unit2_conv2"
  param {
    lr_mult: 1
    decay_mult: 1
  }
  convolution_param {
    num_output: 512
    bias_term: false
    pad: 1
    kernel_size: 3
    stride: 1
    weight_filler {
      type: "gaussian"
      std: 0.01
    }
    engine: CAFFE
  }
}
layer {
  name: "stage4_unit2_bn3"
  type: "BatchNorm"
  bottom: "stage4_unit2_conv2"
  top: "stage4_unit2_bn3"
  batch_norm_param {
    use_global_stats: false
    moving_average_fraction: 0.9
    eps: 2e-05
  }
}
layer {
  name: "stage4_unit2_bn3_scale"
  type: "Scale"
  bottom: "stage4_unit2_bn3"
  top: "stage4_unit2_bn3"
  scale_param {
    bias_term: true
  }
}
layer {
  name: "_plus7"
  type: "Eltwise"
  bottom: "stage4_unit2_bn3"
  bottom: "_plus6"
  top: "_plus7"
  eltwise_param {
    operation: SUM
  }
}
layer {
  name: "bn1"
  type: "BatchNorm"
  bottom: "_plus7"
  top: "bn1"
  batch_norm_param {
    use_global_stats: false
    moving_average_fraction: 0.9
    eps: 2e-05
  }
}
layer {
  name: "bn1_scale"
  type: "Scale"
  bottom: "bn1"
  top: "bn1"
  scale_param {
    bias_term: true
  }
}
layer {
  name: "fc8"
  type: "InnerProduct"
  bottom: "bn1"
  top: "fc8"
  param {
    lr_mult: 1
    decay_mult: 1
  }
  param {
    lr_mult: 2
    decay_mult: 0
  }
  inner_product_param {
    num_output: 2
    weight_filler {
      type: "msra"
      std: 0.01
    }
    bias_filler {
      type: "constant"
      value: 0
    }
  }
}
layer {
  name: "loss"
  type: "WeightedSoftmaxWithLoss"
  bottom: "fc8"
  bottom: "label"
  top: "loss"
  softmax_param {
    pos_mult: 1.3
    pos_cid: 1
  }
}
I0110 15:06:13.241853 17384 layer_factory.hpp:77] Creating layer data
I0110 15:06:13.459190 17384 db_lmdb.cpp:35] Opened lmdb /home/lc/gender/school/data_3/train.lmdb
I0110 15:06:13.602047 17384 net.cpp:84] Creating Layer data
I0110 15:06:13.602092 17384 net.cpp:380] data -> data
I0110 15:06:13.602162 17384 net.cpp:380] data -> label
I0110 15:06:13.606035 17384 data_layer.cpp:45] output data size: 8,3,200,200
I0110 15:06:13.623291 17384 net.cpp:122] Setting up data
I0110 15:06:13.623332 17384 net.cpp:129] Top shape: 8 3 200 200 (960000)
I0110 15:06:13.623343 17384 net.cpp:129] Top shape: 8 (8)
I0110 15:06:13.623348 17384 net.cpp:137] Memory required for data: 3840032
I0110 15:06:13.623366 17384 layer_factory.hpp:77] Creating layer conv0
I0110 15:06:13.623404 17384 net.cpp:84] Creating Layer conv0
I0110 15:06:13.623420 17384 net.cpp:406] conv0 <- data
I0110 15:06:13.623448 17384 net.cpp:380] conv0 -> conv0
I0110 15:06:13.624176 17384 net.cpp:122] Setting up conv0
I0110 15:06:13.624198 17384 net.cpp:129] Top shape: 8 64 200 200 (20480000)
I0110 15:06:13.624207 17384 net.cpp:137] Memory required for data: 85760032
I0110 15:06:13.624260 17384 layer_factory.hpp:77] Creating layer bn0
I0110 15:06:13.624281 17384 net.cpp:84] Creating Layer bn0
I0110 15:06:13.624291 17384 net.cpp:406] bn0 <- conv0
I0110 15:06:13.624305 17384 net.cpp:380] bn0 -> bn0
I0110 15:06:13.624729 17384 net.cpp:122] Setting up bn0
I0110 15:06:13.624744 17384 net.cpp:129] Top shape: 8 64 200 200 (20480000)
I0110 15:06:13.624752 17384 net.cpp:137] Memory required for data: 167680032
I0110 15:06:13.624771 17384 layer_factory.hpp:77] Creating layer bn0_scale
I0110 15:06:13.624788 17384 net.cpp:84] Creating Layer bn0_scale
I0110 15:06:13.624795 17384 net.cpp:406] bn0_scale <- bn0
I0110 15:06:13.624804 17384 net.cpp:367] bn0_scale -> bn0 (in-place)
I0110 15:06:13.624874 17384 layer_factory.hpp:77] Creating layer bn0_scale
I0110 15:06:13.625193 17384 net.cpp:122] Setting up bn0_scale
I0110 15:06:13.625208 17384 net.cpp:129] Top shape: 8 64 200 200 (20480000)
I0110 15:06:13.625216 17384 net.cpp:137] Memory required for data: 249600032
I0110 15:06:13.625231 17384 layer_factory.hpp:77] Creating layer relu0
I0110 15:06:13.625245 17384 net.cpp:84] Creating Layer relu0
I0110 15:06:13.625254 17384 net.cpp:406] relu0 <- bn0
I0110 15:06:13.625264 17384 net.cpp:380] relu0 -> relu0
I0110 15:06:17.838670 17384 net.cpp:122] Setting up relu0
I0110 15:06:17.838765 17384 net.cpp:129] Top shape: 8 64 200 200 (20480000)
I0110 15:06:17.838775 17384 net.cpp:137] Memory required for data: 331520032
I0110 15:06:17.838807 17384 layer_factory.hpp:77] Creating layer relu0_relu0_0_split
I0110 15:06:17.838891 17384 net.cpp:84] Creating Layer relu0_relu0_0_split
I0110 15:06:17.838901 17384 net.cpp:406] relu0_relu0_0_split <- relu0
I0110 15:06:17.838930 17384 net.cpp:380] relu0_relu0_0_split -> relu0_relu0_0_split_0
I0110 15:06:17.838951 17384 net.cpp:380] relu0_relu0_0_split -> relu0_relu0_0_split_1
I0110 15:06:17.839023 17384 net.cpp:122] Setting up relu0_relu0_0_split
I0110 15:06:17.839037 17384 net.cpp:129] Top shape: 8 64 200 200 (20480000)
I0110 15:06:17.839048 17384 net.cpp:129] Top shape: 8 64 200 200 (20480000)
I0110 15:06:17.839056 17384 net.cpp:137] Memory required for data: 495360032
I0110 15:06:17.839063 17384 layer_factory.hpp:77] Creating layer stage1_unit1_bn1
I0110 15:06:17.839090 17384 net.cpp:84] Creating Layer stage1_unit1_bn1
I0110 15:06:17.839100 17384 net.cpp:406] stage1_unit1_bn1 <- relu0_relu0_0_split_0
I0110 15:06:17.839110 17384 net.cpp:380] stage1_unit1_bn1 -> stage1_unit1_bn1
I0110 15:06:17.839524 17384 net.cpp:122] Setting up stage1_unit1_bn1
I0110 15:06:17.839550 17384 net.cpp:129] Top shape: 8 64 200 200 (20480000)
I0110 15:06:17.839558 17384 net.cpp:137] Memory required for data: 577280032
I0110 15:06:17.839587 17384 layer_factory.hpp:77] Creating layer stage1_unit1_bn1_scale
I0110 15:06:17.839614 17384 net.cpp:84] Creating Layer stage1_unit1_bn1_scale
I0110 15:06:17.839624 17384 net.cpp:406] stage1_unit1_bn1_scale <- stage1_unit1_bn1
I0110 15:06:17.839634 17384 net.cpp:367] stage1_unit1_bn1_scale -> stage1_unit1_bn1 (in-place)
I0110 15:06:17.839715 17384 layer_factory.hpp:77] Creating layer stage1_unit1_bn1_scale
I0110 15:06:17.840070 17384 net.cpp:122] Setting up stage1_unit1_bn1_scale
I0110 15:06:17.840087 17384 net.cpp:129] Top shape: 8 64 200 200 (20480000)
I0110 15:06:17.840096 17384 net.cpp:137] Memory required for data: 659200032
I0110 15:06:17.840108 17384 layer_factory.hpp:77] Creating layer stage1_unit1_conv1
I0110 15:06:17.840131 17384 net.cpp:84] Creating Layer stage1_unit1_conv1
I0110 15:06:17.840140 17384 net.cpp:406] stage1_unit1_conv1 <- stage1_unit1_bn1
I0110 15:06:17.840152 17384 net.cpp:380] stage1_unit1_conv1 -> stage1_unit1_conv1
I0110 15:06:17.841280 17384 net.cpp:122] Setting up stage1_unit1_conv1
I0110 15:06:17.841300 17384 net.cpp:129] Top shape: 8 64 200 200 (20480000)
I0110 15:06:17.841307 17384 net.cpp:137] Memory required for data: 741120032
I0110 15:06:17.841317 17384 layer_factory.hpp:77] Creating layer stage1_unit1_bn2
I0110 15:06:17.841331 17384 net.cpp:84] Creating Layer stage1_unit1_bn2
I0110 15:06:17.841339 17384 net.cpp:406] stage1_unit1_bn2 <- stage1_unit1_conv1
I0110 15:06:17.841349 17384 net.cpp:380] stage1_unit1_bn2 -> stage1_unit1_bn2
I0110 15:06:17.841749 17384 net.cpp:122] Setting up stage1_unit1_bn2
I0110 15:06:17.841764 17384 net.cpp:129] Top shape: 8 64 200 200 (20480000)
I0110 15:06:17.841773 17384 net.cpp:137] Memory required for data: 823040032
I0110 15:06:17.841786 17384 layer_factory.hpp:77] Creating layer stage1_unit1_bn2_scale
I0110 15:06:17.841802 17384 net.cpp:84] Creating Layer stage1_unit1_bn2_scale
I0110 15:06:17.841811 17384 net.cpp:406] stage1_unit1_bn2_scale <- stage1_unit1_bn2
I0110 15:06:17.841820 17384 net.cpp:367] stage1_unit1_bn2_scale -> stage1_unit1_bn2 (in-place)
I0110 15:06:17.841881 17384 layer_factory.hpp:77] Creating layer stage1_unit1_bn2_scale
I0110 15:06:17.842221 17384 net.cpp:122] Setting up stage1_unit1_bn2_scale
I0110 15:06:17.842237 17384 net.cpp:129] Top shape: 8 64 200 200 (20480000)
I0110 15:06:17.842245 17384 net.cpp:137] Memory required for data: 904960032
I0110 15:06:17.842262 17384 layer_factory.hpp:77] Creating layer stage1_unit1_relu1
I0110 15:06:17.842275 17384 net.cpp:84] Creating Layer stage1_unit1_relu1
I0110 15:06:17.842283 17384 net.cpp:406] stage1_unit1_relu1 <- stage1_unit1_bn2
I0110 15:06:17.842293 17384 net.cpp:380] stage1_unit1_relu1 -> stage1_unit1_relu1
I0110 15:06:17.842483 17384 net.cpp:122] Setting up stage1_unit1_relu1
I0110 15:06:17.842504 17384 net.cpp:129] Top shape: 8 64 200 200 (20480000)
I0110 15:06:17.842511 17384 net.cpp:137] Memory required for data: 986880032
I0110 15:06:17.842519 17384 layer_factory.hpp:77] Creating layer stage1_unit1_conv2
I0110 15:06:17.842535 17384 net.cpp:84] Creating Layer stage1_unit1_conv2
I0110 15:06:17.842545 17384 net.cpp:406] stage1_unit1_conv2 <- stage1_unit1_relu1
I0110 15:06:17.842555 17384 net.cpp:380] stage1_unit1_conv2 -> stage1_unit1_conv2
I0110 15:06:17.843641 17384 net.cpp:122] Setting up stage1_unit1_conv2
I0110 15:06:17.843657 17384 net.cpp:129] Top shape: 8 64 100 100 (5120000)
I0110 15:06:17.843665 17384 net.cpp:137] Memory required for data: 1007360032
I0110 15:06:17.843677 17384 layer_factory.hpp:77] Creating layer stage1_unit1_bn3
I0110 15:06:17.843689 17384 net.cpp:84] Creating Layer stage1_unit1_bn3
I0110 15:06:17.843698 17384 net.cpp:406] stage1_unit1_bn3 <- stage1_unit1_conv2
I0110 15:06:17.843708 17384 net.cpp:380] stage1_unit1_bn3 -> stage1_unit1_bn3
I0110 15:06:17.844053 17384 net.cpp:122] Setting up stage1_unit1_bn3
I0110 15:06:17.844066 17384 net.cpp:129] Top shape: 8 64 100 100 (5120000)
I0110 15:06:17.844074 17384 net.cpp:137] Memory required for data: 1027840032
I0110 15:06:17.844091 17384 layer_factory.hpp:77] Creating layer stage1_unit1_bn3_scale
I0110 15:06:17.844105 17384 net.cpp:84] Creating Layer stage1_unit1_bn3_scale
I0110 15:06:17.844112 17384 net.cpp:406] stage1_unit1_bn3_scale <- stage1_unit1_bn3
I0110 15:06:17.844121 17384 net.cpp:367] stage1_unit1_bn3_scale -> stage1_unit1_bn3 (in-place)
I0110 15:06:17.844185 17384 layer_factory.hpp:77] Creating layer stage1_unit1_bn3_scale
I0110 15:06:17.844400 17384 net.cpp:122] Setting up stage1_unit1_bn3_scale
I0110 15:06:17.844415 17384 net.cpp:129] Top shape: 8 64 100 100 (5120000)
I0110 15:06:17.844424 17384 net.cpp:137] Memory required for data: 1048320032
I0110 15:06:17.844435 17384 layer_factory.hpp:77] Creating layer stage1_unit1_conv1sc
I0110 15:06:17.844451 17384 net.cpp:84] Creating Layer stage1_unit1_conv1sc
I0110 15:06:17.844460 17384 net.cpp:406] stage1_unit1_conv1sc <- relu0_relu0_0_split_1
I0110 15:06:17.844470 17384 net.cpp:380] stage1_unit1_conv1sc -> stage1_unit1_conv1sc
I0110 15:06:17.844846 17384 net.cpp:122] Setting up stage1_unit1_conv1sc
I0110 15:06:17.844859 17384 net.cpp:129] Top shape: 8 64 100 100 (5120000)
I0110 15:06:17.844866 17384 net.cpp:137] Memory required for data: 1068800032
I0110 15:06:17.844875 17384 layer_factory.hpp:77] Creating layer stage1_unit1_sc
I0110 15:06:17.844890 17384 net.cpp:84] Creating Layer stage1_unit1_sc
I0110 15:06:17.844899 17384 net.cpp:406] stage1_unit1_sc <- stage1_unit1_conv1sc
I0110 15:06:17.844909 17384 net.cpp:380] stage1_unit1_sc -> stage1_unit1_sc
I0110 15:06:17.845247 17384 net.cpp:122] Setting up stage1_unit1_sc
I0110 15:06:17.845263 17384 net.cpp:129] Top shape: 8 64 100 100 (5120000)
I0110 15:06:17.845269 17384 net.cpp:137] Memory required for data: 1089280032
I0110 15:06:17.845283 17384 layer_factory.hpp:77] Creating layer stage1_unit1_sc_scale
I0110 15:06:17.845297 17384 net.cpp:84] Creating Layer stage1_unit1_sc_scale
I0110 15:06:17.845306 17384 net.cpp:406] stage1_unit1_sc_scale <- stage1_unit1_sc
I0110 15:06:17.845315 17384 net.cpp:367] stage1_unit1_sc_scale -> stage1_unit1_sc (in-place)
I0110 15:06:17.845376 17384 layer_factory.hpp:77] Creating layer stage1_unit1_sc_scale
I0110 15:06:17.847488 17384 net.cpp:122] Setting up stage1_unit1_sc_scale
I0110 15:06:17.847517 17384 net.cpp:129] Top shape: 8 64 100 100 (5120000)
I0110 15:06:17.847524 17384 net.cpp:137] Memory required for data: 1109760032
I0110 15:06:17.847554 17384 layer_factory.hpp:77] Creating layer _plus0
I0110 15:06:17.847577 17384 net.cpp:84] Creating Layer _plus0
I0110 15:06:17.847594 17384 net.cpp:406] _plus0 <- stage1_unit1_bn3
I0110 15:06:17.847611 17384 net.cpp:406] _plus0 <- stage1_unit1_sc
I0110 15:06:17.847627 17384 net.cpp:380] _plus0 -> _plus0
I0110 15:06:17.847687 17384 net.cpp:122] Setting up _plus0
I0110 15:06:17.847700 17384 net.cpp:129] Top shape: 8 64 100 100 (5120000)
I0110 15:06:17.847708 17384 net.cpp:137] Memory required for data: 1130240032
I0110 15:06:17.847715 17384 layer_factory.hpp:77] Creating layer _plus0__plus0_0_split
I0110 15:06:17.847725 17384 net.cpp:84] Creating Layer _plus0__plus0_0_split
I0110 15:06:17.847734 17384 net.cpp:406] _plus0__plus0_0_split <- _plus0
I0110 15:06:17.847743 17384 net.cpp:380] _plus0__plus0_0_split -> _plus0__plus0_0_split_0
I0110 15:06:17.847759 17384 net.cpp:380] _plus0__plus0_0_split -> _plus0__plus0_0_split_1
I0110 15:06:17.847820 17384 net.cpp:122] Setting up _plus0__plus0_0_split
I0110 15:06:17.847834 17384 net.cpp:129] Top shape: 8 64 100 100 (5120000)
I0110 15:06:17.847844 17384 net.cpp:129] Top shape: 8 64 100 100 (5120000)
I0110 15:06:17.847852 17384 net.cpp:137] Memory required for data: 1171200032
I0110 15:06:17.847858 17384 layer_factory.hpp:77] Creating layer stage1_unit2_bn1
I0110 15:06:17.847872 17384 net.cpp:84] Creating Layer stage1_unit2_bn1
I0110 15:06:17.847893 17384 net.cpp:406] stage1_unit2_bn1 <- _plus0__plus0_0_split_0
I0110 15:06:17.847903 17384 net.cpp:380] stage1_unit2_bn1 -> stage1_unit2_bn1
I0110 15:06:17.848229 17384 net.cpp:122] Setting up stage1_unit2_bn1
I0110 15:06:17.848243 17384 net.cpp:129] Top shape: 8 64 100 100 (5120000)
I0110 15:06:17.848250 17384 net.cpp:137] Memory required for data: 1191680032
I0110 15:06:17.848268 17384 layer_factory.hpp:77] Creating layer stage1_unit2_bn1_scale
I0110 15:06:17.848280 17384 net.cpp:84] Creating Layer stage1_unit2_bn1_scale
I0110 15:06:17.848289 17384 net.cpp:406] stage1_unit2_bn1_scale <- stage1_unit2_bn1
I0110 15:06:17.848301 17384 net.cpp:367] stage1_unit2_bn1_scale -> stage1_unit2_bn1 (in-place)
I0110 15:06:17.848366 17384 layer_factory.hpp:77] Creating layer stage1_unit2_bn1_scale
I0110 15:06:17.848564 17384 net.cpp:122] Setting up stage1_unit2_bn1_scale
I0110 15:06:17.848579 17384 net.cpp:129] Top shape: 8 64 100 100 (5120000)
I0110 15:06:17.848587 17384 net.cpp:137] Memory required for data: 1212160032
I0110 15:06:17.848603 17384 layer_factory.hpp:77] Creating layer stage1_unit2_conv1
I0110 15:06:17.848620 17384 net.cpp:84] Creating Layer stage1_unit2_conv1
I0110 15:06:17.848629 17384 net.cpp:406] stage1_unit2_conv1 <- stage1_unit2_bn1
I0110 15:06:17.848639 17384 net.cpp:380] stage1_unit2_conv1 -> stage1_unit2_conv1
I0110 15:06:17.849658 17384 net.cpp:122] Setting up stage1_unit2_conv1
I0110 15:06:17.849674 17384 net.cpp:129] Top shape: 8 64 100 100 (5120000)
I0110 15:06:17.849681 17384 net.cpp:137] Memory required for data: 1232640032
I0110 15:06:17.849690 17384 layer_factory.hpp:77] Creating layer stage1_unit2_bn2
I0110 15:06:17.849705 17384 net.cpp:84] Creating Layer stage1_unit2_bn2
I0110 15:06:17.849714 17384 net.cpp:406] stage1_unit2_bn2 <- stage1_unit2_conv1
I0110 15:06:17.849725 17384 net.cpp:380] stage1_unit2_bn2 -> stage1_unit2_bn2
I0110 15:06:17.850054 17384 net.cpp:122] Setting up stage1_unit2_bn2
I0110 15:06:17.850066 17384 net.cpp:129] Top shape: 8 64 100 100 (5120000)
I0110 15:06:17.850073 17384 net.cpp:137] Memory required for data: 1253120032
I0110 15:06:17.850086 17384 layer_factory.hpp:77] Creating layer stage1_unit2_bn2_scale
I0110 15:06:17.850102 17384 net.cpp:84] Creating Layer stage1_unit2_bn2_scale
I0110 15:06:17.850111 17384 net.cpp:406] stage1_unit2_bn2_scale <- stage1_unit2_bn2
I0110 15:06:17.850118 17384 net.cpp:367] stage1_unit2_bn2_scale -> stage1_unit2_bn2 (in-place)
I0110 15:06:17.850180 17384 layer_factory.hpp:77] Creating layer stage1_unit2_bn2_scale
I0110 15:06:17.850402 17384 net.cpp:122] Setting up stage1_unit2_bn2_scale
I0110 15:06:17.850416 17384 net.cpp:129] Top shape: 8 64 100 100 (5120000)
I0110 15:06:17.850423 17384 net.cpp:137] Memory required for data: 1273600032
I0110 15:06:17.850435 17384 layer_factory.hpp:77] Creating layer stage1_unit2_relu1
I0110 15:06:17.850450 17384 net.cpp:84] Creating Layer stage1_unit2_relu1
I0110 15:06:17.850457 17384 net.cpp:406] stage1_unit2_relu1 <- stage1_unit2_bn2
I0110 15:06:17.850466 17384 net.cpp:380] stage1_unit2_relu1 -> stage1_unit2_relu1
I0110 15:06:17.850957 17384 net.cpp:122] Setting up stage1_unit2_relu1
I0110 15:06:17.850984 17384 net.cpp:129] Top shape: 8 64 100 100 (5120000)
I0110 15:06:17.850992 17384 net.cpp:137] Memory required for data: 1294080032
I0110 15:06:17.850998 17384 layer_factory.hpp:77] Creating layer stage1_unit2_conv2
I0110 15:06:17.851016 17384 net.cpp:84] Creating Layer stage1_unit2_conv2
I0110 15:06:17.851023 17384 net.cpp:406] stage1_unit2_conv2 <- stage1_unit2_relu1
I0110 15:06:17.851037 17384 net.cpp:380] stage1_unit2_conv2 -> stage1_unit2_conv2
I0110 15:06:17.852071 17384 net.cpp:122] Setting up stage1_unit2_conv2
I0110 15:06:17.852087 17384 net.cpp:129] Top shape: 8 64 100 100 (5120000)
I0110 15:06:17.852095 17384 net.cpp:137] Memory required for data: 1314560032
I0110 15:06:17.852106 17384 layer_factory.hpp:77] Creating layer stage1_unit2_bn3
I0110 15:06:17.852121 17384 net.cpp:84] Creating Layer stage1_unit2_bn3
I0110 15:06:17.852130 17384 net.cpp:406] stage1_unit2_bn3 <- stage1_unit2_conv2
I0110 15:06:17.852139 17384 net.cpp:380] stage1_unit2_bn3 -> stage1_unit2_bn3
I0110 15:06:17.852489 17384 net.cpp:122] Setting up stage1_unit2_bn3
I0110 15:06:17.852502 17384 net.cpp:129] Top shape: 8 64 100 100 (5120000)
I0110 15:06:17.852509 17384 net.cpp:137] Memory required for data: 1335040032
I0110 15:06:17.852525 17384 layer_factory.hpp:77] Creating layer stage1_unit2_bn3_scale
I0110 15:06:17.852540 17384 net.cpp:84] Creating Layer stage1_unit2_bn3_scale
I0110 15:06:17.852547 17384 net.cpp:406] stage1_unit2_bn3_scale <- stage1_unit2_bn3
I0110 15:06:17.852556 17384 net.cpp:367] stage1_unit2_bn3_scale -> stage1_unit2_bn3 (in-place)
I0110 15:06:17.852622 17384 layer_factory.hpp:77] Creating layer stage1_unit2_bn3_scale
I0110 15:06:17.852834 17384 net.cpp:122] Setting up stage1_unit2_bn3_scale
I0110 15:06:17.852849 17384 net.cpp:129] Top shape: 8 64 100 100 (5120000)
I0110 15:06:17.852856 17384 net.cpp:137] Memory required for data: 1355520032
I0110 15:06:17.852867 17384 layer_factory.hpp:77] Creating layer _plus1
I0110 15:06:17.852882 17384 net.cpp:84] Creating Layer _plus1
I0110 15:06:17.852890 17384 net.cpp:406] _plus1 <- stage1_unit2_bn3
I0110 15:06:17.852898 17384 net.cpp:406] _plus1 <- _plus0__plus0_0_split_1
I0110 15:06:17.852910 17384 net.cpp:380] _plus1 -> _plus1
I0110 15:06:17.852950 17384 net.cpp:122] Setting up _plus1
I0110 15:06:17.852962 17384 net.cpp:129] Top shape: 8 64 100 100 (5120000)
I0110 15:06:17.852969 17384 net.cpp:137] Memory required for data: 1376000032
I0110 15:06:17.852975 17384 layer_factory.hpp:77] Creating layer _plus1__plus1_0_split
I0110 15:06:17.852984 17384 net.cpp:84] Creating Layer _plus1__plus1_0_split
I0110 15:06:17.852993 17384 net.cpp:406] _plus1__plus1_0_split <- _plus1
I0110 15:06:17.853004 17384 net.cpp:380] _plus1__plus1_0_split -> _plus1__plus1_0_split_0
I0110 15:06:17.853018 17384 net.cpp:380] _plus1__plus1_0_split -> _plus1__plus1_0_split_1
I0110 15:06:17.853072 17384 net.cpp:122] Setting up _plus1__plus1_0_split
I0110 15:06:17.853083 17384 net.cpp:129] Top shape: 8 64 100 100 (5120000)
I0110 15:06:17.853094 17384 net.cpp:129] Top shape: 8 64 100 100 (5120000)
I0110 15:06:17.853101 17384 net.cpp:137] Memory required for data: 1416960032
I0110 15:06:17.853108 17384 layer_factory.hpp:77] Creating layer stage2_unit1_bn1
I0110 15:06:17.853119 17384 net.cpp:84] Creating Layer stage2_unit1_bn1
I0110 15:06:17.853127 17384 net.cpp:406] stage2_unit1_bn1 <- _plus1__plus1_0_split_0
I0110 15:06:17.853137 17384 net.cpp:380] stage2_unit1_bn1 -> stage2_unit1_bn1
I0110 15:06:17.853463 17384 net.cpp:122] Setting up stage2_unit1_bn1
I0110 15:06:17.853477 17384 net.cpp:129] Top shape: 8 64 100 100 (5120000)
I0110 15:06:17.853484 17384 net.cpp:137] Memory required for data: 1437440032
I0110 15:06:17.853497 17384 layer_factory.hpp:77] Creating layer stage2_unit1_bn1_scale
I0110 15:06:17.853516 17384 net.cpp:84] Creating Layer stage2_unit1_bn1_scale
I0110 15:06:17.853524 17384 net.cpp:406] stage2_unit1_bn1_scale <- stage2_unit1_bn1
I0110 15:06:17.853534 17384 net.cpp:367] stage2_unit1_bn1_scale -> stage2_unit1_bn1 (in-place)
I0110 15:06:17.853598 17384 layer_factory.hpp:77] Creating layer stage2_unit1_bn1_scale
I0110 15:06:17.853801 17384 net.cpp:122] Setting up stage2_unit1_bn1_scale
I0110 15:06:17.853813 17384 net.cpp:129] Top shape: 8 64 100 100 (5120000)
I0110 15:06:17.853821 17384 net.cpp:137] Memory required for data: 1457920032
I0110 15:06:17.853832 17384 layer_factory.hpp:77] Creating layer stage2_unit1_conv1
I0110 15:06:17.853849 17384 net.cpp:84] Creating Layer stage2_unit1_conv1
I0110 15:06:17.853857 17384 net.cpp:406] stage2_unit1_conv1 <- stage2_unit1_bn1
I0110 15:06:17.853871 17384 net.cpp:380] stage2_unit1_conv1 -> stage2_unit1_conv1
I0110 15:06:17.855535 17384 net.cpp:122] Setting up stage2_unit1_conv1
I0110 15:06:17.855563 17384 net.cpp:129] Top shape: 8 128 100 100 (10240000)
I0110 15:06:17.855571 17384 net.cpp:137] Memory required for data: 1498880032
I0110 15:06:17.855581 17384 layer_factory.hpp:77] Creating layer stage2_unit1_bn2
I0110 15:06:17.855592 17384 net.cpp:84] Creating Layer stage2_unit1_bn2
I0110 15:06:17.855600 17384 net.cpp:406] stage2_unit1_bn2 <- stage2_unit1_conv1
I0110 15:06:17.855608 17384 net.cpp:380] stage2_unit1_bn2 -> stage2_unit1_bn2
I0110 15:06:17.855938 17384 net.cpp:122] Setting up stage2_unit1_bn2
I0110 15:06:17.855952 17384 net.cpp:129] Top shape: 8 128 100 100 (10240000)
I0110 15:06:17.855958 17384 net.cpp:137] Memory required for data: 1539840032
I0110 15:06:17.855973 17384 layer_factory.hpp:77] Creating layer stage2_unit1_bn2_scale
I0110 15:06:17.855988 17384 net.cpp:84] Creating Layer stage2_unit1_bn2_scale
I0110 15:06:17.855995 17384 net.cpp:406] stage2_unit1_bn2_scale <- stage2_unit1_bn2
I0110 15:06:17.856003 17384 net.cpp:367] stage2_unit1_bn2_scale -> stage2_unit1_bn2 (in-place)
I0110 15:06:17.856065 17384 layer_factory.hpp:77] Creating layer stage2_unit1_bn2_scale
I0110 15:06:17.856254 17384 net.cpp:122] Setting up stage2_unit1_bn2_scale
I0110 15:06:17.856268 17384 net.cpp:129] Top shape: 8 128 100 100 (10240000)
I0110 15:06:17.856276 17384 net.cpp:137] Memory required for data: 1580800032
I0110 15:06:17.856287 17384 layer_factory.hpp:77] Creating layer stage2_unit1_relu1
I0110 15:06:17.856297 17384 net.cpp:84] Creating Layer stage2_unit1_relu1
I0110 15:06:17.856305 17384 net.cpp:406] stage2_unit1_relu1 <- stage2_unit1_bn2
I0110 15:06:17.856317 17384 net.cpp:380] stage2_unit1_relu1 -> stage2_unit1_relu1
I0110 15:06:17.856508 17384 net.cpp:122] Setting up stage2_unit1_relu1
I0110 15:06:17.856526 17384 net.cpp:129] Top shape: 8 128 100 100 (10240000)
I0110 15:06:17.856534 17384 net.cpp:137] Memory required for data: 1621760032
I0110 15:06:17.856539 17384 layer_factory.hpp:77] Creating layer stage2_unit1_conv2
I0110 15:06:17.856554 17384 net.cpp:84] Creating Layer stage2_unit1_conv2
I0110 15:06:17.856562 17384 net.cpp:406] stage2_unit1_conv2 <- stage2_unit1_relu1
I0110 15:06:17.856575 17384 net.cpp:380] stage2_unit1_conv2 -> stage2_unit1_conv2
I0110 15:06:17.859618 17384 net.cpp:122] Setting up stage2_unit1_conv2
I0110 15:06:17.859637 17384 net.cpp:129] Top shape: 8 128 50 50 (2560000)
I0110 15:06:17.859644 17384 net.cpp:137] Memory required for data: 1632000032
I0110 15:06:17.859656 17384 layer_factory.hpp:77] Creating layer stage2_unit1_bn3
I0110 15:06:17.859668 17384 net.cpp:84] Creating Layer stage2_unit1_bn3
I0110 15:06:17.859694 17384 net.cpp:406] stage2_unit1_bn3 <- stage2_unit1_conv2
I0110 15:06:17.859707 17384 net.cpp:380] stage2_unit1_bn3 -> stage2_unit1_bn3
I0110 15:06:17.860019 17384 net.cpp:122] Setting up stage2_unit1_bn3
I0110 15:06:17.860033 17384 net.cpp:129] Top shape: 8 128 50 50 (2560000)
I0110 15:06:17.860039 17384 net.cpp:137] Memory required for data: 1642240032
I0110 15:06:17.860052 17384 layer_factory.hpp:77] Creating layer stage2_unit1_bn3_scale
I0110 15:06:17.860065 17384 net.cpp:84] Creating Layer stage2_unit1_bn3_scale
I0110 15:06:17.860072 17384 net.cpp:406] stage2_unit1_bn3_scale <- stage2_unit1_bn3
I0110 15:06:17.860080 17384 net.cpp:367] stage2_unit1_bn3_scale -> stage2_unit1_bn3 (in-place)
I0110 15:06:17.860138 17384 layer_factory.hpp:77] Creating layer stage2_unit1_bn3_scale
I0110 15:06:17.860303 17384 net.cpp:122] Setting up stage2_unit1_bn3_scale
I0110 15:06:17.860314 17384 net.cpp:129] Top shape: 8 128 50 50 (2560000)
I0110 15:06:17.860321 17384 net.cpp:137] Memory required for data: 1652480032
I0110 15:06:17.860332 17384 layer_factory.hpp:77] Creating layer stage2_unit1_conv1sc
I0110 15:06:17.860347 17384 net.cpp:84] Creating Layer stage2_unit1_conv1sc
I0110 15:06:17.860355 17384 net.cpp:406] stage2_unit1_conv1sc <- _plus1__plus1_0_split_1
I0110 15:06:17.860364 17384 net.cpp:380] stage2_unit1_conv1sc -> stage2_unit1_conv1sc
I0110 15:06:17.860774 17384 net.cpp:122] Setting up stage2_unit1_conv1sc
I0110 15:06:17.860787 17384 net.cpp:129] Top shape: 8 128 50 50 (2560000)
I0110 15:06:17.860795 17384 net.cpp:137] Memory required for data: 1662720032
I0110 15:06:17.860802 17384 layer_factory.hpp:77] Creating layer stage2_unit1_sc
I0110 15:06:17.860816 17384 net.cpp:84] Creating Layer stage2_unit1_sc
I0110 15:06:17.860824 17384 net.cpp:406] stage2_unit1_sc <- stage2_unit1_conv1sc
I0110 15:06:17.860832 17384 net.cpp:380] stage2_unit1_sc -> stage2_unit1_sc
I0110 15:06:17.861119 17384 net.cpp:122] Setting up stage2_unit1_sc
I0110 15:06:17.861132 17384 net.cpp:129] Top shape: 8 128 50 50 (2560000)
I0110 15:06:17.861138 17384 net.cpp:137] Memory required for data: 1672960032
I0110 15:06:17.861161 17384 layer_factory.hpp:77] Creating layer stage2_unit1_sc_scale
I0110 15:06:17.861172 17384 net.cpp:84] Creating Layer stage2_unit1_sc_scale
I0110 15:06:17.861181 17384 net.cpp:406] stage2_unit1_sc_scale <- stage2_unit1_sc
I0110 15:06:17.861191 17384 net.cpp:367] stage2_unit1_sc_scale -> stage2_unit1_sc (in-place)
I0110 15:06:17.861249 17384 layer_factory.hpp:77] Creating layer stage2_unit1_sc_scale
I0110 15:06:17.861409 17384 net.cpp:122] Setting up stage2_unit1_sc_scale
I0110 15:06:17.861423 17384 net.cpp:129] Top shape: 8 128 50 50 (2560000)
I0110 15:06:17.861428 17384 net.cpp:137] Memory required for data: 1683200032
I0110 15:06:17.861438 17384 layer_factory.hpp:77] Creating layer _plus2
I0110 15:06:17.861449 17384 net.cpp:84] Creating Layer _plus2
I0110 15:06:17.861457 17384 net.cpp:406] _plus2 <- stage2_unit1_bn3
I0110 15:06:17.861464 17384 net.cpp:406] _plus2 <- stage2_unit1_sc
I0110 15:06:17.861475 17384 net.cpp:380] _plus2 -> _plus2
I0110 15:06:17.861510 17384 net.cpp:122] Setting up _plus2
I0110 15:06:17.861521 17384 net.cpp:129] Top shape: 8 128 50 50 (2560000)
I0110 15:06:17.861531 17384 net.cpp:137] Memory required for data: 1693440032
I0110 15:06:17.861536 17384 layer_factory.hpp:77] Creating layer _plus2__plus2_0_split
I0110 15:06:17.861544 17384 net.cpp:84] Creating Layer _plus2__plus2_0_split
I0110 15:06:17.861552 17384 net.cpp:406] _plus2__plus2_0_split <- _plus2
I0110 15:06:17.861560 17384 net.cpp:380] _plus2__plus2_0_split -> _plus2__plus2_0_split_0
I0110 15:06:17.861578 17384 net.cpp:380] _plus2__plus2_0_split -> _plus2__plus2_0_split_1
I0110 15:06:17.861634 17384 net.cpp:122] Setting up _plus2__plus2_0_split
I0110 15:06:17.861645 17384 net.cpp:129] Top shape: 8 128 50 50 (2560000)
I0110 15:06:17.861655 17384 net.cpp:129] Top shape: 8 128 50 50 (2560000)
I0110 15:06:17.861662 17384 net.cpp:137] Memory required for data: 1713920032
I0110 15:06:17.861670 17384 layer_factory.hpp:77] Creating layer stage2_unit2_bn1
I0110 15:06:17.861683 17384 net.cpp:84] Creating Layer stage2_unit2_bn1
I0110 15:06:17.861690 17384 net.cpp:406] stage2_unit2_bn1 <- _plus2__plus2_0_split_0
I0110 15:06:17.861698 17384 net.cpp:380] stage2_unit2_bn1 -> stage2_unit2_bn1
I0110 15:06:17.861979 17384 net.cpp:122] Setting up stage2_unit2_bn1
I0110 15:06:17.861991 17384 net.cpp:129] Top shape: 8 128 50 50 (2560000)
I0110 15:06:17.861999 17384 net.cpp:137] Memory required for data: 1724160032
I0110 15:06:17.862010 17384 layer_factory.hpp:77] Creating layer stage2_unit2_bn1_scale
I0110 15:06:17.862022 17384 net.cpp:84] Creating Layer stage2_unit2_bn1_scale
I0110 15:06:17.862030 17384 net.cpp:406] stage2_unit2_bn1_scale <- stage2_unit2_bn1
I0110 15:06:17.862038 17384 net.cpp:367] stage2_unit2_bn1_scale -> stage2_unit2_bn1 (in-place)
I0110 15:06:17.862092 17384 layer_factory.hpp:77] Creating layer stage2_unit2_bn1_scale
I0110 15:06:17.862257 17384 net.cpp:122] Setting up stage2_unit2_bn1_scale
I0110 15:06:17.862269 17384 net.cpp:129] Top shape: 8 128 50 50 (2560000)
I0110 15:06:17.862275 17384 net.cpp:137] Memory required for data: 1734400032
I0110 15:06:17.862285 17384 layer_factory.hpp:77] Creating layer stage2_unit2_conv1
I0110 15:06:17.862301 17384 net.cpp:84] Creating Layer stage2_unit2_conv1
I0110 15:06:17.862309 17384 net.cpp:406] stage2_unit2_conv1 <- stage2_unit2_bn1
I0110 15:06:17.862318 17384 net.cpp:380] stage2_unit2_conv1 -> stage2_unit2_conv1
I0110 15:06:17.866766 17384 net.cpp:122] Setting up stage2_unit2_conv1
I0110 15:06:17.866789 17384 net.cpp:129] Top shape: 8 128 50 50 (2560000)
I0110 15:06:17.866797 17384 net.cpp:137] Memory required for data: 1744640032
I0110 15:06:17.866807 17384 layer_factory.hpp:77] Creating layer stage2_unit2_bn2
I0110 15:06:17.866822 17384 net.cpp:84] Creating Layer stage2_unit2_bn2
I0110 15:06:17.866830 17384 net.cpp:406] stage2_unit2_bn2 <- stage2_unit2_conv1
I0110 15:06:17.866842 17384 net.cpp:380] stage2_unit2_bn2 -> stage2_unit2_bn2
I0110 15:06:17.867152 17384 net.cpp:122] Setting up stage2_unit2_bn2
I0110 15:06:17.867166 17384 net.cpp:129] Top shape: 8 128 50 50 (2560000)
I0110 15:06:17.867172 17384 net.cpp:137] Memory required for data: 1754880032
I0110 15:06:17.867185 17384 layer_factory.hpp:77] Creating layer stage2_unit2_bn2_scale
I0110 15:06:17.867197 17384 net.cpp:84] Creating Layer stage2_unit2_bn2_scale
I0110 15:06:17.867203 17384 net.cpp:406] stage2_unit2_bn2_scale <- stage2_unit2_bn2
I0110 15:06:17.867211 17384 net.cpp:367] stage2_unit2_bn2_scale -> stage2_unit2_bn2 (in-place)
I0110 15:06:17.867275 17384 layer_factory.hpp:77] Creating layer stage2_unit2_bn2_scale
I0110 15:06:17.867441 17384 net.cpp:122] Setting up stage2_unit2_bn2_scale
I0110 15:06:17.867453 17384 net.cpp:129] Top shape: 8 128 50 50 (2560000)
I0110 15:06:17.867460 17384 net.cpp:137] Memory required for data: 1765120032
I0110 15:06:17.867471 17384 layer_factory.hpp:77] Creating layer stage2_unit2_relu1
I0110 15:06:17.867485 17384 net.cpp:84] Creating Layer stage2_unit2_relu1
I0110 15:06:17.867491 17384 net.cpp:406] stage2_unit2_relu1 <- stage2_unit2_bn2
I0110 15:06:17.867499 17384 net.cpp:380] stage2_unit2_relu1 -> stage2_unit2_relu1
I0110 15:06:17.867980 17384 net.cpp:122] Setting up stage2_unit2_relu1
I0110 15:06:17.868003 17384 net.cpp:129] Top shape: 8 128 50 50 (2560000)
I0110 15:06:17.868010 17384 net.cpp:137] Memory required for data: 1775360032
I0110 15:06:17.868017 17384 layer_factory.hpp:77] Creating layer stage2_unit2_conv2
I0110 15:06:17.868036 17384 net.cpp:84] Creating Layer stage2_unit2_conv2
I0110 15:06:17.868043 17384 net.cpp:406] stage2_unit2_conv2 <- stage2_unit2_relu1
I0110 15:06:17.868057 17384 net.cpp:380] stage2_unit2_conv2 -> stage2_unit2_conv2
I0110 15:06:17.870926 17384 net.cpp:122] Setting up stage2_unit2_conv2
I0110 15:06:17.870941 17384 net.cpp:129] Top shape: 8 128 50 50 (2560000)
I0110 15:06:17.870949 17384 net.cpp:137] Memory required for data: 1785600032
I0110 15:06:17.870957 17384 layer_factory.hpp:77] Creating layer stage2_unit2_bn3
I0110 15:06:17.870970 17384 net.cpp:84] Creating Layer stage2_unit2_bn3
I0110 15:06:17.870978 17384 net.cpp:406] stage2_unit2_bn3 <- stage2_unit2_conv2
I0110 15:06:17.870987 17384 net.cpp:380] stage2_unit2_bn3 -> stage2_unit2_bn3
I0110 15:06:17.871285 17384 net.cpp:122] Setting up stage2_unit2_bn3
I0110 15:06:17.871297 17384 net.cpp:129] Top shape: 8 128 50 50 (2560000)
I0110 15:06:17.871304 17384 net.cpp:137] Memory required for data: 1795840032
I0110 15:06:17.871316 17384 layer_factory.hpp:77] Creating layer stage2_unit2_bn3_scale
I0110 15:06:17.871326 17384 net.cpp:84] Creating Layer stage2_unit2_bn3_scale
I0110 15:06:17.871333 17384 net.cpp:406] stage2_unit2_bn3_scale <- stage2_unit2_bn3
I0110 15:06:17.871342 17384 net.cpp:367] stage2_unit2_bn3_scale -> stage2_unit2_bn3 (in-place)
I0110 15:06:17.871404 17384 layer_factory.hpp:77] Creating layer stage2_unit2_bn3_scale
I0110 15:06:17.871596 17384 net.cpp:122] Setting up stage2_unit2_bn3_scale
I0110 15:06:17.871610 17384 net.cpp:129] Top shape: 8 128 50 50 (2560000)
I0110 15:06:17.871618 17384 net.cpp:137] Memory required for data: 1806080032
I0110 15:06:17.871628 17384 layer_factory.hpp:77] Creating layer _plus3
I0110 15:06:17.871641 17384 net.cpp:84] Creating Layer _plus3
I0110 15:06:17.871649 17384 net.cpp:406] _plus3 <- stage2_unit2_bn3
I0110 15:06:17.871656 17384 net.cpp:406] _plus3 <- _plus2__plus2_0_split_1
I0110 15:06:17.871670 17384 net.cpp:380] _plus3 -> _plus3
I0110 15:06:17.871706 17384 net.cpp:122] Setting up _plus3
I0110 15:06:17.871716 17384 net.cpp:129] Top shape: 8 128 50 50 (2560000)
I0110 15:06:17.871722 17384 net.cpp:137] Memory required for data: 1816320032
I0110 15:06:17.871728 17384 layer_factory.hpp:77] Creating layer _plus3__plus3_0_split
I0110 15:06:17.871742 17384 net.cpp:84] Creating Layer _plus3__plus3_0_split
I0110 15:06:17.871748 17384 net.cpp:406] _plus3__plus3_0_split <- _plus3
I0110 15:06:17.871762 17384 net.cpp:380] _plus3__plus3_0_split -> _plus3__plus3_0_split_0
I0110 15:06:17.871773 17384 net.cpp:380] _plus3__plus3_0_split -> _plus3__plus3_0_split_1
I0110 15:06:17.871829 17384 net.cpp:122] Setting up _plus3__plus3_0_split
I0110 15:06:17.871840 17384 net.cpp:129] Top shape: 8 128 50 50 (2560000)
I0110 15:06:17.871848 17384 net.cpp:129] Top shape: 8 128 50 50 (2560000)
I0110 15:06:17.871855 17384 net.cpp:137] Memory required for data: 1836800032
I0110 15:06:17.871860 17384 layer_factory.hpp:77] Creating layer stage3_unit1_bn1
I0110 15:06:17.871870 17384 net.cpp:84] Creating Layer stage3_unit1_bn1
I0110 15:06:17.871877 17384 net.cpp:406] stage3_unit1_bn1 <- _plus3__plus3_0_split_0
I0110 15:06:17.871884 17384 net.cpp:380] stage3_unit1_bn1 -> stage3_unit1_bn1
I0110 15:06:17.872174 17384 net.cpp:122] Setting up stage3_unit1_bn1
I0110 15:06:17.872185 17384 net.cpp:129] Top shape: 8 128 50 50 (2560000)
I0110 15:06:17.872192 17384 net.cpp:137] Memory required for data: 1847040032
I0110 15:06:17.872203 17384 layer_factory.hpp:77] Creating layer stage3_unit1_bn1_scale
I0110 15:06:17.872213 17384 net.cpp:84] Creating Layer stage3_unit1_bn1_scale
I0110 15:06:17.872220 17384 net.cpp:406] stage3_unit1_bn1_scale <- stage3_unit1_bn1
I0110 15:06:17.872228 17384 net.cpp:367] stage3_unit1_bn1_scale -> stage3_unit1_bn1 (in-place)
I0110 15:06:17.872284 17384 layer_factory.hpp:77] Creating layer stage3_unit1_bn1_scale
I0110 15:06:17.872432 17384 net.cpp:122] Setting up stage3_unit1_bn1_scale
I0110 15:06:17.872443 17384 net.cpp:129] Top shape: 8 128 50 50 (2560000)
I0110 15:06:17.872450 17384 net.cpp:137] Memory required for data: 1857280032
I0110 15:06:17.872460 17384 layer_factory.hpp:77] Creating layer stage3_unit1_conv1
I0110 15:06:17.872475 17384 net.cpp:84] Creating Layer stage3_unit1_conv1
I0110 15:06:17.872483 17384 net.cpp:406] stage3_unit1_conv1 <- stage3_unit1_bn1
I0110 15:06:17.872495 17384 net.cpp:380] stage3_unit1_conv1 -> stage3_unit1_conv1
I0110 15:06:17.879040 17384 net.cpp:122] Setting up stage3_unit1_conv1
I0110 15:06:17.879062 17384 net.cpp:129] Top shape: 8 256 50 50 (5120000)
I0110 15:06:17.879068 17384 net.cpp:137] Memory required for data: 1877760032
I0110 15:06:17.879081 17384 layer_factory.hpp:77] Creating layer stage3_unit1_bn2
I0110 15:06:17.879092 17384 net.cpp:84] Creating Layer stage3_unit1_bn2
I0110 15:06:17.879101 17384 net.cpp:406] stage3_unit1_bn2 <- stage3_unit1_conv1
I0110 15:06:17.879112 17384 net.cpp:380] stage3_unit1_bn2 -> stage3_unit1_bn2
I0110 15:06:17.879402 17384 net.cpp:122] Setting up stage3_unit1_bn2
I0110 15:06:17.879413 17384 net.cpp:129] Top shape: 8 256 50 50 (5120000)
I0110 15:06:17.879420 17384 net.cpp:137] Memory required for data: 1898240032
I0110 15:06:17.879431 17384 layer_factory.hpp:77] Creating layer stage3_unit1_bn2_scale
I0110 15:06:17.879442 17384 net.cpp:84] Creating Layer stage3_unit1_bn2_scale
I0110 15:06:17.879447 17384 net.cpp:406] stage3_unit1_bn2_scale <- stage3_unit1_bn2
I0110 15:06:17.879457 17384 net.cpp:367] stage3_unit1_bn2_scale -> stage3_unit1_bn2 (in-place)
I0110 15:06:17.879510 17384 layer_factory.hpp:77] Creating layer stage3_unit1_bn2_scale
I0110 15:06:17.879673 17384 net.cpp:122] Setting up stage3_unit1_bn2_scale
I0110 15:06:17.879684 17384 net.cpp:129] Top shape: 8 256 50 50 (5120000)
I0110 15:06:17.879689 17384 net.cpp:137] Memory required for data: 1918720032
I0110 15:06:17.879698 17384 layer_factory.hpp:77] Creating layer stage3_unit1_relu1
I0110 15:06:17.879711 17384 net.cpp:84] Creating Layer stage3_unit1_relu1
I0110 15:06:17.879719 17384 net.cpp:406] stage3_unit1_relu1 <- stage3_unit1_bn2
I0110 15:06:17.879726 17384 net.cpp:380] stage3_unit1_relu1 -> stage3_unit1_relu1
I0110 15:06:17.879894 17384 net.cpp:122] Setting up stage3_unit1_relu1
I0110 15:06:17.879910 17384 net.cpp:129] Top shape: 8 256 50 50 (5120000)
I0110 15:06:17.879916 17384 net.cpp:137] Memory required for data: 1939200032
I0110 15:06:17.879922 17384 layer_factory.hpp:77] Creating layer stage3_unit1_conv2
I0110 15:06:17.879940 17384 net.cpp:84] Creating Layer stage3_unit1_conv2
I0110 15:06:17.879948 17384 net.cpp:406] stage3_unit1_conv2 <- stage3_unit1_relu1
I0110 15:06:17.879958 17384 net.cpp:380] stage3_unit1_conv2 -> stage3_unit1_conv2
I0110 15:06:17.891034 17384 net.cpp:122] Setting up stage3_unit1_conv2
I0110 15:06:17.891057 17384 net.cpp:129] Top shape: 8 256 25 25 (1280000)
I0110 15:06:17.891063 17384 net.cpp:137] Memory required for data: 1944320032
I0110 15:06:17.891072 17384 layer_factory.hpp:77] Creating layer stage3_unit1_bn3
I0110 15:06:17.891084 17384 net.cpp:84] Creating Layer stage3_unit1_bn3
I0110 15:06:17.891091 17384 net.cpp:406] stage3_unit1_bn3 <- stage3_unit1_conv2
I0110 15:06:17.891103 17384 net.cpp:380] stage3_unit1_bn3 -> stage3_unit1_bn3
I0110 15:06:17.891377 17384 net.cpp:122] Setting up stage3_unit1_bn3
I0110 15:06:17.891389 17384 net.cpp:129] Top shape: 8 256 25 25 (1280000)
I0110 15:06:17.891396 17384 net.cpp:137] Memory required for data: 1949440032
I0110 15:06:17.891407 17384 layer_factory.hpp:77] Creating layer stage3_unit1_bn3_scale
I0110 15:06:17.891425 17384 net.cpp:84] Creating Layer stage3_unit1_bn3_scale
I0110 15:06:17.891438 17384 net.cpp:406] stage3_unit1_bn3_scale <- stage3_unit1_bn3
I0110 15:06:17.891445 17384 net.cpp:367] stage3_unit1_bn3_scale -> stage3_unit1_bn3 (in-place)
I0110 15:06:17.891499 17384 layer_factory.hpp:77] Creating layer stage3_unit1_bn3_scale
I0110 15:06:17.891651 17384 net.cpp:122] Setting up stage3_unit1_bn3_scale
I0110 15:06:17.891664 17384 net.cpp:129] Top shape: 8 256 25 25 (1280000)
I0110 15:06:17.891669 17384 net.cpp:137] Memory required for data: 1954560032
I0110 15:06:17.891678 17384 layer_factory.hpp:77] Creating layer stage3_unit1_conv1sc
I0110 15:06:17.891693 17384 net.cpp:84] Creating Layer stage3_unit1_conv1sc
I0110 15:06:17.891700 17384 net.cpp:406] stage3_unit1_conv1sc <- _plus3__plus3_0_split_1
I0110 15:06:17.891710 17384 net.cpp:380] stage3_unit1_conv1sc -> stage3_unit1_conv1sc
I0110 15:06:17.892452 17384 net.cpp:122] Setting up stage3_unit1_conv1sc
I0110 15:06:17.892464 17384 net.cpp:129] Top shape: 8 256 25 25 (1280000)
I0110 15:06:17.892470 17384 net.cpp:137] Memory required for data: 1959680032
I0110 15:06:17.892479 17384 layer_factory.hpp:77] Creating layer stage3_unit1_sc
I0110 15:06:17.892489 17384 net.cpp:84] Creating Layer stage3_unit1_sc
I0110 15:06:17.892496 17384 net.cpp:406] stage3_unit1_sc <- stage3_unit1_conv1sc
I0110 15:06:17.892503 17384 net.cpp:380] stage3_unit1_sc -> stage3_unit1_sc
I0110 15:06:17.892765 17384 net.cpp:122] Setting up stage3_unit1_sc
I0110 15:06:17.892776 17384 net.cpp:129] Top shape: 8 256 25 25 (1280000)
I0110 15:06:17.892782 17384 net.cpp:137] Memory required for data: 1964800032
I0110 15:06:17.892792 17384 layer_factory.hpp:77] Creating layer stage3_unit1_sc_scale
I0110 15:06:17.892802 17384 net.cpp:84] Creating Layer stage3_unit1_sc_scale
I0110 15:06:17.892809 17384 net.cpp:406] stage3_unit1_sc_scale <- stage3_unit1_sc
I0110 15:06:17.892815 17384 net.cpp:367] stage3_unit1_sc_scale -> stage3_unit1_sc (in-place)
I0110 15:06:17.892868 17384 layer_factory.hpp:77] Creating layer stage3_unit1_sc_scale
I0110 15:06:17.893009 17384 net.cpp:122] Setting up stage3_unit1_sc_scale
I0110 15:06:17.893020 17384 net.cpp:129] Top shape: 8 256 25 25 (1280000)
I0110 15:06:17.893026 17384 net.cpp:137] Memory required for data: 1969920032
I0110 15:06:17.893034 17384 layer_factory.hpp:77] Creating layer _plus4
I0110 15:06:17.893046 17384 net.cpp:84] Creating Layer _plus4
I0110 15:06:17.893054 17384 net.cpp:406] _plus4 <- stage3_unit1_bn3
I0110 15:06:17.893060 17384 net.cpp:406] _plus4 <- stage3_unit1_sc
I0110 15:06:17.893067 17384 net.cpp:380] _plus4 -> _plus4
I0110 15:06:17.893101 17384 net.cpp:122] Setting up _plus4
I0110 15:06:17.893111 17384 net.cpp:129] Top shape: 8 256 25 25 (1280000)
I0110 15:06:17.893116 17384 net.cpp:137] Memory required for data: 1975040032
I0110 15:06:17.893121 17384 layer_factory.hpp:77] Creating layer _plus4__plus4_0_split
I0110 15:06:17.893132 17384 net.cpp:84] Creating Layer _plus4__plus4_0_split
I0110 15:06:17.893138 17384 net.cpp:406] _plus4__plus4_0_split <- _plus4
I0110 15:06:17.893148 17384 net.cpp:380] _plus4__plus4_0_split -> _plus4__plus4_0_split_0
I0110 15:06:17.893159 17384 net.cpp:380] _plus4__plus4_0_split -> _plus4__plus4_0_split_1
I0110 15:06:17.893208 17384 net.cpp:122] Setting up _plus4__plus4_0_split
I0110 15:06:17.893218 17384 net.cpp:129] Top shape: 8 256 25 25 (1280000)
I0110 15:06:17.893225 17384 net.cpp:129] Top shape: 8 256 25 25 (1280000)
I0110 15:06:17.893232 17384 net.cpp:137] Memory required for data: 1985280032
I0110 15:06:17.893237 17384 layer_factory.hpp:77] Creating layer stage3_unit2_bn1
I0110 15:06:17.893245 17384 net.cpp:84] Creating Layer stage3_unit2_bn1
I0110 15:06:17.893252 17384 net.cpp:406] stage3_unit2_bn1 <- _plus4__plus4_0_split_0
I0110 15:06:17.893260 17384 net.cpp:380] stage3_unit2_bn1 -> stage3_unit2_bn1
I0110 15:06:17.893513 17384 net.cpp:122] Setting up stage3_unit2_bn1
I0110 15:06:17.893523 17384 net.cpp:129] Top shape: 8 256 25 25 (1280000)
I0110 15:06:17.893530 17384 net.cpp:137] Memory required for data: 1990400032
I0110 15:06:17.893540 17384 layer_factory.hpp:77] Creating layer stage3_unit2_bn1_scale
I0110 15:06:17.893549 17384 net.cpp:84] Creating Layer stage3_unit2_bn1_scale
I0110 15:06:17.893556 17384 net.cpp:406] stage3_unit2_bn1_scale <- stage3_unit2_bn1
I0110 15:06:17.893563 17384 net.cpp:367] stage3_unit2_bn1_scale -> stage3_unit2_bn1 (in-place)
I0110 15:06:17.893616 17384 layer_factory.hpp:77] Creating layer stage3_unit2_bn1_scale
I0110 15:06:17.893756 17384 net.cpp:122] Setting up stage3_unit2_bn1_scale
I0110 15:06:17.893769 17384 net.cpp:129] Top shape: 8 256 25 25 (1280000)
I0110 15:06:17.893774 17384 net.cpp:137] Memory required for data: 1995520032
I0110 15:06:17.893784 17384 layer_factory.hpp:77] Creating layer stage3_unit2_conv1
I0110 15:06:17.893797 17384 net.cpp:84] Creating Layer stage3_unit2_conv1
I0110 15:06:17.893805 17384 net.cpp:406] stage3_unit2_conv1 <- stage3_unit2_bn1
I0110 15:06:17.893815 17384 net.cpp:380] stage3_unit2_conv1 -> stage3_unit2_conv1
I0110 15:06:17.904186 17384 net.cpp:122] Setting up stage3_unit2_conv1
I0110 15:06:17.904206 17384 net.cpp:129] Top shape: 8 256 25 25 (1280000)
I0110 15:06:17.904213 17384 net.cpp:137] Memory required for data: 2000640032
I0110 15:06:17.904223 17384 layer_factory.hpp:77] Creating layer stage3_unit2_bn2
I0110 15:06:17.904234 17384 net.cpp:84] Creating Layer stage3_unit2_bn2
I0110 15:06:17.904240 17384 net.cpp:406] stage3_unit2_bn2 <- stage3_unit2_conv1
I0110 15:06:17.904251 17384 net.cpp:380] stage3_unit2_bn2 -> stage3_unit2_bn2
I0110 15:06:17.904505 17384 net.cpp:122] Setting up stage3_unit2_bn2
I0110 15:06:17.904516 17384 net.cpp:129] Top shape: 8 256 25 25 (1280000)
I0110 15:06:17.904521 17384 net.cpp:137] Memory required for data: 2005760032
I0110 15:06:17.904532 17384 layer_factory.hpp:77] Creating layer stage3_unit2_bn2_scale
I0110 15:06:17.904541 17384 net.cpp:84] Creating Layer stage3_unit2_bn2_scale
I0110 15:06:17.904546 17384 net.cpp:406] stage3_unit2_bn2_scale <- stage3_unit2_bn2
I0110 15:06:17.904556 17384 net.cpp:367] stage3_unit2_bn2_scale -> stage3_unit2_bn2 (in-place)
I0110 15:06:17.904606 17384 layer_factory.hpp:77] Creating layer stage3_unit2_bn2_scale
I0110 15:06:17.904742 17384 net.cpp:122] Setting up stage3_unit2_bn2_scale
I0110 15:06:17.904752 17384 net.cpp:129] Top shape: 8 256 25 25 (1280000)
I0110 15:06:17.904758 17384 net.cpp:137] Memory required for data: 2010880032
I0110 15:06:17.904767 17384 layer_factory.hpp:77] Creating layer stage3_unit2_relu1
I0110 15:06:17.904778 17384 net.cpp:84] Creating Layer stage3_unit2_relu1
I0110 15:06:17.904785 17384 net.cpp:406] stage3_unit2_relu1 <- stage3_unit2_bn2
I0110 15:06:17.904791 17384 net.cpp:380] stage3_unit2_relu1 -> stage3_unit2_relu1
I0110 15:06:17.905202 17384 net.cpp:122] Setting up stage3_unit2_relu1
I0110 15:06:17.905220 17384 net.cpp:129] Top shape: 8 256 25 25 (1280000)
I0110 15:06:17.905226 17384 net.cpp:137] Memory required for data: 2016000032
I0110 15:06:17.905231 17384 layer_factory.hpp:77] Creating layer stage3_unit2_conv2
I0110 15:06:17.905252 17384 net.cpp:84] Creating Layer stage3_unit2_conv2
I0110 15:06:17.905259 17384 net.cpp:406] stage3_unit2_conv2 <- stage3_unit2_relu1
I0110 15:06:17.905268 17384 net.cpp:380] stage3_unit2_conv2 -> stage3_unit2_conv2
I0110 15:06:17.915100 17384 net.cpp:122] Setting up stage3_unit2_conv2
I0110 15:06:17.915119 17384 net.cpp:129] Top shape: 8 256 25 25 (1280000)
I0110 15:06:17.915124 17384 net.cpp:137] Memory required for data: 2021120032
I0110 15:06:17.915132 17384 layer_factory.hpp:77] Creating layer stage3_unit2_bn3
I0110 15:06:17.915145 17384 net.cpp:84] Creating Layer stage3_unit2_bn3
I0110 15:06:17.915153 17384 net.cpp:406] stage3_unit2_bn3 <- stage3_unit2_conv2
I0110 15:06:17.915159 17384 net.cpp:380] stage3_unit2_bn3 -> stage3_unit2_bn3
I0110 15:06:17.915400 17384 net.cpp:122] Setting up stage3_unit2_bn3
I0110 15:06:17.915410 17384 net.cpp:129] Top shape: 8 256 25 25 (1280000)
I0110 15:06:17.915416 17384 net.cpp:137] Memory required for data: 2026240032
I0110 15:06:17.915426 17384 layer_factory.hpp:77] Creating layer stage3_unit2_bn3_scale
I0110 15:06:17.915437 17384 net.cpp:84] Creating Layer stage3_unit2_bn3_scale
I0110 15:06:17.915443 17384 net.cpp:406] stage3_unit2_bn3_scale <- stage3_unit2_bn3
I0110 15:06:17.915449 17384 net.cpp:367] stage3_unit2_bn3_scale -> stage3_unit2_bn3 (in-place)
I0110 15:06:17.915498 17384 layer_factory.hpp:77] Creating layer stage3_unit2_bn3_scale
I0110 15:06:17.915637 17384 net.cpp:122] Setting up stage3_unit2_bn3_scale
I0110 15:06:17.915647 17384 net.cpp:129] Top shape: 8 256 25 25 (1280000)
I0110 15:06:17.915652 17384 net.cpp:137] Memory required for data: 2031360032
I0110 15:06:17.915660 17384 layer_factory.hpp:77] Creating layer _plus5
I0110 15:06:17.915669 17384 net.cpp:84] Creating Layer _plus5
I0110 15:06:17.915675 17384 net.cpp:406] _plus5 <- stage3_unit2_bn3
I0110 15:06:17.915681 17384 net.cpp:406] _plus5 <- _plus4__plus4_0_split_1
I0110 15:06:17.915693 17384 net.cpp:380] _plus5 -> _plus5
I0110 15:06:17.915730 17384 net.cpp:122] Setting up _plus5
I0110 15:06:17.915740 17384 net.cpp:129] Top shape: 8 256 25 25 (1280000)
I0110 15:06:17.915745 17384 net.cpp:137] Memory required for data: 2036480032
I0110 15:06:17.915751 17384 layer_factory.hpp:77] Creating layer _plus5__plus5_0_split
I0110 15:06:17.915758 17384 net.cpp:84] Creating Layer _plus5__plus5_0_split
I0110 15:06:17.915765 17384 net.cpp:406] _plus5__plus5_0_split <- _plus5
I0110 15:06:17.915771 17384 net.cpp:380] _plus5__plus5_0_split -> _plus5__plus5_0_split_0
I0110 15:06:17.915782 17384 net.cpp:380] _plus5__plus5_0_split -> _plus5__plus5_0_split_1
I0110 15:06:17.915824 17384 net.cpp:122] Setting up _plus5__plus5_0_split
I0110 15:06:17.915833 17384 net.cpp:129] Top shape: 8 256 25 25 (1280000)
I0110 15:06:17.915839 17384 net.cpp:129] Top shape: 8 256 25 25 (1280000)
I0110 15:06:17.915845 17384 net.cpp:137] Memory required for data: 2046720032
I0110 15:06:17.915849 17384 layer_factory.hpp:77] Creating layer stage4_unit1_bn1
I0110 15:06:17.915856 17384 net.cpp:84] Creating Layer stage4_unit1_bn1
I0110 15:06:17.915861 17384 net.cpp:406] stage4_unit1_bn1 <- _plus5__plus5_0_split_0
I0110 15:06:17.915870 17384 net.cpp:380] stage4_unit1_bn1 -> stage4_unit1_bn1
I0110 15:06:17.916093 17384 net.cpp:122] Setting up stage4_unit1_bn1
I0110 15:06:17.916102 17384 net.cpp:129] Top shape: 8 256 25 25 (1280000)
I0110 15:06:17.916108 17384 net.cpp:137] Memory required for data: 2051840032
I0110 15:06:17.916132 17384 layer_factory.hpp:77] Creating layer stage4_unit1_bn1_scale
I0110 15:06:17.916141 17384 net.cpp:84] Creating Layer stage4_unit1_bn1_scale
I0110 15:06:17.916147 17384 net.cpp:406] stage4_unit1_bn1_scale <- stage4_unit1_bn1
I0110 15:06:17.916154 17384 net.cpp:367] stage4_unit1_bn1_scale -> stage4_unit1_bn1 (in-place)
I0110 15:06:17.916203 17384 layer_factory.hpp:77] Creating layer stage4_unit1_bn1_scale
I0110 15:06:17.916326 17384 net.cpp:122] Setting up stage4_unit1_bn1_scale
I0110 15:06:17.916337 17384 net.cpp:129] Top shape: 8 256 25 25 (1280000)
I0110 15:06:17.916342 17384 net.cpp:137] Memory required for data: 2056960032
I0110 15:06:17.916352 17384 layer_factory.hpp:77] Creating layer stage4_unit1_conv1
I0110 15:06:17.916364 17384 net.cpp:84] Creating Layer stage4_unit1_conv1
I0110 15:06:17.916370 17384 net.cpp:406] stage4_unit1_conv1 <- stage4_unit1_bn1
I0110 15:06:17.916380 17384 net.cpp:380] stage4_unit1_conv1 -> stage4_unit1_conv1
I0110 15:06:17.934532 17384 net.cpp:122] Setting up stage4_unit1_conv1
I0110 15:06:17.934551 17384 net.cpp:129] Top shape: 8 512 25 25 (2560000)
I0110 15:06:17.934554 17384 net.cpp:137] Memory required for data: 2067200032
I0110 15:06:17.934562 17384 layer_factory.hpp:77] Creating layer stage4_unit1_bn2
I0110 15:06:17.934571 17384 net.cpp:84] Creating Layer stage4_unit1_bn2
I0110 15:06:17.934578 17384 net.cpp:406] stage4_unit1_bn2 <- stage4_unit1_conv1
I0110 15:06:17.934587 17384 net.cpp:380] stage4_unit1_bn2 -> stage4_unit1_bn2
I0110 15:06:17.934813 17384 net.cpp:122] Setting up stage4_unit1_bn2
I0110 15:06:17.934823 17384 net.cpp:129] Top shape: 8 512 25 25 (2560000)
I0110 15:06:17.934826 17384 net.cpp:137] Memory required for data: 2077440032
I0110 15:06:17.934835 17384 layer_factory.hpp:77] Creating layer stage4_unit1_bn2_scale
I0110 15:06:17.934844 17384 net.cpp:84] Creating Layer stage4_unit1_bn2_scale
I0110 15:06:17.934849 17384 net.cpp:406] stage4_unit1_bn2_scale <- stage4_unit1_bn2
I0110 15:06:17.934857 17384 net.cpp:367] stage4_unit1_bn2_scale -> stage4_unit1_bn2 (in-place)
I0110 15:06:17.934900 17384 layer_factory.hpp:77] Creating layer stage4_unit1_bn2_scale
I0110 15:06:17.935016 17384 net.cpp:122] Setting up stage4_unit1_bn2_scale
I0110 15:06:17.935025 17384 net.cpp:129] Top shape: 8 512 25 25 (2560000)
I0110 15:06:17.935029 17384 net.cpp:137] Memory required for data: 2087680032
I0110 15:06:17.935036 17384 layer_factory.hpp:77] Creating layer stage4_unit1_relu1
I0110 15:06:17.935047 17384 net.cpp:84] Creating Layer stage4_unit1_relu1
I0110 15:06:17.935052 17384 net.cpp:406] stage4_unit1_relu1 <- stage4_unit1_bn2
I0110 15:06:17.935058 17384 net.cpp:380] stage4_unit1_relu1 -> stage4_unit1_relu1
I0110 15:06:17.935186 17384 net.cpp:122] Setting up stage4_unit1_relu1
I0110 15:06:17.935199 17384 net.cpp:129] Top shape: 8 512 25 25 (2560000)
I0110 15:06:17.935204 17384 net.cpp:137] Memory required for data: 2097920032
I0110 15:06:17.935209 17384 layer_factory.hpp:77] Creating layer stage4_unit1_conv2
I0110 15:06:17.935223 17384 net.cpp:84] Creating Layer stage4_unit1_conv2
I0110 15:06:17.935230 17384 net.cpp:406] stage4_unit1_conv2 <- stage4_unit1_relu1
I0110 15:06:17.935237 17384 net.cpp:380] stage4_unit1_conv2 -> stage4_unit1_conv2
I0110 15:06:17.969375 17384 net.cpp:122] Setting up stage4_unit1_conv2
I0110 15:06:17.969393 17384 net.cpp:129] Top shape: 8 512 13 13 (692224)
I0110 15:06:17.969398 17384 net.cpp:137] Memory required for data: 2100688928
I0110 15:06:17.969405 17384 layer_factory.hpp:77] Creating layer stage4_unit1_bn3
I0110 15:06:17.969413 17384 net.cpp:84] Creating Layer stage4_unit1_bn3
I0110 15:06:17.969417 17384 net.cpp:406] stage4_unit1_bn3 <- stage4_unit1_conv2
I0110 15:06:17.969427 17384 net.cpp:380] stage4_unit1_bn3 -> stage4_unit1_bn3
I0110 15:06:17.969652 17384 net.cpp:122] Setting up stage4_unit1_bn3
I0110 15:06:17.969662 17384 net.cpp:129] Top shape: 8 512 13 13 (692224)
I0110 15:06:17.969666 17384 net.cpp:137] Memory required for data: 2103457824
I0110 15:06:17.969674 17384 layer_factory.hpp:77] Creating layer stage4_unit1_bn3_scale
I0110 15:06:17.969684 17384 net.cpp:84] Creating Layer stage4_unit1_bn3_scale
I0110 15:06:17.969688 17384 net.cpp:406] stage4_unit1_bn3_scale <- stage4_unit1_bn3
I0110 15:06:17.969699 17384 net.cpp:367] stage4_unit1_bn3_scale -> stage4_unit1_bn3 (in-place)
I0110 15:06:17.969745 17384 layer_factory.hpp:77] Creating layer stage4_unit1_bn3_scale
I0110 15:06:17.969862 17384 net.cpp:122] Setting up stage4_unit1_bn3_scale
I0110 15:06:17.969871 17384 net.cpp:129] Top shape: 8 512 13 13 (692224)
I0110 15:06:17.969874 17384 net.cpp:137] Memory required for data: 2106226720
I0110 15:06:17.969884 17384 layer_factory.hpp:77] Creating layer stage4_unit1_conv1sc
I0110 15:06:17.969898 17384 net.cpp:84] Creating Layer stage4_unit1_conv1sc
I0110 15:06:17.969904 17384 net.cpp:406] stage4_unit1_conv1sc <- _plus5__plus5_0_split_1
I0110 15:06:17.969913 17384 net.cpp:380] stage4_unit1_conv1sc -> stage4_unit1_conv1sc
I0110 15:06:17.971801 17384 net.cpp:122] Setting up stage4_unit1_conv1sc
I0110 15:06:17.971812 17384 net.cpp:129] Top shape: 8 512 13 13 (692224)
I0110 15:06:17.971815 17384 net.cpp:137] Memory required for data: 2108995616
I0110 15:06:17.971822 17384 layer_factory.hpp:77] Creating layer stage4_unit1_sc
I0110 15:06:17.971832 17384 net.cpp:84] Creating Layer stage4_unit1_sc
I0110 15:06:17.971835 17384 net.cpp:406] stage4_unit1_sc <- stage4_unit1_conv1sc
I0110 15:06:17.971841 17384 net.cpp:380] stage4_unit1_sc -> stage4_unit1_sc
I0110 15:06:17.972055 17384 net.cpp:122] Setting up stage4_unit1_sc
I0110 15:06:17.972064 17384 net.cpp:129] Top shape: 8 512 13 13 (692224)
I0110 15:06:17.972069 17384 net.cpp:137] Memory required for data: 2111764512
I0110 15:06:17.972076 17384 layer_factory.hpp:77] Creating layer stage4_unit1_sc_scale
I0110 15:06:17.972082 17384 net.cpp:84] Creating Layer stage4_unit1_sc_scale
I0110 15:06:17.972088 17384 net.cpp:406] stage4_unit1_sc_scale <- stage4_unit1_sc
I0110 15:06:17.972095 17384 net.cpp:367] stage4_unit1_sc_scale -> stage4_unit1_sc (in-place)
I0110 15:06:17.972137 17384 layer_factory.hpp:77] Creating layer stage4_unit1_sc_scale
I0110 15:06:17.972254 17384 net.cpp:122] Setting up stage4_unit1_sc_scale
I0110 15:06:17.972263 17384 net.cpp:129] Top shape: 8 512 13 13 (692224)
I0110 15:06:17.972267 17384 net.cpp:137] Memory required for data: 2114533408
I0110 15:06:17.972275 17384 layer_factory.hpp:77] Creating layer _plus6
I0110 15:06:17.972287 17384 net.cpp:84] Creating Layer _plus6
I0110 15:06:17.972293 17384 net.cpp:406] _plus6 <- stage4_unit1_bn3
I0110 15:06:17.972298 17384 net.cpp:406] _plus6 <- stage4_unit1_sc
I0110 15:06:17.972304 17384 net.cpp:380] _plus6 -> _plus6
I0110 15:06:17.972331 17384 net.cpp:122] Setting up _plus6
I0110 15:06:17.972339 17384 net.cpp:129] Top shape: 8 512 13 13 (692224)
I0110 15:06:17.972342 17384 net.cpp:137] Memory required for data: 2117302304
I0110 15:06:17.972348 17384 layer_factory.hpp:77] Creating layer _plus6__plus6_0_split
I0110 15:06:17.972354 17384 net.cpp:84] Creating Layer _plus6__plus6_0_split
I0110 15:06:17.972360 17384 net.cpp:406] _plus6__plus6_0_split <- _plus6
I0110 15:06:17.972368 17384 net.cpp:380] _plus6__plus6_0_split -> _plus6__plus6_0_split_0
I0110 15:06:17.972378 17384 net.cpp:380] _plus6__plus6_0_split -> _plus6__plus6_0_split_1
I0110 15:06:17.972419 17384 net.cpp:122] Setting up _plus6__plus6_0_split
I0110 15:06:17.972426 17384 net.cpp:129] Top shape: 8 512 13 13 (692224)
I0110 15:06:17.972431 17384 net.cpp:129] Top shape: 8 512 13 13 (692224)
I0110 15:06:17.972434 17384 net.cpp:137] Memory required for data: 2122840096
I0110 15:06:17.972438 17384 layer_factory.hpp:77] Creating layer stage4_unit2_bn1
I0110 15:06:17.972445 17384 net.cpp:84] Creating Layer stage4_unit2_bn1
I0110 15:06:17.972450 17384 net.cpp:406] stage4_unit2_bn1 <- _plus6__plus6_0_split_0
I0110 15:06:17.972455 17384 net.cpp:380] stage4_unit2_bn1 -> stage4_unit2_bn1
I0110 15:06:17.972659 17384 net.cpp:122] Setting up stage4_unit2_bn1
I0110 15:06:17.972667 17384 net.cpp:129] Top shape: 8 512 13 13 (692224)
I0110 15:06:17.972671 17384 net.cpp:137] Memory required for data: 2125608992
I0110 15:06:17.972679 17384 layer_factory.hpp:77] Creating layer stage4_unit2_bn1_scale
I0110 15:06:17.972687 17384 net.cpp:84] Creating Layer stage4_unit2_bn1_scale
I0110 15:06:17.972692 17384 net.cpp:406] stage4_unit2_bn1_scale <- stage4_unit2_bn1
I0110 15:06:17.972697 17384 net.cpp:367] stage4_unit2_bn1_scale -> stage4_unit2_bn1 (in-place)
I0110 15:06:17.972741 17384 layer_factory.hpp:77] Creating layer stage4_unit2_bn1_scale
I0110 15:06:17.972857 17384 net.cpp:122] Setting up stage4_unit2_bn1_scale
I0110 15:06:17.972867 17384 net.cpp:129] Top shape: 8 512 13 13 (692224)
I0110 15:06:17.972870 17384 net.cpp:137] Memory required for data: 2128377888
I0110 15:06:17.972878 17384 layer_factory.hpp:77] Creating layer stage4_unit2_conv1
I0110 15:06:17.972890 17384 net.cpp:84] Creating Layer stage4_unit2_conv1
I0110 15:06:17.972896 17384 net.cpp:406] stage4_unit2_conv1 <- stage4_unit2_bn1
I0110 15:06:17.972905 17384 net.cpp:380] stage4_unit2_conv1 -> stage4_unit2_conv1
I0110 15:06:18.006781 17384 net.cpp:122] Setting up stage4_unit2_conv1
I0110 15:06:18.006803 17384 net.cpp:129] Top shape: 8 512 13 13 (692224)
I0110 15:06:18.006808 17384 net.cpp:137] Memory required for data: 2131146784
I0110 15:06:18.006816 17384 layer_factory.hpp:77] Creating layer stage4_unit2_bn2
I0110 15:06:18.006829 17384 net.cpp:84] Creating Layer stage4_unit2_bn2
I0110 15:06:18.006835 17384 net.cpp:406] stage4_unit2_bn2 <- stage4_unit2_conv1
I0110 15:06:18.006844 17384 net.cpp:380] stage4_unit2_bn2 -> stage4_unit2_bn2
I0110 15:06:18.007067 17384 net.cpp:122] Setting up stage4_unit2_bn2
I0110 15:06:18.007076 17384 net.cpp:129] Top shape: 8 512 13 13 (692224)
I0110 15:06:18.007081 17384 net.cpp:137] Memory required for data: 2133915680
I0110 15:06:18.007089 17384 layer_factory.hpp:77] Creating layer stage4_unit2_bn2_scale
I0110 15:06:18.007100 17384 net.cpp:84] Creating Layer stage4_unit2_bn2_scale
I0110 15:06:18.007105 17384 net.cpp:406] stage4_unit2_bn2_scale <- stage4_unit2_bn2
I0110 15:06:18.007112 17384 net.cpp:367] stage4_unit2_bn2_scale -> stage4_unit2_bn2 (in-place)
I0110 15:06:18.007155 17384 layer_factory.hpp:77] Creating layer stage4_unit2_bn2_scale
I0110 15:06:18.007272 17384 net.cpp:122] Setting up stage4_unit2_bn2_scale
I0110 15:06:18.007282 17384 net.cpp:129] Top shape: 8 512 13 13 (692224)
I0110 15:06:18.007287 17384 net.cpp:137] Memory required for data: 2136684576
I0110 15:06:18.007295 17384 layer_factory.hpp:77] Creating layer stage4_unit2_relu1
I0110 15:06:18.007304 17384 net.cpp:84] Creating Layer stage4_unit2_relu1
I0110 15:06:18.007310 17384 net.cpp:406] stage4_unit2_relu1 <- stage4_unit2_bn2
I0110 15:06:18.007316 17384 net.cpp:380] stage4_unit2_relu1 -> stage4_unit2_relu1
I0110 15:06:18.007746 17384 net.cpp:122] Setting up stage4_unit2_relu1
I0110 15:06:18.007763 17384 net.cpp:129] Top shape: 8 512 13 13 (692224)
I0110 15:06:18.007767 17384 net.cpp:137] Memory required for data: 2139453472
I0110 15:06:18.007773 17384 layer_factory.hpp:77] Creating layer stage4_unit2_conv2
I0110 15:06:18.007788 17384 net.cpp:84] Creating Layer stage4_unit2_conv2
I0110 15:06:18.007792 17384 net.cpp:406] stage4_unit2_conv2 <- stage4_unit2_relu1
I0110 15:06:18.007802 17384 net.cpp:380] stage4_unit2_conv2 -> stage4_unit2_conv2
I0110 15:06:18.041657 17384 net.cpp:122] Setting up stage4_unit2_conv2
I0110 15:06:18.041677 17384 net.cpp:129] Top shape: 8 512 13 13 (692224)
I0110 15:06:18.041682 17384 net.cpp:137] Memory required for data: 2142222368
I0110 15:06:18.041689 17384 layer_factory.hpp:77] Creating layer stage4_unit2_bn3
I0110 15:06:18.041698 17384 net.cpp:84] Creating Layer stage4_unit2_bn3
I0110 15:06:18.041703 17384 net.cpp:406] stage4_unit2_bn3 <- stage4_unit2_conv2
I0110 15:06:18.041713 17384 net.cpp:380] stage4_unit2_bn3 -> stage4_unit2_bn3
I0110 15:06:18.041939 17384 net.cpp:122] Setting up stage4_unit2_bn3
I0110 15:06:18.041949 17384 net.cpp:129] Top shape: 8 512 13 13 (692224)
I0110 15:06:18.041952 17384 net.cpp:137] Memory required for data: 2144991264
I0110 15:06:18.041961 17384 layer_factory.hpp:77] Creating layer stage4_unit2_bn3_scale
I0110 15:06:18.041971 17384 net.cpp:84] Creating Layer stage4_unit2_bn3_scale
I0110 15:06:18.041975 17384 net.cpp:406] stage4_unit2_bn3_scale <- stage4_unit2_bn3
I0110 15:06:18.041983 17384 net.cpp:367] stage4_unit2_bn3_scale -> stage4_unit2_bn3 (in-place)
I0110 15:06:18.042027 17384 layer_factory.hpp:77] Creating layer stage4_unit2_bn3_scale
I0110 15:06:18.042145 17384 net.cpp:122] Setting up stage4_unit2_bn3_scale
I0110 15:06:18.042153 17384 net.cpp:129] Top shape: 8 512 13 13 (692224)
I0110 15:06:18.042157 17384 net.cpp:137] Memory required for data: 2147760160
I0110 15:06:18.042165 17384 layer_factory.hpp:77] Creating layer _plus7
I0110 15:06:18.042176 17384 net.cpp:84] Creating Layer _plus7
I0110 15:06:18.042181 17384 net.cpp:406] _plus7 <- stage4_unit2_bn3
I0110 15:06:18.042187 17384 net.cpp:406] _plus7 <- _plus6__plus6_0_split_1
I0110 15:06:18.042196 17384 net.cpp:380] _plus7 -> _plus7
I0110 15:06:18.042223 17384 net.cpp:122] Setting up _plus7
I0110 15:06:18.042232 17384 net.cpp:129] Top shape: 8 512 13 13 (692224)
I0110 15:06:18.042235 17384 net.cpp:137] Memory required for data: 2150529056
I0110 15:06:18.042239 17384 layer_factory.hpp:77] Creating layer bn1
I0110 15:06:18.042248 17384 net.cpp:84] Creating Layer bn1
I0110 15:06:18.042253 17384 net.cpp:406] bn1 <- _plus7
I0110 15:06:18.042261 17384 net.cpp:380] bn1 -> bn1
I0110 15:06:18.042466 17384 net.cpp:122] Setting up bn1
I0110 15:06:18.042475 17384 net.cpp:129] Top shape: 8 512 13 13 (692224)
I0110 15:06:18.042479 17384 net.cpp:137] Memory required for data: 2153297952
I0110 15:06:18.042487 17384 layer_factory.hpp:77] Creating layer bn1_scale
I0110 15:06:18.042496 17384 net.cpp:84] Creating Layer bn1_scale
I0110 15:06:18.042502 17384 net.cpp:406] bn1_scale <- bn1
I0110 15:06:18.042507 17384 net.cpp:367] bn1_scale -> bn1 (in-place)
I0110 15:06:18.042547 17384 layer_factory.hpp:77] Creating layer bn1_scale
I0110 15:06:18.042665 17384 net.cpp:122] Setting up bn1_scale
I0110 15:06:18.042672 17384 net.cpp:129] Top shape: 8 512 13 13 (692224)
I0110 15:06:18.042676 17384 net.cpp:137] Memory required for data: 2156066848
I0110 15:06:18.042685 17384 layer_factory.hpp:77] Creating layer fc8
I0110 15:06:18.042702 17384 net.cpp:84] Creating Layer fc8
I0110 15:06:18.042708 17384 net.cpp:406] fc8 <- bn1
I0110 15:06:18.042716 17384 net.cpp:380] fc8 -> fc8
I0110 15:06:18.046169 17384 net.cpp:122] Setting up fc8
I0110 15:06:18.046185 17384 net.cpp:129] Top shape: 8 2 (16)
I0110 15:06:18.046188 17384 net.cpp:137] Memory required for data: 2156066912
I0110 15:06:18.046197 17384 layer_factory.hpp:77] Creating layer loss
I0110 15:06:18.046208 17384 net.cpp:84] Creating Layer loss
I0110 15:06:18.046214 17384 net.cpp:406] loss <- fc8
I0110 15:06:18.046219 17384 net.cpp:406] loss <- label
I0110 15:06:18.046227 17384 net.cpp:380] loss -> loss
I0110 15:06:18.046244 17384 layer_factory.hpp:77] Creating layer loss
…
I0110 15:06:18.048600 17384 solver.cpp:172] Creating test net (#0) specified by net file: r18_train_val.prototxt
I0110 15:06:18.048712 17384 net.cpp:294] The NetState phase (1) differed from the phase (0) specified by a rule in layer data
I0110 15:06:18.049468 17384 net.cpp:51] Initializing net from parameters: 
name: "r18"
state {
  phase: TEST
}
layer {
  name: "data"
  type: "Data"
  top: "data"
  top: "label"
  include {
    phase: TEST
  }
  transform_param {
    scale: 0.0078125
    mirror: true
    mean_value: 127
  }
  data_param {
    source: "/home/lc/gender/school/data_3/val.lmdb"
    batch_size: 8
    backend: LMDB
  }
}
layer {
  name: "conv0"
  type: "Convolution"
  bottom: "data"
  top: "conv0"
  param {
    lr_mult: 1
    decay_mult: 1
  }
  convolution_param {
    num_output: 64
    bias_term: false
    pad: 1
    kernel_size: 3
    stride: 1
    weight_filler {
      type: "gaussian"
      std: 0.01
    }
    engine: CAFFE
  }
}
layer {
  name: "bn0"
  type: "BatchNorm"
  bottom: "conv0"
  top: "bn0"
  batch_norm_param {
    use_global_stats: false
    moving_average_fraction: 0.9
    eps: 2e-05
  }
}
layer {
  name: "bn0_scale"
  type: "Scale"
  bottom: "bn0"
  top: "bn0"
  scale_param {
    bias_term: true
  }
}
layer {
  name: "relu0"
  type: "ReLU"
  bottom: "bn0"
  top: "relu0"
}
layer {
  name: "stage1_unit1_bn1"
  type: "BatchNorm"
  bottom: "relu0"
  top: "stage1_unit1_bn1"
  batch_norm_param {
    use_global_stats: false
    moving_average_fraction: 0.9
    eps: 2e-05
  }
}
layer {
  name: "stage1_unit1_bn1_scale"
  type: "Scale"
  bottom: "stage1_unit1_bn1"
  top: "stage1_unit1_bn1"
  scale_param {
    bias_term: true
  }
}
layer {
  name: "stage1_unit1_conv1"
  type: "Convolution"
  bottom: "stage1_unit1_bn1"
  top: "stage1_unit1_conv1"
  param {
    lr_mult: 1
    decay_mult: 1
  }
  convolution_param {
    num_output: 64
    bias_term: false
    pad: 1
    kernel_size: 3
    stride: 1
    weight_filler {
      type: "gaussian"
      std: 0.01
    }
    engine: CAFFE
  }
}
layer {
  name: "stage1_unit1_bn2"
  type: "BatchNorm"
  bottom: "stage1_unit1_conv1"
  top: "stage1_unit1_bn2"
  batch_norm_param {
    use_global_stats: false
    moving_average_fraction: 0.9
    eps: 2e-05
  }
}
layer {
  name: "stage1_unit1_bn2_scale"
  type: "Scale"
  bottom: "stage1_unit1_bn2"
  top: "stage1_unit1_bn2"
  scale_param {
    bias_term: true
  }
}
layer {
  name: "stage1_unit1_relu1"
  type: "ReLU"
  bottom: "stage1_unit1_bn2"
  top: "stage1_unit1_relu1"
}
layer {
  name: "stage1_unit1_conv2"
  type: "Convolution"
  bottom: "stage1_unit1_relu1"
  top: "stage1_unit1_conv2"
  param {
    lr_mult: 1
    decay_mult: 1
  }
  convolution_param {
    num_output: 64
    bias_term: false
    pad: 1
    kernel_size: 3
    stride: 2
    weight_filler {
      type: "gaussian"
      std: 0.01
    }
    engine: CAFFE
  }
}
layer {
  name: "stage1_unit1_bn3"
  type: "BatchNorm"
  bottom: "stage1_unit1_conv2"
  top: "stage1_unit1_bn3"
  batch_norm_param {
    use_global_stats: false
    moving_average_fraction: 0.9
    eps: 2e-05
  }
}
layer {
  name: "stage1_unit1_bn3_scale"
  type: "Scale"
  bottom: "stage1_unit1_bn3"
  top: "stage1_unit1_bn3"
  scale_param {
    bias_term: true
  }
}
layer {
  name: "stage1_unit1_conv1sc"
  type: "Convolution"
  bottom: "relu0"
  top: "stage1_unit1_conv1sc"
  param {
    lr_mult: 1
    decay_mult: 1
  }
  convolution_param {
    num_output: 64
    bias_term: false
    kernel_size: 1
    stride: 2
    weight_filler {
      type: "gaussian"
      std: 0.01
    }
    engine: CAFFE
  }
}
layer {
  name: "stage1_unit1_sc"
  type: "BatchNorm"
  bottom: "stage1_unit1_conv1sc"
  top: "stage1_unit1_sc"
  batch_norm_param {
    use_global_stats: false
    moving_average_fraction: 0.9
    eps: 2e-05
  }
}
layer {
  name: "stage1_unit1_sc_scale"
  type: "Scale"
  bottom: "stage1_unit1_sc"
  top: "stage1_unit1_sc"
  scale_param {
    bias_term: true
  }
}
layer {
  name: "_plus0"
  type: "Eltwise"
  bottom: "stage1_unit1_bn3"
  bottom: "stage1_unit1_sc"
  top: "_plus0"
  eltwise_param {
    operation: SUM
  }
}
layer {
  name: "stage1_unit2_bn1"
  type: "BatchNorm"
  bottom: "_plus0"
  top: "stage1_unit2_bn1"
  batch_norm_param {
    use_global_stats: false
    moving_average_fraction: 0.9
    eps: 2e-05
  }
}
layer {
  name: "stage1_unit2_bn1_scale"
  type: "Scale"
  bottom: "stage1_unit2_bn1"
  top: "stage1_unit2_bn1"
  scale_param {
    bias_term: true
  }
}
layer {
  name: "stage1_unit2_conv1"
  type: "Convolution"
  bottom: "stage1_unit2_bn1"
  top: "stage1_unit2_conv1"
  param {
    lr_mult: 1
    decay_mult: 1
  }
  convolution_param {
    num_output: 64
    bias_term: false
    pad: 1
    kernel_size: 3
    stride: 1
    weight_filler {
      type: "gaussian"
      std: 0.01
    }
    engine: CAFFE
  }
}
layer {
  name: "stage1_unit2_bn2"
  type: "BatchNorm"
  bottom: "stage1_unit2_conv1"
  top: "stage1_unit2_bn2"
  batch_norm_param {
    use_global_stats: false
    moving_average_fraction: 0.9
    eps: 2e-05
  }
}
layer {
  name: "stage1_unit2_bn2_scale"
  type: "Scale"
  bottom: "stage1_unit2_bn2"
  top: "stage1_unit2_bn2"
  scale_param {
    bias_term: true
  }
}
layer {
  name: "stage1_unit2_relu1"
  type: "ReLU"
  bottom: "stage1_unit2_bn2"
  top: "stage1_unit2_relu1"
}
layer {
  name: "stage1_unit2_conv2"
  type: "Convolution"
  bottom: "stage1_unit2_relu1"
  top: "stage1_unit2_conv2"
  param {
    lr_mult: 1
    decay_mult: 1
  }
  convolution_param {
    num_output: 64
    bias_term: false
    pad: 1
    kernel_size: 3
    stride: 1
    weight_filler {
      type: "gaussian"
      std: 0.01
    }
    engine: CAFFE
  }
}
layer {
  name: "stage1_unit2_bn3"
  type: "BatchNorm"
  bottom: "stage1_unit2_conv2"
  top: "stage1_unit2_bn3"
  batch_norm_param {
    use_global_stats: false
    moving_average_fraction: 0.9
    eps: 2e-05
  }
}
layer {
  name: "stage1_unit2_bn3_scale"
  type: "Scale"
  bottom: "stage1_unit2_bn3"
  top: "stage1_unit2_bn3"
  scale_param {
    bias_term: true
  }
}
layer {
  name: "_plus1"
  type: "Eltwise"
  bottom: "stage1_unit2_bn3"
  bottom: "_plus0"
  top: "_plus1"
  eltwise_param {
    operation: SUM
  }
}
layer {
  name: "stage2_unit1_bn1"
  type: "BatchNorm"
  bottom: "_plus1"
  top: "stage2_unit1_bn1"
  batch_norm_param {
    use_global_stats: false
    moving_average_fraction: 0.9
    eps: 2e-05
  }
}
layer {
  name: "stage2_unit1_bn1_scale"
  type: "Scale"
  bottom: "stage2_unit1_bn1"
  top: "stage2_unit1_bn1"
  scale_param {
    bias_term: true
  }
}
layer {
  name: "stage2_unit1_conv1"
  type: "Convolution"
  bottom: "stage2_unit1_bn1"
  top: "stage2_unit1_conv1"
  param {
    lr_mult: 1
    decay_mult: 1
  }
  convolution_param {
    num_output: 128
    bias_term: false
    pad: 1
    kernel_size: 3
    stride: 1
    weight_filler {
      type: "gaussian"
      std: 0.01
    }
    engine: CAFFE
  }
}
layer {
  name: "stage2_unit1_bn2"
  type: "BatchNorm"
  bottom: "stage2_unit1_conv1"
  top: "stage2_unit1_bn2"
  batch_norm_param {
    use_global_stats: false
    moving_average_fraction: 0.9
    eps: 2e-05
  }
}
layer {
  name: "stage2_unit1_bn2_scale"
  type: "Scale"
  bottom: "stage2_unit1_bn2"
  top: "stage2_unit1_bn2"
  scale_param {
    bias_term: true
  }
}
layer {
  name: "stage2_unit1_relu1"
  type: "ReLU"
  bottom: "stage2_unit1_bn2"
  top: "stage2_unit1_relu1"
}
layer {
  name: "stage2_unit1_conv2"
  type: "Convolution"
  bottom: "stage2_unit1_relu1"
  top: "stage2_unit1_conv2"
  param {
    lr_mult: 1
    decay_mult: 1
  }
  convolution_param {
    num_output: 128
    bias_term: false
    pad: 1
    kernel_size: 3
    stride: 2
    weight_filler {
      type: "gaussian"
      std: 0.01
    }
    engine: CAFFE
  }
}
layer {
  name: "stage2_unit1_bn3"
  type: "BatchNorm"
  bottom: "stage2_unit1_conv2"
  top: "stage2_unit1_bn3"
  batch_norm_param {
    use_global_stats: false
    moving_average_fraction: 0.9
    eps: 2e-05
  }
}
layer {
  name: "stage2_unit1_bn3_scale"
  type: "Scale"
  bottom: "stage2_unit1_bn3"
  top: "stage2_unit1_bn3"
  scale_param {
    bias_term: true
  }
}
layer {
  name: "stage2_unit1_conv1sc"
  type: "Convolution"
  bottom: "_plus1"
  top: "stage2_unit1_conv1sc"
  param {
    lr_mult: 1
    decay_mult: 1
  }
  convolution_param {
    num_output: 128
    bias_term: false
    kernel_size: 1
    stride: 2
    weight_filler {
      type: "gaussian"
      std: 0.01
    }
    engine: CAFFE
  }
}
layer {
  name: "stage2_unit1_sc"
  type: "BatchNorm"
  bottom: "stage2_unit1_conv1sc"
  top: "stage2_unit1_sc"
  batch_norm_param {
    use_global_stats: false
    moving_average_fraction: 0.9
    eps: 2e-05
  }
}
layer {
  name: "stage2_unit1_sc_scale"
  type: "Scale"
  bottom: "stage2_unit1_sc"
  top: "stage2_unit1_sc"
  scale_param {
    bias_term: true
  }
}
layer {
  name: "_plus2"
  type: "Eltwise"
  bottom: "stage2_unit1_bn3"
  bottom: "stage2_unit1_sc"
  top: "_plus2"
  eltwise_param {
    operation: SUM
  }
}
layer {
  name: "stage2_unit2_bn1"
  type: "BatchNorm"
  bottom: "_plus2"
  top: "stage2_unit2_bn1"
  batch_norm_param {
    use_global_stats: false
    moving_average_fraction: 0.9
    eps: 2e-05
  }
}
layer {
  name: "stage2_unit2_bn1_scale"
  type: "Scale"
  bottom: "stage2_unit2_bn1"
  top: "stage2_unit2_bn1"
  scale_param {
    bias_term: true
  }
}
layer {
  name: "stage2_unit2_conv1"
  type: "Convolution"
  bottom: "stage2_unit2_bn1"
  top: "stage2_unit2_conv1"
  param {
    lr_mult: 1
    decay_mult: 1
  }
  convolution_param {
    num_output: 128
    bias_term: false
    pad: 1
    kernel_size: 3
    stride: 1
    weight_filler {
      type: "gaussian"
      std: 0.01
    }
    engine: CAFFE
  }
}
layer {
  name: "stage2_unit2_bn2"
  type: "BatchNorm"
  bottom: "stage2_unit2_conv1"
  top: "stage2_unit2_bn2"
  batch_norm_param {
    use_global_stats: false
    moving_average_fraction: 0.9
    eps: 2e-05
  }
}
layer {
  name: "stage2_unit2_bn2_scale"
  type: "Scale"
  bottom: "stage2_unit2_bn2"
  top: "stage2_unit2_bn2"
  scale_param {
    bias_term: true
  }
}
layer {
  name: "stage2_unit2_relu1"
  type: "ReLU"
  bottom: "stage2_unit2_bn2"
  top: "stage2_unit2_relu1"
}
layer {
  name: "stage2_unit2_conv2"
  type: "Convolution"
  bottom: "stage2_unit2_relu1"
  top: "stage2_unit2_conv2"
  param {
    lr_mult: 1
    decay_mult: 1
  }
  convolution_param {
    num_output: 128
    bias_term: false
    pad: 1
    kernel_size: 3
    stride: 1
    weight_filler {
      type: "gaussian"
      std: 0.01
    }
    engine: CAFFE
  }
}
layer {
  name: "stage2_unit2_bn3"
  type: "BatchNorm"
  bottom: "stage2_unit2_conv2"
  top: "stage2_unit2_bn3"
  batch_norm_param {
    use_global_stats: false
    moving_average_fraction: 0.9
    eps: 2e-05
  }
}
layer {
  name: "stage2_unit2_bn3_scale"
  type: "Scale"
  bottom: "stage2_unit2_bn3"
  top: "stage2_unit2_bn3"
  scale_param {
    bias_term: true
  }
}
layer {
  name: "_plus3"
  type: "Eltwise"
  bottom: "stage2_unit2_bn3"
  bottom: "_plus2"
  top: "_plus3"
  eltwise_param {
    operation: SUM
  }
}
layer {
  name: "stage3_unit1_bn1"
  type: "BatchNorm"
  bottom: "_plus3"
  top: "stage3_unit1_bn1"
  batch_norm_param {
    use_global_stats: false
    moving_average_fraction: 0.9
    eps: 2e-05
  }
}
layer {
  name: "stage3_unit1_bn1_scale"
  type: "Scale"
  bottom: "stage3_unit1_bn1"
  top: "stage3_unit1_bn1"
  scale_param {
    bias_term: true
  }
}
layer {
  name: "stage3_unit1_conv1"
  type: "Convolution"
  bottom: "stage3_unit1_bn1"
  top: "stage3_unit1_conv1"
  param {
    lr_mult: 1
    decay_mult: 1
  }
  convolution_param {
    num_output: 256
    bias_term: false
    pad: 1
    kernel_size: 3
    stride: 1
    weight_filler {
      type: "gaussian"
      std: 0.01
    }
    engine: CAFFE
  }
}
layer {
  name: "stage3_unit1_bn2"
  type: "BatchNorm"
  bottom: "stage3_unit1_conv1"
  top: "stage3_unit1_bn2"
  batch_norm_param {
    use_global_stats: false
    moving_average_fraction: 0.9
    eps: 2e-05
  }
}
layer {
  name: "stage3_unit1_bn2_scale"
  type: "Scale"
  bottom: "stage3_unit1_bn2"
  top: "stage3_unit1_bn2"
  scale_param {
    bias_term: true
  }
}
layer {
  name: "stage3_unit1_relu1"
  type: "ReLU"
  bottom: "stage3_unit1_bn2"
  top: "stage3_unit1_relu1"
}
layer {
  name: "stage3_unit1_conv2"
  type: "Convolution"
  bottom: "stage3_unit1_relu1"
  top: "stage3_unit1_conv2"
  param {
    lr_mult: 1
    decay_mult: 1
  }
  convolution_param {
    num_output: 256
    bias_term: false
    pad: 1
    kernel_size: 3
    stride: 2
    weight_filler {
      type: "gaussian"
      std: 0.01
    }
    engine: CAFFE
  }
}
layer {
  name: "stage3_unit1_bn3"
  type: "BatchNorm"
  bottom: "stage3_unit1_conv2"
  top: "stage3_unit1_bn3"
  batch_norm_param {
    use_global_stats: false
    moving_average_fraction: 0.9
    eps: 2e-05
  }
}
layer {
  name: "stage3_unit1_bn3_scale"
  type: "Scale"
  bottom: "stage3_unit1_bn3"
  top: "stage3_unit1_bn3"
  scale_param {
    bias_term: true
  }
}
layer {
  name: "stage3_unit1_conv1sc"
  type: "Convolution"
  bottom: "_plus3"
  top: "stage3_unit1_conv1sc"
  param {
    lr_mult: 1
    decay_mult: 1
  }
  convolution_param {
    num_output: 256
    bias_term: false
    kernel_size: 1
    stride: 2
    weight_filler {
      type: "gaussian"
      std: 0.01
    }
    engine: CAFFE
  }
}
layer {
  name: "stage3_unit1_sc"
  type: "BatchNorm"
  bottom: "stage3_unit1_conv1sc"
  top: "stage3_unit1_sc"
  batch_norm_param {
    use_global_stats: false
    moving_average_fraction: 0.9
    eps: 2e-05
  }
}
layer {
  name: "stage3_unit1_sc_scale"
  type: "Scale"
  bottom: "stage3_unit1_sc"
  top: "stage3_unit1_sc"
  scale_param {
    bias_term: true
  }
}
layer {
  name: "_plus4"
  type: "Eltwise"
  bottom: "stage3_unit1_bn3"
  bottom: "stage3_unit1_sc"
  top: "_plus4"
  eltwise_param {
    operation: SUM
  }
}
layer {
  name: "stage3_unit2_bn1"
  type: "BatchNorm"
  bottom: "_plus4"
  top: "stage3_unit2_bn1"
  batch_norm_param {
    use_global_stats: false
    moving_average_fraction: 0.9
    eps: 2e-05
  }
}
layer {
  name: "stage3_unit2_bn1_scale"
  type: "Scale"
  bottom: "stage3_unit2_bn1"
  top: "stage3_unit2_bn1"
  scale_param {
    bias_term: true
  }
}
layer {
  name: "stage3_unit2_conv1"
  type: "Convolution"
  bottom: "stage3_unit2_bn1"
  top: "stage3_unit2_conv1"
  param {
    lr_mult: 1
    decay_mult: 1
  }
  convolution_param {
    num_output: 256
    bias_term: false
    pad: 1
    kernel_size: 3
    stride: 1
    weight_filler {
      type: "gaussian"
      std: 0.01
    }
    engine: CAFFE
  }
}
layer {
  name: "stage3_unit2_bn2"
  type: "BatchNorm"
  bottom: "stage3_unit2_conv1"
  top: "stage3_unit2_bn2"
  batch_norm_param {
    use_global_stats: false
    moving_average_fraction: 0.9
    eps: 2e-05
  }
}
layer {
  name: "stage3_unit2_bn2_scale"
  type: "Scale"
  bottom: "stage3_unit2_bn2"
  top: "stage3_unit2_bn2"
  scale_param {
    bias_term: true
  }
}
layer {
  name: "stage3_unit2_relu1"
  type: "ReLU"
  bottom: "stage3_unit2_bn2"
  top: "stage3_unit2_relu1"
}
layer {
  name: "stage3_unit2_conv2"
  type: "Convolution"
  bottom: "stage3_unit2_relu1"
  top: "stage3_unit2_conv2"
  param {
    lr_mult: 1
    decay_mult: 1
  }
  convolution_param {
    num_output: 256
    bias_term: false
    pad: 1
    kernel_size: 3
    stride: 1
    weight_filler {
      type: "gaussian"
      std: 0.01
    }
    engine: CAFFE
  }
}
layer {
  name: "stage3_unit2_bn3"
  type: "BatchNorm"
  bottom: "stage3_unit2_conv2"
  top: "stage3_unit2_bn3"
  batch_norm_param {
    use_global_stats: false
    moving_average_fraction: 0.9
    eps: 2e-05
  }
}
layer {
  name: "stage3_unit2_bn3_scale"
  type: "Scale"
  bottom: "stage3_unit2_bn3"
  top: "stage3_unit2_bn3"
  scale_param {
    bias_term: true
  }
}
layer {
  name: "_plus5"
  type: "Eltwise"
  bottom: "stage3_unit2_bn3"
  bottom: "_plus4"
  top: "_plus5"
  eltwise_param {
    operation: SUM
  }
}
layer {
  name: "stage4_unit1_bn1"
  type: "BatchNorm"
  bottom: "_plus5"
  top: "stage4_unit1_bn1"
  batch_norm_param {
    use_global_stats: false
    moving_average_fraction: 0.9
    eps: 2e-05
  }
}
layer {
  name: "stage4_unit1_bn1_scale"
  type: "Scale"
  bottom: "stage4_unit1_bn1"
  top: "stage4_unit1_bn1"
  scale_param {
    bias_term: true
  }
}
layer {
  name: "stage4_unit1_conv1"
  type: "Convolution"
  bottom: "stage4_unit1_bn1"
  top: "stage4_unit1_conv1"
  param {
    lr_mult: 1
    decay_mult: 1
  }
  convolution_param {
    num_output: 512
    bias_term: false
    pad: 1
    kernel_size: 3
    stride: 1
    weight_filler {
      type: "gaussian"
      std: 0.01
    }
    engine: CAFFE
  }
}
layer {
  name: "stage4_unit1_bn2"
  type: "BatchNorm"
  bottom: "stage4_unit1_conv1"
  top: "stage4_unit1_bn2"
  batch_norm_param {
    use_global_stats: false
    moving_average_fraction: 0.9
    eps: 2e-05
  }
}
layer {
  name: "stage4_unit1_bn2_scale"
  type: "Scale"
  bottom: "stage4_unit1_bn2"
  top: "stage4_unit1_bn2"
  scale_param {
    bias_term: true
  }
}
layer {
  name: "stage4_unit1_relu1"
  type: "ReLU"
  bottom: "stage4_unit1_bn2"
  top: "stage4_unit1_relu1"
}
layer {
  name: "stage4_unit1_conv2"
  type: "Convolution"
  bottom: "stage4_unit1_relu1"
  top: "stage4_unit1_conv2"
  param {
    lr_mult: 1
    decay_mult: 1
  }
  convolution_param {
    num_output: 512
    bias_term: false
    pad: 1
    kernel_size: 3
    stride: 2
    weight_filler {
      type: "gaussian"
      std: 0.01
    }
    engine: CAFFE
  }
}
layer {
  name: "stage4_unit1_bn3"
  type: "BatchNorm"
  bottom: "stage4_unit1_conv2"
  top: "stage4_unit1_bn3"
  batch_norm_param {
    use_global_stats: false
    moving_average_fraction: 0.9
    eps: 2e-05
  }
}
layer {
  name: "stage4_unit1_bn3_scale"
  type: "Scale"
  bottom: "stage4_unit1_bn3"
  top: "stage4_unit1_bn3"
  scale_param {
    bias_term: true
  }
}
layer {
  name: "stage4_unit1_conv1sc"
  type: "Convolution"
  bottom: "_plus5"
  top: "stage4_unit1_conv1sc"
  param {
    lr_mult: 1
    decay_mult: 1
  }
  convolution_param {
    num_output: 512
    bias_term: false
    kernel_size: 1
    stride: 2
    weight_filler {
      type: "gaussian"
      std: 0.01
    }
    engine: CAFFE
  }
}
layer {
  name: "stage4_unit1_sc"
  type: "BatchNorm"
  bottom: "stage4_unit1_conv1sc"
  top: "stage4_unit1_sc"
  batch_norm_param {
    use_global_stats: false
    moving_average_fraction: 0.9
    eps: 2e-05
  }
}
layer {
  name: "stage4_unit1_sc_scale"
  type: "Scale"
  bottom: "stage4_unit1_sc"
  top: "stage4_unit1_sc"
  scale_param {
    bias_term: true
  }
}
layer {
  name: "_plus6"
  type: "Eltwise"
  bottom: "stage4_unit1_bn3"
  bottom: "stage4_unit1_sc"
  top: "_plus6"
  eltwise_param {
    operation: SUM
  }
}
layer {
  name: "stage4_unit2_bn1"
  type: "BatchNorm"
  bottom: "_plus6"
  top: "stage4_unit2_bn1"
  batch_norm_param {
    use_global_stats: false
    moving_average_fraction: 0.9
    eps: 2e-05
  }
}
layer {
  name: "stage4_unit2_bn1_scale"
  type: "Scale"
  bottom: "stage4_unit2_bn1"
  top: "stage4_unit2_bn1"
  scale_param {
    bias_term: true
  }
}
layer {
  name: "stage4_unit2_conv1"
  type: "Convolution"
  bottom: "stage4_unit2_bn1"
  top: "stage4_unit2_conv1"
  param {
    lr_mult: 1
    decay_mult: 1
  }
  convolution_param {
    num_output: 512
    bias_term: false
    pad: 1
    kernel_size: 3
    stride: 1
    weight_filler {
      type: "gaussian"
      std: 0.01
    }
    engine: CAFFE
  }
}
layer {
  name: "stage4_unit2_bn2"
  type: "BatchNorm"
  bottom: "stage4_unit2_conv1"
  top: "stage4_unit2_bn2"
  batch_norm_param {
    use_global_stats: false
    moving_average_fraction: 0.9
    eps: 2e-05
  }
}
layer {
  name: "stage4_unit2_bn2_scale"
  type: "Scale"
  bottom: "stage4_unit2_bn2"
  top: "stage4_unit2_bn2"
  scale_param {
    bias_term: true
  }
}
layer {
  name: "stage4_unit2_relu1"
  type: "ReLU"
  bottom: "stage4_unit2_bn2"
  top: "stage4_unit2_relu1"
}
layer {
  name: "stage4_unit2_conv2"
  type: "Convolution"
  bottom: "stage4_unit2_relu1"
  top: "stage4_unit2_conv2"
  param {
    lr_mult: 1
    decay_mult: 1
  }
  convolution_param {
    num_output: 512
    bias_term: false
    pad: 1
    kernel_size: 3
    stride: 1
    weight_filler {
      type: "gaussian"
      std: 0.01
    }
    engine: CAFFE
  }
}
layer {
  name: "stage4_unit2_bn3"
  type: "BatchNorm"
  bottom: "stage4_unit2_conv2"
  top: "stage4_unit2_bn3"
  batch_norm_param {
    use_global_stats: false
    moving_average_fraction: 0.9
    eps: 2e-05
  }
}
layer {
  name: "stage4_unit2_bn3_scale"
  type: "Scale"
  bottom: "stage4_unit2_bn3"
  top: "stage4_unit2_bn3"
  scale_param {
    bias_term: true
  }
}
layer {
  name: "_plus7"
  type: "Eltwise"
  bottom: "stage4_unit2_bn3"
  bottom: "_plus6"
  top: "_plus7"
  eltwise_param {
    operation: SUM
  }
}
layer {
  name: "bn1"
  type: "BatchNorm"
  bottom: "_plus7"
  top: "bn1"
  batch_norm_param {
    use_global_stats: false
    moving_average_fraction: 0.9
    eps: 2e-05
  }
}
layer {
  name: "bn1_scale"
  type: "Scale"
  bottom: "bn1"
  top: "bn1"
  scale_param {
    bias_term: true
  }
}
layer {
  name: "fc8"
  type: "InnerProduct"
  bottom: "bn1"
  top: "fc8"
  param {
    lr_mult: 1
    decay_mult: 1
  }
  param {
    lr_mult: 2
    decay_mult: 0
  }
  inner_product_param {
    num_output: 2
    weight_filler {
      type: "msra"
      std: 0.01
    }
    bias_filler {
      type: "constant"
      value: 0
    }
  }
}
layer {
  name: "accuracy"
  type: "Accuracy"
  bottom: "fc8"
  bottom: "label"
  top: "accuracy"
  include {
    phase: TEST
  }
}
layer {
  name: "loss"
  type: "WeightedSoftmaxWithLoss"
  bottom: "fc8"
  bottom: "label"
  top: "loss"
  softmax_param {
    pos_mult: 1.3
    pos_cid: 1
  }
}
I0110 15:06:18.049878 17384 layer_factory.hpp:77] Creating layer data
I0110 15:06:18.289866 17384 db_lmdb.cpp:35] Opened lmdb /home/lc/gender/school/data_3/val.lmdb
I0110 15:06:18.403259 17384 net.cpp:84] Creating Layer data
I0110 15:06:18.403293 17384 net.cpp:380] data -> data
I0110 15:06:18.403316 17384 net.cpp:380] data -> label
I0110 15:06:18.404702 17384 data_layer.cpp:45] output data size: 8,3,200,200
I0110 15:06:18.422262 17384 net.cpp:122] Setting up data
I0110 15:06:18.422299 17384 net.cpp:129] Top shape: 8 3 200 200 (960000)
I0110 15:06:18.422310 17384 net.cpp:129] Top shape: 8 (8)
I0110 15:06:18.422317 17384 net.cpp:137] Memory required for data: 3840032
I0110 15:06:18.422327 17384 layer_factory.hpp:77] Creating layer label_data_1_split
I0110 15:06:18.422344 17384 net.cpp:84] Creating Layer label_data_1_split
I0110 15:06:18.422353 17384 net.cpp:406] label_data_1_split <- label
I0110 15:06:18.422370 17384 net.cpp:380] label_data_1_split -> label_data_1_split_0
I0110 15:06:18.422391 17384 net.cpp:380] label_data_1_split -> label_data_1_split_1
I0110 15:06:18.422482 17384 net.cpp:122] Setting up label_data_1_split
I0110 15:06:18.422497 17384 net.cpp:129] Top shape: 8 (8)
I0110 15:06:18.422507 17384 net.cpp:129] Top shape: 8 (8)
I0110 15:06:18.422511 17384 net.cpp:137] Memory required for data: 3840096
I0110 15:06:18.422518 17384 layer_factory.hpp:77] Creating layer conv0
I0110 15:06:18.422540 17384 net.cpp:84] Creating Layer conv0
I0110 15:06:18.422549 17384 net.cpp:406] conv0 <- data
I0110 15:06:18.422559 17384 net.cpp:380] conv0 -> conv0
I0110 15:06:18.423183 17384 net.cpp:122] Setting up conv0
I0110 15:06:18.423207 17384 net.cpp:129] Top shape: 8 64 200 200 (20480000)
I0110 15:06:18.423218 17384 net.cpp:137] Memory required for data: 85760096
I0110 15:06:18.423238 17384 layer_factory.hpp:77] Creating layer bn0
I0110 15:06:18.423254 17384 net.cpp:84] Creating Layer bn0
I0110 15:06:18.423264 17384 net.cpp:406] bn0 <- conv0
I0110 15:06:18.423274 17384 net.cpp:380] bn0 -> bn0
I0110 15:06:18.423856 17384 net.cpp:122] Setting up bn0
I0110 15:06:18.423873 17384 net.cpp:129] Top shape: 8 64 200 200 (20480000)
I0110 15:06:18.423882 17384 net.cpp:137] Memory required for data: 167680096
I0110 15:06:18.423902 17384 layer_factory.hpp:77] Creating layer bn0_scale
I0110 15:06:18.423916 17384 net.cpp:84] Creating Layer bn0_scale
I0110 15:06:18.423924 17384 net.cpp:406] bn0_scale <- bn0
I0110 15:06:18.423935 17384 net.cpp:367] bn0_scale -> bn0 (in-place)
I0110 15:06:18.424010 17384 layer_factory.hpp:77] Creating layer bn0_scale
I0110 15:06:18.424398 17384 net.cpp:122] Setting up bn0_scale
I0110 15:06:18.424414 17384 net.cpp:129] Top shape: 8 64 200 200 (20480000)
I0110 15:06:18.424423 17384 net.cpp:137] Memory required for data: 249600096
I0110 15:06:18.424438 17384 layer_factory.hpp:77] Creating layer relu0
I0110 15:06:18.424451 17384 net.cpp:84] Creating Layer relu0
I0110 15:06:18.424459 17384 net.cpp:406] relu0 <- bn0
I0110 15:06:18.424469 17384 net.cpp:380] relu0 -> relu0
I0110 15:06:18.425204 17384 net.cpp:122] Setting up relu0
I0110 15:06:18.425231 17384 net.cpp:129] Top shape: 8 64 200 200 (20480000)
I0110 15:06:18.425240 17384 net.cpp:137] Memory required for data: 331520096
I0110 15:06:18.425248 17384 layer_factory.hpp:77] Creating layer relu0_relu0_0_split
I0110 15:06:18.425263 17384 net.cpp:84] Creating Layer relu0_relu0_0_split
I0110 15:06:18.425272 17384 net.cpp:406] relu0_relu0_0_split <- relu0
I0110 15:06:18.425285 17384 net.cpp:380] relu0_relu0_0_split -> relu0_relu0_0_split_0
I0110 15:06:18.425302 17384 net.cpp:380] relu0_relu0_0_split -> relu0_relu0_0_split_1
I0110 15:06:18.425781 17384 net.cpp:122] Setting up relu0_relu0_0_split
I0110 15:06:18.425814 17384 net.cpp:129] Top shape: 8 64 200 200 (20480000)
I0110 15:06:18.425827 17384 net.cpp:129] Top shape: 8 64 200 200 (20480000)
I0110 15:06:18.425835 17384 net.cpp:137] Memory required for data: 495360096
I0110 15:06:18.425843 17384 layer_factory.hpp:77] Creating layer stage1_unit1_bn1
I0110 15:06:18.425859 17384 net.cpp:84] Creating Layer stage1_unit1_bn1
I0110 15:06:18.425868 17384 net.cpp:406] stage1_unit1_bn1 <- relu0_relu0_0_split_0
I0110 15:06:18.425885 17384 net.cpp:380] stage1_unit1_bn1 -> stage1_unit1_bn1
I0110 15:06:18.426338 17384 net.cpp:122] Setting up stage1_unit1_bn1
I0110 15:06:18.426353 17384 net.cpp:129] Top shape: 8 64 200 200 (20480000)
I0110 15:06:18.426362 17384 net.cpp:137] Memory required for data: 577280096
I0110 15:06:18.426384 17384 layer_factory.hpp:77] Creating layer stage1_unit1_bn1_scale
I0110 15:06:18.426401 17384 net.cpp:84] Creating Layer stage1_unit1_bn1_scale
I0110 15:06:18.426430 17384 net.cpp:406] stage1_unit1_bn1_scale <- stage1_unit1_bn1
I0110 15:06:18.426441 17384 net.cpp:367] stage1_unit1_bn1_scale -> stage1_unit1_bn1 (in-place)
I0110 15:06:18.426523 17384 layer_factory.hpp:77] Creating layer stage1_unit1_bn1_scale
I0110 15:06:18.426928 17384 net.cpp:122] Setting up stage1_unit1_bn1_scale
I0110 15:06:18.426944 17384 net.cpp:129] Top shape: 8 64 200 200 (20480000)
I0110 15:06:18.426951 17384 net.cpp:137] Memory required for data: 659200096
I0110 15:06:18.426964 17384 layer_factory.hpp:77] Creating layer stage1_unit1_conv1
I0110 15:06:18.426982 17384 net.cpp:84] Creating Layer stage1_unit1_conv1
I0110 15:06:18.426990 17384 net.cpp:406] stage1_unit1_conv1 <- stage1_unit1_bn1
I0110 15:06:18.427006 17384 net.cpp:380] stage1_unit1_conv1 -> stage1_unit1_conv1
I0110 15:06:18.429946 17384 net.cpp:122] Setting up stage1_unit1_conv1
I0110 15:06:18.429970 17384 net.cpp:129] Top shape: 8 64 200 200 (20480000)
I0110 15:06:18.429975 17384 net.cpp:137] Memory required for data: 741120096
I0110 15:06:18.429991 17384 layer_factory.hpp:77] Creating layer stage1_unit1_bn2
I0110 15:06:18.430009 17384 net.cpp:84] Creating Layer stage1_unit1_bn2
I0110 15:06:18.430017 17384 net.cpp:406] stage1_unit1_bn2 <- stage1_unit1_conv1
I0110 15:06:18.430032 17384 net.cpp:380] stage1_unit1_bn2 -> stage1_unit1_bn2
I0110 15:06:18.430513 17384 net.cpp:122] Setting up stage1_unit1_bn2
I0110 15:06:18.430528 17384 net.cpp:129] Top shape: 8 64 200 200 (20480000)
I0110 15:06:18.430536 17384 net.cpp:137] Memory required for data: 823040096
I0110 15:06:18.430548 17384 layer_factory.hpp:77] Creating layer stage1_unit1_bn2_scale
I0110 15:06:18.430567 17384 net.cpp:84] Creating Layer stage1_unit1_bn2_scale
I0110 15:06:18.430575 17384 net.cpp:406] stage1_unit1_bn2_scale <- stage1_unit1_bn2
I0110 15:06:18.430584 17384 net.cpp:367] stage1_unit1_bn2_scale -> stage1_unit1_bn2 (in-place)
I0110 15:06:18.430652 17384 layer_factory.hpp:77] Creating layer stage1_unit1_bn2_scale
I0110 15:06:18.431026 17384 net.cpp:122] Setting up stage1_unit1_bn2_scale
I0110 15:06:18.431041 17384 net.cpp:129] Top shape: 8 64 200 200 (20480000)
I0110 15:06:18.431049 17384 net.cpp:137] Memory required for data: 904960096
I0110 15:06:18.431068 17384 layer_factory.hpp:77] Creating layer stage1_unit1_relu1
I0110 15:06:18.431080 17384 net.cpp:84] Creating Layer stage1_unit1_relu1
I0110 15:06:18.431089 17384 net.cpp:406] stage1_unit1_relu1 <- stage1_unit1_bn2
I0110 15:06:18.431100 17384 net.cpp:380] stage1_unit1_relu1 -> stage1_unit1_relu1
I0110 15:06:18.431394 17384 net.cpp:122] Setting up stage1_unit1_relu1
I0110 15:06:18.431413 17384 net.cpp:129] Top shape: 8 64 200 200 (20480000)
I0110 15:06:18.431421 17384 net.cpp:137] Memory required for data: 986880096
I0110 15:06:18.431428 17384 layer_factory.hpp:77] Creating layer stage1_unit1_conv2
I0110 15:06:18.431447 17384 net.cpp:84] Creating Layer stage1_unit1_conv2
I0110 15:06:18.431455 17384 net.cpp:406] stage1_unit1_conv2 <- stage1_unit1_relu1
I0110 15:06:18.431469 17384 net.cpp:380] stage1_unit1_conv2 -> stage1_unit1_conv2
I0110 15:06:18.432535 17384 net.cpp:122] Setting up stage1_unit1_conv2
I0110 15:06:18.432552 17384 net.cpp:129] Top shape: 8 64 100 100 (5120000)
I0110 15:06:18.432559 17384 net.cpp:137] Memory required for data: 1007360096
I0110 15:06:18.432571 17384 layer_factory.hpp:77] Creating layer stage1_unit1_bn3
I0110 15:06:18.432590 17384 net.cpp:84] Creating Layer stage1_unit1_bn3
I0110 15:06:18.432598 17384 net.cpp:406] stage1_unit1_bn3 <- stage1_unit1_conv2
I0110 15:06:18.432607 17384 net.cpp:380] stage1_unit1_bn3 -> stage1_unit1_bn3
I0110 15:06:18.433003 17384 net.cpp:122] Setting up stage1_unit1_bn3
I0110 15:06:18.433018 17384 net.cpp:129] Top shape: 8 64 100 100 (5120000)
I0110 15:06:18.433025 17384 net.cpp:137] Memory required for data: 1027840096
I0110 15:06:18.433038 17384 layer_factory.hpp:77] Creating layer stage1_unit1_bn3_scale
I0110 15:06:18.433051 17384 net.cpp:84] Creating Layer stage1_unit1_bn3_scale
I0110 15:06:18.433058 17384 net.cpp:406] stage1_unit1_bn3_scale <- stage1_unit1_bn3
I0110 15:06:18.433068 17384 net.cpp:367] stage1_unit1_bn3_scale -> stage1_unit1_bn3 (in-place)
I0110 15:06:18.433138 17384 layer_factory.hpp:77] Creating layer stage1_unit1_bn3_scale
I0110 15:06:18.433394 17384 net.cpp:122] Setting up stage1_unit1_bn3_scale
I0110 15:06:18.433408 17384 net.cpp:129] Top shape: 8 64 100 100 (5120000)
I0110 15:06:18.433414 17384 net.cpp:137] Memory required for data: 1048320096
I0110 15:06:18.433425 17384 layer_factory.hpp:77] Creating layer stage1_unit1_conv1sc
I0110 15:06:18.433452 17384 net.cpp:84] Creating Layer stage1_unit1_conv1sc
I0110 15:06:18.433460 17384 net.cpp:406] stage1_unit1_conv1sc <- relu0_relu0_0_split_1
I0110 15:06:18.433475 17384 net.cpp:380] stage1_unit1_conv1sc -> stage1_unit1_conv1sc
I0110 15:06:18.433881 17384 net.cpp:122] Setting up stage1_unit1_conv1sc
I0110 15:06:18.433895 17384 net.cpp:129] Top shape: 8 64 100 100 (5120000)
I0110 15:06:18.433902 17384 net.cpp:137] Memory required for data: 1068800096
I0110 15:06:18.433912 17384 layer_factory.hpp:77] Creating layer stage1_unit1_sc
I0110 15:06:18.433925 17384 net.cpp:84] Creating Layer stage1_unit1_sc
I0110 15:06:18.433933 17384 net.cpp:406] stage1_unit1_sc <- stage1_unit1_conv1sc
I0110 15:06:18.433943 17384 net.cpp:380] stage1_unit1_sc -> stage1_unit1_sc
I0110 15:06:18.434326 17384 net.cpp:122] Setting up stage1_unit1_sc
I0110 15:06:18.434341 17384 net.cpp:129] Top shape: 8 64 100 100 (5120000)
I0110 15:06:18.434350 17384 net.cpp:137] Memory required for data: 1089280096
I0110 15:06:18.434361 17384 layer_factory.hpp:77] Creating layer stage1_unit1_sc_scale
I0110 15:06:18.434376 17384 net.cpp:84] Creating Layer stage1_unit1_sc_scale
I0110 15:06:18.434383 17384 net.cpp:406] stage1_unit1_sc_scale <- stage1_unit1_sc
I0110 15:06:18.434392 17384 net.cpp:367] stage1_unit1_sc_scale -> stage1_unit1_sc (in-place)
I0110 15:06:18.434464 17384 layer_factory.hpp:77] Creating layer stage1_unit1_sc_scale
I0110 15:06:18.436460 17384 net.cpp:122] Setting up stage1_unit1_sc_scale
I0110 15:06:18.436486 17384 net.cpp:129] Top shape: 8 64 100 100 (5120000)
I0110 15:06:18.436494 17384 net.cpp:137] Memory required for data: 1109760096
I0110 15:06:18.436508 17384 layer_factory.hpp:77] Creating layer _plus0
I0110 15:06:18.436527 17384 net.cpp:84] Creating Layer _plus0
I0110 15:06:18.436537 17384 net.cpp:406] _plus0 <- stage1_unit1_bn3
I0110 15:06:18.436545 17384 net.cpp:406] _plus0 <- stage1_unit1_sc
I0110 15:06:18.436559 17384 net.cpp:380] _plus0 -> _plus0
I0110 15:06:18.436614 17384 net.cpp:122] Setting up _plus0
I0110 15:06:18.436625 17384 net.cpp:129] Top shape: 8 64 100 100 (5120000)
I0110 15:06:18.436632 17384 net.cpp:137] Memory required for data: 1130240096
I0110 15:06:18.436638 17384 layer_factory.hpp:77] Creating layer _plus0__plus0_0_split
I0110 15:06:18.436655 17384 net.cpp:84] Creating Layer _plus0__plus0_0_split
I0110 15:06:18.436663 17384 net.cpp:406] _plus0__plus0_0_split <- _plus0
I0110 15:06:18.436672 17384 net.cpp:380] _plus0__plus0_0_split -> _plus0__plus0_0_split_0
I0110 15:06:18.436686 17384 net.cpp:380] _plus0__plus0_0_split -> _plus0__plus0_0_split_1
I0110 15:06:18.436751 17384 net.cpp:122] Setting up _plus0__plus0_0_split
I0110 15:06:18.436764 17384 net.cpp:129] Top shape: 8 64 100 100 (5120000)
I0110 15:06:18.436774 17384 net.cpp:129] Top shape: 8 64 100 100 (5120000)
I0110 15:06:18.436780 17384 net.cpp:137] Memory required for data: 1171200096
I0110 15:06:18.436789 17384 layer_factory.hpp:77] Creating layer stage1_unit2_bn1
I0110 15:06:18.436800 17384 net.cpp:84] Creating Layer stage1_unit2_bn1
I0110 15:06:18.436807 17384 net.cpp:406] stage1_unit2_bn1 <- _plus0__plus0_0_split_0
I0110 15:06:18.436816 17384 net.cpp:380] stage1_unit2_bn1 -> stage1_unit2_bn1
I0110 15:06:18.437194 17384 net.cpp:122] Setting up stage1_unit2_bn1
I0110 15:06:18.437208 17384 net.cpp:129] Top shape: 8 64 100 100 (5120000)
I0110 15:06:18.437216 17384 net.cpp:137] Memory required for data: 1191680096
I0110 15:06:18.437230 17384 layer_factory.hpp:77] Creating layer stage1_unit2_bn1_scale
I0110 15:06:18.437242 17384 net.cpp:84] Creating Layer stage1_unit2_bn1_scale
I0110 15:06:18.437250 17384 net.cpp:406] stage1_unit2_bn1_scale <- stage1_unit2_bn1
I0110 15:06:18.437263 17384 net.cpp:367] stage1_unit2_bn1_scale -> stage1_unit2_bn1 (in-place)
I0110 15:06:18.437331 17384 layer_factory.hpp:77] Creating layer stage1_unit2_bn1_scale
I0110 15:06:18.437551 17384 net.cpp:122] Setting up stage1_unit2_bn1_scale
I0110 15:06:18.437564 17384 net.cpp:129] Top shape: 8 64 100 100 (5120000)
I0110 15:06:18.437572 17384 net.cpp:137] Memory required for data: 1212160096
I0110 15:06:18.437595 17384 layer_factory.hpp:77] Creating layer stage1_unit2_conv1
I0110 15:06:18.437618 17384 net.cpp:84] Creating Layer stage1_unit2_conv1
I0110 15:06:18.437626 17384 net.cpp:406] stage1_unit2_conv1 <- stage1_unit2_bn1
I0110 15:06:18.437640 17384 net.cpp:380] stage1_unit2_conv1 -> stage1_unit2_conv1
I0110 15:06:18.438632 17384 net.cpp:122] Setting up stage1_unit2_conv1
I0110 15:06:18.438647 17384 net.cpp:129] Top shape: 8 64 100 100 (5120000)
I0110 15:06:18.438654 17384 net.cpp:137] Memory required for data: 1232640096
I0110 15:06:18.438665 17384 layer_factory.hpp:77] Creating layer stage1_unit2_bn2
I0110 15:06:18.438678 17384 net.cpp:84] Creating Layer stage1_unit2_bn2
I0110 15:06:18.438683 17384 net.cpp:406] stage1_unit2_bn2 <- stage1_unit2_conv1
I0110 15:06:18.438695 17384 net.cpp:380] stage1_unit2_bn2 -> stage1_unit2_bn2
I0110 15:06:18.439036 17384 net.cpp:122] Setting up stage1_unit2_bn2
I0110 15:06:18.439050 17384 net.cpp:129] Top shape: 8 64 100 100 (5120000)
I0110 15:06:18.439057 17384 net.cpp:137] Memory required for data: 1253120096
I0110 15:06:18.439070 17384 layer_factory.hpp:77] Creating layer stage1_unit2_bn2_scale
I0110 15:06:18.439082 17384 net.cpp:84] Creating Layer stage1_unit2_bn2_scale
I0110 15:06:18.439090 17384 net.cpp:406] stage1_unit2_bn2_scale <- stage1_unit2_bn2
I0110 15:06:18.439101 17384 net.cpp:367] stage1_unit2_bn2_scale -> stage1_unit2_bn2 (in-place)
I0110 15:06:18.439168 17384 layer_factory.hpp:77] Creating layer stage1_unit2_bn2_scale
I0110 15:06:18.439395 17384 net.cpp:122] Setting up stage1_unit2_bn2_scale
I0110 15:06:18.439409 17384 net.cpp:129] Top shape: 8 64 100 100 (5120000)
I0110 15:06:18.439416 17384 net.cpp:137] Memory required for data: 1273600096
I0110 15:06:18.439427 17384 layer_factory.hpp:77] Creating layer stage1_unit2_relu1
I0110 15:06:18.439438 17384 net.cpp:84] Creating Layer stage1_unit2_relu1
I0110 15:06:18.439446 17384 net.cpp:406] stage1_unit2_relu1 <- stage1_unit2_bn2
I0110 15:06:18.439458 17384 net.cpp:380] stage1_unit2_relu1 -> stage1_unit2_relu1
I0110 15:06:18.439973 17384 net.cpp:122] Setting up stage1_unit2_relu1
I0110 15:06:18.439997 17384 net.cpp:129] Top shape: 8 64 100 100 (5120000)
I0110 15:06:18.440006 17384 net.cpp:137] Memory required for data: 1294080096
I0110 15:06:18.440012 17384 layer_factory.hpp:77] Creating layer stage1_unit2_conv2
I0110 15:06:18.440034 17384 net.cpp:84] Creating Layer stage1_unit2_conv2
I0110 15:06:18.440043 17384 net.cpp:406] stage1_unit2_conv2 <- stage1_unit2_relu1
I0110 15:06:18.440057 17384 net.cpp:380] stage1_unit2_conv2 -> stage1_unit2_conv2
I0110 15:06:18.441017 17384 net.cpp:122] Setting up stage1_unit2_conv2
I0110 15:06:18.441032 17384 net.cpp:129] Top shape: 8 64 100 100 (5120000)
I0110 15:06:18.441040 17384 net.cpp:137] Memory required for data: 1314560096
I0110 15:06:18.441052 17384 layer_factory.hpp:77] Creating layer stage1_unit2_bn3
I0110 15:06:18.441063 17384 net.cpp:84] Creating Layer stage1_unit2_bn3
I0110 15:06:18.441071 17384 net.cpp:406] stage1_unit2_bn3 <- stage1_unit2_conv2
I0110 15:06:18.441081 17384 net.cpp:380] stage1_unit2_bn3 -> stage1_unit2_bn3
I0110 15:06:18.441411 17384 net.cpp:122] Setting up stage1_unit2_bn3
I0110 15:06:18.441423 17384 net.cpp:129] Top shape: 8 64 100 100 (5120000)
I0110 15:06:18.441431 17384 net.cpp:137] Memory required for data: 1335040096
I0110 15:06:18.441443 17384 layer_factory.hpp:77] Creating layer stage1_unit2_bn3_scale
I0110 15:06:18.441454 17384 net.cpp:84] Creating Layer stage1_unit2_bn3_scale
I0110 15:06:18.441462 17384 net.cpp:406] stage1_unit2_bn3_scale <- stage1_unit2_bn3
I0110 15:06:18.441473 17384 net.cpp:367] stage1_unit2_bn3_scale -> stage1_unit2_bn3 (in-place)
I0110 15:06:18.441538 17384 layer_factory.hpp:77] Creating layer stage1_unit2_bn3_scale
I0110 15:06:18.441743 17384 net.cpp:122] Setting up stage1_unit2_bn3_scale
I0110 15:06:18.441759 17384 net.cpp:129] Top shape: 8 64 100 100 (5120000)
I0110 15:06:18.441766 17384 net.cpp:137] Memory required for data: 1355520096
I0110 15:06:18.441777 17384 layer_factory.hpp:77] Creating layer _plus1
I0110 15:06:18.441788 17384 net.cpp:84] Creating Layer _plus1
I0110 15:06:18.441797 17384 net.cpp:406] _plus1 <- stage1_unit2_bn3
I0110 15:06:18.441803 17384 net.cpp:406] _plus1 <- _plus0__plus0_0_split_1
I0110 15:06:18.441814 17384 net.cpp:380] _plus1 -> _plus1
I0110 15:06:18.441854 17384 net.cpp:122] Setting up _plus1
I0110 15:06:18.441865 17384 net.cpp:129] Top shape: 8 64 100 100 (5120000)
I0110 15:06:18.441872 17384 net.cpp:137] Memory required for data: 1376000096
I0110 15:06:18.441879 17384 layer_factory.hpp:77] Creating layer _plus1__plus1_0_split
I0110 15:06:18.441890 17384 net.cpp:84] Creating Layer _plus1__plus1_0_split
I0110 15:06:18.441897 17384 net.cpp:406] _plus1__plus1_0_split <- _plus1
I0110 15:06:18.441910 17384 net.cpp:380] _plus1__plus1_0_split -> _plus1__plus1_0_split_0
I0110 15:06:18.441920 17384 net.cpp:380] _plus1__plus1_0_split -> _plus1__plus1_0_split_1
I0110 15:06:18.441974 17384 net.cpp:122] Setting up _plus1__plus1_0_split
I0110 15:06:18.441985 17384 net.cpp:129] Top shape: 8 64 100 100 (5120000)
I0110 15:06:18.441994 17384 net.cpp:129] Top shape: 8 64 100 100 (5120000)
I0110 15:06:18.442003 17384 net.cpp:137] Memory required for data: 1416960096
I0110 15:06:18.442008 17384 layer_factory.hpp:77] Creating layer stage2_unit1_bn1
I0110 15:06:18.442023 17384 net.cpp:84] Creating Layer stage2_unit1_bn1
I0110 15:06:18.442030 17384 net.cpp:406] stage2_unit1_bn1 <- _plus1__plus1_0_split_0
I0110 15:06:18.442040 17384 net.cpp:380] stage2_unit1_bn1 -> stage2_unit1_bn1
I0110 15:06:18.442358 17384 net.cpp:122] Setting up stage2_unit1_bn1
I0110 15:06:18.442370 17384 net.cpp:129] Top shape: 8 64 100 100 (5120000)
I0110 15:06:18.442378 17384 net.cpp:137] Memory required for data: 1437440096
I0110 15:06:18.442390 17384 layer_factory.hpp:77] Creating layer stage2_unit1_bn1_scale
I0110 15:06:18.442401 17384 net.cpp:84] Creating Layer stage2_unit1_bn1_scale
I0110 15:06:18.442409 17384 net.cpp:406] stage2_unit1_bn1_scale <- stage2_unit1_bn1
I0110 15:06:18.442416 17384 net.cpp:367] stage2_unit1_bn1_scale -> stage2_unit1_bn1 (in-place)
I0110 15:06:18.442481 17384 layer_factory.hpp:77] Creating layer stage2_unit1_bn1_scale
I0110 15:06:18.442704 17384 net.cpp:122] Setting up stage2_unit1_bn1_scale
I0110 15:06:18.442718 17384 net.cpp:129] Top shape: 8 64 100 100 (5120000)
I0110 15:06:18.442725 17384 net.cpp:137] Memory required for data: 1457920096
I0110 15:06:18.442736 17384 layer_factory.hpp:77] Creating layer stage2_unit1_conv1
I0110 15:06:18.442756 17384 net.cpp:84] Creating Layer stage2_unit1_conv1
I0110 15:06:18.442764 17384 net.cpp:406] stage2_unit1_conv1 <- stage2_unit1_bn1
I0110 15:06:18.442776 17384 net.cpp:380] stage2_unit1_conv1 -> stage2_unit1_conv1
I0110 15:06:18.444363 17384 net.cpp:122] Setting up stage2_unit1_conv1
I0110 15:06:18.444378 17384 net.cpp:129] Top shape: 8 128 100 100 (10240000)
I0110 15:06:18.444384 17384 net.cpp:137] Memory required for data: 1498880096
I0110 15:06:18.444394 17384 layer_factory.hpp:77] Creating layer stage2_unit1_bn2
I0110 15:06:18.444406 17384 net.cpp:84] Creating Layer stage2_unit1_bn2
I0110 15:06:18.444413 17384 net.cpp:406] stage2_unit1_bn2 <- stage2_unit1_conv1
I0110 15:06:18.444424 17384 net.cpp:380] stage2_unit1_bn2 -> stage2_unit1_bn2
I0110 15:06:18.444741 17384 net.cpp:122] Setting up stage2_unit1_bn2
I0110 15:06:18.444753 17384 net.cpp:129] Top shape: 8 128 100 100 (10240000)
I0110 15:06:18.444761 17384 net.cpp:137] Memory required for data: 1539840096
I0110 15:06:18.444772 17384 layer_factory.hpp:77] Creating layer stage2_unit1_bn2_scale
I0110 15:06:18.444782 17384 net.cpp:84] Creating Layer stage2_unit1_bn2_scale
I0110 15:06:18.444790 17384 net.cpp:406] stage2_unit1_bn2_scale <- stage2_unit1_bn2
I0110 15:06:18.444802 17384 net.cpp:367] stage2_unit1_bn2_scale -> stage2_unit1_bn2 (in-place)
I0110 15:06:18.444857 17384 layer_factory.hpp:77] Creating layer stage2_unit1_bn2_scale
I0110 15:06:18.445039 17384 net.cpp:122] Setting up stage2_unit1_bn2_scale
I0110 15:06:18.445051 17384 net.cpp:129] Top shape: 8 128 100 100 (10240000)
I0110 15:06:18.445058 17384 net.cpp:137] Memory required for data: 1580800096
I0110 15:06:18.445068 17384 layer_factory.hpp:77] Creating layer stage2_unit1_relu1
I0110 15:06:18.445078 17384 net.cpp:84] Creating Layer stage2_unit1_relu1
I0110 15:06:18.445088 17384 net.cpp:406] stage2_unit1_relu1 <- stage2_unit1_bn2
I0110 15:06:18.445098 17384 net.cpp:380] stage2_unit1_relu1 -> stage2_unit1_relu1
I0110 15:06:18.445281 17384 net.cpp:122] Setting up stage2_unit1_relu1
I0110 15:06:18.445298 17384 net.cpp:129] Top shape: 8 128 100 100 (10240000)
I0110 15:06:18.445307 17384 net.cpp:137] Memory required for data: 1621760096
I0110 15:06:18.445314 17384 layer_factory.hpp:77] Creating layer stage2_unit1_conv2
I0110 15:06:18.445334 17384 net.cpp:84] Creating Layer stage2_unit1_conv2
I0110 15:06:18.445343 17384 net.cpp:406] stage2_unit1_conv2 <- stage2_unit1_relu1
I0110 15:06:18.445354 17384 net.cpp:380] stage2_unit1_conv2 -> stage2_unit1_conv2
I0110 15:06:18.448204 17384 net.cpp:122] Setting up stage2_unit1_conv2
I0110 15:06:18.448218 17384 net.cpp:129] Top shape: 8 128 50 50 (2560000)
I0110 15:06:18.448225 17384 net.cpp:137] Memory required for data: 1632000096
I0110 15:06:18.448236 17384 layer_factory.hpp:77] Creating layer stage2_unit1_bn3
I0110 15:06:18.448247 17384 net.cpp:84] Creating Layer stage2_unit1_bn3
I0110 15:06:18.448256 17384 net.cpp:406] stage2_unit1_bn3 <- stage2_unit1_conv2
I0110 15:06:18.448263 17384 net.cpp:380] stage2_unit1_bn3 -> stage2_unit1_bn3
I0110 15:06:18.448633 17384 net.cpp:122] Setting up stage2_unit1_bn3
I0110 15:06:18.448647 17384 net.cpp:129] Top shape: 8 128 50 50 (2560000)
I0110 15:06:18.448653 17384 net.cpp:137] Memory required for data: 1642240096
I0110 15:06:18.448665 17384 layer_factory.hpp:77] Creating layer stage2_unit1_bn3_scale
I0110 15:06:18.448678 17384 net.cpp:84] Creating Layer stage2_unit1_bn3_scale
I0110 15:06:18.448684 17384 net.cpp:406] stage2_unit1_bn3_scale <- stage2_unit1_bn3
I0110 15:06:18.448693 17384 net.cpp:367] stage2_unit1_bn3_scale -> stage2_unit1_bn3 (in-place)
I0110 15:06:18.448758 17384 layer_factory.hpp:77] Creating layer stage2_unit1_bn3_scale
I0110 15:06:18.448931 17384 net.cpp:122] Setting up stage2_unit1_bn3_scale
I0110 15:06:18.448942 17384 net.cpp:129] Top shape: 8 128 50 50 (2560000)
I0110 15:06:18.448949 17384 net.cpp:137] Memory required for data: 1652480096
I0110 15:06:18.448959 17384 layer_factory.hpp:77] Creating layer stage2_unit1_conv1sc
I0110 15:06:18.448978 17384 net.cpp:84] Creating Layer stage2_unit1_conv1sc
I0110 15:06:18.448987 17384 net.cpp:406] stage2_unit1_conv1sc <- _plus1__plus1_0_split_1
I0110 15:06:18.448997 17384 net.cpp:380] stage2_unit1_conv1sc -> stage2_unit1_conv1sc
I0110 15:06:18.449424 17384 net.cpp:122] Setting up stage2_unit1_conv1sc
I0110 15:06:18.449437 17384 net.cpp:129] Top shape: 8 128 50 50 (2560000)
I0110 15:06:18.449443 17384 net.cpp:137] Memory required for data: 1662720096
I0110 15:06:18.449453 17384 layer_factory.hpp:77] Creating layer stage2_unit1_sc
I0110 15:06:18.449465 17384 net.cpp:84] Creating Layer stage2_unit1_sc
I0110 15:06:18.449472 17384 net.cpp:406] stage2_unit1_sc <- stage2_unit1_conv1sc
I0110 15:06:18.449481 17384 net.cpp:380] stage2_unit1_sc -> stage2_unit1_sc
I0110 15:06:18.449796 17384 net.cpp:122] Setting up stage2_unit1_sc
I0110 15:06:18.449808 17384 net.cpp:129] Top shape: 8 128 50 50 (2560000)
I0110 15:06:18.449815 17384 net.cpp:137] Memory required for data: 1672960096
I0110 15:06:18.449841 17384 layer_factory.hpp:77] Creating layer stage2_unit1_sc_scale
I0110 15:06:18.449851 17384 net.cpp:84] Creating Layer stage2_unit1_sc_scale
I0110 15:06:18.449859 17384 net.cpp:406] stage2_unit1_sc_scale <- stage2_unit1_sc
I0110 15:06:18.449867 17384 net.cpp:367] stage2_unit1_sc_scale -> stage2_unit1_sc (in-place)
I0110 15:06:18.449934 17384 layer_factory.hpp:77] Creating layer stage2_unit1_sc_scale
I0110 15:06:18.450106 17384 net.cpp:122] Setting up stage2_unit1_sc_scale
I0110 15:06:18.450119 17384 net.cpp:129] Top shape: 8 128 50 50 (2560000)
I0110 15:06:18.450124 17384 net.cpp:137] Memory required for data: 1683200096
I0110 15:06:18.450134 17384 layer_factory.hpp:77] Creating layer _plus2
I0110 15:06:18.450148 17384 net.cpp:84] Creating Layer _plus2
I0110 15:06:18.450155 17384 net.cpp:406] _plus2 <- stage2_unit1_bn3
I0110 15:06:18.450163 17384 net.cpp:406] _plus2 <- stage2_unit1_sc
I0110 15:06:18.450172 17384 net.cpp:380] _plus2 -> _plus2
I0110 15:06:18.450208 17384 net.cpp:122] Setting up _plus2
I0110 15:06:18.450218 17384 net.cpp:129] Top shape: 8 128 50 50 (2560000)
I0110 15:06:18.450225 17384 net.cpp:137] Memory required for data: 1693440096
I0110 15:06:18.450233 17384 layer_factory.hpp:77] Creating layer _plus2__plus2_0_split
I0110 15:06:18.450244 17384 net.cpp:84] Creating Layer _plus2__plus2_0_split
I0110 15:06:18.450253 17384 net.cpp:406] _plus2__plus2_0_split <- _plus2
I0110 15:06:18.450260 17384 net.cpp:380] _plus2__plus2_0_split -> _plus2__plus2_0_split_0
I0110 15:06:18.450271 17384 net.cpp:380] _plus2__plus2_0_split -> _plus2__plus2_0_split_1
I0110 15:06:18.450325 17384 net.cpp:122] Setting up _plus2__plus2_0_split
I0110 15:06:18.450336 17384 net.cpp:129] Top shape: 8 128 50 50 (2560000)
I0110 15:06:18.450345 17384 net.cpp:129] Top shape: 8 128 50 50 (2560000)
I0110 15:06:18.450351 17384 net.cpp:137] Memory required for data: 1713920096
I0110 15:06:18.450356 17384 layer_factory.hpp:77] Creating layer stage2_unit2_bn1
I0110 15:06:18.450367 17384 net.cpp:84] Creating Layer stage2_unit2_bn1
I0110 15:06:18.450376 17384 net.cpp:406] stage2_unit2_bn1 <- _plus2__plus2_0_split_0
I0110 15:06:18.450383 17384 net.cpp:380] stage2_unit2_bn1 -> stage2_unit2_bn1
I0110 15:06:18.450685 17384 net.cpp:122] Setting up stage2_unit2_bn1
I0110 15:06:18.450697 17384 net.cpp:129] Top shape: 8 128 50 50 (2560000)
I0110 15:06:18.450704 17384 net.cpp:137] Memory required for data: 1724160096
I0110 15:06:18.450716 17384 layer_factory.hpp:77] Creating layer stage2_unit2_bn1_scale
I0110 15:06:18.450726 17384 net.cpp:84] Creating Layer stage2_unit2_bn1_scale
I0110 15:06:18.450734 17384 net.cpp:406] stage2_unit2_bn1_scale <- stage2_unit2_bn1
I0110 15:06:18.450744 17384 net.cpp:367] stage2_unit2_bn1_scale -> stage2_unit2_bn1 (in-place)
I0110 15:06:18.450807 17384 layer_factory.hpp:77] Creating layer stage2_unit2_bn1_scale
I0110 15:06:18.450976 17384 net.cpp:122] Setting up stage2_unit2_bn1_scale
I0110 15:06:18.450989 17384 net.cpp:129] Top shape: 8 128 50 50 (2560000)
I0110 15:06:18.450995 17384 net.cpp:137] Memory required for data: 1734400096
I0110 15:06:18.451005 17384 layer_factory.hpp:77] Creating layer stage2_unit2_conv1
I0110 15:06:18.451026 17384 net.cpp:84] Creating Layer stage2_unit2_conv1
I0110 15:06:18.451033 17384 net.cpp:406] stage2_unit2_conv1 <- stage2_unit2_bn1
I0110 15:06:18.451043 17384 net.cpp:380] stage2_unit2_conv1 -> stage2_unit2_conv1
I0110 15:06:18.455338 17384 net.cpp:122] Setting up stage2_unit2_conv1
I0110 15:06:18.455361 17384 net.cpp:129] Top shape: 8 128 50 50 (2560000)
I0110 15:06:18.455368 17384 net.cpp:137] Memory required for data: 1744640096
I0110 15:06:18.455379 17384 layer_factory.hpp:77] Creating layer stage2_unit2_bn2
I0110 15:06:18.455391 17384 net.cpp:84] Creating Layer stage2_unit2_bn2
I0110 15:06:18.455399 17384 net.cpp:406] stage2_unit2_bn2 <- stage2_unit2_conv1
I0110 15:06:18.455410 17384 net.cpp:380] stage2_unit2_bn2 -> stage2_unit2_bn2
I0110 15:06:18.455725 17384 net.cpp:122] Setting up stage2_unit2_bn2
I0110 15:06:18.455739 17384 net.cpp:129] Top shape: 8 128 50 50 (2560000)
I0110 15:06:18.455744 17384 net.cpp:137] Memory required for data: 1754880096
I0110 15:06:18.455755 17384 layer_factory.hpp:77] Creating layer stage2_unit2_bn2_scale
I0110 15:06:18.455766 17384 net.cpp:84] Creating Layer stage2_unit2_bn2_scale
I0110 15:06:18.455773 17384 net.cpp:406] stage2_unit2_bn2_scale <- stage2_unit2_bn2
I0110 15:06:18.455783 17384 net.cpp:367] stage2_unit2_bn2_scale -> stage2_unit2_bn2 (in-place)
I0110 15:06:18.455838 17384 layer_factory.hpp:77] Creating layer stage2_unit2_bn2_scale
I0110 15:06:18.455994 17384 net.cpp:122] Setting up stage2_unit2_bn2_scale
I0110 15:06:18.456007 17384 net.cpp:129] Top shape: 8 128 50 50 (2560000)
I0110 15:06:18.456012 17384 net.cpp:137] Memory required for data: 1765120096
I0110 15:06:18.456020 17384 layer_factory.hpp:77] Creating layer stage2_unit2_relu1
I0110 15:06:18.456030 17384 net.cpp:84] Creating Layer stage2_unit2_relu1
I0110 15:06:18.456037 17384 net.cpp:406] stage2_unit2_relu1 <- stage2_unit2_bn2
I0110 15:06:18.456046 17384 net.cpp:380] stage2_unit2_relu1 -> stage2_unit2_relu1
I0110 15:06:18.458953 17384 net.cpp:122] Setting up stage2_unit2_relu1
I0110 15:06:18.458978 17384 net.cpp:129] Top shape: 8 128 50 50 (2560000)
I0110 15:06:18.458986 17384 net.cpp:137] Memory required for data: 1775360096
I0110 15:06:18.458992 17384 layer_factory.hpp:77] Creating layer stage2_unit2_conv2
I0110 15:06:18.459012 17384 net.cpp:84] Creating Layer stage2_unit2_conv2
I0110 15:06:18.459022 17384 net.cpp:406] stage2_unit2_conv2 <- stage2_unit2_relu1
I0110 15:06:18.459033 17384 net.cpp:380] stage2_unit2_conv2 -> stage2_unit2_conv2
I0110 15:06:18.461730 17384 net.cpp:122] Setting up stage2_unit2_conv2
I0110 15:06:18.461745 17384 net.cpp:129] Top shape: 8 128 50 50 (2560000)
I0110 15:06:18.461750 17384 net.cpp:137] Memory required for data: 1785600096
I0110 15:06:18.461761 17384 layer_factory.hpp:77] Creating layer stage2_unit2_bn3
I0110 15:06:18.461772 17384 net.cpp:84] Creating Layer stage2_unit2_bn3
I0110 15:06:18.461779 17384 net.cpp:406] stage2_unit2_bn3 <- stage2_unit2_conv2
I0110 15:06:18.461788 17384 net.cpp:380] stage2_unit2_bn3 -> stage2_unit2_bn3
I0110 15:06:18.462083 17384 net.cpp:122] Setting up stage2_unit2_bn3
I0110 15:06:18.462095 17384 net.cpp:129] Top shape: 8 128 50 50 (2560000)
I0110 15:06:18.462102 17384 net.cpp:137] Memory required for data: 1795840096
I0110 15:06:18.462114 17384 layer_factory.hpp:77] Creating layer stage2_unit2_bn3_scale
I0110 15:06:18.462124 17384 net.cpp:84] Creating Layer stage2_unit2_bn3_scale
I0110 15:06:18.462132 17384 net.cpp:406] stage2_unit2_bn3_scale <- stage2_unit2_bn3
I0110 15:06:18.462139 17384 net.cpp:367] stage2_unit2_bn3_scale -> stage2_unit2_bn3 (in-place)
I0110 15:06:18.462200 17384 layer_factory.hpp:77] Creating layer stage2_unit2_bn3_scale
I0110 15:06:18.462358 17384 net.cpp:122] Setting up stage2_unit2_bn3_scale
I0110 15:06:18.462369 17384 net.cpp:129] Top shape: 8 128 50 50 (2560000)
I0110 15:06:18.462374 17384 net.cpp:137] Memory required for data: 1806080096
I0110 15:06:18.462388 17384 layer_factory.hpp:77] Creating layer _plus3
I0110 15:06:18.462404 17384 net.cpp:84] Creating Layer _plus3
I0110 15:06:18.462411 17384 net.cpp:406] _plus3 <- stage2_unit2_bn3
I0110 15:06:18.462419 17384 net.cpp:406] _plus3 <- _plus2__plus2_0_split_1
I0110 15:06:18.462430 17384 net.cpp:380] _plus3 -> _plus3
I0110 15:06:18.462464 17384 net.cpp:122] Setting up _plus3
I0110 15:06:18.462474 17384 net.cpp:129] Top shape: 8 128 50 50 (2560000)
I0110 15:06:18.462479 17384 net.cpp:137] Memory required for data: 1816320096
I0110 15:06:18.462486 17384 layer_factory.hpp:77] Creating layer _plus3__plus3_0_split
I0110 15:06:18.462496 17384 net.cpp:84] Creating Layer _plus3__plus3_0_split
I0110 15:06:18.462502 17384 net.cpp:406] _plus3__plus3_0_split <- _plus3
I0110 15:06:18.462513 17384 net.cpp:380] _plus3__plus3_0_split -> _plus3__plus3_0_split_0
I0110 15:06:18.462525 17384 net.cpp:380] _plus3__plus3_0_split -> _plus3__plus3_0_split_1
I0110 15:06:18.462579 17384 net.cpp:122] Setting up _plus3__plus3_0_split
I0110 15:06:18.462589 17384 net.cpp:129] Top shape: 8 128 50 50 (2560000)
I0110 15:06:18.462596 17384 net.cpp:129] Top shape: 8 128 50 50 (2560000)
I0110 15:06:18.462620 17384 net.cpp:137] Memory required for data: 1836800096
I0110 15:06:18.462626 17384 layer_factory.hpp:77] Creating layer stage3_unit1_bn1
I0110 15:06:18.462635 17384 net.cpp:84] Creating Layer stage3_unit1_bn1
I0110 15:06:18.462642 17384 net.cpp:406] stage3_unit1_bn1 <- _plus3__plus3_0_split_0
I0110 15:06:18.462651 17384 net.cpp:380] stage3_unit1_bn1 -> stage3_unit1_bn1
I0110 15:06:18.462965 17384 net.cpp:122] Setting up stage3_unit1_bn1
I0110 15:06:18.462980 17384 net.cpp:129] Top shape: 8 128 50 50 (2560000)
I0110 15:06:18.462986 17384 net.cpp:137] Memory required for data: 1847040096
I0110 15:06:18.462999 17384 layer_factory.hpp:77] Creating layer stage3_unit1_bn1_scale
I0110 15:06:18.463009 17384 net.cpp:84] Creating Layer stage3_unit1_bn1_scale
I0110 15:06:18.463016 17384 net.cpp:406] stage3_unit1_bn1_scale <- stage3_unit1_bn1
I0110 15:06:18.463024 17384 net.cpp:367] stage3_unit1_bn1_scale -> stage3_unit1_bn1 (in-place)
I0110 15:06:18.463086 17384 layer_factory.hpp:77] Creating layer stage3_unit1_bn1_scale
I0110 15:06:18.463244 17384 net.cpp:122] Setting up stage3_unit1_bn1_scale
I0110 15:06:18.463255 17384 net.cpp:129] Top shape: 8 128 50 50 (2560000)
I0110 15:06:18.463261 17384 net.cpp:137] Memory required for data: 1857280096
I0110 15:06:18.463274 17384 layer_factory.hpp:77] Creating layer stage3_unit1_conv1
I0110 15:06:18.463287 17384 net.cpp:84] Creating Layer stage3_unit1_conv1
I0110 15:06:18.463294 17384 net.cpp:406] stage3_unit1_conv1 <- stage3_unit1_bn1
I0110 15:06:18.463305 17384 net.cpp:380] stage3_unit1_conv1 -> stage3_unit1_conv1
I0110 15:06:18.469561 17384 net.cpp:122] Setting up stage3_unit1_conv1
I0110 15:06:18.469583 17384 net.cpp:129] Top shape: 8 256 50 50 (5120000)
I0110 15:06:18.469588 17384 net.cpp:137] Memory required for data: 1877760096
I0110 15:06:18.469596 17384 layer_factory.hpp:77] Creating layer stage3_unit1_bn2
I0110 15:06:18.469611 17384 net.cpp:84] Creating Layer stage3_unit1_bn2
I0110 15:06:18.469619 17384 net.cpp:406] stage3_unit1_bn2 <- stage3_unit1_conv1
I0110 15:06:18.469627 17384 net.cpp:380] stage3_unit1_bn2 -> stage3_unit1_bn2
I0110 15:06:18.469908 17384 net.cpp:122] Setting up stage3_unit1_bn2
I0110 15:06:18.469920 17384 net.cpp:129] Top shape: 8 256 50 50 (5120000)
I0110 15:06:18.469926 17384 net.cpp:137] Memory required for data: 1898240096
I0110 15:06:18.469938 17384 layer_factory.hpp:77] Creating layer stage3_unit1_bn2_scale
I0110 15:06:18.469949 17384 net.cpp:84] Creating Layer stage3_unit1_bn2_scale
I0110 15:06:18.469956 17384 net.cpp:406] stage3_unit1_bn2_scale <- stage3_unit1_bn2
I0110 15:06:18.469964 17384 net.cpp:367] stage3_unit1_bn2_scale -> stage3_unit1_bn2 (in-place)
I0110 15:06:18.470018 17384 layer_factory.hpp:77] Creating layer stage3_unit1_bn2_scale
I0110 15:06:18.470168 17384 net.cpp:122] Setting up stage3_unit1_bn2_scale
I0110 15:06:18.470180 17384 net.cpp:129] Top shape: 8 256 50 50 (5120000)
I0110 15:06:18.470186 17384 net.cpp:137] Memory required for data: 1918720096
I0110 15:06:18.470196 17384 layer_factory.hpp:77] Creating layer stage3_unit1_relu1
I0110 15:06:18.470206 17384 net.cpp:84] Creating Layer stage3_unit1_relu1
I0110 15:06:18.470213 17384 net.cpp:406] stage3_unit1_relu1 <- stage3_unit1_bn2
I0110 15:06:18.470222 17384 net.cpp:380] stage3_unit1_relu1 -> stage3_unit1_relu1
I0110 15:06:18.470367 17384 net.cpp:122] Setting up stage3_unit1_relu1
I0110 15:06:18.470381 17384 net.cpp:129] Top shape: 8 256 50 50 (5120000)
I0110 15:06:18.470388 17384 net.cpp:137] Memory required for data: 1939200096
I0110 15:06:18.470393 17384 layer_factory.hpp:77] Creating layer stage3_unit1_conv2
I0110 15:06:18.470408 17384 net.cpp:84] Creating Layer stage3_unit1_conv2
I0110 15:06:18.470415 17384 net.cpp:406] stage3_unit1_conv2 <- stage3_unit1_relu1
I0110 15:06:18.470424 17384 net.cpp:380] stage3_unit1_conv2 -> stage3_unit1_conv2
I0110 15:06:18.480995 17384 net.cpp:122] Setting up stage3_unit1_conv2
I0110 15:06:18.481015 17384 net.cpp:129] Top shape: 8 256 25 25 (1280000)
I0110 15:06:18.481020 17384 net.cpp:137] Memory required for data: 1944320096
I0110 15:06:18.481029 17384 layer_factory.hpp:77] Creating layer stage3_unit1_bn3
I0110 15:06:18.481047 17384 net.cpp:84] Creating Layer stage3_unit1_bn3
I0110 15:06:18.481055 17384 net.cpp:406] stage3_unit1_bn3 <- stage3_unit1_conv2
I0110 15:06:18.481062 17384 net.cpp:380] stage3_unit1_bn3 -> stage3_unit1_bn3
I0110 15:06:18.481335 17384 net.cpp:122] Setting up stage3_unit1_bn3
I0110 15:06:18.481345 17384 net.cpp:129] Top shape: 8 256 25 25 (1280000)
I0110 15:06:18.481350 17384 net.cpp:137] Memory required for data: 1949440096
I0110 15:06:18.481360 17384 layer_factory.hpp:77] Creating layer stage3_unit1_bn3_scale
I0110 15:06:18.481370 17384 net.cpp:84] Creating Layer stage3_unit1_bn3_scale
I0110 15:06:18.481376 17384 net.cpp:406] stage3_unit1_bn3_scale <- stage3_unit1_bn3
I0110 15:06:18.481385 17384 net.cpp:367] stage3_unit1_bn3_scale -> stage3_unit1_bn3 (in-place)
I0110 15:06:18.481436 17384 layer_factory.hpp:77] Creating layer stage3_unit1_bn3_scale
I0110 15:06:18.481575 17384 net.cpp:122] Setting up stage3_unit1_bn3_scale
I0110 15:06:18.481585 17384 net.cpp:129] Top shape: 8 256 25 25 (1280000)
I0110 15:06:18.481590 17384 net.cpp:137] Memory required for data: 1954560096
I0110 15:06:18.481600 17384 layer_factory.hpp:77] Creating layer stage3_unit1_conv1sc
I0110 15:06:18.481612 17384 net.cpp:84] Creating Layer stage3_unit1_conv1sc
I0110 15:06:18.481619 17384 net.cpp:406] stage3_unit1_conv1sc <- _plus3__plus3_0_split_1
I0110 15:06:18.481631 17384 net.cpp:380] stage3_unit1_conv1sc -> stage3_unit1_conv1sc
I0110 15:06:18.482345 17384 net.cpp:122] Setting up stage3_unit1_conv1sc
I0110 15:06:18.482359 17384 net.cpp:129] Top shape: 8 256 25 25 (1280000)
I0110 15:06:18.482365 17384 net.cpp:137] Memory required for data: 1959680096
I0110 15:06:18.482372 17384 layer_factory.hpp:77] Creating layer stage3_unit1_sc
I0110 15:06:18.482380 17384 net.cpp:84] Creating Layer stage3_unit1_sc
I0110 15:06:18.482388 17384 net.cpp:406] stage3_unit1_sc <- stage3_unit1_conv1sc
I0110 15:06:18.482396 17384 net.cpp:380] stage3_unit1_sc -> stage3_unit1_sc
I0110 15:06:18.482651 17384 net.cpp:122] Setting up stage3_unit1_sc
I0110 15:06:18.482661 17384 net.cpp:129] Top shape: 8 256 25 25 (1280000)
I0110 15:06:18.482668 17384 net.cpp:137] Memory required for data: 1964800096
I0110 15:06:18.482677 17384 layer_factory.hpp:77] Creating layer stage3_unit1_sc_scale
I0110 15:06:18.482686 17384 net.cpp:84] Creating Layer stage3_unit1_sc_scale
I0110 15:06:18.482692 17384 net.cpp:406] stage3_unit1_sc_scale <- stage3_unit1_sc
I0110 15:06:18.482700 17384 net.cpp:367] stage3_unit1_sc_scale -> stage3_unit1_sc (in-place)
I0110 15:06:18.482748 17384 layer_factory.hpp:77] Creating layer stage3_unit1_sc_scale
I0110 15:06:18.482882 17384 net.cpp:122] Setting up stage3_unit1_sc_scale
I0110 15:06:18.482892 17384 net.cpp:129] Top shape: 8 256 25 25 (1280000)
I0110 15:06:18.482897 17384 net.cpp:137] Memory required for data: 1969920096
I0110 15:06:18.482906 17384 layer_factory.hpp:77] Creating layer _plus4
I0110 15:06:18.482919 17384 net.cpp:84] Creating Layer _plus4
I0110 15:06:18.482925 17384 net.cpp:406] _plus4 <- stage3_unit1_bn3
I0110 15:06:18.482931 17384 net.cpp:406] _plus4 <- stage3_unit1_sc
I0110 15:06:18.482941 17384 net.cpp:380] _plus4 -> _plus4
I0110 15:06:18.482970 17384 net.cpp:122] Setting up _plus4
I0110 15:06:18.482980 17384 net.cpp:129] Top shape: 8 256 25 25 (1280000)
I0110 15:06:18.482985 17384 net.cpp:137] Memory required for data: 1975040096
I0110 15:06:18.482990 17384 layer_factory.hpp:77] Creating layer _plus4__plus4_0_split
I0110 15:06:18.483000 17384 net.cpp:84] Creating Layer _plus4__plus4_0_split
I0110 15:06:18.483006 17384 net.cpp:406] _plus4__plus4_0_split <- _plus4
I0110 15:06:18.483013 17384 net.cpp:380] _plus4__plus4_0_split -> _plus4__plus4_0_split_0
I0110 15:06:18.483026 17384 net.cpp:380] _plus4__plus4_0_split -> _plus4__plus4_0_split_1
I0110 15:06:18.483073 17384 net.cpp:122] Setting up _plus4__plus4_0_split
I0110 15:06:18.483083 17384 net.cpp:129] Top shape: 8 256 25 25 (1280000)
I0110 15:06:18.483091 17384 net.cpp:129] Top shape: 8 256 25 25 (1280000)
I0110 15:06:18.483096 17384 net.cpp:137] Memory required for data: 1985280096
I0110 15:06:18.483100 17384 layer_factory.hpp:77] Creating layer stage3_unit2_bn1
I0110 15:06:18.483108 17384 net.cpp:84] Creating Layer stage3_unit2_bn1
I0110 15:06:18.483114 17384 net.cpp:406] stage3_unit2_bn1 <- _plus4__plus4_0_split_0
I0110 15:06:18.483121 17384 net.cpp:380] stage3_unit2_bn1 -> stage3_unit2_bn1
I0110 15:06:18.483367 17384 net.cpp:122] Setting up stage3_unit2_bn1
I0110 15:06:18.483377 17384 net.cpp:129] Top shape: 8 256 25 25 (1280000)
I0110 15:06:18.483383 17384 net.cpp:137] Memory required for data: 1990400096
I0110 15:06:18.483393 17384 layer_factory.hpp:77] Creating layer stage3_unit2_bn1_scale
I0110 15:06:18.483402 17384 net.cpp:84] Creating Layer stage3_unit2_bn1_scale
I0110 15:06:18.483409 17384 net.cpp:406] stage3_unit2_bn1_scale <- stage3_unit2_bn1
I0110 15:06:18.483417 17384 net.cpp:367] stage3_unit2_bn1_scale -> stage3_unit2_bn1 (in-place)
I0110 15:06:18.483471 17384 layer_factory.hpp:77] Creating layer stage3_unit2_bn1_scale
I0110 15:06:18.483618 17384 net.cpp:122] Setting up stage3_unit2_bn1_scale
I0110 15:06:18.483629 17384 net.cpp:129] Top shape: 8 256 25 25 (1280000)
I0110 15:06:18.483634 17384 net.cpp:137] Memory required for data: 1995520096
I0110 15:06:18.483644 17384 layer_factory.hpp:77] Creating layer stage3_unit2_conv1
I0110 15:06:18.483661 17384 net.cpp:84] Creating Layer stage3_unit2_conv1
I0110 15:06:18.483669 17384 net.cpp:406] stage3_unit2_conv1 <- stage3_unit2_bn1
I0110 15:06:18.483676 17384 net.cpp:380] stage3_unit2_conv1 -> stage3_unit2_conv1
I0110 15:06:18.493605 17384 net.cpp:122] Setting up stage3_unit2_conv1
I0110 15:06:18.493624 17384 net.cpp:129] Top shape: 8 256 25 25 (1280000)
I0110 15:06:18.493629 17384 net.cpp:137] Memory required for data: 2000640096
I0110 15:06:18.493638 17384 layer_factory.hpp:77] Creating layer stage3_unit2_bn2
I0110 15:06:18.493650 17384 net.cpp:84] Creating Layer stage3_unit2_bn2
I0110 15:06:18.493657 17384 net.cpp:406] stage3_unit2_bn2 <- stage3_unit2_conv1
I0110 15:06:18.493664 17384 net.cpp:380] stage3_unit2_bn2 -> stage3_unit2_bn2
I0110 15:06:18.493923 17384 net.cpp:122] Setting up stage3_unit2_bn2
I0110 15:06:18.493932 17384 net.cpp:129] Top shape: 8 256 25 25 (1280000)
I0110 15:06:18.493937 17384 net.cpp:137] Memory required for data: 2005760096
I0110 15:06:18.493947 17384 layer_factory.hpp:77] Creating layer stage3_unit2_bn2_scale
I0110 15:06:18.493959 17384 net.cpp:84] Creating Layer stage3_unit2_bn2_scale
I0110 15:06:18.493964 17384 net.cpp:406] stage3_unit2_bn2_scale <- stage3_unit2_bn2
I0110 15:06:18.493970 17384 net.cpp:367] stage3_unit2_bn2_scale -> stage3_unit2_bn2 (in-place)
I0110 15:06:18.494019 17384 layer_factory.hpp:77] Creating layer stage3_unit2_bn2_scale
I0110 15:06:18.494158 17384 net.cpp:122] Setting up stage3_unit2_bn2_scale
I0110 15:06:18.494168 17384 net.cpp:129] Top shape: 8 256 25 25 (1280000)
I0110 15:06:18.494171 17384 net.cpp:137] Memory required for data: 2010880096
I0110 15:06:18.494179 17384 layer_factory.hpp:77] Creating layer stage3_unit2_relu1
I0110 15:06:18.494189 17384 net.cpp:84] Creating Layer stage3_unit2_relu1
I0110 15:06:18.494194 17384 net.cpp:406] stage3_unit2_relu1 <- stage3_unit2_bn2
I0110 15:06:18.494200 17384 net.cpp:380] stage3_unit2_relu1 -> stage3_unit2_relu1
I0110 15:06:18.494581 17384 net.cpp:122] Setting up stage3_unit2_relu1
I0110 15:06:18.494599 17384 net.cpp:129] Top shape: 8 256 25 25 (1280000)
I0110 15:06:18.494603 17384 net.cpp:137] Memory required for data: 2016000096
I0110 15:06:18.494608 17384 layer_factory.hpp:77] Creating layer stage3_unit2_conv2
I0110 15:06:18.494622 17384 net.cpp:84] Creating Layer stage3_unit2_conv2
I0110 15:06:18.494628 17384 net.cpp:406] stage3_unit2_conv2 <- stage3_unit2_relu1
I0110 15:06:18.494639 17384 net.cpp:380] stage3_unit2_conv2 -> stage3_unit2_conv2
I0110 15:06:18.504164 17384 net.cpp:122] Setting up stage3_unit2_conv2
I0110 15:06:18.504182 17384 net.cpp:129] Top shape: 8 256 25 25 (1280000)
I0110 15:06:18.504187 17384 net.cpp:137] Memory required for data: 2021120096
I0110 15:06:18.504195 17384 layer_factory.hpp:77] Creating layer stage3_unit2_bn3
I0110 15:06:18.504204 17384 net.cpp:84] Creating Layer stage3_unit2_bn3
I0110 15:06:18.504209 17384 net.cpp:406] stage3_unit2_bn3 <- stage3_unit2_conv2
I0110 15:06:18.504217 17384 net.cpp:380] stage3_unit2_bn3 -> stage3_unit2_bn3
I0110 15:06:18.504464 17384 net.cpp:122] Setting up stage3_unit2_bn3
I0110 15:06:18.504474 17384 net.cpp:129] Top shape: 8 256 25 25 (1280000)
I0110 15:06:18.504477 17384 net.cpp:137] Memory required for data: 2026240096
I0110 15:06:18.504487 17384 layer_factory.hpp:77] Creating layer stage3_unit2_bn3_scale
I0110 15:06:18.504494 17384 net.cpp:84] Creating Layer stage3_unit2_bn3_scale
I0110 15:06:18.504498 17384 net.cpp:406] stage3_unit2_bn3_scale <- stage3_unit2_bn3
I0110 15:06:18.504504 17384 net.cpp:367] stage3_unit2_bn3_scale -> stage3_unit2_bn3 (in-place)
I0110 15:06:18.504554 17384 layer_factory.hpp:77] Creating layer stage3_unit2_bn3_scale
I0110 15:06:18.504683 17384 net.cpp:122] Setting up stage3_unit2_bn3_scale
I0110 15:06:18.504693 17384 net.cpp:129] Top shape: 8 256 25 25 (1280000)
I0110 15:06:18.504696 17384 net.cpp:137] Memory required for data: 2031360096
I0110 15:06:18.504705 17384 layer_factory.hpp:77] Creating layer _plus5
I0110 15:06:18.504715 17384 net.cpp:84] Creating Layer _plus5
I0110 15:06:18.504720 17384 net.cpp:406] _plus5 <- stage3_unit2_bn3
I0110 15:06:18.504725 17384 net.cpp:406] _plus5 <- _plus4__plus4_0_split_1
I0110 15:06:18.504734 17384 net.cpp:380] _plus5 -> _plus5
I0110 15:06:18.504762 17384 net.cpp:122] Setting up _plus5
I0110 15:06:18.504770 17384 net.cpp:129] Top shape: 8 256 25 25 (1280000)
I0110 15:06:18.504775 17384 net.cpp:137] Memory required for data: 2036480096
I0110 15:06:18.504778 17384 layer_factory.hpp:77] Creating layer _plus5__plus5_0_split
I0110 15:06:18.504786 17384 net.cpp:84] Creating Layer _plus5__plus5_0_split
I0110 15:06:18.504789 17384 net.cpp:406] _plus5__plus5_0_split <- _plus5
I0110 15:06:18.504798 17384 net.cpp:380] _plus5__plus5_0_split -> _plus5__plus5_0_split_0
I0110 15:06:18.504807 17384 net.cpp:380] _plus5__plus5_0_split -> _plus5__plus5_0_split_1
I0110 15:06:18.504851 17384 net.cpp:122] Setting up _plus5__plus5_0_split
I0110 15:06:18.504860 17384 net.cpp:129] Top shape: 8 256 25 25 (1280000)
I0110 15:06:18.504865 17384 net.cpp:129] Top shape: 8 256 25 25 (1280000)
I0110 15:06:18.504869 17384 net.cpp:137] Memory required for data: 2046720096
I0110 15:06:18.504873 17384 layer_factory.hpp:77] Creating layer stage4_unit1_bn1
I0110 15:06:18.504880 17384 net.cpp:84] Creating Layer stage4_unit1_bn1
I0110 15:06:18.504886 17384 net.cpp:406] stage4_unit1_bn1 <- _plus5__plus5_0_split_0
I0110 15:06:18.504892 17384 net.cpp:380] stage4_unit1_bn1 -> stage4_unit1_bn1
I0110 15:06:18.505121 17384 net.cpp:122] Setting up stage4_unit1_bn1
I0110 15:06:18.505131 17384 net.cpp:129] Top shape: 8 256 25 25 (1280000)
I0110 15:06:18.505134 17384 net.cpp:137] Memory required for data: 2051840096
I0110 15:06:18.505162 17384 layer_factory.hpp:77] Creating layer stage4_unit1_bn1_scale
I0110 15:06:18.505169 17384 net.cpp:84] Creating Layer stage4_unit1_bn1_scale
I0110 15:06:18.505174 17384 net.cpp:406] stage4_unit1_bn1_scale <- stage4_unit1_bn1
I0110 15:06:18.505180 17384 net.cpp:367] stage4_unit1_bn1_scale -> stage4_unit1_bn1 (in-place)
I0110 15:06:18.505235 17384 layer_factory.hpp:77] Creating layer stage4_unit1_bn1_scale
I0110 15:06:18.505362 17384 net.cpp:122] Setting up stage4_unit1_bn1_scale
I0110 15:06:18.505372 17384 net.cpp:129] Top shape: 8 256 25 25 (1280000)
I0110 15:06:18.505375 17384 net.cpp:137] Memory required for data: 2056960096
I0110 15:06:18.505383 17384 layer_factory.hpp:77] Creating layer stage4_unit1_conv1
I0110 15:06:18.505394 17384 net.cpp:84] Creating Layer stage4_unit1_conv1
I0110 15:06:18.505400 17384 net.cpp:406] stage4_unit1_conv1 <- stage4_unit1_bn1
I0110 15:06:18.505409 17384 net.cpp:380] stage4_unit1_conv1 -> stage4_unit1_conv1
I0110 15:06:18.522917 17384 net.cpp:122] Setting up stage4_unit1_conv1
I0110 15:06:18.522934 17384 net.cpp:129] Top shape: 8 512 25 25 (2560000)
I0110 15:06:18.522938 17384 net.cpp:137] Memory required for data: 2067200096
I0110 15:06:18.522945 17384 layer_factory.hpp:77] Creating layer stage4_unit1_bn2
I0110 15:06:18.522954 17384 net.cpp:84] Creating Layer stage4_unit1_bn2
I0110 15:06:18.522960 17384 net.cpp:406] stage4_unit1_bn2 <- stage4_unit1_conv1
I0110 15:06:18.522967 17384 net.cpp:380] stage4_unit1_bn2 -> stage4_unit1_bn2
I0110 15:06:18.523202 17384 net.cpp:122] Setting up stage4_unit1_bn2
I0110 15:06:18.523211 17384 net.cpp:129] Top shape: 8 512 25 25 (2560000)
I0110 15:06:18.523216 17384 net.cpp:137] Memory required for data: 2077440096
I0110 15:06:18.523224 17384 layer_factory.hpp:77] Creating layer stage4_unit1_bn2_scale
I0110 15:06:18.523231 17384 net.cpp:84] Creating Layer stage4_unit1_bn2_scale
I0110 15:06:18.523236 17384 net.cpp:406] stage4_unit1_bn2_scale <- stage4_unit1_bn2
I0110 15:06:18.523241 17384 net.cpp:367] stage4_unit1_bn2_scale -> stage4_unit1_bn2 (in-place)
I0110 15:06:18.523290 17384 layer_factory.hpp:77] Creating layer stage4_unit1_bn2_scale
I0110 15:06:18.523418 17384 net.cpp:122] Setting up stage4_unit1_bn2_scale
I0110 15:06:18.523427 17384 net.cpp:129] Top shape: 8 512 25 25 (2560000)
I0110 15:06:18.523432 17384 net.cpp:137] Memory required for data: 2087680096
I0110 15:06:18.523440 17384 layer_factory.hpp:77] Creating layer stage4_unit1_relu1
I0110 15:06:18.523448 17384 net.cpp:84] Creating Layer stage4_unit1_relu1
I0110 15:06:18.523453 17384 net.cpp:406] stage4_unit1_relu1 <- stage4_unit1_bn2
I0110 15:06:18.523458 17384 net.cpp:380] stage4_unit1_relu1 -> stage4_unit1_relu1
I0110 15:06:18.523588 17384 net.cpp:122] Setting up stage4_unit1_relu1
I0110 15:06:18.523600 17384 net.cpp:129] Top shape: 8 512 25 25 (2560000)
I0110 15:06:18.523604 17384 net.cpp:137] Memory required for data: 2097920096
I0110 15:06:18.523608 17384 layer_factory.hpp:77] Creating layer stage4_unit1_conv2
I0110 15:06:18.523619 17384 net.cpp:84] Creating Layer stage4_unit1_conv2
I0110 15:06:18.523627 17384 net.cpp:406] stage4_unit1_conv2 <- stage4_unit1_relu1
I0110 15:06:18.523636 17384 net.cpp:380] stage4_unit1_conv2 -> stage4_unit1_conv2
I0110 15:06:18.557691 17384 net.cpp:122] Setting up stage4_unit1_conv2
I0110 15:06:18.557709 17384 net.cpp:129] Top shape: 8 512 13 13 (692224)
I0110 15:06:18.557713 17384 net.cpp:137] Memory required for data: 2100688992
I0110 15:06:18.557720 17384 layer_factory.hpp:77] Creating layer stage4_unit1_bn3
I0110 15:06:18.557729 17384 net.cpp:84] Creating Layer stage4_unit1_bn3
I0110 15:06:18.557734 17384 net.cpp:406] stage4_unit1_bn3 <- stage4_unit1_conv2
I0110 15:06:18.557740 17384 net.cpp:380] stage4_unit1_bn3 -> stage4_unit1_bn3
I0110 15:06:18.557991 17384 net.cpp:122] Setting up stage4_unit1_bn3
I0110 15:06:18.558001 17384 net.cpp:129] Top shape: 8 512 13 13 (692224)
I0110 15:06:18.558003 17384 net.cpp:137] Memory required for data: 2103457888
I0110 15:06:18.558013 17384 layer_factory.hpp:77] Creating layer stage4_unit1_bn3_scale
I0110 15:06:18.558022 17384 net.cpp:84] Creating Layer stage4_unit1_bn3_scale
I0110 15:06:18.558025 17384 net.cpp:406] stage4_unit1_bn3_scale <- stage4_unit1_bn3
I0110 15:06:18.558030 17384 net.cpp:367] stage4_unit1_bn3_scale -> stage4_unit1_bn3 (in-place)
I0110 15:06:18.558079 17384 layer_factory.hpp:77] Creating layer stage4_unit1_bn3_scale
I0110 15:06:18.558204 17384 net.cpp:122] Setting up stage4_unit1_bn3_scale
I0110 15:06:18.558212 17384 net.cpp:129] Top shape: 8 512 13 13 (692224)
I0110 15:06:18.558216 17384 net.cpp:137] Memory required for data: 2106226784
I0110 15:06:18.558223 17384 layer_factory.hpp:77] Creating layer stage4_unit1_conv1sc
I0110 15:06:18.558235 17384 net.cpp:84] Creating Layer stage4_unit1_conv1sc
I0110 15:06:18.558241 17384 net.cpp:406] stage4_unit1_conv1sc <- _plus5__plus5_0_split_1
I0110 15:06:18.558250 17384 net.cpp:380] stage4_unit1_conv1sc -> stage4_unit1_conv1sc
I0110 15:06:18.560166 17384 net.cpp:122] Setting up stage4_unit1_conv1sc
I0110 15:06:18.560178 17384 net.cpp:129] Top shape: 8 512 13 13 (692224)
I0110 15:06:18.560180 17384 net.cpp:137] Memory required for data: 2108995680
I0110 15:06:18.560186 17384 layer_factory.hpp:77] Creating layer stage4_unit1_sc
I0110 15:06:18.560195 17384 net.cpp:84] Creating Layer stage4_unit1_sc
I0110 15:06:18.560200 17384 net.cpp:406] stage4_unit1_sc <- stage4_unit1_conv1sc
I0110 15:06:18.560206 17384 net.cpp:380] stage4_unit1_sc -> stage4_unit1_sc
I0110 15:06:18.560438 17384 net.cpp:122] Setting up stage4_unit1_sc
I0110 15:06:18.560447 17384 net.cpp:129] Top shape: 8 512 13 13 (692224)
I0110 15:06:18.560451 17384 net.cpp:137] Memory required for data: 2111764576
I0110 15:06:18.560461 17384 layer_factory.hpp:77] Creating layer stage4_unit1_sc_scale
I0110 15:06:18.560468 17384 net.cpp:84] Creating Layer stage4_unit1_sc_scale
I0110 15:06:18.560474 17384 net.cpp:406] stage4_unit1_sc_scale <- stage4_unit1_sc
I0110 15:06:18.560480 17384 net.cpp:367] stage4_unit1_sc_scale -> stage4_unit1_sc (in-place)
I0110 15:06:18.560524 17384 layer_factory.hpp:77] Creating layer stage4_unit1_sc_scale
I0110 15:06:18.560643 17384 net.cpp:122] Setting up stage4_unit1_sc_scale
I0110 15:06:18.560652 17384 net.cpp:129] Top shape: 8 512 13 13 (692224)
I0110 15:06:18.560657 17384 net.cpp:137] Memory required for data: 2114533472
I0110 15:06:18.560664 17384 layer_factory.hpp:77] Creating layer _plus6
I0110 15:06:18.560672 17384 net.cpp:84] Creating Layer _plus6
I0110 15:06:18.560676 17384 net.cpp:406] _plus6 <- stage4_unit1_bn3
I0110 15:06:18.560681 17384 net.cpp:406] _plus6 <- stage4_unit1_sc
I0110 15:06:18.560688 17384 net.cpp:380] _plus6 -> _plus6
I0110 15:06:18.560716 17384 net.cpp:122] Setting up _plus6
I0110 15:06:18.560724 17384 net.cpp:129] Top shape: 8 512 13 13 (692224)
I0110 15:06:18.560729 17384 net.cpp:137] Memory required for data: 2117302368
I0110 15:06:18.560731 17384 layer_factory.hpp:77] Creating layer _plus6__plus6_0_split
I0110 15:06:18.560740 17384 net.cpp:84] Creating Layer _plus6__plus6_0_split
I0110 15:06:18.560745 17384 net.cpp:406] _plus6__plus6_0_split <- _plus6
I0110 15:06:18.560750 17384 net.cpp:380] _plus6__plus6_0_split -> _plus6__plus6_0_split_0
I0110 15:06:18.560758 17384 net.cpp:380] _plus6__plus6_0_split -> _plus6__plus6_0_split_1
I0110 15:06:18.560796 17384 net.cpp:122] Setting up _plus6__plus6_0_split
I0110 15:06:18.560804 17384 net.cpp:129] Top shape: 8 512 13 13 (692224)
I0110 15:06:18.560809 17384 net.cpp:129] Top shape: 8 512 13 13 (692224)
I0110 15:06:18.560813 17384 net.cpp:137] Memory required for data: 2122840160
I0110 15:06:18.560817 17384 layer_factory.hpp:77] Creating layer stage4_unit2_bn1
I0110 15:06:18.560825 17384 net.cpp:84] Creating Layer stage4_unit2_bn1
I0110 15:06:18.560832 17384 net.cpp:406] stage4_unit2_bn1 <- _plus6__plus6_0_split_0
I0110 15:06:18.560838 17384 net.cpp:380] stage4_unit2_bn1 -> stage4_unit2_bn1
I0110 15:06:18.561051 17384 net.cpp:122] Setting up stage4_unit2_bn1
I0110 15:06:18.561060 17384 net.cpp:129] Top shape: 8 512 13 13 (692224)
I0110 15:06:18.561064 17384 net.cpp:137] Memory required for data: 2125609056
I0110 15:06:18.561074 17384 layer_factory.hpp:77] Creating layer stage4_unit2_bn1_scale
I0110 15:06:18.561084 17384 net.cpp:84] Creating Layer stage4_unit2_bn1_scale
I0110 15:06:18.561089 17384 net.cpp:406] stage4_unit2_bn1_scale <- stage4_unit2_bn1
I0110 15:06:18.561096 17384 net.cpp:367] stage4_unit2_bn1_scale -> stage4_unit2_bn1 (in-place)
I0110 15:06:18.561141 17384 layer_factory.hpp:77] Creating layer stage4_unit2_bn1_scale
I0110 15:06:18.561264 17384 net.cpp:122] Setting up stage4_unit2_bn1_scale
I0110 15:06:18.561276 17384 net.cpp:129] Top shape: 8 512 13 13 (692224)
I0110 15:06:18.561282 17384 net.cpp:137] Memory required for data: 2128377952
I0110 15:06:18.561290 17384 layer_factory.hpp:77] Creating layer stage4_unit2_conv1
I0110 15:06:18.561298 17384 net.cpp:84] Creating Layer stage4_unit2_conv1
I0110 15:06:18.561303 17384 net.cpp:406] stage4_unit2_conv1 <- stage4_unit2_bn1
I0110 15:06:18.561312 17384 net.cpp:380] stage4_unit2_conv1 -> stage4_unit2_conv1
I0110 15:06:18.595283 17384 net.cpp:122] Setting up stage4_unit2_conv1
I0110 15:06:18.595304 17384 net.cpp:129] Top shape: 8 512 13 13 (692224)
I0110 15:06:18.595307 17384 net.cpp:137] Memory required for data: 2131146848
I0110 15:06:18.595315 17384 layer_factory.hpp:77] Creating layer stage4_unit2_bn2
I0110 15:06:18.595324 17384 net.cpp:84] Creating Layer stage4_unit2_bn2
I0110 15:06:18.595331 17384 net.cpp:406] stage4_unit2_bn2 <- stage4_unit2_conv1
I0110 15:06:18.595338 17384 net.cpp:380] stage4_unit2_bn2 -> stage4_unit2_bn2
I0110 15:06:18.595580 17384 net.cpp:122] Setting up stage4_unit2_bn2
I0110 15:06:18.595590 17384 net.cpp:129] Top shape: 8 512 13 13 (692224)
I0110 15:06:18.595593 17384 net.cpp:137] Memory required for data: 2133915744
I0110 15:06:18.595602 17384 layer_factory.hpp:77] Creating layer stage4_unit2_bn2_scale
I0110 15:06:18.595609 17384 net.cpp:84] Creating Layer stage4_unit2_bn2_scale
I0110 15:06:18.595614 17384 net.cpp:406] stage4_unit2_bn2_scale <- stage4_unit2_bn2
I0110 15:06:18.595619 17384 net.cpp:367] stage4_unit2_bn2_scale -> stage4_unit2_bn2 (in-place)
I0110 15:06:18.595667 17384 layer_factory.hpp:77] Creating layer stage4_unit2_bn2_scale
I0110 15:06:18.595791 17384 net.cpp:122] Setting up stage4_unit2_bn2_scale
I0110 15:06:18.595800 17384 net.cpp:129] Top shape: 8 512 13 13 (692224)
I0110 15:06:18.595804 17384 net.cpp:137] Memory required for data: 2136684640
I0110 15:06:18.595811 17384 layer_factory.hpp:77] Creating layer stage4_unit2_relu1
I0110 15:06:18.595819 17384 net.cpp:84] Creating Layer stage4_unit2_relu1
I0110 15:06:18.595824 17384 net.cpp:406] stage4_unit2_relu1 <- stage4_unit2_bn2
I0110 15:06:18.595831 17384 net.cpp:380] stage4_unit2_relu1 -> stage4_unit2_relu1
I0110 15:06:18.596253 17384 net.cpp:122] Setting up stage4_unit2_relu1
I0110 15:06:18.596269 17384 net.cpp:129] Top shape: 8 512 13 13 (692224)
I0110 15:06:18.596273 17384 net.cpp:137] Memory required for data: 2139453536
I0110 15:06:18.596279 17384 layer_factory.hpp:77] Creating layer stage4_unit2_conv2
I0110 15:06:18.596293 17384 net.cpp:84] Creating Layer stage4_unit2_conv2
I0110 15:06:18.596299 17384 net.cpp:406] stage4_unit2_conv2 <- stage4_unit2_relu1
I0110 15:06:18.596308 17384 net.cpp:380] stage4_unit2_conv2 -> stage4_unit2_conv2
I0110 15:06:18.630170 17384 net.cpp:122] Setting up stage4_unit2_conv2
I0110 15:06:18.630188 17384 net.cpp:129] Top shape: 8 512 13 13 (692224)
I0110 15:06:18.630193 17384 net.cpp:137] Memory required for data: 2142222432
I0110 15:06:18.630200 17384 layer_factory.hpp:77] Creating layer stage4_unit2_bn3
I0110 15:06:18.630211 17384 net.cpp:84] Creating Layer stage4_unit2_bn3
I0110 15:06:18.630216 17384 net.cpp:406] stage4_unit2_bn3 <- stage4_unit2_conv2
I0110 15:06:18.630223 17384 net.cpp:380] stage4_unit2_bn3 -> stage4_unit2_bn3
I0110 15:06:18.630457 17384 net.cpp:122] Setting up stage4_unit2_bn3
I0110 15:06:18.630466 17384 net.cpp:129] Top shape: 8 512 13 13 (692224)
I0110 15:06:18.630470 17384 net.cpp:137] Memory required for data: 2144991328
I0110 15:06:18.630479 17384 layer_factory.hpp:77] Creating layer stage4_unit2_bn3_scale
I0110 15:06:18.630489 17384 net.cpp:84] Creating Layer stage4_unit2_bn3_scale
I0110 15:06:18.630496 17384 net.cpp:406] stage4_unit2_bn3_scale <- stage4_unit2_bn3
I0110 15:06:18.630501 17384 net.cpp:367] stage4_unit2_bn3_scale -> stage4_unit2_bn3 (in-place)
I0110 15:06:18.630548 17384 layer_factory.hpp:77] Creating layer stage4_unit2_bn3_scale
I0110 15:06:18.630671 17384 net.cpp:122] Setting up stage4_unit2_bn3_scale
I0110 15:06:18.630679 17384 net.cpp:129] Top shape: 8 512 13 13 (692224)
I0110 15:06:18.630683 17384 net.cpp:137] Memory required for data: 2147760224
I0110 15:06:18.630692 17384 layer_factory.hpp:77] Creating layer _plus7
I0110 15:06:18.630698 17384 net.cpp:84] Creating Layer _plus7
I0110 15:06:18.630704 17384 net.cpp:406] _plus7 <- stage4_unit2_bn3
I0110 15:06:18.630710 17384 net.cpp:406] _plus7 <- _plus6__plus6_0_split_1
I0110 15:06:18.630719 17384 net.cpp:380] _plus7 -> _plus7
I0110 15:06:18.630748 17384 net.cpp:122] Setting up _plus7
I0110 15:06:18.630756 17384 net.cpp:129] Top shape: 8 512 13 13 (692224)
I0110 15:06:18.630760 17384 net.cpp:137] Memory required for data: 2150529120
I0110 15:06:18.630765 17384 layer_factory.hpp:77] Creating layer bn1
I0110 15:06:18.630771 17384 net.cpp:84] Creating Layer bn1
I0110 15:06:18.630775 17384 net.cpp:406] bn1 <- _plus7
I0110 15:06:18.630784 17384 net.cpp:380] bn1 -> bn1
I0110 15:06:18.630995 17384 net.cpp:122] Setting up bn1
I0110 15:06:18.631004 17384 net.cpp:129] Top shape: 8 512 13 13 (692224)
I0110 15:06:18.631007 17384 net.cpp:137] Memory required for data: 2153298016
I0110 15:06:18.631016 17384 layer_factory.hpp:77] Creating layer bn1_scale
I0110 15:06:18.631024 17384 net.cpp:84] Creating Layer bn1_scale
I0110 15:06:18.631028 17384 net.cpp:406] bn1_scale <- bn1
I0110 15:06:18.631033 17384 net.cpp:367] bn1_scale -> bn1 (in-place)
I0110 15:06:18.631075 17384 layer_factory.hpp:77] Creating layer bn1_scale
I0110 15:06:18.631196 17384 net.cpp:122] Setting up bn1_scale
I0110 15:06:18.631204 17384 net.cpp:129] Top shape: 8 512 13 13 (692224)
I0110 15:06:18.631207 17384 net.cpp:137] Memory required for data: 2156066912
I0110 15:06:18.631215 17384 layer_factory.hpp:77] Creating layer fc8
I0110 15:06:18.631227 17384 net.cpp:84] Creating Layer fc8
I0110 15:06:18.631232 17384 net.cpp:406] fc8 <- bn1
I0110 15:06:18.631240 17384 net.cpp:380] fc8 -> fc8
I0110 15:06:18.634713 17384 net.cpp:122] Setting up fc8
I0110 15:06:18.634729 17384 net.cpp:129] Top shape: 8 2 (16)
I0110 15:06:18.634733 17384 net.cpp:137] Memory required for data: 2156066976
I0110 15:06:18.634743 17384 layer_factory.hpp:77] Creating layer fc8_fc8_0_split
I0110 15:06:18.634753 17384 net.cpp:84] Creating Layer fc8_fc8_0_split
I0110 15:06:18.634759 17384 net.cpp:406] fc8_fc8_0_split <- fc8
I0110 15:06:18.634766 17384 net.cpp:380] fc8_fc8_0_split -> fc8_fc8_0_split_0
I0110 15:06:18.634779 17384 net.cpp:380] fc8_fc8_0_split -> fc8_fc8_0_split_1
I0110 15:06:18.634826 17384 net.cpp:122] Setting up fc8_fc8_0_split
I0110 15:06:18.634833 17384 net.cpp:129] Top shape: 8 2 (16)
I0110 15:06:18.634838 17384 net.cpp:129] Top shape: 8 2 (16)
I0110 15:06:18.634841 17384 net.cpp:137] Memory required for data: 2156067104
I0110 15:06:18.634845 17384 layer_factory.hpp:77] Creating layer accuracy
I0110 15:06:18.634857 17384 net.cpp:84] Creating Layer accuracy
I0110 15:06:18.634863 17384 net.cpp:406] accuracy <- fc8_fc8_0_split_0
I0110 15:06:18.634868 17384 net.cpp:406] accuracy <- label_data_1_split_0
I0110 15:06:18.634874 17384 net.cpp:380] accuracy -> accuracy
…
