…
I0110 19:48:50.993139  2858 net.cpp:294] The NetState phase (0) differed from the phase (1) specified by a rule in layer accuracy
I0110 19:48:50.993854  2858 net.cpp:51] Initializing net from parameters: 
name: "r18"
state {
  phase: TRAIN
  level: 0
  stage: ""
}
layer {
  name: "data"
  type: "Data"
  top: "data"
  top: "label"
  include {
    phase: TRAIN
  }
  transform_param {
    scale: 0.0078125
    mirror: true
    mean_value: 127
  }
  data_param {
    source: "/home/lc/gender/school/data_3/train.lmdb"
    batch_size: 8
    backend: LMDB
  }
}
layer {
  name: "conv0"
  type: "Convolution"
  bottom: "data"
  top: "conv0"
  param {
    lr_mult: 1
    decay_mult: 1
  }
  convolution_param {
    num_output: 64
    bias_term: false
    pad: 1
    kernel_size: 3
    stride: 1
    weight_filler {
      type: "gaussian"
      std: 0.01
    }
    engine: CAFFE
  }
}
layer {
  name: "bn0"
  type: "BatchNorm"
  bottom: "conv0"
  top: "bn0"
  batch_norm_param {
    use_global_stats: false
    moving_average_fraction: 0.9
    eps: 2e-05
  }
}
layer {
  name: "bn0_scale"
  type: "Scale"
  bottom: "bn0"
  top: "bn0"
  scale_param {
    bias_term: true
  }
}
layer {
  name: "relu0"
  type: "ReLU"
  bottom: "bn0"
  top: "relu0"
}
layer {
  name: "stage1_unit1_bn1"
  type: "BatchNorm"
  bottom: "relu0"
  top: "stage1_unit1_bn1"
  batch_norm_param {
    use_global_stats: false
    moving_average_fraction: 0.9
    eps: 2e-05
  }
}
layer {
  name: "stage1_unit1_bn1_scale"
  type: "Scale"
  bottom: "stage1_unit1_bn1"
  top: "stage1_unit1_bn1"
  scale_param {
    bias_term: true
  }
}
layer {
  name: "stage1_unit1_conv1"
  type: "Convolution"
  bottom: "stage1_unit1_bn1"
  top: "stage1_unit1_conv1"
  param {
    lr_mult: 1
    decay_mult: 1
  }
  convolution_param {
    num_output: 64
    bias_term: false
    pad: 1
    kernel_size: 3
    stride: 1
    weight_filler {
      type: "gaussian"
      std: 0.01
    }
    engine: CAFFE
  }
}
layer {
  name: "stage1_unit1_bn2"
  type: "BatchNorm"
  bottom: "stage1_unit1_conv1"
  top: "stage1_unit1_bn2"
  batch_norm_param {
    use_global_stats: false
    moving_average_fraction: 0.9
    eps: 2e-05
  }
}
layer {
  name: "stage1_unit1_bn2_scale"
  type: "Scale"
  bottom: "stage1_unit1_bn2"
  top: "stage1_unit1_bn2"
  scale_param {
    bias_term: true
  }
}
layer {
  name: "stage1_unit1_relu1"
  type: "ReLU"
  bottom: "stage1_unit1_bn2"
  top: "stage1_unit1_relu1"
}
layer {
  name: "stage1_unit1_conv2"
  type: "Convolution"
  bottom: "stage1_unit1_relu1"
  top: "stage1_unit1_conv2"
  param {
    lr_mult: 1
    decay_mult: 1
  }
  convolution_param {
    num_output: 64
    bias_term: false
    pad: 1
    kernel_size: 3
    stride: 2
    weight_filler {
      type: "gaussian"
      std: 0.01
    }
    engine: CAFFE
  }
}
layer {
  name: "stage1_unit1_bn3"
  type: "BatchNorm"
  bottom: "stage1_unit1_conv2"
  top: "stage1_unit1_bn3"
  batch_norm_param {
    use_global_stats: false
    moving_average_fraction: 0.9
    eps: 2e-05
  }
}
layer {
  name: "stage1_unit1_bn3_scale"
  type: "Scale"
  bottom: "stage1_unit1_bn3"
  top: "stage1_unit1_bn3"
  scale_param {
    bias_term: true
  }
}
layer {
  name: "stage1_unit1_conv1sc"
  type: "Convolution"
  bottom: "relu0"
  top: "stage1_unit1_conv1sc"
  param {
    lr_mult: 1
    decay_mult: 1
  }
  convolution_param {
    num_output: 64
    bias_term: false
    kernel_size: 1
    stride: 2
    weight_filler {
      type: "gaussian"
      std: 0.01
    }
    engine: CAFFE
  }
}
layer {
  name: "stage1_unit1_sc"
  type: "BatchNorm"
  bottom: "stage1_unit1_conv1sc"
  top: "stage1_unit1_sc"
  batch_norm_param {
    use_global_stats: false
    moving_average_fraction: 0.9
    eps: 2e-05
  }
}
layer {
  name: "stage1_unit1_sc_scale"
  type: "Scale"
  bottom: "stage1_unit1_sc"
  top: "stage1_unit1_sc"
  scale_param {
    bias_term: true
  }
}
layer {
  name: "_plus0"
  type: "Eltwise"
  bottom: "stage1_unit1_bn3"
  bottom: "stage1_unit1_sc"
  top: "_plus0"
  eltwise_param {
    operation: SUM
  }
}
layer {
  name: "stage1_unit2_bn1"
  type: "BatchNorm"
  bottom: "_plus0"
  top: "stage1_unit2_bn1"
  batch_norm_param {
    use_global_stats: false
    moving_average_fraction: 0.9
    eps: 2e-05
  }
}
layer {
  name: "stage1_unit2_bn1_scale"
  type: "Scale"
  bottom: "stage1_unit2_bn1"
  top: "stage1_unit2_bn1"
  scale_param {
    bias_term: true
  }
}
layer {
  name: "stage1_unit2_conv1"
  type: "Convolution"
  bottom: "stage1_unit2_bn1"
  top: "stage1_unit2_conv1"
  param {
    lr_mult: 1
    decay_mult: 1
  }
  convolution_param {
    num_output: 64
    bias_term: false
    pad: 1
    kernel_size: 3
    stride: 1
    weight_filler {
      type: "gaussian"
      std: 0.01
    }
    engine: CAFFE
  }
}
layer {
  name: "stage1_unit2_bn2"
  type: "BatchNorm"
  bottom: "stage1_unit2_conv1"
  top: "stage1_unit2_bn2"
  batch_norm_param {
    use_global_stats: false
    moving_average_fraction: 0.9
    eps: 2e-05
  }
}
layer {
  name: "stage1_unit2_bn2_scale"
  type: "Scale"
  bottom: "stage1_unit2_bn2"
  top: "stage1_unit2_bn2"
  scale_param {
    bias_term: true
  }
}
layer {
  name: "stage1_unit2_relu1"
  type: "ReLU"
  bottom: "stage1_unit2_bn2"
  top: "stage1_unit2_relu1"
}
layer {
  name: "stage1_unit2_conv2"
  type: "Convolution"
  bottom: "stage1_unit2_relu1"
  top: "stage1_unit2_conv2"
  param {
    lr_mult: 1
    decay_mult: 1
  }
  convolution_param {
    num_output: 64
    bias_term: false
    pad: 1
    kernel_size: 3
    stride: 1
    weight_filler {
      type: "gaussian"
      std: 0.01
    }
    engine: CAFFE
  }
}
layer {
  name: "stage1_unit2_bn3"
  type: "BatchNorm"
  bottom: "stage1_unit2_conv2"
  top: "stage1_unit2_bn3"
  batch_norm_param {
    use_global_stats: false
    moving_average_fraction: 0.9
    eps: 2e-05
  }
}
layer {
  name: "stage1_unit2_bn3_scale"
  type: "Scale"
  bottom: "stage1_unit2_bn3"
  top: "stage1_unit2_bn3"
  scale_param {
    bias_term: true
  }
}
layer {
  name: "_plus1"
  type: "Eltwise"
  bottom: "stage1_unit2_bn3"
  bottom: "_plus0"
  top: "_plus1"
  eltwise_param {
    operation: SUM
  }
}
layer {
  name: "stage2_unit1_bn1"
  type: "BatchNorm"
  bottom: "_plus1"
  top: "stage2_unit1_bn1"
  batch_norm_param {
    use_global_stats: false
    moving_average_fraction: 0.9
    eps: 2e-05
  }
}
layer {
  name: "stage2_unit1_bn1_scale"
  type: "Scale"
  bottom: "stage2_unit1_bn1"
  top: "stage2_unit1_bn1"
  scale_param {
    bias_term: true
  }
}
layer {
  name: "stage2_unit1_conv1"
  type: "Convolution"
  bottom: "stage2_unit1_bn1"
  top: "stage2_unit1_conv1"
  param {
    lr_mult: 1
    decay_mult: 1
  }
  convolution_param {
    num_output: 128
    bias_term: false
    pad: 1
    kernel_size: 3
    stride: 1
    weight_filler {
      type: "gaussian"
      std: 0.01
    }
    engine: CAFFE
  }
}
layer {
  name: "stage2_unit1_bn2"
  type: "BatchNorm"
  bottom: "stage2_unit1_conv1"
  top: "stage2_unit1_bn2"
  batch_norm_param {
    use_global_stats: false
    moving_average_fraction: 0.9
    eps: 2e-05
  }
}
layer {
  name: "stage2_unit1_bn2_scale"
  type: "Scale"
  bottom: "stage2_unit1_bn2"
  top: "stage2_unit1_bn2"
  scale_param {
    bias_term: true
  }
}
layer {
  name: "stage2_unit1_relu1"
  type: "ReLU"
  bottom: "stage2_unit1_bn2"
  top: "stage2_unit1_relu1"
}
layer {
  name: "stage2_unit1_conv2"
  type: "Convolution"
  bottom: "stage2_unit1_relu1"
  top: "stage2_unit1_conv2"
  param {
    lr_mult: 1
    decay_mult: 1
  }
  convolution_param {
    num_output: 128
    bias_term: false
    pad: 1
    kernel_size: 3
    stride: 2
    weight_filler {
      type: "gaussian"
      std: 0.01
    }
    engine: CAFFE
  }
}
layer {
  name: "stage2_unit1_bn3"
  type: "BatchNorm"
  bottom: "stage2_unit1_conv2"
  top: "stage2_unit1_bn3"
  batch_norm_param {
    use_global_stats: false
    moving_average_fraction: 0.9
    eps: 2e-05
  }
}
layer {
  name: "stage2_unit1_bn3_scale"
  type: "Scale"
  bottom: "stage2_unit1_bn3"
  top: "stage2_unit1_bn3"
  scale_param {
    bias_term: true
  }
}
layer {
  name: "stage2_unit1_conv1sc"
  type: "Convolution"
  bottom: "_plus1"
  top: "stage2_unit1_conv1sc"
  param {
    lr_mult: 1
    decay_mult: 1
  }
  convolution_param {
    num_output: 128
    bias_term: false
    kernel_size: 1
    stride: 2
    weight_filler {
      type: "gaussian"
      std: 0.01
    }
    engine: CAFFE
  }
}
layer {
  name: "stage2_unit1_sc"
  type: "BatchNorm"
  bottom: "stage2_unit1_conv1sc"
  top: "stage2_unit1_sc"
  batch_norm_param {
    use_global_stats: false
    moving_average_fraction: 0.9
    eps: 2e-05
  }
}
layer {
  name: "stage2_unit1_sc_scale"
  type: "Scale"
  bottom: "stage2_unit1_sc"
  top: "stage2_unit1_sc"
  scale_param {
    bias_term: true
  }
}
layer {
  name: "_plus2"
  type: "Eltwise"
  bottom: "stage2_unit1_bn3"
  bottom: "stage2_unit1_sc"
  top: "_plus2"
  eltwise_param {
    operation: SUM
  }
}
layer {
  name: "stage2_unit2_bn1"
  type: "BatchNorm"
  bottom: "_plus2"
  top: "stage2_unit2_bn1"
  batch_norm_param {
    use_global_stats: false
    moving_average_fraction: 0.9
    eps: 2e-05
  }
}
layer {
  name: "stage2_unit2_bn1_scale"
  type: "Scale"
  bottom: "stage2_unit2_bn1"
  top: "stage2_unit2_bn1"
  scale_param {
    bias_term: true
  }
}
layer {
  name: "stage2_unit2_conv1"
  type: "Convolution"
  bottom: "stage2_unit2_bn1"
  top: "stage2_unit2_conv1"
  param {
    lr_mult: 1
    decay_mult: 1
  }
  convolution_param {
    num_output: 128
    bias_term: false
    pad: 1
    kernel_size: 3
    stride: 1
    weight_filler {
      type: "gaussian"
      std: 0.01
    }
    engine: CAFFE
  }
}
layer {
  name: "stage2_unit2_bn2"
  type: "BatchNorm"
  bottom: "stage2_unit2_conv1"
  top: "stage2_unit2_bn2"
  batch_norm_param {
    use_global_stats: false
    moving_average_fraction: 0.9
    eps: 2e-05
  }
}
layer {
  name: "stage2_unit2_bn2_scale"
  type: "Scale"
  bottom: "stage2_unit2_bn2"
  top: "stage2_unit2_bn2"
  scale_param {
    bias_term: true
  }
}
layer {
  name: "stage2_unit2_relu1"
  type: "ReLU"
  bottom: "stage2_unit2_bn2"
  top: "stage2_unit2_relu1"
}
layer {
  name: "stage2_unit2_conv2"
  type: "Convolution"
  bottom: "stage2_unit2_relu1"
  top: "stage2_unit2_conv2"
  param {
    lr_mult: 1
    decay_mult: 1
  }
  convolution_param {
    num_output: 128
    bias_term: false
    pad: 1
    kernel_size: 3
    stride: 1
    weight_filler {
      type: "gaussian"
      std: 0.01
    }
    engine: CAFFE
  }
}
layer {
  name: "stage2_unit2_bn3"
  type: "BatchNorm"
  bottom: "stage2_unit2_conv2"
  top: "stage2_unit2_bn3"
  batch_norm_param {
    use_global_stats: false
    moving_average_fraction: 0.9
    eps: 2e-05
  }
}
layer {
  name: "stage2_unit2_bn3_scale"
  type: "Scale"
  bottom: "stage2_unit2_bn3"
  top: "stage2_unit2_bn3"
  scale_param {
    bias_term: true
  }
}
layer {
  name: "_plus3"
  type: "Eltwise"
  bottom: "stage2_unit2_bn3"
  bottom: "_plus2"
  top: "_plus3"
  eltwise_param {
    operation: SUM
  }
}
layer {
  name: "stage3_unit1_bn1"
  type: "BatchNorm"
  bottom: "_plus3"
  top: "stage3_unit1_bn1"
  batch_norm_param {
    use_global_stats: false
    moving_average_fraction: 0.9
    eps: 2e-05
  }
}
layer {
  name: "stage3_unit1_bn1_scale"
  type: "Scale"
  bottom: "stage3_unit1_bn1"
  top: "stage3_unit1_bn1"
  scale_param {
    bias_term: true
  }
}
layer {
  name: "stage3_unit1_conv1"
  type: "Convolution"
  bottom: "stage3_unit1_bn1"
  top: "stage3_unit1_conv1"
  param {
    lr_mult: 1
    decay_mult: 1
  }
  convolution_param {
    num_output: 256
    bias_term: false
    pad: 1
    kernel_size: 3
    stride: 1
    weight_filler {
      type: "gaussian"
      std: 0.01
    }
    engine: CAFFE
  }
}
layer {
  name: "stage3_unit1_bn2"
  type: "BatchNorm"
  bottom: "stage3_unit1_conv1"
  top: "stage3_unit1_bn2"
  batch_norm_param {
    use_global_stats: false
    moving_average_fraction: 0.9
    eps: 2e-05
  }
}
layer {
  name: "stage3_unit1_bn2_scale"
  type: "Scale"
  bottom: "stage3_unit1_bn2"
  top: "stage3_unit1_bn2"
  scale_param {
    bias_term: true
  }
}
layer {
  name: "stage3_unit1_relu1"
  type: "ReLU"
  bottom: "stage3_unit1_bn2"
  top: "stage3_unit1_relu1"
}
layer {
  name: "stage3_unit1_conv2"
  type: "Convolution"
  bottom: "stage3_unit1_relu1"
  top: "stage3_unit1_conv2"
  param {
    lr_mult: 1
    decay_mult: 1
  }
  convolution_param {
    num_output: 256
    bias_term: false
    pad: 1
    kernel_size: 3
    stride: 2
    weight_filler {
      type: "gaussian"
      std: 0.01
    }
    engine: CAFFE
  }
}
layer {
  name: "stage3_unit1_bn3"
  type: "BatchNorm"
  bottom: "stage3_unit1_conv2"
  top: "stage3_unit1_bn3"
  batch_norm_param {
    use_global_stats: false
    moving_average_fraction: 0.9
    eps: 2e-05
  }
}
layer {
  name: "stage3_unit1_bn3_scale"
  type: "Scale"
  bottom: "stage3_unit1_bn3"
  top: "stage3_unit1_bn3"
  scale_param {
    bias_term: true
  }
}
layer {
  name: "stage3_unit1_conv1sc"
  type: "Convolution"
  bottom: "_plus3"
  top: "stage3_unit1_conv1sc"
  param {
    lr_mult: 1
    decay_mult: 1
  }
  convolution_param {
    num_output: 256
    bias_term: false
    kernel_size: 1
    stride: 2
    weight_filler {
      type: "gaussian"
      std: 0.01
    }
    engine: CAFFE
  }
}
layer {
  name: "stage3_unit1_sc"
  type: "BatchNorm"
  bottom: "stage3_unit1_conv1sc"
  top: "stage3_unit1_sc"
  batch_norm_param {
    use_global_stats: false
    moving_average_fraction: 0.9
    eps: 2e-05
  }
}
layer {
  name: "stage3_unit1_sc_scale"
  type: "Scale"
  bottom: "stage3_unit1_sc"
  top: "stage3_unit1_sc"
  scale_param {
    bias_term: true
  }
}
layer {
  name: "_plus4"
  type: "Eltwise"
  bottom: "stage3_unit1_bn3"
  bottom: "stage3_unit1_sc"
  top: "_plus4"
  eltwise_param {
    operation: SUM
  }
}
layer {
  name: "stage3_unit2_bn1"
  type: "BatchNorm"
  bottom: "_plus4"
  top: "stage3_unit2_bn1"
  batch_norm_param {
    use_global_stats: false
    moving_average_fraction: 0.9
    eps: 2e-05
  }
}
layer {
  name: "stage3_unit2_bn1_scale"
  type: "Scale"
  bottom: "stage3_unit2_bn1"
  top: "stage3_unit2_bn1"
  scale_param {
    bias_term: true
  }
}
layer {
  name: "stage3_unit2_conv1"
  type: "Convolution"
  bottom: "stage3_unit2_bn1"
  top: "stage3_unit2_conv1"
  param {
    lr_mult: 1
    decay_mult: 1
  }
  convolution_param {
    num_output: 256
    bias_term: false
    pad: 1
    kernel_size: 3
    stride: 1
    weight_filler {
      type: "gaussian"
      std: 0.01
    }
    engine: CAFFE
  }
}
layer {
  name: "stage3_unit2_bn2"
  type: "BatchNorm"
  bottom: "stage3_unit2_conv1"
  top: "stage3_unit2_bn2"
  batch_norm_param {
    use_global_stats: false
    moving_average_fraction: 0.9
    eps: 2e-05
  }
}
layer {
  name: "stage3_unit2_bn2_scale"
  type: "Scale"
  bottom: "stage3_unit2_bn2"
  top: "stage3_unit2_bn2"
  scale_param {
    bias_term: true
  }
}
layer {
  name: "stage3_unit2_relu1"
  type: "ReLU"
  bottom: "stage3_unit2_bn2"
  top: "stage3_unit2_relu1"
}
layer {
  name: "stage3_unit2_conv2"
  type: "Convolution"
  bottom: "stage3_unit2_relu1"
  top: "stage3_unit2_conv2"
  param {
    lr_mult: 1
    decay_mult: 1
  }
  convolution_param {
    num_output: 256
    bias_term: false
    pad: 1
    kernel_size: 3
    stride: 1
    weight_filler {
      type: "gaussian"
      std: 0.01
    }
    engine: CAFFE
  }
}
layer {
  name: "stage3_unit2_bn3"
  type: "BatchNorm"
  bottom: "stage3_unit2_conv2"
  top: "stage3_unit2_bn3"
  batch_norm_param {
    use_global_stats: false
    moving_average_fraction: 0.9
    eps: 2e-05
  }
}
layer {
  name: "stage3_unit2_bn3_scale"
  type: "Scale"
  bottom: "stage3_unit2_bn3"
  top: "stage3_unit2_bn3"
  scale_param {
    bias_term: true
  }
}
layer {
  name: "_plus5"
  type: "Eltwise"
  bottom: "stage3_unit2_bn3"
  bottom: "_plus4"
  top: "_plus5"
  eltwise_param {
    operation: SUM
  }
}
layer {
  name: "stage4_unit1_bn1"
  type: "BatchNorm"
  bottom: "_plus5"
  top: "stage4_unit1_bn1"
  batch_norm_param {
    use_global_stats: false
    moving_average_fraction: 0.9
    eps: 2e-05
  }
}
layer {
  name: "stage4_unit1_bn1_scale"
  type: "Scale"
  bottom: "stage4_unit1_bn1"
  top: "stage4_unit1_bn1"
  scale_param {
    bias_term: true
  }
}
layer {
  name: "stage4_unit1_conv1"
  type: "Convolution"
  bottom: "stage4_unit1_bn1"
  top: "stage4_unit1_conv1"
  param {
    lr_mult: 1
    decay_mult: 1
  }
  convolution_param {
    num_output: 512
    bias_term: false
    pad: 1
    kernel_size: 3
    stride: 1
    weight_filler {
      type: "gaussian"
      std: 0.01
    }
    engine: CAFFE
  }
}
layer {
  name: "stage4_unit1_bn2"
  type: "BatchNorm"
  bottom: "stage4_unit1_conv1"
  top: "stage4_unit1_bn2"
  batch_norm_param {
    use_global_stats: false
    moving_average_fraction: 0.9
    eps: 2e-05
  }
}
layer {
  name: "stage4_unit1_bn2_scale"
  type: "Scale"
  bottom: "stage4_unit1_bn2"
  top: "stage4_unit1_bn2"
  scale_param {
    bias_term: true
  }
}
layer {
  name: "stage4_unit1_relu1"
  type: "ReLU"
  bottom: "stage4_unit1_bn2"
  top: "stage4_unit1_relu1"
}
layer {
  name: "stage4_unit1_conv2"
  type: "Convolution"
  bottom: "stage4_unit1_relu1"
  top: "stage4_unit1_conv2"
  param {
    lr_mult: 1
    decay_mult: 1
  }
  convolution_param {
    num_output: 512
    bias_term: false
    pad: 1
    kernel_size: 3
    stride: 2
    weight_filler {
      type: "gaussian"
      std: 0.01
    }
    engine: CAFFE
  }
}
layer {
  name: "stage4_unit1_bn3"
  type: "BatchNorm"
  bottom: "stage4_unit1_conv2"
  top: "stage4_unit1_bn3"
  batch_norm_param {
    use_global_stats: false
    moving_average_fraction: 0.9
    eps: 2e-05
  }
}
layer {
  name: "stage4_unit1_bn3_scale"
  type: "Scale"
  bottom: "stage4_unit1_bn3"
  top: "stage4_unit1_bn3"
  scale_param {
    bias_term: true
  }
}
layer {
  name: "stage4_unit1_conv1sc"
  type: "Convolution"
  bottom: "_plus5"
  top: "stage4_unit1_conv1sc"
  param {
    lr_mult: 1
    decay_mult: 1
  }
  convolution_param {
    num_output: 512
    bias_term: false
    kernel_size: 1
    stride: 2
    weight_filler {
      type: "gaussian"
      std: 0.01
    }
    engine: CAFFE
  }
}
layer {
  name: "stage4_unit1_sc"
  type: "BatchNorm"
  bottom: "stage4_unit1_conv1sc"
  top: "stage4_unit1_sc"
  batch_norm_param {
    use_global_stats: false
    moving_average_fraction: 0.9
    eps: 2e-05
  }
}
layer {
  name: "stage4_unit1_sc_scale"
  type: "Scale"
  bottom: "stage4_unit1_sc"
  top: "stage4_unit1_sc"
  scale_param {
    bias_term: true
  }
}
layer {
  name: "_plus6"
  type: "Eltwise"
  bottom: "stage4_unit1_bn3"
  bottom: "stage4_unit1_sc"
  top: "_plus6"
  eltwise_param {
    operation: SUM
  }
}
layer {
  name: "stage4_unit2_bn1"
  type: "BatchNorm"
  bottom: "_plus6"
  top: "stage4_unit2_bn1"
  batch_norm_param {
    use_global_stats: false
    moving_average_fraction: 0.9
    eps: 2e-05
  }
}
layer {
  name: "stage4_unit2_bn1_scale"
  type: "Scale"
  bottom: "stage4_unit2_bn1"
  top: "stage4_unit2_bn1"
  scale_param {
    bias_term: true
  }
}
layer {
  name: "stage4_unit2_conv1"
  type: "Convolution"
  bottom: "stage4_unit2_bn1"
  top: "stage4_unit2_conv1"
  param {
    lr_mult: 1
    decay_mult: 1
  }
  convolution_param {
    num_output: 512
    bias_term: false
    pad: 1
    kernel_size: 3
    stride: 1
    weight_filler {
      type: "gaussian"
      std: 0.01
    }
    engine: CAFFE
  }
}
layer {
  name: "stage4_unit2_bn2"
  type: "BatchNorm"
  bottom: "stage4_unit2_conv1"
  top: "stage4_unit2_bn2"
  batch_norm_param {
    use_global_stats: false
    moving_average_fraction: 0.9
    eps: 2e-05
  }
}
layer {
  name: "stage4_unit2_bn2_scale"
  type: "Scale"
  bottom: "stage4_unit2_bn2"
  top: "stage4_unit2_bn2"
  scale_param {
    bias_term: true
  }
}
layer {
  name: "stage4_unit2_relu1"
  type: "ReLU"
  bottom: "stage4_unit2_bn2"
  top: "stage4_unit2_relu1"
}
layer {
  name: "stage4_unit2_conv2"
  type: "Convolution"
  bottom: "stage4_unit2_relu1"
  top: "stage4_unit2_conv2"
  param {
    lr_mult: 1
    decay_mult: 1
  }
  convolution_param {
    num_output: 512
    bias_term: false
    pad: 1
    kernel_size: 3
    stride: 1
    weight_filler {
      type: "gaussian"
      std: 0.01
    }
    engine: CAFFE
  }
}
layer {
  name: "stage4_unit2_bn3"
  type: "BatchNorm"
  bottom: "stage4_unit2_conv2"
  top: "stage4_unit2_bn3"
  batch_norm_param {
    use_global_stats: false
    moving_average_fraction: 0.9
    eps: 2e-05
  }
}
layer {
  name: "stage4_unit2_bn3_scale"
  type: "Scale"
  bottom: "stage4_unit2_bn3"
  top: "stage4_unit2_bn3"
  scale_param {
    bias_term: true
  }
}
layer {
  name: "_plus7"
  type: "Eltwise"
  bottom: "stage4_unit2_bn3"
  bottom: "_plus6"
  top: "_plus7"
  eltwise_param {
    operation: SUM
  }
}
layer {
  name: "bn1"
  type: "BatchNorm"
  bottom: "_plus7"
  top: "bn1"
  batch_norm_param {
    use_global_stats: false
    moving_average_fraction: 0.9
    eps: 2e-05
  }
}
layer {
  name: "bn1_scale"
  type: "Scale"
  bottom: "bn1"
  top: "bn1"
  scale_param {
    bias_term: true
  }
}
layer {
  name: "fc8"
  type: "InnerProduct"
  bottom: "bn1"
  top: "fc8"
  param {
    lr_mult: 1
    decay_mult: 1
  }
  param {
    lr_mult: 2
    decay_mult: 0
  }
  inner_product_param {
    num_output: 2
    weight_filler {
      type: "msra"
      std: 0.01
    }
    bias_filler {
      type: "constant"
      value: 0
    }
  }
}
layer {
  name: "loss"
  type: "WeightedSoftmaxWithLoss"
  bottom: "fc8"
  bottom: "label"
  top: "loss"
  softmax_param {
    pos_mult: 1.3
    pos_cid: 1
  }
}
I0110 19:48:50.994324  2858 layer_factory.hpp:77] Creating layer data
I0110 19:48:50.994472  2858 db_lmdb.cpp:35] Opened lmdb /home/lc/gender/school/data_3/train.lmdb
I0110 19:48:50.994509  2858 net.cpp:84] Creating Layer data
I0110 19:48:50.994521  2858 net.cpp:380] data -> data
I0110 19:48:50.994558  2858 net.cpp:380] data -> label
I0110 19:48:50.996126  2858 data_layer.cpp:45] output data size: 8,3,200,200
I0110 19:48:51.007336  2858 net.cpp:122] Setting up data
I0110 19:48:51.007362  2858 net.cpp:129] Top shape: 8 3 200 200 (960000)
I0110 19:48:51.007369  2858 net.cpp:129] Top shape: 8 (8)
I0110 19:48:51.007371  2858 net.cpp:137] Memory required for data: 3840032
I0110 19:48:51.007382  2858 layer_factory.hpp:77] Creating layer conv0
I0110 19:48:51.007408  2858 net.cpp:84] Creating Layer conv0
I0110 19:48:51.007419  2858 net.cpp:406] conv0 <- data
I0110 19:48:51.007436  2858 net.cpp:380] conv0 -> conv0
I0110 19:48:51.007880  2858 net.cpp:122] Setting up conv0
I0110 19:48:51.007892  2858 net.cpp:129] Top shape: 8 64 200 200 (20480000)
I0110 19:48:51.007896  2858 net.cpp:137] Memory required for data: 85760032
I0110 19:48:51.007931  2858 layer_factory.hpp:77] Creating layer bn0
I0110 19:48:51.007943  2858 net.cpp:84] Creating Layer bn0
I0110 19:48:51.007951  2858 net.cpp:406] bn0 <- conv0
I0110 19:48:51.007963  2858 net.cpp:380] bn0 -> bn0
I0110 19:48:51.008308  2858 net.cpp:122] Setting up bn0
I0110 19:48:51.008321  2858 net.cpp:129] Top shape: 8 64 200 200 (20480000)
I0110 19:48:51.008324  2858 net.cpp:137] Memory required for data: 167680032
I0110 19:48:51.008345  2858 layer_factory.hpp:77] Creating layer bn0_scale
I0110 19:48:51.008359  2858 net.cpp:84] Creating Layer bn0_scale
I0110 19:48:51.008364  2858 net.cpp:406] bn0_scale <- bn0
I0110 19:48:51.008373  2858 net.cpp:367] bn0_scale -> bn0 (in-place)
I0110 19:48:51.008425  2858 layer_factory.hpp:77] Creating layer bn0_scale
I0110 19:48:51.008658  2858 net.cpp:122] Setting up bn0_scale
I0110 19:48:51.008669  2858 net.cpp:129] Top shape: 8 64 200 200 (20480000)
I0110 19:48:51.008672  2858 net.cpp:137] Memory required for data: 249600032
I0110 19:48:51.008682  2858 layer_factory.hpp:77] Creating layer relu0
I0110 19:48:51.008690  2858 net.cpp:84] Creating Layer relu0
I0110 19:48:51.008697  2858 net.cpp:406] relu0 <- bn0
I0110 19:48:51.008703  2858 net.cpp:380] relu0 -> relu0
I0110 19:48:51.389859  2858 net.cpp:122] Setting up relu0
I0110 19:48:51.389897  2858 net.cpp:129] Top shape: 8 64 200 200 (20480000)
I0110 19:48:51.389901  2858 net.cpp:137] Memory required for data: 331520032
I0110 19:48:51.389907  2858 layer_factory.hpp:77] Creating layer relu0_relu0_0_split
I0110 19:48:51.389919  2858 net.cpp:84] Creating Layer relu0_relu0_0_split
I0110 19:48:51.389922  2858 net.cpp:406] relu0_relu0_0_split <- relu0
I0110 19:48:51.389932  2858 net.cpp:380] relu0_relu0_0_split -> relu0_relu0_0_split_0
I0110 19:48:51.389941  2858 net.cpp:380] relu0_relu0_0_split -> relu0_relu0_0_split_1
I0110 19:48:51.389973  2858 net.cpp:122] Setting up relu0_relu0_0_split
I0110 19:48:51.389979  2858 net.cpp:129] Top shape: 8 64 200 200 (20480000)
I0110 19:48:51.389983  2858 net.cpp:129] Top shape: 8 64 200 200 (20480000)
I0110 19:48:51.389986  2858 net.cpp:137] Memory required for data: 495360032
I0110 19:48:51.389989  2858 layer_factory.hpp:77] Creating layer stage1_unit1_bn1
I0110 19:48:51.389997  2858 net.cpp:84] Creating Layer stage1_unit1_bn1
I0110 19:48:51.390000  2858 net.cpp:406] stage1_unit1_bn1 <- relu0_relu0_0_split_0
I0110 19:48:51.390005  2858 net.cpp:380] stage1_unit1_bn1 -> stage1_unit1_bn1
I0110 19:48:51.390192  2858 net.cpp:122] Setting up stage1_unit1_bn1
I0110 19:48:51.390199  2858 net.cpp:129] Top shape: 8 64 200 200 (20480000)
I0110 19:48:51.390203  2858 net.cpp:137] Memory required for data: 577280032
I0110 19:48:51.390219  2858 layer_factory.hpp:77] Creating layer stage1_unit1_bn1_scale
I0110 19:48:51.390228  2858 net.cpp:84] Creating Layer stage1_unit1_bn1_scale
I0110 19:48:51.390230  2858 net.cpp:406] stage1_unit1_bn1_scale <- stage1_unit1_bn1
I0110 19:48:51.390235  2858 net.cpp:367] stage1_unit1_bn1_scale -> stage1_unit1_bn1 (in-place)
I0110 19:48:51.390269  2858 layer_factory.hpp:77] Creating layer stage1_unit1_bn1_scale
I0110 19:48:51.390434  2858 net.cpp:122] Setting up stage1_unit1_bn1_scale
I0110 19:48:51.390441  2858 net.cpp:129] Top shape: 8 64 200 200 (20480000)
I0110 19:48:51.390444  2858 net.cpp:137] Memory required for data: 659200032
I0110 19:48:51.390450  2858 layer_factory.hpp:77] Creating layer stage1_unit1_conv1
I0110 19:48:51.390462  2858 net.cpp:84] Creating Layer stage1_unit1_conv1
I0110 19:48:51.390466  2858 net.cpp:406] stage1_unit1_conv1 <- stage1_unit1_bn1
I0110 19:48:51.390471  2858 net.cpp:380] stage1_unit1_conv1 -> stage1_unit1_conv1
I0110 19:48:51.390964  2858 net.cpp:122] Setting up stage1_unit1_conv1
I0110 19:48:51.390971  2858 net.cpp:129] Top shape: 8 64 200 200 (20480000)
I0110 19:48:51.390974  2858 net.cpp:137] Memory required for data: 741120032
I0110 19:48:51.390980  2858 layer_factory.hpp:77] Creating layer stage1_unit1_bn2
I0110 19:48:51.390985  2858 net.cpp:84] Creating Layer stage1_unit1_bn2
I0110 19:48:51.390987  2858 net.cpp:406] stage1_unit1_bn2 <- stage1_unit1_conv1
I0110 19:48:51.390991  2858 net.cpp:380] stage1_unit1_bn2 -> stage1_unit1_bn2
I0110 19:48:51.391171  2858 net.cpp:122] Setting up stage1_unit1_bn2
I0110 19:48:51.391178  2858 net.cpp:129] Top shape: 8 64 200 200 (20480000)
I0110 19:48:51.391181  2858 net.cpp:137] Memory required for data: 823040032
I0110 19:48:51.391187  2858 layer_factory.hpp:77] Creating layer stage1_unit1_bn2_scale
I0110 19:48:51.391194  2858 net.cpp:84] Creating Layer stage1_unit1_bn2_scale
I0110 19:48:51.391197  2858 net.cpp:406] stage1_unit1_bn2_scale <- stage1_unit1_bn2
I0110 19:48:51.391201  2858 net.cpp:367] stage1_unit1_bn2_scale -> stage1_unit1_bn2 (in-place)
I0110 19:48:51.391227  2858 layer_factory.hpp:77] Creating layer stage1_unit1_bn2_scale
I0110 19:48:51.391388  2858 net.cpp:122] Setting up stage1_unit1_bn2_scale
I0110 19:48:51.391396  2858 net.cpp:129] Top shape: 8 64 200 200 (20480000)
I0110 19:48:51.391398  2858 net.cpp:137] Memory required for data: 904960032
I0110 19:48:51.391405  2858 layer_factory.hpp:77] Creating layer stage1_unit1_relu1
I0110 19:48:51.391412  2858 net.cpp:84] Creating Layer stage1_unit1_relu1
I0110 19:48:51.391414  2858 net.cpp:406] stage1_unit1_relu1 <- stage1_unit1_bn2
I0110 19:48:51.391419  2858 net.cpp:380] stage1_unit1_relu1 -> stage1_unit1_relu1
I0110 19:48:51.391494  2858 net.cpp:122] Setting up stage1_unit1_relu1
I0110 19:48:51.391502  2858 net.cpp:129] Top shape: 8 64 200 200 (20480000)
I0110 19:48:51.391505  2858 net.cpp:137] Memory required for data: 986880032
I0110 19:48:51.391508  2858 layer_factory.hpp:77] Creating layer stage1_unit1_conv2
I0110 19:48:51.391515  2858 net.cpp:84] Creating Layer stage1_unit1_conv2
I0110 19:48:51.391520  2858 net.cpp:406] stage1_unit1_conv2 <- stage1_unit1_relu1
I0110 19:48:51.391525  2858 net.cpp:380] stage1_unit1_conv2 -> stage1_unit1_conv2
I0110 19:48:51.391991  2858 net.cpp:122] Setting up stage1_unit1_conv2
I0110 19:48:51.391999  2858 net.cpp:129] Top shape: 8 64 100 100 (5120000)
I0110 19:48:51.392001  2858 net.cpp:137] Memory required for data: 1007360032
I0110 19:48:51.392005  2858 layer_factory.hpp:77] Creating layer stage1_unit1_bn3
I0110 19:48:51.392010  2858 net.cpp:84] Creating Layer stage1_unit1_bn3
I0110 19:48:51.392014  2858 net.cpp:406] stage1_unit1_bn3 <- stage1_unit1_conv2
I0110 19:48:51.392017  2858 net.cpp:380] stage1_unit1_bn3 -> stage1_unit1_bn3
I0110 19:48:51.392168  2858 net.cpp:122] Setting up stage1_unit1_bn3
I0110 19:48:51.392174  2858 net.cpp:129] Top shape: 8 64 100 100 (5120000)
I0110 19:48:51.392177  2858 net.cpp:137] Memory required for data: 1027840032
I0110 19:48:51.392184  2858 layer_factory.hpp:77] Creating layer stage1_unit1_bn3_scale
I0110 19:48:51.392190  2858 net.cpp:84] Creating Layer stage1_unit1_bn3_scale
I0110 19:48:51.392194  2858 net.cpp:406] stage1_unit1_bn3_scale <- stage1_unit1_bn3
I0110 19:48:51.392197  2858 net.cpp:367] stage1_unit1_bn3_scale -> stage1_unit1_bn3 (in-place)
I0110 19:48:51.392225  2858 layer_factory.hpp:77] Creating layer stage1_unit1_bn3_scale
I0110 19:48:51.392323  2858 net.cpp:122] Setting up stage1_unit1_bn3_scale
I0110 19:48:51.392328  2858 net.cpp:129] Top shape: 8 64 100 100 (5120000)
I0110 19:48:51.392331  2858 net.cpp:137] Memory required for data: 1048320032
I0110 19:48:51.392338  2858 layer_factory.hpp:77] Creating layer stage1_unit1_conv1sc
I0110 19:48:51.392345  2858 net.cpp:84] Creating Layer stage1_unit1_conv1sc
I0110 19:48:51.392349  2858 net.cpp:406] stage1_unit1_conv1sc <- relu0_relu0_0_split_1
I0110 19:48:51.392352  2858 net.cpp:380] stage1_unit1_conv1sc -> stage1_unit1_conv1sc
I0110 19:48:51.392518  2858 net.cpp:122] Setting up stage1_unit1_conv1sc
I0110 19:48:51.392524  2858 net.cpp:129] Top shape: 8 64 100 100 (5120000)
I0110 19:48:51.392527  2858 net.cpp:137] Memory required for data: 1068800032
I0110 19:48:51.392531  2858 layer_factory.hpp:77] Creating layer stage1_unit1_sc
I0110 19:48:51.392537  2858 net.cpp:84] Creating Layer stage1_unit1_sc
I0110 19:48:51.392544  2858 net.cpp:406] stage1_unit1_sc <- stage1_unit1_conv1sc
I0110 19:48:51.392547  2858 net.cpp:380] stage1_unit1_sc -> stage1_unit1_sc
I0110 19:48:51.392700  2858 net.cpp:122] Setting up stage1_unit1_sc
I0110 19:48:51.392709  2858 net.cpp:129] Top shape: 8 64 100 100 (5120000)
I0110 19:48:51.392710  2858 net.cpp:137] Memory required for data: 1089280032
I0110 19:48:51.392717  2858 layer_factory.hpp:77] Creating layer stage1_unit1_sc_scale
I0110 19:48:51.392721  2858 net.cpp:84] Creating Layer stage1_unit1_sc_scale
I0110 19:48:51.392725  2858 net.cpp:406] stage1_unit1_sc_scale <- stage1_unit1_sc
I0110 19:48:51.392729  2858 net.cpp:367] stage1_unit1_sc_scale -> stage1_unit1_sc (in-place)
I0110 19:48:51.392755  2858 layer_factory.hpp:77] Creating layer stage1_unit1_sc_scale
I0110 19:48:51.393839  2858 net.cpp:122] Setting up stage1_unit1_sc_scale
I0110 19:48:51.393851  2858 net.cpp:129] Top shape: 8 64 100 100 (5120000)
I0110 19:48:51.393854  2858 net.cpp:137] Memory required for data: 1109760032
I0110 19:48:51.393860  2858 layer_factory.hpp:77] Creating layer _plus0
I0110 19:48:51.393867  2858 net.cpp:84] Creating Layer _plus0
I0110 19:48:51.393872  2858 net.cpp:406] _plus0 <- stage1_unit1_bn3
I0110 19:48:51.393875  2858 net.cpp:406] _plus0 <- stage1_unit1_sc
I0110 19:48:51.393879  2858 net.cpp:380] _plus0 -> _plus0
I0110 19:48:51.393903  2858 net.cpp:122] Setting up _plus0
I0110 19:48:51.393909  2858 net.cpp:129] Top shape: 8 64 100 100 (5120000)
I0110 19:48:51.393913  2858 net.cpp:137] Memory required for data: 1130240032
I0110 19:48:51.393914  2858 layer_factory.hpp:77] Creating layer _plus0__plus0_0_split
I0110 19:48:51.393919  2858 net.cpp:84] Creating Layer _plus0__plus0_0_split
I0110 19:48:51.393923  2858 net.cpp:406] _plus0__plus0_0_split <- _plus0
I0110 19:48:51.393926  2858 net.cpp:380] _plus0__plus0_0_split -> _plus0__plus0_0_split_0
I0110 19:48:51.393934  2858 net.cpp:380] _plus0__plus0_0_split -> _plus0__plus0_0_split_1
I0110 19:48:51.393965  2858 net.cpp:122] Setting up _plus0__plus0_0_split
I0110 19:48:51.393971  2858 net.cpp:129] Top shape: 8 64 100 100 (5120000)
I0110 19:48:51.393975  2858 net.cpp:129] Top shape: 8 64 100 100 (5120000)
I0110 19:48:51.393978  2858 net.cpp:137] Memory required for data: 1171200032
I0110 19:48:51.393981  2858 layer_factory.hpp:77] Creating layer stage1_unit2_bn1
I0110 19:48:51.393986  2858 net.cpp:84] Creating Layer stage1_unit2_bn1
I0110 19:48:51.393990  2858 net.cpp:406] stage1_unit2_bn1 <- _plus0__plus0_0_split_0
I0110 19:48:51.393993  2858 net.cpp:380] stage1_unit2_bn1 -> stage1_unit2_bn1
I0110 19:48:51.394147  2858 net.cpp:122] Setting up stage1_unit2_bn1
I0110 19:48:51.394155  2858 net.cpp:129] Top shape: 8 64 100 100 (5120000)
I0110 19:48:51.394157  2858 net.cpp:137] Memory required for data: 1191680032
I0110 19:48:51.394163  2858 layer_factory.hpp:77] Creating layer stage1_unit2_bn1_scale
I0110 19:48:51.394170  2858 net.cpp:84] Creating Layer stage1_unit2_bn1_scale
I0110 19:48:51.394173  2858 net.cpp:406] stage1_unit2_bn1_scale <- stage1_unit2_bn1
I0110 19:48:51.394176  2858 net.cpp:367] stage1_unit2_bn1_scale -> stage1_unit2_bn1 (in-place)
I0110 19:48:51.394206  2858 layer_factory.hpp:77] Creating layer stage1_unit2_bn1_scale
I0110 19:48:51.394297  2858 net.cpp:122] Setting up stage1_unit2_bn1_scale
I0110 19:48:51.394304  2858 net.cpp:129] Top shape: 8 64 100 100 (5120000)
I0110 19:48:51.394307  2858 net.cpp:137] Memory required for data: 1212160032
I0110 19:48:51.394315  2858 layer_factory.hpp:77] Creating layer stage1_unit2_conv1
I0110 19:48:51.394323  2858 net.cpp:84] Creating Layer stage1_unit2_conv1
I0110 19:48:51.394326  2858 net.cpp:406] stage1_unit2_conv1 <- stage1_unit2_bn1
I0110 19:48:51.394331  2858 net.cpp:380] stage1_unit2_conv1 -> stage1_unit2_conv1
I0110 19:48:51.394790  2858 net.cpp:122] Setting up stage1_unit2_conv1
I0110 19:48:51.394798  2858 net.cpp:129] Top shape: 8 64 100 100 (5120000)
I0110 19:48:51.394800  2858 net.cpp:137] Memory required for data: 1232640032
I0110 19:48:51.394805  2858 layer_factory.hpp:77] Creating layer stage1_unit2_bn2
I0110 19:48:51.394809  2858 net.cpp:84] Creating Layer stage1_unit2_bn2
I0110 19:48:51.394812  2858 net.cpp:406] stage1_unit2_bn2 <- stage1_unit2_conv1
I0110 19:48:51.394817  2858 net.cpp:380] stage1_unit2_bn2 -> stage1_unit2_bn2
I0110 19:48:51.394968  2858 net.cpp:122] Setting up stage1_unit2_bn2
I0110 19:48:51.394973  2858 net.cpp:129] Top shape: 8 64 100 100 (5120000)
I0110 19:48:51.394976  2858 net.cpp:137] Memory required for data: 1253120032
I0110 19:48:51.394982  2858 layer_factory.hpp:77] Creating layer stage1_unit2_bn2_scale
I0110 19:48:51.394987  2858 net.cpp:84] Creating Layer stage1_unit2_bn2_scale
I0110 19:48:51.394992  2858 net.cpp:406] stage1_unit2_bn2_scale <- stage1_unit2_bn2
I0110 19:48:51.394997  2858 net.cpp:367] stage1_unit2_bn2_scale -> stage1_unit2_bn2 (in-place)
I0110 19:48:51.395026  2858 layer_factory.hpp:77] Creating layer stage1_unit2_bn2_scale
I0110 19:48:51.395121  2858 net.cpp:122] Setting up stage1_unit2_bn2_scale
I0110 19:48:51.395128  2858 net.cpp:129] Top shape: 8 64 100 100 (5120000)
I0110 19:48:51.395131  2858 net.cpp:137] Memory required for data: 1273600032
I0110 19:48:51.395138  2858 layer_factory.hpp:77] Creating layer stage1_unit2_relu1
I0110 19:48:51.395143  2858 net.cpp:84] Creating Layer stage1_unit2_relu1
I0110 19:48:51.395145  2858 net.cpp:406] stage1_unit2_relu1 <- stage1_unit2_bn2
I0110 19:48:51.395149  2858 net.cpp:380] stage1_unit2_relu1 -> stage1_unit2_relu1
I0110 19:48:51.395424  2858 net.cpp:122] Setting up stage1_unit2_relu1
I0110 19:48:51.395435  2858 net.cpp:129] Top shape: 8 64 100 100 (5120000)
I0110 19:48:51.395438  2858 net.cpp:137] Memory required for data: 1294080032
I0110 19:48:51.395442  2858 layer_factory.hpp:77] Creating layer stage1_unit2_conv2
I0110 19:48:51.395452  2858 net.cpp:84] Creating Layer stage1_unit2_conv2
I0110 19:48:51.395455  2858 net.cpp:406] stage1_unit2_conv2 <- stage1_unit2_relu1
I0110 19:48:51.395462  2858 net.cpp:380] stage1_unit2_conv2 -> stage1_unit2_conv2
I0110 19:48:51.395932  2858 net.cpp:122] Setting up stage1_unit2_conv2
I0110 19:48:51.395939  2858 net.cpp:129] Top shape: 8 64 100 100 (5120000)
I0110 19:48:51.395942  2858 net.cpp:137] Memory required for data: 1314560032
I0110 19:48:51.395947  2858 layer_factory.hpp:77] Creating layer stage1_unit2_bn3
I0110 19:48:51.395952  2858 net.cpp:84] Creating Layer stage1_unit2_bn3
I0110 19:48:51.395956  2858 net.cpp:406] stage1_unit2_bn3 <- stage1_unit2_conv2
I0110 19:48:51.395961  2858 net.cpp:380] stage1_unit2_bn3 -> stage1_unit2_bn3
I0110 19:48:51.396126  2858 net.cpp:122] Setting up stage1_unit2_bn3
I0110 19:48:51.396132  2858 net.cpp:129] Top shape: 8 64 100 100 (5120000)
I0110 19:48:51.396134  2858 net.cpp:137] Memory required for data: 1335040032
I0110 19:48:51.396142  2858 layer_factory.hpp:77] Creating layer stage1_unit2_bn3_scale
I0110 19:48:51.396148  2858 net.cpp:84] Creating Layer stage1_unit2_bn3_scale
I0110 19:48:51.396152  2858 net.cpp:406] stage1_unit2_bn3_scale <- stage1_unit2_bn3
I0110 19:48:51.396157  2858 net.cpp:367] stage1_unit2_bn3_scale -> stage1_unit2_bn3 (in-place)
I0110 19:48:51.396188  2858 layer_factory.hpp:77] Creating layer stage1_unit2_bn3_scale
I0110 19:48:51.396286  2858 net.cpp:122] Setting up stage1_unit2_bn3_scale
I0110 19:48:51.396292  2858 net.cpp:129] Top shape: 8 64 100 100 (5120000)
I0110 19:48:51.396296  2858 net.cpp:137] Memory required for data: 1355520032
I0110 19:48:51.396301  2858 layer_factory.hpp:77] Creating layer _plus1
I0110 19:48:51.396306  2858 net.cpp:84] Creating Layer _plus1
I0110 19:48:51.396309  2858 net.cpp:406] _plus1 <- stage1_unit2_bn3
I0110 19:48:51.396313  2858 net.cpp:406] _plus1 <- _plus0__plus0_0_split_1
I0110 19:48:51.396318  2858 net.cpp:380] _plus1 -> _plus1
I0110 19:48:51.396337  2858 net.cpp:122] Setting up _plus1
I0110 19:48:51.396343  2858 net.cpp:129] Top shape: 8 64 100 100 (5120000)
I0110 19:48:51.396347  2858 net.cpp:137] Memory required for data: 1376000032
I0110 19:48:51.396349  2858 layer_factory.hpp:77] Creating layer _plus1__plus1_0_split
I0110 19:48:51.396354  2858 net.cpp:84] Creating Layer _plus1__plus1_0_split
I0110 19:48:51.396358  2858 net.cpp:406] _plus1__plus1_0_split <- _plus1
I0110 19:48:51.396363  2858 net.cpp:380] _plus1__plus1_0_split -> _plus1__plus1_0_split_0
I0110 19:48:51.396368  2858 net.cpp:380] _plus1__plus1_0_split -> _plus1__plus1_0_split_1
I0110 19:48:51.396394  2858 net.cpp:122] Setting up _plus1__plus1_0_split
I0110 19:48:51.396400  2858 net.cpp:129] Top shape: 8 64 100 100 (5120000)
I0110 19:48:51.396404  2858 net.cpp:129] Top shape: 8 64 100 100 (5120000)
I0110 19:48:51.396407  2858 net.cpp:137] Memory required for data: 1416960032
I0110 19:48:51.396409  2858 layer_factory.hpp:77] Creating layer stage2_unit1_bn1
I0110 19:48:51.396414  2858 net.cpp:84] Creating Layer stage2_unit1_bn1
I0110 19:48:51.396418  2858 net.cpp:406] stage2_unit1_bn1 <- _plus1__plus1_0_split_0
I0110 19:48:51.396422  2858 net.cpp:380] stage2_unit1_bn1 -> stage2_unit1_bn1
I0110 19:48:51.396574  2858 net.cpp:122] Setting up stage2_unit1_bn1
I0110 19:48:51.396580  2858 net.cpp:129] Top shape: 8 64 100 100 (5120000)
I0110 19:48:51.396584  2858 net.cpp:137] Memory required for data: 1437440032
I0110 19:48:51.396589  2858 layer_factory.hpp:77] Creating layer stage2_unit1_bn1_scale
I0110 19:48:51.396596  2858 net.cpp:84] Creating Layer stage2_unit1_bn1_scale
I0110 19:48:51.396600  2858 net.cpp:406] stage2_unit1_bn1_scale <- stage2_unit1_bn1
I0110 19:48:51.396605  2858 net.cpp:367] stage2_unit1_bn1_scale -> stage2_unit1_bn1 (in-place)
I0110 19:48:51.396641  2858 layer_factory.hpp:77] Creating layer stage2_unit1_bn1_scale
I0110 19:48:51.396736  2858 net.cpp:122] Setting up stage2_unit1_bn1_scale
I0110 19:48:51.396744  2858 net.cpp:129] Top shape: 8 64 100 100 (5120000)
I0110 19:48:51.396746  2858 net.cpp:137] Memory required for data: 1457920032
I0110 19:48:51.396751  2858 layer_factory.hpp:77] Creating layer stage2_unit1_conv1
I0110 19:48:51.396759  2858 net.cpp:84] Creating Layer stage2_unit1_conv1
I0110 19:48:51.396764  2858 net.cpp:406] stage2_unit1_conv1 <- stage2_unit1_bn1
I0110 19:48:51.396770  2858 net.cpp:380] stage2_unit1_conv1 -> stage2_unit1_conv1
I0110 19:48:51.397550  2858 net.cpp:122] Setting up stage2_unit1_conv1
I0110 19:48:51.397558  2858 net.cpp:129] Top shape: 8 128 100 100 (10240000)
I0110 19:48:51.397562  2858 net.cpp:137] Memory required for data: 1498880032
I0110 19:48:51.397567  2858 layer_factory.hpp:77] Creating layer stage2_unit1_bn2
I0110 19:48:51.397572  2858 net.cpp:84] Creating Layer stage2_unit1_bn2
I0110 19:48:51.397574  2858 net.cpp:406] stage2_unit1_bn2 <- stage2_unit1_conv1
I0110 19:48:51.397580  2858 net.cpp:380] stage2_unit1_bn2 -> stage2_unit1_bn2
I0110 19:48:51.397732  2858 net.cpp:122] Setting up stage2_unit1_bn2
I0110 19:48:51.397738  2858 net.cpp:129] Top shape: 8 128 100 100 (10240000)
I0110 19:48:51.397742  2858 net.cpp:137] Memory required for data: 1539840032
I0110 19:48:51.397747  2858 layer_factory.hpp:77] Creating layer stage2_unit1_bn2_scale
I0110 19:48:51.397753  2858 net.cpp:84] Creating Layer stage2_unit1_bn2_scale
I0110 19:48:51.397756  2858 net.cpp:406] stage2_unit1_bn2_scale <- stage2_unit1_bn2
I0110 19:48:51.397761  2858 net.cpp:367] stage2_unit1_bn2_scale -> stage2_unit1_bn2 (in-place)
I0110 19:48:51.397789  2858 layer_factory.hpp:77] Creating layer stage2_unit1_bn2_scale
I0110 19:48:51.397874  2858 net.cpp:122] Setting up stage2_unit1_bn2_scale
I0110 19:48:51.397881  2858 net.cpp:129] Top shape: 8 128 100 100 (10240000)
I0110 19:48:51.397883  2858 net.cpp:137] Memory required for data: 1580800032
I0110 19:48:51.397888  2858 layer_factory.hpp:77] Creating layer stage2_unit1_relu1
I0110 19:48:51.397897  2858 net.cpp:84] Creating Layer stage2_unit1_relu1
I0110 19:48:51.397899  2858 net.cpp:406] stage2_unit1_relu1 <- stage2_unit1_bn2
I0110 19:48:51.397904  2858 net.cpp:380] stage2_unit1_relu1 -> stage2_unit1_relu1
I0110 19:48:51.397980  2858 net.cpp:122] Setting up stage2_unit1_relu1
I0110 19:48:51.397989  2858 net.cpp:129] Top shape: 8 128 100 100 (10240000)
I0110 19:48:51.397991  2858 net.cpp:137] Memory required for data: 1621760032
I0110 19:48:51.397994  2858 layer_factory.hpp:77] Creating layer stage2_unit1_conv2
I0110 19:48:51.398002  2858 net.cpp:84] Creating Layer stage2_unit1_conv2
I0110 19:48:51.398007  2858 net.cpp:406] stage2_unit1_conv2 <- stage2_unit1_relu1
I0110 19:48:51.398012  2858 net.cpp:380] stage2_unit1_conv2 -> stage2_unit1_conv2
I0110 19:48:51.399422  2858 net.cpp:122] Setting up stage2_unit1_conv2
I0110 19:48:51.399430  2858 net.cpp:129] Top shape: 8 128 50 50 (2560000)
I0110 19:48:51.399432  2858 net.cpp:137] Memory required for data: 1632000032
I0110 19:48:51.399437  2858 layer_factory.hpp:77] Creating layer stage2_unit1_bn3
I0110 19:48:51.399442  2858 net.cpp:84] Creating Layer stage2_unit1_bn3
I0110 19:48:51.399446  2858 net.cpp:406] stage2_unit1_bn3 <- stage2_unit1_conv2
I0110 19:48:51.399451  2858 net.cpp:380] stage2_unit1_bn3 -> stage2_unit1_bn3
I0110 19:48:51.399600  2858 net.cpp:122] Setting up stage2_unit1_bn3
I0110 19:48:51.399607  2858 net.cpp:129] Top shape: 8 128 50 50 (2560000)
I0110 19:48:51.399610  2858 net.cpp:137] Memory required for data: 1642240032
I0110 19:48:51.399616  2858 layer_factory.hpp:77] Creating layer stage2_unit1_bn3_scale
I0110 19:48:51.399622  2858 net.cpp:84] Creating Layer stage2_unit1_bn3_scale
I0110 19:48:51.399626  2858 net.cpp:406] stage2_unit1_bn3_scale <- stage2_unit1_bn3
I0110 19:48:51.399629  2858 net.cpp:367] stage2_unit1_bn3_scale -> stage2_unit1_bn3 (in-place)
I0110 19:48:51.399657  2858 layer_factory.hpp:77] Creating layer stage2_unit1_bn3_scale
I0110 19:48:51.399735  2858 net.cpp:122] Setting up stage2_unit1_bn3_scale
I0110 19:48:51.399741  2858 net.cpp:129] Top shape: 8 128 50 50 (2560000)
I0110 19:48:51.399744  2858 net.cpp:137] Memory required for data: 1652480032
I0110 19:48:51.399749  2858 layer_factory.hpp:77] Creating layer stage2_unit1_conv1sc
I0110 19:48:51.399757  2858 net.cpp:84] Creating Layer stage2_unit1_conv1sc
I0110 19:48:51.399761  2858 net.cpp:406] stage2_unit1_conv1sc <- _plus1__plus1_0_split_1
I0110 19:48:51.399766  2858 net.cpp:380] stage2_unit1_conv1sc -> stage2_unit1_conv1sc
I0110 19:48:51.399971  2858 net.cpp:122] Setting up stage2_unit1_conv1sc
I0110 19:48:51.399977  2858 net.cpp:129] Top shape: 8 128 50 50 (2560000)
I0110 19:48:51.399981  2858 net.cpp:137] Memory required for data: 1662720032
I0110 19:48:51.399984  2858 layer_factory.hpp:77] Creating layer stage2_unit1_sc
I0110 19:48:51.399991  2858 net.cpp:84] Creating Layer stage2_unit1_sc
I0110 19:48:51.399993  2858 net.cpp:406] stage2_unit1_sc <- stage2_unit1_conv1sc
I0110 19:48:51.399998  2858 net.cpp:380] stage2_unit1_sc -> stage2_unit1_sc
I0110 19:48:51.400136  2858 net.cpp:122] Setting up stage2_unit1_sc
I0110 19:48:51.400143  2858 net.cpp:129] Top shape: 8 128 50 50 (2560000)
I0110 19:48:51.400146  2858 net.cpp:137] Memory required for data: 1672960032
I0110 19:48:51.400157  2858 layer_factory.hpp:77] Creating layer stage2_unit1_sc_scale
I0110 19:48:51.400163  2858 net.cpp:84] Creating Layer stage2_unit1_sc_scale
I0110 19:48:51.400167  2858 net.cpp:406] stage2_unit1_sc_scale <- stage2_unit1_sc
I0110 19:48:51.400172  2858 net.cpp:367] stage2_unit1_sc_scale -> stage2_unit1_sc (in-place)
I0110 19:48:51.400202  2858 layer_factory.hpp:77] Creating layer stage2_unit1_sc_scale
I0110 19:48:51.400279  2858 net.cpp:122] Setting up stage2_unit1_sc_scale
I0110 19:48:51.400286  2858 net.cpp:129] Top shape: 8 128 50 50 (2560000)
I0110 19:48:51.400290  2858 net.cpp:137] Memory required for data: 1683200032
I0110 19:48:51.400295  2858 layer_factory.hpp:77] Creating layer _plus2
I0110 19:48:51.400300  2858 net.cpp:84] Creating Layer _plus2
I0110 19:48:51.400305  2858 net.cpp:406] _plus2 <- stage2_unit1_bn3
I0110 19:48:51.400308  2858 net.cpp:406] _plus2 <- stage2_unit1_sc
I0110 19:48:51.400312  2858 net.cpp:380] _plus2 -> _plus2
I0110 19:48:51.400331  2858 net.cpp:122] Setting up _plus2
I0110 19:48:51.400337  2858 net.cpp:129] Top shape: 8 128 50 50 (2560000)
I0110 19:48:51.400339  2858 net.cpp:137] Memory required for data: 1693440032
I0110 19:48:51.400342  2858 layer_factory.hpp:77] Creating layer _plus2__plus2_0_split
I0110 19:48:51.400347  2858 net.cpp:84] Creating Layer _plus2__plus2_0_split
I0110 19:48:51.400351  2858 net.cpp:406] _plus2__plus2_0_split <- _plus2
I0110 19:48:51.400355  2858 net.cpp:380] _plus2__plus2_0_split -> _plus2__plus2_0_split_0
I0110 19:48:51.400360  2858 net.cpp:380] _plus2__plus2_0_split -> _plus2__plus2_0_split_1
I0110 19:48:51.400386  2858 net.cpp:122] Setting up _plus2__plus2_0_split
I0110 19:48:51.400393  2858 net.cpp:129] Top shape: 8 128 50 50 (2560000)
I0110 19:48:51.400396  2858 net.cpp:129] Top shape: 8 128 50 50 (2560000)
I0110 19:48:51.400398  2858 net.cpp:137] Memory required for data: 1713920032
I0110 19:48:51.400401  2858 layer_factory.hpp:77] Creating layer stage2_unit2_bn1
I0110 19:48:51.400408  2858 net.cpp:84] Creating Layer stage2_unit2_bn1
I0110 19:48:51.400410  2858 net.cpp:406] stage2_unit2_bn1 <- _plus2__plus2_0_split_0
I0110 19:48:51.400415  2858 net.cpp:380] stage2_unit2_bn1 -> stage2_unit2_bn1
I0110 19:48:51.400553  2858 net.cpp:122] Setting up stage2_unit2_bn1
I0110 19:48:51.400560  2858 net.cpp:129] Top shape: 8 128 50 50 (2560000)
I0110 19:48:51.400563  2858 net.cpp:137] Memory required for data: 1724160032
I0110 19:48:51.400568  2858 layer_factory.hpp:77] Creating layer stage2_unit2_bn1_scale
I0110 19:48:51.400575  2858 net.cpp:84] Creating Layer stage2_unit2_bn1_scale
I0110 19:48:51.400578  2858 net.cpp:406] stage2_unit2_bn1_scale <- stage2_unit2_bn1
I0110 19:48:51.400583  2858 net.cpp:367] stage2_unit2_bn1_scale -> stage2_unit2_bn1 (in-place)
I0110 19:48:51.400610  2858 layer_factory.hpp:77] Creating layer stage2_unit2_bn1_scale
I0110 19:48:51.400691  2858 net.cpp:122] Setting up stage2_unit2_bn1_scale
I0110 19:48:51.400698  2858 net.cpp:129] Top shape: 8 128 50 50 (2560000)
I0110 19:48:51.400701  2858 net.cpp:137] Memory required for data: 1734400032
I0110 19:48:51.400707  2858 layer_factory.hpp:77] Creating layer stage2_unit2_conv1
I0110 19:48:51.400713  2858 net.cpp:84] Creating Layer stage2_unit2_conv1
I0110 19:48:51.400717  2858 net.cpp:406] stage2_unit2_conv1 <- stage2_unit2_bn1
I0110 19:48:51.400722  2858 net.cpp:380] stage2_unit2_conv1 -> stage2_unit2_conv1
I0110 19:48:51.403084  2858 net.cpp:122] Setting up stage2_unit2_conv1
I0110 19:48:51.403095  2858 net.cpp:129] Top shape: 8 128 50 50 (2560000)
I0110 19:48:51.403098  2858 net.cpp:137] Memory required for data: 1744640032
I0110 19:48:51.403103  2858 layer_factory.hpp:77] Creating layer stage2_unit2_bn2
I0110 19:48:51.403110  2858 net.cpp:84] Creating Layer stage2_unit2_bn2
I0110 19:48:51.403113  2858 net.cpp:406] stage2_unit2_bn2 <- stage2_unit2_conv1
I0110 19:48:51.403120  2858 net.cpp:380] stage2_unit2_bn2 -> stage2_unit2_bn2
I0110 19:48:51.403268  2858 net.cpp:122] Setting up stage2_unit2_bn2
I0110 19:48:51.403275  2858 net.cpp:129] Top shape: 8 128 50 50 (2560000)
I0110 19:48:51.403278  2858 net.cpp:137] Memory required for data: 1754880032
I0110 19:48:51.403285  2858 layer_factory.hpp:77] Creating layer stage2_unit2_bn2_scale
I0110 19:48:51.403290  2858 net.cpp:84] Creating Layer stage2_unit2_bn2_scale
I0110 19:48:51.403295  2858 net.cpp:406] stage2_unit2_bn2_scale <- stage2_unit2_bn2
I0110 19:48:51.403298  2858 net.cpp:367] stage2_unit2_bn2_scale -> stage2_unit2_bn2 (in-place)
I0110 19:48:51.403329  2858 layer_factory.hpp:77] Creating layer stage2_unit2_bn2_scale
I0110 19:48:51.403411  2858 net.cpp:122] Setting up stage2_unit2_bn2_scale
I0110 19:48:51.403419  2858 net.cpp:129] Top shape: 8 128 50 50 (2560000)
I0110 19:48:51.403420  2858 net.cpp:137] Memory required for data: 1765120032
I0110 19:48:51.403426  2858 layer_factory.hpp:77] Creating layer stage2_unit2_relu1
I0110 19:48:51.403431  2858 net.cpp:84] Creating Layer stage2_unit2_relu1
I0110 19:48:51.403434  2858 net.cpp:406] stage2_unit2_relu1 <- stage2_unit2_bn2
I0110 19:48:51.403439  2858 net.cpp:380] stage2_unit2_relu1 -> stage2_unit2_relu1
I0110 19:48:51.403702  2858 net.cpp:122] Setting up stage2_unit2_relu1
I0110 19:48:51.403713  2858 net.cpp:129] Top shape: 8 128 50 50 (2560000)
I0110 19:48:51.403717  2858 net.cpp:137] Memory required for data: 1775360032
I0110 19:48:51.403720  2858 layer_factory.hpp:77] Creating layer stage2_unit2_conv2
I0110 19:48:51.403729  2858 net.cpp:84] Creating Layer stage2_unit2_conv2
I0110 19:48:51.403733  2858 net.cpp:406] stage2_unit2_conv2 <- stage2_unit2_relu1
I0110 19:48:51.403738  2858 net.cpp:380] stage2_unit2_conv2 -> stage2_unit2_conv2
I0110 19:48:51.405169  2858 net.cpp:122] Setting up stage2_unit2_conv2
I0110 19:48:51.405176  2858 net.cpp:129] Top shape: 8 128 50 50 (2560000)
I0110 19:48:51.405179  2858 net.cpp:137] Memory required for data: 1785600032
I0110 19:48:51.405184  2858 layer_factory.hpp:77] Creating layer stage2_unit2_bn3
I0110 19:48:51.405190  2858 net.cpp:84] Creating Layer stage2_unit2_bn3
I0110 19:48:51.405194  2858 net.cpp:406] stage2_unit2_bn3 <- stage2_unit2_conv2
I0110 19:48:51.405198  2858 net.cpp:380] stage2_unit2_bn3 -> stage2_unit2_bn3
I0110 19:48:51.405349  2858 net.cpp:122] Setting up stage2_unit2_bn3
I0110 19:48:51.405355  2858 net.cpp:129] Top shape: 8 128 50 50 (2560000)
I0110 19:48:51.405359  2858 net.cpp:137] Memory required for data: 1795840032
I0110 19:48:51.405364  2858 layer_factory.hpp:77] Creating layer stage2_unit2_bn3_scale
I0110 19:48:51.405371  2858 net.cpp:84] Creating Layer stage2_unit2_bn3_scale
I0110 19:48:51.405375  2858 net.cpp:406] stage2_unit2_bn3_scale <- stage2_unit2_bn3
I0110 19:48:51.405380  2858 net.cpp:367] stage2_unit2_bn3_scale -> stage2_unit2_bn3 (in-place)
I0110 19:48:51.405409  2858 layer_factory.hpp:77] Creating layer stage2_unit2_bn3_scale
I0110 19:48:51.405493  2858 net.cpp:122] Setting up stage2_unit2_bn3_scale
I0110 19:48:51.405499  2858 net.cpp:129] Top shape: 8 128 50 50 (2560000)
I0110 19:48:51.405503  2858 net.cpp:137] Memory required for data: 1806080032
I0110 19:48:51.405508  2858 layer_factory.hpp:77] Creating layer _plus3
I0110 19:48:51.405514  2858 net.cpp:84] Creating Layer _plus3
I0110 19:48:51.405516  2858 net.cpp:406] _plus3 <- stage2_unit2_bn3
I0110 19:48:51.405520  2858 net.cpp:406] _plus3 <- _plus2__plus2_0_split_1
I0110 19:48:51.405526  2858 net.cpp:380] _plus3 -> _plus3
I0110 19:48:51.405544  2858 net.cpp:122] Setting up _plus3
I0110 19:48:51.405551  2858 net.cpp:129] Top shape: 8 128 50 50 (2560000)
I0110 19:48:51.405555  2858 net.cpp:137] Memory required for data: 1816320032
I0110 19:48:51.405557  2858 layer_factory.hpp:77] Creating layer _plus3__plus3_0_split
I0110 19:48:51.405562  2858 net.cpp:84] Creating Layer _plus3__plus3_0_split
I0110 19:48:51.405565  2858 net.cpp:406] _plus3__plus3_0_split <- _plus3
I0110 19:48:51.405571  2858 net.cpp:380] _plus3__plus3_0_split -> _plus3__plus3_0_split_0
I0110 19:48:51.405576  2858 net.cpp:380] _plus3__plus3_0_split -> _plus3__plus3_0_split_1
I0110 19:48:51.405603  2858 net.cpp:122] Setting up _plus3__plus3_0_split
I0110 19:48:51.405609  2858 net.cpp:129] Top shape: 8 128 50 50 (2560000)
I0110 19:48:51.405613  2858 net.cpp:129] Top shape: 8 128 50 50 (2560000)
I0110 19:48:51.405616  2858 net.cpp:137] Memory required for data: 1836800032
I0110 19:48:51.405619  2858 layer_factory.hpp:77] Creating layer stage3_unit1_bn1
I0110 19:48:51.405624  2858 net.cpp:84] Creating Layer stage3_unit1_bn1
I0110 19:48:51.405627  2858 net.cpp:406] stage3_unit1_bn1 <- _plus3__plus3_0_split_0
I0110 19:48:51.405633  2858 net.cpp:380] stage3_unit1_bn1 -> stage3_unit1_bn1
I0110 19:48:51.405776  2858 net.cpp:122] Setting up stage3_unit1_bn1
I0110 19:48:51.405782  2858 net.cpp:129] Top shape: 8 128 50 50 (2560000)
I0110 19:48:51.405786  2858 net.cpp:137] Memory required for data: 1847040032
I0110 19:48:51.405791  2858 layer_factory.hpp:77] Creating layer stage3_unit1_bn1_scale
I0110 19:48:51.405797  2858 net.cpp:84] Creating Layer stage3_unit1_bn1_scale
I0110 19:48:51.405802  2858 net.cpp:406] stage3_unit1_bn1_scale <- stage3_unit1_bn1
I0110 19:48:51.405805  2858 net.cpp:367] stage3_unit1_bn1_scale -> stage3_unit1_bn1 (in-place)
I0110 19:48:51.405833  2858 layer_factory.hpp:77] Creating layer stage3_unit1_bn1_scale
I0110 19:48:51.405911  2858 net.cpp:122] Setting up stage3_unit1_bn1_scale
I0110 19:48:51.405918  2858 net.cpp:129] Top shape: 8 128 50 50 (2560000)
I0110 19:48:51.405921  2858 net.cpp:137] Memory required for data: 1857280032
I0110 19:48:51.405926  2858 layer_factory.hpp:77] Creating layer stage3_unit1_conv1
I0110 19:48:51.405934  2858 net.cpp:84] Creating Layer stage3_unit1_conv1
I0110 19:48:51.405939  2858 net.cpp:406] stage3_unit1_conv1 <- stage3_unit1_bn1
I0110 19:48:51.405946  2858 net.cpp:380] stage3_unit1_conv1 -> stage3_unit1_conv1
I0110 19:48:51.409586  2858 net.cpp:122] Setting up stage3_unit1_conv1
I0110 19:48:51.409598  2858 net.cpp:129] Top shape: 8 256 50 50 (5120000)
I0110 19:48:51.409601  2858 net.cpp:137] Memory required for data: 1877760032
I0110 19:48:51.409607  2858 layer_factory.hpp:77] Creating layer stage3_unit1_bn2
I0110 19:48:51.409615  2858 net.cpp:84] Creating Layer stage3_unit1_bn2
I0110 19:48:51.409621  2858 net.cpp:406] stage3_unit1_bn2 <- stage3_unit1_conv1
I0110 19:48:51.409626  2858 net.cpp:380] stage3_unit1_bn2 -> stage3_unit1_bn2
I0110 19:48:51.409777  2858 net.cpp:122] Setting up stage3_unit1_bn2
I0110 19:48:51.409785  2858 net.cpp:129] Top shape: 8 256 50 50 (5120000)
I0110 19:48:51.409786  2858 net.cpp:137] Memory required for data: 1898240032
I0110 19:48:51.409793  2858 layer_factory.hpp:77] Creating layer stage3_unit1_bn2_scale
I0110 19:48:51.409799  2858 net.cpp:84] Creating Layer stage3_unit1_bn2_scale
I0110 19:48:51.409802  2858 net.cpp:406] stage3_unit1_bn2_scale <- stage3_unit1_bn2
I0110 19:48:51.409807  2858 net.cpp:367] stage3_unit1_bn2_scale -> stage3_unit1_bn2 (in-place)
I0110 19:48:51.409837  2858 layer_factory.hpp:77] Creating layer stage3_unit1_bn2_scale
I0110 19:48:51.409922  2858 net.cpp:122] Setting up stage3_unit1_bn2_scale
I0110 19:48:51.409929  2858 net.cpp:129] Top shape: 8 256 50 50 (5120000)
I0110 19:48:51.409931  2858 net.cpp:137] Memory required for data: 1918720032
I0110 19:48:51.409936  2858 layer_factory.hpp:77] Creating layer stage3_unit1_relu1
I0110 19:48:51.409942  2858 net.cpp:84] Creating Layer stage3_unit1_relu1
I0110 19:48:51.409945  2858 net.cpp:406] stage3_unit1_relu1 <- stage3_unit1_bn2
I0110 19:48:51.409950  2858 net.cpp:380] stage3_unit1_relu1 -> stage3_unit1_relu1
I0110 19:48:51.410030  2858 net.cpp:122] Setting up stage3_unit1_relu1
I0110 19:48:51.410039  2858 net.cpp:129] Top shape: 8 256 50 50 (5120000)
I0110 19:48:51.410043  2858 net.cpp:137] Memory required for data: 1939200032
I0110 19:48:51.410045  2858 layer_factory.hpp:77] Creating layer stage3_unit1_conv2
I0110 19:48:51.410053  2858 net.cpp:84] Creating Layer stage3_unit1_conv2
I0110 19:48:51.410058  2858 net.cpp:406] stage3_unit1_conv2 <- stage3_unit1_relu1
I0110 19:48:51.410063  2858 net.cpp:380] stage3_unit1_conv2 -> stage3_unit1_conv2
I0110 19:48:51.416533  2858 net.cpp:122] Setting up stage3_unit1_conv2
I0110 19:48:51.416545  2858 net.cpp:129] Top shape: 8 256 25 25 (1280000)
I0110 19:48:51.416549  2858 net.cpp:137] Memory required for data: 1944320032
I0110 19:48:51.416554  2858 layer_factory.hpp:77] Creating layer stage3_unit1_bn3
I0110 19:48:51.416563  2858 net.cpp:84] Creating Layer stage3_unit1_bn3
I0110 19:48:51.416565  2858 net.cpp:406] stage3_unit1_bn3 <- stage3_unit1_conv2
I0110 19:48:51.416571  2858 net.cpp:380] stage3_unit1_bn3 -> stage3_unit1_bn3
I0110 19:48:51.416731  2858 net.cpp:122] Setting up stage3_unit1_bn3
I0110 19:48:51.416738  2858 net.cpp:129] Top shape: 8 256 25 25 (1280000)
I0110 19:48:51.416741  2858 net.cpp:137] Memory required for data: 1949440032
I0110 19:48:51.416749  2858 layer_factory.hpp:77] Creating layer stage3_unit1_bn3_scale
I0110 19:48:51.416759  2858 net.cpp:84] Creating Layer stage3_unit1_bn3_scale
I0110 19:48:51.416762  2858 net.cpp:406] stage3_unit1_bn3_scale <- stage3_unit1_bn3
I0110 19:48:51.416766  2858 net.cpp:367] stage3_unit1_bn3_scale -> stage3_unit1_bn3 (in-place)
I0110 19:48:51.416797  2858 layer_factory.hpp:77] Creating layer stage3_unit1_bn3_scale
I0110 19:48:51.416878  2858 net.cpp:122] Setting up stage3_unit1_bn3_scale
I0110 19:48:51.416885  2858 net.cpp:129] Top shape: 8 256 25 25 (1280000)
I0110 19:48:51.416888  2858 net.cpp:137] Memory required for data: 1954560032
I0110 19:48:51.416894  2858 layer_factory.hpp:77] Creating layer stage3_unit1_conv1sc
I0110 19:48:51.416903  2858 net.cpp:84] Creating Layer stage3_unit1_conv1sc
I0110 19:48:51.416906  2858 net.cpp:406] stage3_unit1_conv1sc <- _plus3__plus3_0_split_1
I0110 19:48:51.416913  2858 net.cpp:380] stage3_unit1_conv1sc -> stage3_unit1_conv1sc
I0110 19:48:51.417337  2858 net.cpp:122] Setting up stage3_unit1_conv1sc
I0110 19:48:51.417343  2858 net.cpp:129] Top shape: 8 256 25 25 (1280000)
I0110 19:48:51.417346  2858 net.cpp:137] Memory required for data: 1959680032
I0110 19:48:51.417351  2858 layer_factory.hpp:77] Creating layer stage3_unit1_sc
I0110 19:48:51.417357  2858 net.cpp:84] Creating Layer stage3_unit1_sc
I0110 19:48:51.417361  2858 net.cpp:406] stage3_unit1_sc <- stage3_unit1_conv1sc
I0110 19:48:51.417366  2858 net.cpp:380] stage3_unit1_sc -> stage3_unit1_sc
I0110 19:48:51.417507  2858 net.cpp:122] Setting up stage3_unit1_sc
I0110 19:48:51.417513  2858 net.cpp:129] Top shape: 8 256 25 25 (1280000)
I0110 19:48:51.417516  2858 net.cpp:137] Memory required for data: 1964800032
I0110 19:48:51.417522  2858 layer_factory.hpp:77] Creating layer stage3_unit1_sc_scale
I0110 19:48:51.417531  2858 net.cpp:84] Creating Layer stage3_unit1_sc_scale
I0110 19:48:51.417533  2858 net.cpp:406] stage3_unit1_sc_scale <- stage3_unit1_sc
I0110 19:48:51.417538  2858 net.cpp:367] stage3_unit1_sc_scale -> stage3_unit1_sc (in-place)
I0110 19:48:51.417567  2858 layer_factory.hpp:77] Creating layer stage3_unit1_sc_scale
I0110 19:48:51.417646  2858 net.cpp:122] Setting up stage3_unit1_sc_scale
I0110 19:48:51.417654  2858 net.cpp:129] Top shape: 8 256 25 25 (1280000)
I0110 19:48:51.417656  2858 net.cpp:137] Memory required for data: 1969920032
I0110 19:48:51.417661  2858 layer_factory.hpp:77] Creating layer _plus4
I0110 19:48:51.417667  2858 net.cpp:84] Creating Layer _plus4
I0110 19:48:51.417671  2858 net.cpp:406] _plus4 <- stage3_unit1_bn3
I0110 19:48:51.417675  2858 net.cpp:406] _plus4 <- stage3_unit1_sc
I0110 19:48:51.417680  2858 net.cpp:380] _plus4 -> _plus4
I0110 19:48:51.417698  2858 net.cpp:122] Setting up _plus4
I0110 19:48:51.417704  2858 net.cpp:129] Top shape: 8 256 25 25 (1280000)
I0110 19:48:51.417707  2858 net.cpp:137] Memory required for data: 1975040032
I0110 19:48:51.417711  2858 layer_factory.hpp:77] Creating layer _plus4__plus4_0_split
I0110 19:48:51.417716  2858 net.cpp:84] Creating Layer _plus4__plus4_0_split
I0110 19:48:51.417719  2858 net.cpp:406] _plus4__plus4_0_split <- _plus4
I0110 19:48:51.417724  2858 net.cpp:380] _plus4__plus4_0_split -> _plus4__plus4_0_split_0
I0110 19:48:51.417729  2858 net.cpp:380] _plus4__plus4_0_split -> _plus4__plus4_0_split_1
I0110 19:48:51.417757  2858 net.cpp:122] Setting up _plus4__plus4_0_split
I0110 19:48:51.417762  2858 net.cpp:129] Top shape: 8 256 25 25 (1280000)
I0110 19:48:51.417766  2858 net.cpp:129] Top shape: 8 256 25 25 (1280000)
I0110 19:48:51.417768  2858 net.cpp:137] Memory required for data: 1985280032
I0110 19:48:51.417771  2858 layer_factory.hpp:77] Creating layer stage3_unit2_bn1
I0110 19:48:51.417778  2858 net.cpp:84] Creating Layer stage3_unit2_bn1
I0110 19:48:51.417780  2858 net.cpp:406] stage3_unit2_bn1 <- _plus4__plus4_0_split_0
I0110 19:48:51.417785  2858 net.cpp:380] stage3_unit2_bn1 -> stage3_unit2_bn1
I0110 19:48:51.417927  2858 net.cpp:122] Setting up stage3_unit2_bn1
I0110 19:48:51.417933  2858 net.cpp:129] Top shape: 8 256 25 25 (1280000)
I0110 19:48:51.417937  2858 net.cpp:137] Memory required for data: 1990400032
I0110 19:48:51.417943  2858 layer_factory.hpp:77] Creating layer stage3_unit2_bn1_scale
I0110 19:48:51.417948  2858 net.cpp:84] Creating Layer stage3_unit2_bn1_scale
I0110 19:48:51.417951  2858 net.cpp:406] stage3_unit2_bn1_scale <- stage3_unit2_bn1
I0110 19:48:51.417955  2858 net.cpp:367] stage3_unit2_bn1_scale -> stage3_unit2_bn1 (in-place)
I0110 19:48:51.417984  2858 layer_factory.hpp:77] Creating layer stage3_unit2_bn1_scale
I0110 19:48:51.418061  2858 net.cpp:122] Setting up stage3_unit2_bn1_scale
I0110 19:48:51.418068  2858 net.cpp:129] Top shape: 8 256 25 25 (1280000)
I0110 19:48:51.418071  2858 net.cpp:137] Memory required for data: 1995520032
I0110 19:48:51.418076  2858 layer_factory.hpp:77] Creating layer stage3_unit2_conv1
I0110 19:48:51.418084  2858 net.cpp:84] Creating Layer stage3_unit2_conv1
I0110 19:48:51.418088  2858 net.cpp:406] stage3_unit2_conv1 <- stage3_unit2_bn1
I0110 19:48:51.418094  2858 net.cpp:380] stage3_unit2_conv1 -> stage3_unit2_conv1
I0110 19:48:51.424352  2858 net.cpp:122] Setting up stage3_unit2_conv1
I0110 19:48:51.424365  2858 net.cpp:129] Top shape: 8 256 25 25 (1280000)
I0110 19:48:51.424368  2858 net.cpp:137] Memory required for data: 2000640032
I0110 19:48:51.424373  2858 layer_factory.hpp:77] Creating layer stage3_unit2_bn2
I0110 19:48:51.424381  2858 net.cpp:84] Creating Layer stage3_unit2_bn2
I0110 19:48:51.424384  2858 net.cpp:406] stage3_unit2_bn2 <- stage3_unit2_conv1
I0110 19:48:51.424391  2858 net.cpp:380] stage3_unit2_bn2 -> stage3_unit2_bn2
I0110 19:48:51.424542  2858 net.cpp:122] Setting up stage3_unit2_bn2
I0110 19:48:51.424549  2858 net.cpp:129] Top shape: 8 256 25 25 (1280000)
I0110 19:48:51.424551  2858 net.cpp:137] Memory required for data: 2005760032
I0110 19:48:51.424558  2858 layer_factory.hpp:77] Creating layer stage3_unit2_bn2_scale
I0110 19:48:51.424566  2858 net.cpp:84] Creating Layer stage3_unit2_bn2_scale
I0110 19:48:51.424568  2858 net.cpp:406] stage3_unit2_bn2_scale <- stage3_unit2_bn2
I0110 19:48:51.424573  2858 net.cpp:367] stage3_unit2_bn2_scale -> stage3_unit2_bn2 (in-place)
I0110 19:48:51.424604  2858 layer_factory.hpp:77] Creating layer stage3_unit2_bn2_scale
I0110 19:48:51.424690  2858 net.cpp:122] Setting up stage3_unit2_bn2_scale
I0110 19:48:51.424698  2858 net.cpp:129] Top shape: 8 256 25 25 (1280000)
I0110 19:48:51.424701  2858 net.cpp:137] Memory required for data: 2010880032
I0110 19:48:51.424706  2858 layer_factory.hpp:77] Creating layer stage3_unit2_relu1
I0110 19:48:51.424712  2858 net.cpp:84] Creating Layer stage3_unit2_relu1
I0110 19:48:51.424716  2858 net.cpp:406] stage3_unit2_relu1 <- stage3_unit2_bn2
I0110 19:48:51.424722  2858 net.cpp:380] stage3_unit2_relu1 -> stage3_unit2_relu1
I0110 19:48:51.424993  2858 net.cpp:122] Setting up stage3_unit2_relu1
I0110 19:48:51.425005  2858 net.cpp:129] Top shape: 8 256 25 25 (1280000)
I0110 19:48:51.425009  2858 net.cpp:137] Memory required for data: 2016000032
I0110 19:48:51.425011  2858 layer_factory.hpp:77] Creating layer stage3_unit2_conv2
I0110 19:48:51.425020  2858 net.cpp:84] Creating Layer stage3_unit2_conv2
I0110 19:48:51.425024  2858 net.cpp:406] stage3_unit2_conv2 <- stage3_unit2_relu1
I0110 19:48:51.425030  2858 net.cpp:380] stage3_unit2_conv2 -> stage3_unit2_conv2
I0110 19:48:51.431278  2858 net.cpp:122] Setting up stage3_unit2_conv2
I0110 19:48:51.431290  2858 net.cpp:129] Top shape: 8 256 25 25 (1280000)
I0110 19:48:51.431293  2858 net.cpp:137] Memory required for data: 2021120032
I0110 19:48:51.431298  2858 layer_factory.hpp:77] Creating layer stage3_unit2_bn3
I0110 19:48:51.431305  2858 net.cpp:84] Creating Layer stage3_unit2_bn3
I0110 19:48:51.431308  2858 net.cpp:406] stage3_unit2_bn3 <- stage3_unit2_conv2
I0110 19:48:51.431314  2858 net.cpp:380] stage3_unit2_bn3 -> stage3_unit2_bn3
I0110 19:48:51.431465  2858 net.cpp:122] Setting up stage3_unit2_bn3
I0110 19:48:51.431471  2858 net.cpp:129] Top shape: 8 256 25 25 (1280000)
I0110 19:48:51.431474  2858 net.cpp:137] Memory required for data: 2026240032
I0110 19:48:51.431480  2858 layer_factory.hpp:77] Creating layer stage3_unit2_bn3_scale
I0110 19:48:51.431488  2858 net.cpp:84] Creating Layer stage3_unit2_bn3_scale
I0110 19:48:51.431490  2858 net.cpp:406] stage3_unit2_bn3_scale <- stage3_unit2_bn3
I0110 19:48:51.431496  2858 net.cpp:367] stage3_unit2_bn3_scale -> stage3_unit2_bn3 (in-place)
I0110 19:48:51.431526  2858 layer_factory.hpp:77] Creating layer stage3_unit2_bn3_scale
I0110 19:48:51.431607  2858 net.cpp:122] Setting up stage3_unit2_bn3_scale
I0110 19:48:51.431612  2858 net.cpp:129] Top shape: 8 256 25 25 (1280000)
I0110 19:48:51.431617  2858 net.cpp:137] Memory required for data: 2031360032
I0110 19:48:51.431622  2858 layer_factory.hpp:77] Creating layer _plus5
I0110 19:48:51.431627  2858 net.cpp:84] Creating Layer _plus5
I0110 19:48:51.431629  2858 net.cpp:406] _plus5 <- stage3_unit2_bn3
I0110 19:48:51.431633  2858 net.cpp:406] _plus5 <- _plus4__plus4_0_split_1
I0110 19:48:51.431639  2858 net.cpp:380] _plus5 -> _plus5
I0110 19:48:51.431661  2858 net.cpp:122] Setting up _plus5
I0110 19:48:51.431668  2858 net.cpp:129] Top shape: 8 256 25 25 (1280000)
I0110 19:48:51.431670  2858 net.cpp:137] Memory required for data: 2036480032
I0110 19:48:51.431674  2858 layer_factory.hpp:77] Creating layer _plus5__plus5_0_split
I0110 19:48:51.431677  2858 net.cpp:84] Creating Layer _plus5__plus5_0_split
I0110 19:48:51.431680  2858 net.cpp:406] _plus5__plus5_0_split <- _plus5
I0110 19:48:51.431686  2858 net.cpp:380] _plus5__plus5_0_split -> _plus5__plus5_0_split_0
I0110 19:48:51.431692  2858 net.cpp:380] _plus5__plus5_0_split -> _plus5__plus5_0_split_1
I0110 19:48:51.431718  2858 net.cpp:122] Setting up _plus5__plus5_0_split
I0110 19:48:51.431725  2858 net.cpp:129] Top shape: 8 256 25 25 (1280000)
I0110 19:48:51.431730  2858 net.cpp:129] Top shape: 8 256 25 25 (1280000)
I0110 19:48:51.431731  2858 net.cpp:137] Memory required for data: 2046720032
I0110 19:48:51.431735  2858 layer_factory.hpp:77] Creating layer stage4_unit1_bn1
I0110 19:48:51.431740  2858 net.cpp:84] Creating Layer stage4_unit1_bn1
I0110 19:48:51.431743  2858 net.cpp:406] stage4_unit1_bn1 <- _plus5__plus5_0_split_0
I0110 19:48:51.431748  2858 net.cpp:380] stage4_unit1_bn1 -> stage4_unit1_bn1
I0110 19:48:51.431888  2858 net.cpp:122] Setting up stage4_unit1_bn1
I0110 19:48:51.431895  2858 net.cpp:129] Top shape: 8 256 25 25 (1280000)
I0110 19:48:51.431897  2858 net.cpp:137] Memory required for data: 2051840032
I0110 19:48:51.431910  2858 layer_factory.hpp:77] Creating layer stage4_unit1_bn1_scale
I0110 19:48:51.431916  2858 net.cpp:84] Creating Layer stage4_unit1_bn1_scale
I0110 19:48:51.431919  2858 net.cpp:406] stage4_unit1_bn1_scale <- stage4_unit1_bn1
I0110 19:48:51.431924  2858 net.cpp:367] stage4_unit1_bn1_scale -> stage4_unit1_bn1 (in-place)
I0110 19:48:51.431954  2858 layer_factory.hpp:77] Creating layer stage4_unit1_bn1_scale
I0110 19:48:51.432034  2858 net.cpp:122] Setting up stage4_unit1_bn1_scale
I0110 19:48:51.432040  2858 net.cpp:129] Top shape: 8 256 25 25 (1280000)
I0110 19:48:51.432044  2858 net.cpp:137] Memory required for data: 2056960032
I0110 19:48:51.432049  2858 layer_factory.hpp:77] Creating layer stage4_unit1_conv1
I0110 19:48:51.432057  2858 net.cpp:84] Creating Layer stage4_unit1_conv1
I0110 19:48:51.432061  2858 net.cpp:406] stage4_unit1_conv1 <- stage4_unit1_bn1
I0110 19:48:51.432067  2858 net.cpp:380] stage4_unit1_conv1 -> stage4_unit1_conv1
I0110 19:48:51.444305  2858 net.cpp:122] Setting up stage4_unit1_conv1
I0110 19:48:51.444319  2858 net.cpp:129] Top shape: 8 512 25 25 (2560000)
I0110 19:48:51.444321  2858 net.cpp:137] Memory required for data: 2067200032
I0110 19:48:51.444327  2858 layer_factory.hpp:77] Creating layer stage4_unit1_bn2
I0110 19:48:51.444336  2858 net.cpp:84] Creating Layer stage4_unit1_bn2
I0110 19:48:51.444340  2858 net.cpp:406] stage4_unit1_bn2 <- stage4_unit1_conv1
I0110 19:48:51.444346  2858 net.cpp:380] stage4_unit1_bn2 -> stage4_unit1_bn2
I0110 19:48:51.444500  2858 net.cpp:122] Setting up stage4_unit1_bn2
I0110 19:48:51.444507  2858 net.cpp:129] Top shape: 8 512 25 25 (2560000)
I0110 19:48:51.444509  2858 net.cpp:137] Memory required for data: 2077440032
I0110 19:48:51.444516  2858 layer_factory.hpp:77] Creating layer stage4_unit1_bn2_scale
I0110 19:48:51.444525  2858 net.cpp:84] Creating Layer stage4_unit1_bn2_scale
I0110 19:48:51.444527  2858 net.cpp:406] stage4_unit1_bn2_scale <- stage4_unit1_bn2
I0110 19:48:51.444532  2858 net.cpp:367] stage4_unit1_bn2_scale -> stage4_unit1_bn2 (in-place)
I0110 19:48:51.444562  2858 layer_factory.hpp:77] Creating layer stage4_unit1_bn2_scale
I0110 19:48:51.444656  2858 net.cpp:122] Setting up stage4_unit1_bn2_scale
I0110 19:48:51.444664  2858 net.cpp:129] Top shape: 8 512 25 25 (2560000)
I0110 19:48:51.444666  2858 net.cpp:137] Memory required for data: 2087680032
I0110 19:48:51.444671  2858 layer_factory.hpp:77] Creating layer stage4_unit1_relu1
I0110 19:48:51.444677  2858 net.cpp:84] Creating Layer stage4_unit1_relu1
I0110 19:48:51.444682  2858 net.cpp:406] stage4_unit1_relu1 <- stage4_unit1_bn2
I0110 19:48:51.444687  2858 net.cpp:380] stage4_unit1_relu1 -> stage4_unit1_relu1
I0110 19:48:51.444770  2858 net.cpp:122] Setting up stage4_unit1_relu1
I0110 19:48:51.444779  2858 net.cpp:129] Top shape: 8 512 25 25 (2560000)
I0110 19:48:51.444782  2858 net.cpp:137] Memory required for data: 2097920032
I0110 19:48:51.444785  2858 layer_factory.hpp:77] Creating layer stage4_unit1_conv2
I0110 19:48:51.444795  2858 net.cpp:84] Creating Layer stage4_unit1_conv2
I0110 19:48:51.444799  2858 net.cpp:406] stage4_unit1_conv2 <- stage4_unit1_relu1
I0110 19:48:51.444806  2858 net.cpp:380] stage4_unit1_conv2 -> stage4_unit1_conv2
I0110 19:48:51.468912  2858 net.cpp:122] Setting up stage4_unit1_conv2
I0110 19:48:51.468926  2858 net.cpp:129] Top shape: 8 512 13 13 (692224)
I0110 19:48:51.468930  2858 net.cpp:137] Memory required for data: 2100688928
I0110 19:48:51.468935  2858 layer_factory.hpp:77] Creating layer stage4_unit1_bn3
I0110 19:48:51.468942  2858 net.cpp:84] Creating Layer stage4_unit1_bn3
I0110 19:48:51.468945  2858 net.cpp:406] stage4_unit1_bn3 <- stage4_unit1_conv2
I0110 19:48:51.468951  2858 net.cpp:380] stage4_unit1_bn3 -> stage4_unit1_bn3
I0110 19:48:51.469105  2858 net.cpp:122] Setting up stage4_unit1_bn3
I0110 19:48:51.469112  2858 net.cpp:129] Top shape: 8 512 13 13 (692224)
I0110 19:48:51.469115  2858 net.cpp:137] Memory required for data: 2103457824
I0110 19:48:51.469121  2858 layer_factory.hpp:77] Creating layer stage4_unit1_bn3_scale
I0110 19:48:51.469130  2858 net.cpp:84] Creating Layer stage4_unit1_bn3_scale
I0110 19:48:51.469132  2858 net.cpp:406] stage4_unit1_bn3_scale <- stage4_unit1_bn3
I0110 19:48:51.469137  2858 net.cpp:367] stage4_unit1_bn3_scale -> stage4_unit1_bn3 (in-place)
I0110 19:48:51.469168  2858 layer_factory.hpp:77] Creating layer stage4_unit1_bn3_scale
I0110 19:48:51.469249  2858 net.cpp:122] Setting up stage4_unit1_bn3_scale
I0110 19:48:51.469256  2858 net.cpp:129] Top shape: 8 512 13 13 (692224)
I0110 19:48:51.469259  2858 net.cpp:137] Memory required for data: 2106226720
I0110 19:48:51.469264  2858 layer_factory.hpp:77] Creating layer stage4_unit1_conv1sc
I0110 19:48:51.469272  2858 net.cpp:84] Creating Layer stage4_unit1_conv1sc
I0110 19:48:51.469277  2858 net.cpp:406] stage4_unit1_conv1sc <- _plus5__plus5_0_split_1
I0110 19:48:51.469282  2858 net.cpp:380] stage4_unit1_conv1sc -> stage4_unit1_conv1sc
I0110 19:48:51.470711  2858 net.cpp:122] Setting up stage4_unit1_conv1sc
I0110 19:48:51.470719  2858 net.cpp:129] Top shape: 8 512 13 13 (692224)
I0110 19:48:51.470722  2858 net.cpp:137] Memory required for data: 2108995616
I0110 19:48:51.470726  2858 layer_factory.hpp:77] Creating layer stage4_unit1_sc
I0110 19:48:51.470732  2858 net.cpp:84] Creating Layer stage4_unit1_sc
I0110 19:48:51.470737  2858 net.cpp:406] stage4_unit1_sc <- stage4_unit1_conv1sc
I0110 19:48:51.470742  2858 net.cpp:380] stage4_unit1_sc -> stage4_unit1_sc
I0110 19:48:51.470893  2858 net.cpp:122] Setting up stage4_unit1_sc
I0110 19:48:51.470901  2858 net.cpp:129] Top shape: 8 512 13 13 (692224)
I0110 19:48:51.470903  2858 net.cpp:137] Memory required for data: 2111764512
I0110 19:48:51.470909  2858 layer_factory.hpp:77] Creating layer stage4_unit1_sc_scale
I0110 19:48:51.470916  2858 net.cpp:84] Creating Layer stage4_unit1_sc_scale
I0110 19:48:51.470921  2858 net.cpp:406] stage4_unit1_sc_scale <- stage4_unit1_sc
I0110 19:48:51.470924  2858 net.cpp:367] stage4_unit1_sc_scale -> stage4_unit1_sc (in-place)
I0110 19:48:51.470953  2858 layer_factory.hpp:77] Creating layer stage4_unit1_sc_scale
I0110 19:48:51.471032  2858 net.cpp:122] Setting up stage4_unit1_sc_scale
I0110 19:48:51.471040  2858 net.cpp:129] Top shape: 8 512 13 13 (692224)
I0110 19:48:51.471042  2858 net.cpp:137] Memory required for data: 2114533408
I0110 19:48:51.471047  2858 layer_factory.hpp:77] Creating layer _plus6
I0110 19:48:51.471053  2858 net.cpp:84] Creating Layer _plus6
I0110 19:48:51.471056  2858 net.cpp:406] _plus6 <- stage4_unit1_bn3
I0110 19:48:51.471060  2858 net.cpp:406] _plus6 <- stage4_unit1_sc
I0110 19:48:51.471065  2858 net.cpp:380] _plus6 -> _plus6
I0110 19:48:51.471084  2858 net.cpp:122] Setting up _plus6
I0110 19:48:51.471091  2858 net.cpp:129] Top shape: 8 512 13 13 (692224)
I0110 19:48:51.471093  2858 net.cpp:137] Memory required for data: 2117302304
I0110 19:48:51.471096  2858 layer_factory.hpp:77] Creating layer _plus6__plus6_0_split
I0110 19:48:51.471101  2858 net.cpp:84] Creating Layer _plus6__plus6_0_split
I0110 19:48:51.471105  2858 net.cpp:406] _plus6__plus6_0_split <- _plus6
I0110 19:48:51.471109  2858 net.cpp:380] _plus6__plus6_0_split -> _plus6__plus6_0_split_0
I0110 19:48:51.471115  2858 net.cpp:380] _plus6__plus6_0_split -> _plus6__plus6_0_split_1
I0110 19:48:51.471141  2858 net.cpp:122] Setting up _plus6__plus6_0_split
I0110 19:48:51.471148  2858 net.cpp:129] Top shape: 8 512 13 13 (692224)
I0110 19:48:51.471153  2858 net.cpp:129] Top shape: 8 512 13 13 (692224)
I0110 19:48:51.471154  2858 net.cpp:137] Memory required for data: 2122840096
I0110 19:48:51.471158  2858 layer_factory.hpp:77] Creating layer stage4_unit2_bn1
I0110 19:48:51.471163  2858 net.cpp:84] Creating Layer stage4_unit2_bn1
I0110 19:48:51.471166  2858 net.cpp:406] stage4_unit2_bn1 <- _plus6__plus6_0_split_0
I0110 19:48:51.471170  2858 net.cpp:380] stage4_unit2_bn1 -> stage4_unit2_bn1
I0110 19:48:51.471312  2858 net.cpp:122] Setting up stage4_unit2_bn1
I0110 19:48:51.471318  2858 net.cpp:129] Top shape: 8 512 13 13 (692224)
I0110 19:48:51.471321  2858 net.cpp:137] Memory required for data: 2125608992
I0110 19:48:51.471328  2858 layer_factory.hpp:77] Creating layer stage4_unit2_bn1_scale
I0110 19:48:51.471334  2858 net.cpp:84] Creating Layer stage4_unit2_bn1_scale
I0110 19:48:51.471338  2858 net.cpp:406] stage4_unit2_bn1_scale <- stage4_unit2_bn1
I0110 19:48:51.471341  2858 net.cpp:367] stage4_unit2_bn1_scale -> stage4_unit2_bn1 (in-place)
I0110 19:48:51.471369  2858 layer_factory.hpp:77] Creating layer stage4_unit2_bn1_scale
I0110 19:48:51.471446  2858 net.cpp:122] Setting up stage4_unit2_bn1_scale
I0110 19:48:51.471452  2858 net.cpp:129] Top shape: 8 512 13 13 (692224)
I0110 19:48:51.471455  2858 net.cpp:137] Memory required for data: 2128377888
I0110 19:48:51.471460  2858 layer_factory.hpp:77] Creating layer stage4_unit2_conv1
I0110 19:48:51.471468  2858 net.cpp:84] Creating Layer stage4_unit2_conv1
I0110 19:48:51.471473  2858 net.cpp:406] stage4_unit2_conv1 <- stage4_unit2_bn1
I0110 19:48:51.471478  2858 net.cpp:380] stage4_unit2_conv1 -> stage4_unit2_conv1
I0110 19:48:51.495681  2858 net.cpp:122] Setting up stage4_unit2_conv1
I0110 19:48:51.495698  2858 net.cpp:129] Top shape: 8 512 13 13 (692224)
I0110 19:48:51.495702  2858 net.cpp:137] Memory required for data: 2131146784
I0110 19:48:51.495707  2858 layer_factory.hpp:77] Creating layer stage4_unit2_bn2
I0110 19:48:51.495714  2858 net.cpp:84] Creating Layer stage4_unit2_bn2
I0110 19:48:51.495719  2858 net.cpp:406] stage4_unit2_bn2 <- stage4_unit2_conv1
I0110 19:48:51.495725  2858 net.cpp:380] stage4_unit2_bn2 -> stage4_unit2_bn2
I0110 19:48:51.495880  2858 net.cpp:122] Setting up stage4_unit2_bn2
I0110 19:48:51.495887  2858 net.cpp:129] Top shape: 8 512 13 13 (692224)
I0110 19:48:51.495890  2858 net.cpp:137] Memory required for data: 2133915680
I0110 19:48:51.495896  2858 layer_factory.hpp:77] Creating layer stage4_unit2_bn2_scale
I0110 19:48:51.495903  2858 net.cpp:84] Creating Layer stage4_unit2_bn2_scale
I0110 19:48:51.495905  2858 net.cpp:406] stage4_unit2_bn2_scale <- stage4_unit2_bn2
I0110 19:48:51.495910  2858 net.cpp:367] stage4_unit2_bn2_scale -> stage4_unit2_bn2 (in-place)
I0110 19:48:51.495942  2858 layer_factory.hpp:77] Creating layer stage4_unit2_bn2_scale
I0110 19:48:51.496026  2858 net.cpp:122] Setting up stage4_unit2_bn2_scale
I0110 19:48:51.496032  2858 net.cpp:129] Top shape: 8 512 13 13 (692224)
I0110 19:48:51.496035  2858 net.cpp:137] Memory required for data: 2136684576
I0110 19:48:51.496040  2858 layer_factory.hpp:77] Creating layer stage4_unit2_relu1
I0110 19:48:51.496047  2858 net.cpp:84] Creating Layer stage4_unit2_relu1
I0110 19:48:51.496049  2858 net.cpp:406] stage4_unit2_relu1 <- stage4_unit2_bn2
I0110 19:48:51.496054  2858 net.cpp:380] stage4_unit2_relu1 -> stage4_unit2_relu1
I0110 19:48:51.496377  2858 net.cpp:122] Setting up stage4_unit2_relu1
I0110 19:48:51.496389  2858 net.cpp:129] Top shape: 8 512 13 13 (692224)
I0110 19:48:51.496392  2858 net.cpp:137] Memory required for data: 2139453472
I0110 19:48:51.496397  2858 layer_factory.hpp:77] Creating layer stage4_unit2_conv2
I0110 19:48:51.496407  2858 net.cpp:84] Creating Layer stage4_unit2_conv2
I0110 19:48:51.496409  2858 net.cpp:406] stage4_unit2_conv2 <- stage4_unit2_relu1
I0110 19:48:51.496415  2858 net.cpp:380] stage4_unit2_conv2 -> stage4_unit2_conv2
I0110 19:48:51.520462  2858 net.cpp:122] Setting up stage4_unit2_conv2
I0110 19:48:51.520478  2858 net.cpp:129] Top shape: 8 512 13 13 (692224)
I0110 19:48:51.520480  2858 net.cpp:137] Memory required for data: 2142222368
I0110 19:48:51.520486  2858 layer_factory.hpp:77] Creating layer stage4_unit2_bn3
I0110 19:48:51.520493  2858 net.cpp:84] Creating Layer stage4_unit2_bn3
I0110 19:48:51.520498  2858 net.cpp:406] stage4_unit2_bn3 <- stage4_unit2_conv2
I0110 19:48:51.520503  2858 net.cpp:380] stage4_unit2_bn3 -> stage4_unit2_bn3
I0110 19:48:51.520660  2858 net.cpp:122] Setting up stage4_unit2_bn3
I0110 19:48:51.520668  2858 net.cpp:129] Top shape: 8 512 13 13 (692224)
I0110 19:48:51.520671  2858 net.cpp:137] Memory required for data: 2144991264
I0110 19:48:51.520678  2858 layer_factory.hpp:77] Creating layer stage4_unit2_bn3_scale
I0110 19:48:51.520684  2858 net.cpp:84] Creating Layer stage4_unit2_bn3_scale
I0110 19:48:51.520689  2858 net.cpp:406] stage4_unit2_bn3_scale <- stage4_unit2_bn3
I0110 19:48:51.520694  2858 net.cpp:367] stage4_unit2_bn3_scale -> stage4_unit2_bn3 (in-place)
I0110 19:48:51.520725  2858 layer_factory.hpp:77] Creating layer stage4_unit2_bn3_scale
I0110 19:48:51.520805  2858 net.cpp:122] Setting up stage4_unit2_bn3_scale
I0110 19:48:51.520813  2858 net.cpp:129] Top shape: 8 512 13 13 (692224)
I0110 19:48:51.520817  2858 net.cpp:137] Memory required for data: 2147760160
I0110 19:48:51.520821  2858 layer_factory.hpp:77] Creating layer _plus7
I0110 19:48:51.520828  2858 net.cpp:84] Creating Layer _plus7
I0110 19:48:51.520831  2858 net.cpp:406] _plus7 <- stage4_unit2_bn3
I0110 19:48:51.520836  2858 net.cpp:406] _plus7 <- _plus6__plus6_0_split_1
I0110 19:48:51.520841  2858 net.cpp:380] _plus7 -> _plus7
I0110 19:48:51.520860  2858 net.cpp:122] Setting up _plus7
I0110 19:48:51.520867  2858 net.cpp:129] Top shape: 8 512 13 13 (692224)
I0110 19:48:51.520870  2858 net.cpp:137] Memory required for data: 2150529056
I0110 19:48:51.520874  2858 layer_factory.hpp:77] Creating layer bn1
I0110 19:48:51.520879  2858 net.cpp:84] Creating Layer bn1
I0110 19:48:51.520881  2858 net.cpp:406] bn1 <- _plus7
I0110 19:48:51.520886  2858 net.cpp:380] bn1 -> bn1
I0110 19:48:51.521029  2858 net.cpp:122] Setting up bn1
I0110 19:48:51.521035  2858 net.cpp:129] Top shape: 8 512 13 13 (692224)
I0110 19:48:51.521039  2858 net.cpp:137] Memory required for data: 2153297952
I0110 19:48:51.521044  2858 layer_factory.hpp:77] Creating layer bn1_scale
I0110 19:48:51.521050  2858 net.cpp:84] Creating Layer bn1_scale
I0110 19:48:51.521054  2858 net.cpp:406] bn1_scale <- bn1
I0110 19:48:51.521057  2858 net.cpp:367] bn1_scale -> bn1 (in-place)
I0110 19:48:51.521085  2858 layer_factory.hpp:77] Creating layer bn1_scale
I0110 19:48:51.521164  2858 net.cpp:122] Setting up bn1_scale
I0110 19:48:51.521172  2858 net.cpp:129] Top shape: 8 512 13 13 (692224)
I0110 19:48:51.521174  2858 net.cpp:137] Memory required for data: 2156066848
I0110 19:48:51.521179  2858 layer_factory.hpp:77] Creating layer fc8
I0110 19:48:51.521186  2858 net.cpp:84] Creating Layer fc8
I0110 19:48:51.521189  2858 net.cpp:406] fc8 <- bn1
I0110 19:48:51.521195  2858 net.cpp:380] fc8 -> fc8
I0110 19:48:51.523730  2858 net.cpp:122] Setting up fc8
I0110 19:48:51.523741  2858 net.cpp:129] Top shape: 8 2 (16)
I0110 19:48:51.523743  2858 net.cpp:137] Memory required for data: 2156066912
I0110 19:48:51.523751  2858 layer_factory.hpp:77] Creating layer loss
I0110 19:48:51.523757  2858 net.cpp:84] Creating Layer loss
I0110 19:48:51.523761  2858 net.cpp:406] loss <- fc8
I0110 19:48:51.523766  2858 net.cpp:406] loss <- label
I0110 19:48:51.523772  2858 net.cpp:380] loss -> loss
I0110 19:48:51.523785  2858 layer_factory.hpp:77] Creating layer loss
…
I0110 19:48:51.525262  2858 solver.cpp:172] Creating test net (#0) specified by net file: r18_train_val.prototxt
I0110 19:48:51.525343  2858 net.cpp:294] The NetState phase (1) differed from the phase (0) specified by a rule in layer data
I0110 19:48:51.525858  2858 net.cpp:51] Initializing net from parameters: 
name: "r18"
state {
  phase: TEST
}
layer {
  name: "data"
  type: "Data"
  top: "data"
  top: "label"
  include {
    phase: TEST
  }
  transform_param {
    scale: 0.0078125
    mirror: true
    mean_value: 127
  }
  data_param {
    source: "/home/lc/gender/school/data_3/val.lmdb"
    batch_size: 8
    backend: LMDB
  }
}
layer {
  name: "conv0"
  type: "Convolution"
  bottom: "data"
  top: "conv0"
  param {
    lr_mult: 1
    decay_mult: 1
  }
  convolution_param {
    num_output: 64
    bias_term: false
    pad: 1
    kernel_size: 3
    stride: 1
    weight_filler {
      type: "gaussian"
      std: 0.01
    }
    engine: CAFFE
  }
}
layer {
  name: "bn0"
  type: "BatchNorm"
  bottom: "conv0"
  top: "bn0"
  batch_norm_param {
    use_global_stats: false
    moving_average_fraction: 0.9
    eps: 2e-05
  }
}
layer {
  name: "bn0_scale"
  type: "Scale"
  bottom: "bn0"
  top: "bn0"
  scale_param {
    bias_term: true
  }
}
layer {
  name: "relu0"
  type: "ReLU"
  bottom: "bn0"
  top: "relu0"
}
layer {
  name: "stage1_unit1_bn1"
  type: "BatchNorm"
  bottom: "relu0"
  top: "stage1_unit1_bn1"
  batch_norm_param {
    use_global_stats: false
    moving_average_fraction: 0.9
    eps: 2e-05
  }
}
layer {
  name: "stage1_unit1_bn1_scale"
  type: "Scale"
  bottom: "stage1_unit1_bn1"
  top: "stage1_unit1_bn1"
  scale_param {
    bias_term: true
  }
}
layer {
  name: "stage1_unit1_conv1"
  type: "Convolution"
  bottom: "stage1_unit1_bn1"
  top: "stage1_unit1_conv1"
  param {
    lr_mult: 1
    decay_mult: 1
  }
  convolution_param {
    num_output: 64
    bias_term: false
    pad: 1
    kernel_size: 3
    stride: 1
    weight_filler {
      type: "gaussian"
      std: 0.01
    }
    engine: CAFFE
  }
}
layer {
  name: "stage1_unit1_bn2"
  type: "BatchNorm"
  bottom: "stage1_unit1_conv1"
  top: "stage1_unit1_bn2"
  batch_norm_param {
    use_global_stats: false
    moving_average_fraction: 0.9
    eps: 2e-05
  }
}
layer {
  name: "stage1_unit1_bn2_scale"
  type: "Scale"
  bottom: "stage1_unit1_bn2"
  top: "stage1_unit1_bn2"
  scale_param {
    bias_term: true
  }
}
layer {
  name: "stage1_unit1_relu1"
  type: "ReLU"
  bottom: "stage1_unit1_bn2"
  top: "stage1_unit1_relu1"
}
layer {
  name: "stage1_unit1_conv2"
  type: "Convolution"
  bottom: "stage1_unit1_relu1"
  top: "stage1_unit1_conv2"
  param {
    lr_mult: 1
    decay_mult: 1
  }
  convolution_param {
    num_output: 64
    bias_term: false
    pad: 1
    kernel_size: 3
    stride: 2
    weight_filler {
      type: "gaussian"
      std: 0.01
    }
    engine: CAFFE
  }
}
layer {
  name: "stage1_unit1_bn3"
  type: "BatchNorm"
  bottom: "stage1_unit1_conv2"
  top: "stage1_unit1_bn3"
  batch_norm_param {
    use_global_stats: false
    moving_average_fraction: 0.9
    eps: 2e-05
  }
}
layer {
  name: "stage1_unit1_bn3_scale"
  type: "Scale"
  bottom: "stage1_unit1_bn3"
  top: "stage1_unit1_bn3"
  scale_param {
    bias_term: true
  }
}
layer {
  name: "stage1_unit1_conv1sc"
  type: "Convolution"
  bottom: "relu0"
  top: "stage1_unit1_conv1sc"
  param {
    lr_mult: 1
    decay_mult: 1
  }
  convolution_param {
    num_output: 64
    bias_term: false
    kernel_size: 1
    stride: 2
    weight_filler {
      type: "gaussian"
      std: 0.01
    }
    engine: CAFFE
  }
}
layer {
  name: "stage1_unit1_sc"
  type: "BatchNorm"
  bottom: "stage1_unit1_conv1sc"
  top: "stage1_unit1_sc"
  batch_norm_param {
    use_global_stats: false
    moving_average_fraction: 0.9
    eps: 2e-05
  }
}
layer {
  name: "stage1_unit1_sc_scale"
  type: "Scale"
  bottom: "stage1_unit1_sc"
  top: "stage1_unit1_sc"
  scale_param {
    bias_term: true
  }
}
layer {
  name: "_plus0"
  type: "Eltwise"
  bottom: "stage1_unit1_bn3"
  bottom: "stage1_unit1_sc"
  top: "_plus0"
  eltwise_param {
    operation: SUM
  }
}
layer {
  name: "stage1_unit2_bn1"
  type: "BatchNorm"
  bottom: "_plus0"
  top: "stage1_unit2_bn1"
  batch_norm_param {
    use_global_stats: false
    moving_average_fraction: 0.9
    eps: 2e-05
  }
}
layer {
  name: "stage1_unit2_bn1_scale"
  type: "Scale"
  bottom: "stage1_unit2_bn1"
  top: "stage1_unit2_bn1"
  scale_param {
    bias_term: true
  }
}
layer {
  name: "stage1_unit2_conv1"
  type: "Convolution"
  bottom: "stage1_unit2_bn1"
  top: "stage1_unit2_conv1"
  param {
    lr_mult: 1
    decay_mult: 1
  }
  convolution_param {
    num_output: 64
    bias_term: false
    pad: 1
    kernel_size: 3
    stride: 1
    weight_filler {
      type: "gaussian"
      std: 0.01
    }
    engine: CAFFE
  }
}
layer {
  name: "stage1_unit2_bn2"
  type: "BatchNorm"
  bottom: "stage1_unit2_conv1"
  top: "stage1_unit2_bn2"
  batch_norm_param {
    use_global_stats: false
    moving_average_fraction: 0.9
    eps: 2e-05
  }
}
layer {
  name: "stage1_unit2_bn2_scale"
  type: "Scale"
  bottom: "stage1_unit2_bn2"
  top: "stage1_unit2_bn2"
  scale_param {
    bias_term: true
  }
}
layer {
  name: "stage1_unit2_relu1"
  type: "ReLU"
  bottom: "stage1_unit2_bn2"
  top: "stage1_unit2_relu1"
}
layer {
  name: "stage1_unit2_conv2"
  type: "Convolution"
  bottom: "stage1_unit2_relu1"
  top: "stage1_unit2_conv2"
  param {
    lr_mult: 1
    decay_mult: 1
  }
  convolution_param {
    num_output: 64
    bias_term: false
    pad: 1
    kernel_size: 3
    stride: 1
    weight_filler {
      type: "gaussian"
      std: 0.01
    }
    engine: CAFFE
  }
}
layer {
  name: "stage1_unit2_bn3"
  type: "BatchNorm"
  bottom: "stage1_unit2_conv2"
  top: "stage1_unit2_bn3"
  batch_norm_param {
    use_global_stats: false
    moving_average_fraction: 0.9
    eps: 2e-05
  }
}
layer {
  name: "stage1_unit2_bn3_scale"
  type: "Scale"
  bottom: "stage1_unit2_bn3"
  top: "stage1_unit2_bn3"
  scale_param {
    bias_term: true
  }
}
layer {
  name: "_plus1"
  type: "Eltwise"
  bottom: "stage1_unit2_bn3"
  bottom: "_plus0"
  top: "_plus1"
  eltwise_param {
    operation: SUM
  }
}
layer {
  name: "stage2_unit1_bn1"
  type: "BatchNorm"
  bottom: "_plus1"
  top: "stage2_unit1_bn1"
  batch_norm_param {
    use_global_stats: false
    moving_average_fraction: 0.9
    eps: 2e-05
  }
}
layer {
  name: "stage2_unit1_bn1_scale"
  type: "Scale"
  bottom: "stage2_unit1_bn1"
  top: "stage2_unit1_bn1"
  scale_param {
    bias_term: true
  }
}
layer {
  name: "stage2_unit1_conv1"
  type: "Convolution"
  bottom: "stage2_unit1_bn1"
  top: "stage2_unit1_conv1"
  param {
    lr_mult: 1
    decay_mult: 1
  }
  convolution_param {
    num_output: 128
    bias_term: false
    pad: 1
    kernel_size: 3
    stride: 1
    weight_filler {
      type: "gaussian"
      std: 0.01
    }
    engine: CAFFE
  }
}
layer {
  name: "stage2_unit1_bn2"
  type: "BatchNorm"
  bottom: "stage2_unit1_conv1"
  top: "stage2_unit1_bn2"
  batch_norm_param {
    use_global_stats: false
    moving_average_fraction: 0.9
    eps: 2e-05
  }
}
layer {
  name: "stage2_unit1_bn2_scale"
  type: "Scale"
  bottom: "stage2_unit1_bn2"
  top: "stage2_unit1_bn2"
  scale_param {
    bias_term: true
  }
}
layer {
  name: "stage2_unit1_relu1"
  type: "ReLU"
  bottom: "stage2_unit1_bn2"
  top: "stage2_unit1_relu1"
}
layer {
  name: "stage2_unit1_conv2"
  type: "Convolution"
  bottom: "stage2_unit1_relu1"
  top: "stage2_unit1_conv2"
  param {
    lr_mult: 1
    decay_mult: 1
  }
  convolution_param {
    num_output: 128
    bias_term: false
    pad: 1
    kernel_size: 3
    stride: 2
    weight_filler {
      type: "gaussian"
      std: 0.01
    }
    engine: CAFFE
  }
}
layer {
  name: "stage2_unit1_bn3"
  type: "BatchNorm"
  bottom: "stage2_unit1_conv2"
  top: "stage2_unit1_bn3"
  batch_norm_param {
    use_global_stats: false
    moving_average_fraction: 0.9
    eps: 2e-05
  }
}
layer {
  name: "stage2_unit1_bn3_scale"
  type: "Scale"
  bottom: "stage2_unit1_bn3"
  top: "stage2_unit1_bn3"
  scale_param {
    bias_term: true
  }
}
layer {
  name: "stage2_unit1_conv1sc"
  type: "Convolution"
  bottom: "_plus1"
  top: "stage2_unit1_conv1sc"
  param {
    lr_mult: 1
    decay_mult: 1
  }
  convolution_param {
    num_output: 128
    bias_term: false
    kernel_size: 1
    stride: 2
    weight_filler {
      type: "gaussian"
      std: 0.01
    }
    engine: CAFFE
  }
}
layer {
  name: "stage2_unit1_sc"
  type: "BatchNorm"
  bottom: "stage2_unit1_conv1sc"
  top: "stage2_unit1_sc"
  batch_norm_param {
    use_global_stats: false
    moving_average_fraction: 0.9
    eps: 2e-05
  }
}
layer {
  name: "stage2_unit1_sc_scale"
  type: "Scale"
  bottom: "stage2_unit1_sc"
  top: "stage2_unit1_sc"
  scale_param {
    bias_term: true
  }
}
layer {
  name: "_plus2"
  type: "Eltwise"
  bottom: "stage2_unit1_bn3"
  bottom: "stage2_unit1_sc"
  top: "_plus2"
  eltwise_param {
    operation: SUM
  }
}
layer {
  name: "stage2_unit2_bn1"
  type: "BatchNorm"
  bottom: "_plus2"
  top: "stage2_unit2_bn1"
  batch_norm_param {
    use_global_stats: false
    moving_average_fraction: 0.9
    eps: 2e-05
  }
}
layer {
  name: "stage2_unit2_bn1_scale"
  type: "Scale"
  bottom: "stage2_unit2_bn1"
  top: "stage2_unit2_bn1"
  scale_param {
    bias_term: true
  }
}
layer {
  name: "stage2_unit2_conv1"
  type: "Convolution"
  bottom: "stage2_unit2_bn1"
  top: "stage2_unit2_conv1"
  param {
    lr_mult: 1
    decay_mult: 1
  }
  convolution_param {
    num_output: 128
    bias_term: false
    pad: 1
    kernel_size: 3
    stride: 1
    weight_filler {
      type: "gaussian"
      std: 0.01
    }
    engine: CAFFE
  }
}
layer {
  name: "stage2_unit2_bn2"
  type: "BatchNorm"
  bottom: "stage2_unit2_conv1"
  top: "stage2_unit2_bn2"
  batch_norm_param {
    use_global_stats: false
    moving_average_fraction: 0.9
    eps: 2e-05
  }
}
layer {
  name: "stage2_unit2_bn2_scale"
  type: "Scale"
  bottom: "stage2_unit2_bn2"
  top: "stage2_unit2_bn2"
  scale_param {
    bias_term: true
  }
}
layer {
  name: "stage2_unit2_relu1"
  type: "ReLU"
  bottom: "stage2_unit2_bn2"
  top: "stage2_unit2_relu1"
}
layer {
  name: "stage2_unit2_conv2"
  type: "Convolution"
  bottom: "stage2_unit2_relu1"
  top: "stage2_unit2_conv2"
  param {
    lr_mult: 1
    decay_mult: 1
  }
  convolution_param {
    num_output: 128
    bias_term: false
    pad: 1
    kernel_size: 3
    stride: 1
    weight_filler {
      type: "gaussian"
      std: 0.01
    }
    engine: CAFFE
  }
}
layer {
  name: "stage2_unit2_bn3"
  type: "BatchNorm"
  bottom: "stage2_unit2_conv2"
  top: "stage2_unit2_bn3"
  batch_norm_param {
    use_global_stats: false
    moving_average_fraction: 0.9
    eps: 2e-05
  }
}
layer {
  name: "stage2_unit2_bn3_scale"
  type: "Scale"
  bottom: "stage2_unit2_bn3"
  top: "stage2_unit2_bn3"
  scale_param {
    bias_term: true
  }
}
layer {
  name: "_plus3"
  type: "Eltwise"
  bottom: "stage2_unit2_bn3"
  bottom: "_plus2"
  top: "_plus3"
  eltwise_param {
    operation: SUM
  }
}
layer {
  name: "stage3_unit1_bn1"
  type: "BatchNorm"
  bottom: "_plus3"
  top: "stage3_unit1_bn1"
  batch_norm_param {
    use_global_stats: false
    moving_average_fraction: 0.9
    eps: 2e-05
  }
}
layer {
  name: "stage3_unit1_bn1_scale"
  type: "Scale"
  bottom: "stage3_unit1_bn1"
  top: "stage3_unit1_bn1"
  scale_param {
    bias_term: true
  }
}
layer {
  name: "stage3_unit1_conv1"
  type: "Convolution"
  bottom: "stage3_unit1_bn1"
  top: "stage3_unit1_conv1"
  param {
    lr_mult: 1
    decay_mult: 1
  }
  convolution_param {
    num_output: 256
    bias_term: false
    pad: 1
    kernel_size: 3
    stride: 1
    weight_filler {
      type: "gaussian"
      std: 0.01
    }
    engine: CAFFE
  }
}
layer {
  name: "stage3_unit1_bn2"
  type: "BatchNorm"
  bottom: "stage3_unit1_conv1"
  top: "stage3_unit1_bn2"
  batch_norm_param {
    use_global_stats: false
    moving_average_fraction: 0.9
    eps: 2e-05
  }
}
layer {
  name: "stage3_unit1_bn2_scale"
  type: "Scale"
  bottom: "stage3_unit1_bn2"
  top: "stage3_unit1_bn2"
  scale_param {
    bias_term: true
  }
}
layer {
  name: "stage3_unit1_relu1"
  type: "ReLU"
  bottom: "stage3_unit1_bn2"
  top: "stage3_unit1_relu1"
}
layer {
  name: "stage3_unit1_conv2"
  type: "Convolution"
  bottom: "stage3_unit1_relu1"
  top: "stage3_unit1_conv2"
  param {
    lr_mult: 1
    decay_mult: 1
  }
  convolution_param {
    num_output: 256
    bias_term: false
    pad: 1
    kernel_size: 3
    stride: 2
    weight_filler {
      type: "gaussian"
      std: 0.01
    }
    engine: CAFFE
  }
}
layer {
  name: "stage3_unit1_bn3"
  type: "BatchNorm"
  bottom: "stage3_unit1_conv2"
  top: "stage3_unit1_bn3"
  batch_norm_param {
    use_global_stats: false
    moving_average_fraction: 0.9
    eps: 2e-05
  }
}
layer {
  name: "stage3_unit1_bn3_scale"
  type: "Scale"
  bottom: "stage3_unit1_bn3"
  top: "stage3_unit1_bn3"
  scale_param {
    bias_term: true
  }
}
layer {
  name: "stage3_unit1_conv1sc"
  type: "Convolution"
  bottom: "_plus3"
  top: "stage3_unit1_conv1sc"
  param {
    lr_mult: 1
    decay_mult: 1
  }
  convolution_param {
    num_output: 256
    bias_term: false
    kernel_size: 1
    stride: 2
    weight_filler {
      type: "gaussian"
      std: 0.01
    }
    engine: CAFFE
  }
}
layer {
  name: "stage3_unit1_sc"
  type: "BatchNorm"
  bottom: "stage3_unit1_conv1sc"
  top: "stage3_unit1_sc"
  batch_norm_param {
    use_global_stats: false
    moving_average_fraction: 0.9
    eps: 2e-05
  }
}
layer {
  name: "stage3_unit1_sc_scale"
  type: "Scale"
  bottom: "stage3_unit1_sc"
  top: "stage3_unit1_sc"
  scale_param {
    bias_term: true
  }
}
layer {
  name: "_plus4"
  type: "Eltwise"
  bottom: "stage3_unit1_bn3"
  bottom: "stage3_unit1_sc"
  top: "_plus4"
  eltwise_param {
    operation: SUM
  }
}
layer {
  name: "stage3_unit2_bn1"
  type: "BatchNorm"
  bottom: "_plus4"
  top: "stage3_unit2_bn1"
  batch_norm_param {
    use_global_stats: false
    moving_average_fraction: 0.9
    eps: 2e-05
  }
}
layer {
  name: "stage3_unit2_bn1_scale"
  type: "Scale"
  bottom: "stage3_unit2_bn1"
  top: "stage3_unit2_bn1"
  scale_param {
    bias_term: true
  }
}
layer {
  name: "stage3_unit2_conv1"
  type: "Convolution"
  bottom: "stage3_unit2_bn1"
  top: "stage3_unit2_conv1"
  param {
    lr_mult: 1
    decay_mult: 1
  }
  convolution_param {
    num_output: 256
    bias_term: false
    pad: 1
    kernel_size: 3
    stride: 1
    weight_filler {
      type: "gaussian"
      std: 0.01
    }
    engine: CAFFE
  }
}
layer {
  name: "stage3_unit2_bn2"
  type: "BatchNorm"
  bottom: "stage3_unit2_conv1"
  top: "stage3_unit2_bn2"
  batch_norm_param {
    use_global_stats: false
    moving_average_fraction: 0.9
    eps: 2e-05
  }
}
layer {
  name: "stage3_unit2_bn2_scale"
  type: "Scale"
  bottom: "stage3_unit2_bn2"
  top: "stage3_unit2_bn2"
  scale_param {
    bias_term: true
  }
}
layer {
  name: "stage3_unit2_relu1"
  type: "ReLU"
  bottom: "stage3_unit2_bn2"
  top: "stage3_unit2_relu1"
}
layer {
  name: "stage3_unit2_conv2"
  type: "Convolution"
  bottom: "stage3_unit2_relu1"
  top: "stage3_unit2_conv2"
  param {
    lr_mult: 1
    decay_mult: 1
  }
  convolution_param {
    num_output: 256
    bias_term: false
    pad: 1
    kernel_size: 3
    stride: 1
    weight_filler {
      type: "gaussian"
      std: 0.01
    }
    engine: CAFFE
  }
}
layer {
  name: "stage3_unit2_bn3"
  type: "BatchNorm"
  bottom: "stage3_unit2_conv2"
  top: "stage3_unit2_bn3"
  batch_norm_param {
    use_global_stats: false
    moving_average_fraction: 0.9
    eps: 2e-05
  }
}
layer {
  name: "stage3_unit2_bn3_scale"
  type: "Scale"
  bottom: "stage3_unit2_bn3"
  top: "stage3_unit2_bn3"
  scale_param {
    bias_term: true
  }
}
layer {
  name: "_plus5"
  type: "Eltwise"
  bottom: "stage3_unit2_bn3"
  bottom: "_plus4"
  top: "_plus5"
  eltwise_param {
    operation: SUM
  }
}
layer {
  name: "stage4_unit1_bn1"
  type: "BatchNorm"
  bottom: "_plus5"
  top: "stage4_unit1_bn1"
  batch_norm_param {
    use_global_stats: false
    moving_average_fraction: 0.9
    eps: 2e-05
  }
}
layer {
  name: "stage4_unit1_bn1_scale"
  type: "Scale"
  bottom: "stage4_unit1_bn1"
  top: "stage4_unit1_bn1"
  scale_param {
    bias_term: true
  }
}
layer {
  name: "stage4_unit1_conv1"
  type: "Convolution"
  bottom: "stage4_unit1_bn1"
  top: "stage4_unit1_conv1"
  param {
    lr_mult: 1
    decay_mult: 1
  }
  convolution_param {
    num_output: 512
    bias_term: false
    pad: 1
    kernel_size: 3
    stride: 1
    weight_filler {
      type: "gaussian"
      std: 0.01
    }
    engine: CAFFE
  }
}
layer {
  name: "stage4_unit1_bn2"
  type: "BatchNorm"
  bottom: "stage4_unit1_conv1"
  top: "stage4_unit1_bn2"
  batch_norm_param {
    use_global_stats: false
    moving_average_fraction: 0.9
    eps: 2e-05
  }
}
layer {
  name: "stage4_unit1_bn2_scale"
  type: "Scale"
  bottom: "stage4_unit1_bn2"
  top: "stage4_unit1_bn2"
  scale_param {
    bias_term: true
  }
}
layer {
  name: "stage4_unit1_relu1"
  type: "ReLU"
  bottom: "stage4_unit1_bn2"
  top: "stage4_unit1_relu1"
}
layer {
  name: "stage4_unit1_conv2"
  type: "Convolution"
  bottom: "stage4_unit1_relu1"
  top: "stage4_unit1_conv2"
  param {
    lr_mult: 1
    decay_mult: 1
  }
  convolution_param {
    num_output: 512
    bias_term: false
    pad: 1
    kernel_size: 3
    stride: 2
    weight_filler {
      type: "gaussian"
      std: 0.01
    }
    engine: CAFFE
  }
}
layer {
  name: "stage4_unit1_bn3"
  type: "BatchNorm"
  bottom: "stage4_unit1_conv2"
  top: "stage4_unit1_bn3"
  batch_norm_param {
    use_global_stats: false
    moving_average_fraction: 0.9
    eps: 2e-05
  }
}
layer {
  name: "stage4_unit1_bn3_scale"
  type: "Scale"
  bottom: "stage4_unit1_bn3"
  top: "stage4_unit1_bn3"
  scale_param {
    bias_term: true
  }
}
layer {
  name: "stage4_unit1_conv1sc"
  type: "Convolution"
  bottom: "_plus5"
  top: "stage4_unit1_conv1sc"
  param {
    lr_mult: 1
    decay_mult: 1
  }
  convolution_param {
    num_output: 512
    bias_term: false
    kernel_size: 1
    stride: 2
    weight_filler {
      type: "gaussian"
      std: 0.01
    }
    engine: CAFFE
  }
}
layer {
  name: "stage4_unit1_sc"
  type: "BatchNorm"
  bottom: "stage4_unit1_conv1sc"
  top: "stage4_unit1_sc"
  batch_norm_param {
    use_global_stats: false
    moving_average_fraction: 0.9
    eps: 2e-05
  }
}
layer {
  name: "stage4_unit1_sc_scale"
  type: "Scale"
  bottom: "stage4_unit1_sc"
  top: "stage4_unit1_sc"
  scale_param {
    bias_term: true
  }
}
layer {
  name: "_plus6"
  type: "Eltwise"
  bottom: "stage4_unit1_bn3"
  bottom: "stage4_unit1_sc"
  top: "_plus6"
  eltwise_param {
    operation: SUM
  }
}
layer {
  name: "stage4_unit2_bn1"
  type: "BatchNorm"
  bottom: "_plus6"
  top: "stage4_unit2_bn1"
  batch_norm_param {
    use_global_stats: false
    moving_average_fraction: 0.9
    eps: 2e-05
  }
}
layer {
  name: "stage4_unit2_bn1_scale"
  type: "Scale"
  bottom: "stage4_unit2_bn1"
  top: "stage4_unit2_bn1"
  scale_param {
    bias_term: true
  }
}
layer {
  name: "stage4_unit2_conv1"
  type: "Convolution"
  bottom: "stage4_unit2_bn1"
  top: "stage4_unit2_conv1"
  param {
    lr_mult: 1
    decay_mult: 1
  }
  convolution_param {
    num_output: 512
    bias_term: false
    pad: 1
    kernel_size: 3
    stride: 1
    weight_filler {
      type: "gaussian"
      std: 0.01
    }
    engine: CAFFE
  }
}
layer {
  name: "stage4_unit2_bn2"
  type: "BatchNorm"
  bottom: "stage4_unit2_conv1"
  top: "stage4_unit2_bn2"
  batch_norm_param {
    use_global_stats: false
    moving_average_fraction: 0.9
    eps: 2e-05
  }
}
layer {
  name: "stage4_unit2_bn2_scale"
  type: "Scale"
  bottom: "stage4_unit2_bn2"
  top: "stage4_unit2_bn2"
  scale_param {
    bias_term: true
  }
}
layer {
  name: "stage4_unit2_relu1"
  type: "ReLU"
  bottom: "stage4_unit2_bn2"
  top: "stage4_unit2_relu1"
}
layer {
  name: "stage4_unit2_conv2"
  type: "Convolution"
  bottom: "stage4_unit2_relu1"
  top: "stage4_unit2_conv2"
  param {
    lr_mult: 1
    decay_mult: 1
  }
  convolution_param {
    num_output: 512
    bias_term: false
    pad: 1
    kernel_size: 3
    stride: 1
    weight_filler {
      type: "gaussian"
      std: 0.01
    }
    engine: CAFFE
  }
}
layer {
  name: "stage4_unit2_bn3"
  type: "BatchNorm"
  bottom: "stage4_unit2_conv2"
  top: "stage4_unit2_bn3"
  batch_norm_param {
    use_global_stats: false
    moving_average_fraction: 0.9
    eps: 2e-05
  }
}
layer {
  name: "stage4_unit2_bn3_scale"
  type: "Scale"
  bottom: "stage4_unit2_bn3"
  top: "stage4_unit2_bn3"
  scale_param {
    bias_term: true
  }
}
layer {
  name: "_plus7"
  type: "Eltwise"
  bottom: "stage4_unit2_bn3"
  bottom: "_plus6"
  top: "_plus7"
  eltwise_param {
    operation: SUM
  }
}
layer {
  name: "bn1"
  type: "BatchNorm"
  bottom: "_plus7"
  top: "bn1"
  batch_norm_param {
    use_global_stats: false
    moving_average_fraction: 0.9
    eps: 2e-05
  }
}
layer {
  name: "bn1_scale"
  type: "Scale"
  bottom: "bn1"
  top: "bn1"
  scale_param {
    bias_term: true
  }
}
layer {
  name: "fc8"
  type: "InnerProduct"
  bottom: "bn1"
  top: "fc8"
  param {
    lr_mult: 1
    decay_mult: 1
  }
  param {
    lr_mult: 2
    decay_mult: 0
  }
  inner_product_param {
    num_output: 2
    weight_filler {
      type: "msra"
      std: 0.01
    }
    bias_filler {
      type: "constant"
      value: 0
    }
  }
}
layer {
  name: "accuracy"
  type: "Accuracy"
  bottom: "fc8"
  bottom: "label"
  top: "accuracy"
  include {
    phase: TEST
  }
}
layer {
  name: "loss"
  type: "WeightedSoftmaxWithLoss"
  bottom: "fc8"
  bottom: "label"
  top: "loss"
  softmax_param {
    pos_mult: 1.3
    pos_cid: 1
  }
}
I0110 19:48:51.526142  2858 layer_factory.hpp:77] Creating layer data
I0110 19:48:51.526211  2858 db_lmdb.cpp:35] Opened lmdb /home/lc/gender/school/data_3/val.lmdb
I0110 19:48:51.526226  2858 net.cpp:84] Creating Layer data
I0110 19:48:51.526232  2858 net.cpp:380] data -> data
I0110 19:48:51.526240  2858 net.cpp:380] data -> label
I0110 19:48:51.526383  2858 data_layer.cpp:45] output data size: 8,3,200,200
I0110 19:48:51.540581  2858 net.cpp:122] Setting up data
I0110 19:48:51.540648  2858 net.cpp:129] Top shape: 8 3 200 200 (960000)
I0110 19:48:51.540661  2858 net.cpp:129] Top shape: 8 (8)
I0110 19:48:51.540668  2858 net.cpp:137] Memory required for data: 3840032
I0110 19:48:51.540679  2858 layer_factory.hpp:77] Creating layer label_data_1_split
I0110 19:48:51.540702  2858 net.cpp:84] Creating Layer label_data_1_split
I0110 19:48:51.540717  2858 net.cpp:406] label_data_1_split <- label
I0110 19:48:51.540733  2858 net.cpp:380] label_data_1_split -> label_data_1_split_0
I0110 19:48:51.540755  2858 net.cpp:380] label_data_1_split -> label_data_1_split_1
I0110 19:48:51.540993  2858 net.cpp:122] Setting up label_data_1_split
I0110 19:48:51.541009  2858 net.cpp:129] Top shape: 8 (8)
I0110 19:48:51.541018  2858 net.cpp:129] Top shape: 8 (8)
I0110 19:48:51.541023  2858 net.cpp:137] Memory required for data: 3840096
I0110 19:48:51.541030  2858 layer_factory.hpp:77] Creating layer conv0
I0110 19:48:51.541060  2858 net.cpp:84] Creating Layer conv0
I0110 19:48:51.541069  2858 net.cpp:406] conv0 <- data
I0110 19:48:51.541087  2858 net.cpp:380] conv0 -> conv0
I0110 19:48:51.541594  2858 net.cpp:122] Setting up conv0
I0110 19:48:51.541610  2858 net.cpp:129] Top shape: 8 64 200 200 (20480000)
I0110 19:48:51.541617  2858 net.cpp:137] Memory required for data: 85760096
I0110 19:48:51.541635  2858 layer_factory.hpp:77] Creating layer bn0
I0110 19:48:51.541649  2858 net.cpp:84] Creating Layer bn0
I0110 19:48:51.541657  2858 net.cpp:406] bn0 <- conv0
I0110 19:48:51.541667  2858 net.cpp:380] bn0 -> bn0
I0110 19:48:51.542124  2858 net.cpp:122] Setting up bn0
I0110 19:48:51.542138  2858 net.cpp:129] Top shape: 8 64 200 200 (20480000)
I0110 19:48:51.542146  2858 net.cpp:137] Memory required for data: 167680096
I0110 19:48:51.542165  2858 layer_factory.hpp:77] Creating layer bn0_scale
I0110 19:48:51.542181  2858 net.cpp:84] Creating Layer bn0_scale
I0110 19:48:51.542187  2858 net.cpp:406] bn0_scale <- bn0
I0110 19:48:51.542198  2858 net.cpp:367] bn0_scale -> bn0 (in-place)
I0110 19:48:51.542271  2858 layer_factory.hpp:77] Creating layer bn0_scale
I0110 19:48:51.542681  2858 net.cpp:122] Setting up bn0_scale
I0110 19:48:51.542697  2858 net.cpp:129] Top shape: 8 64 200 200 (20480000)
I0110 19:48:51.542706  2858 net.cpp:137] Memory required for data: 249600096
I0110 19:48:51.542723  2858 layer_factory.hpp:77] Creating layer relu0
I0110 19:48:51.542735  2858 net.cpp:84] Creating Layer relu0
I0110 19:48:51.542742  2858 net.cpp:406] relu0 <- bn0
I0110 19:48:51.542758  2858 net.cpp:380] relu0 -> relu0
I0110 19:48:51.544162  2858 net.cpp:122] Setting up relu0
I0110 19:48:51.544191  2858 net.cpp:129] Top shape: 8 64 200 200 (20480000)
I0110 19:48:51.544199  2858 net.cpp:137] Memory required for data: 331520096
I0110 19:48:51.544207  2858 layer_factory.hpp:77] Creating layer relu0_relu0_0_split
I0110 19:48:51.544220  2858 net.cpp:84] Creating Layer relu0_relu0_0_split
I0110 19:48:51.544229  2858 net.cpp:406] relu0_relu0_0_split <- relu0
I0110 19:48:51.544240  2858 net.cpp:380] relu0_relu0_0_split -> relu0_relu0_0_split_0
I0110 19:48:51.544257  2858 net.cpp:380] relu0_relu0_0_split -> relu0_relu0_0_split_1
I0110 19:48:51.544327  2858 net.cpp:122] Setting up relu0_relu0_0_split
I0110 19:48:51.544340  2858 net.cpp:129] Top shape: 8 64 200 200 (20480000)
I0110 19:48:51.544351  2858 net.cpp:129] Top shape: 8 64 200 200 (20480000)
I0110 19:48:51.544359  2858 net.cpp:137] Memory required for data: 495360096
I0110 19:48:51.544366  2858 layer_factory.hpp:77] Creating layer stage1_unit1_bn1
I0110 19:48:51.544378  2858 net.cpp:84] Creating Layer stage1_unit1_bn1
I0110 19:48:51.544386  2858 net.cpp:406] stage1_unit1_bn1 <- relu0_relu0_0_split_0
I0110 19:48:51.544399  2858 net.cpp:380] stage1_unit1_bn1 -> stage1_unit1_bn1
I0110 19:48:51.544873  2858 net.cpp:122] Setting up stage1_unit1_bn1
I0110 19:48:51.544889  2858 net.cpp:129] Top shape: 8 64 200 200 (20480000)
I0110 19:48:51.544895  2858 net.cpp:137] Memory required for data: 577280096
I0110 19:48:51.544919  2858 layer_factory.hpp:77] Creating layer stage1_unit1_bn1_scale
I0110 19:48:51.544934  2858 net.cpp:84] Creating Layer stage1_unit1_bn1_scale
I0110 19:48:51.544943  2858 net.cpp:406] stage1_unit1_bn1_scale <- stage1_unit1_bn1
I0110 19:48:51.544953  2858 net.cpp:367] stage1_unit1_bn1_scale -> stage1_unit1_bn1 (in-place)
I0110 19:48:51.545027  2858 layer_factory.hpp:77] Creating layer stage1_unit1_bn1_scale
I0110 19:48:51.545401  2858 net.cpp:122] Setting up stage1_unit1_bn1_scale
I0110 19:48:51.545416  2858 net.cpp:129] Top shape: 8 64 200 200 (20480000)
I0110 19:48:51.545424  2858 net.cpp:137] Memory required for data: 659200096
I0110 19:48:51.545437  2858 layer_factory.hpp:77] Creating layer stage1_unit1_conv1
I0110 19:48:51.545456  2858 net.cpp:84] Creating Layer stage1_unit1_conv1
I0110 19:48:51.545464  2858 net.cpp:406] stage1_unit1_conv1 <- stage1_unit1_bn1
I0110 19:48:51.545476  2858 net.cpp:380] stage1_unit1_conv1 -> stage1_unit1_conv1
I0110 19:48:51.546571  2858 net.cpp:122] Setting up stage1_unit1_conv1
I0110 19:48:51.546587  2858 net.cpp:129] Top shape: 8 64 200 200 (20480000)
I0110 19:48:51.546595  2858 net.cpp:137] Memory required for data: 741120096
I0110 19:48:51.546604  2858 layer_factory.hpp:77] Creating layer stage1_unit1_bn2
I0110 19:48:51.546619  2858 net.cpp:84] Creating Layer stage1_unit1_bn2
I0110 19:48:51.546627  2858 net.cpp:406] stage1_unit1_bn2 <- stage1_unit1_conv1
I0110 19:48:51.546639  2858 net.cpp:380] stage1_unit1_bn2 -> stage1_unit1_bn2
I0110 19:48:51.547060  2858 net.cpp:122] Setting up stage1_unit1_bn2
I0110 19:48:51.547075  2858 net.cpp:129] Top shape: 8 64 200 200 (20480000)
I0110 19:48:51.547082  2858 net.cpp:137] Memory required for data: 823040096
I0110 19:48:51.547096  2858 layer_factory.hpp:77] Creating layer stage1_unit1_bn2_scale
I0110 19:48:51.547108  2858 net.cpp:84] Creating Layer stage1_unit1_bn2_scale
I0110 19:48:51.547117  2858 net.cpp:406] stage1_unit1_bn2_scale <- stage1_unit1_bn2
I0110 19:48:51.547128  2858 net.cpp:367] stage1_unit1_bn2_scale -> stage1_unit1_bn2 (in-place)
I0110 19:48:51.547194  2858 layer_factory.hpp:77] Creating layer stage1_unit1_bn2_scale
I0110 19:48:51.547557  2858 net.cpp:122] Setting up stage1_unit1_bn2_scale
I0110 19:48:51.547572  2858 net.cpp:129] Top shape: 8 64 200 200 (20480000)
I0110 19:48:51.547580  2858 net.cpp:137] Memory required for data: 904960096
I0110 19:48:51.547598  2858 layer_factory.hpp:77] Creating layer stage1_unit1_relu1
I0110 19:48:51.547611  2858 net.cpp:84] Creating Layer stage1_unit1_relu1
I0110 19:48:51.547621  2858 net.cpp:406] stage1_unit1_relu1 <- stage1_unit1_bn2
I0110 19:48:51.547631  2858 net.cpp:380] stage1_unit1_relu1 -> stage1_unit1_relu1
I0110 19:48:51.547799  2858 net.cpp:122] Setting up stage1_unit1_relu1
I0110 19:48:51.547816  2858 net.cpp:129] Top shape: 8 64 200 200 (20480000)
I0110 19:48:51.547825  2858 net.cpp:137] Memory required for data: 986880096
I0110 19:48:51.547832  2858 layer_factory.hpp:77] Creating layer stage1_unit1_conv2
I0110 19:48:51.547850  2858 net.cpp:84] Creating Layer stage1_unit1_conv2
I0110 19:48:51.547859  2858 net.cpp:406] stage1_unit1_conv2 <- stage1_unit1_relu1
I0110 19:48:51.547873  2858 net.cpp:380] stage1_unit1_conv2 -> stage1_unit1_conv2
I0110 19:48:51.548988  2858 net.cpp:122] Setting up stage1_unit1_conv2
I0110 19:48:51.549005  2858 net.cpp:129] Top shape: 8 64 100 100 (5120000)
I0110 19:48:51.549012  2858 net.cpp:137] Memory required for data: 1007360096
I0110 19:48:51.549023  2858 layer_factory.hpp:77] Creating layer stage1_unit1_bn3
I0110 19:48:51.549037  2858 net.cpp:84] Creating Layer stage1_unit1_bn3
I0110 19:48:51.549046  2858 net.cpp:406] stage1_unit1_bn3 <- stage1_unit1_conv2
I0110 19:48:51.549058  2858 net.cpp:380] stage1_unit1_bn3 -> stage1_unit1_bn3
I0110 19:48:51.549438  2858 net.cpp:122] Setting up stage1_unit1_bn3
I0110 19:48:51.549451  2858 net.cpp:129] Top shape: 8 64 100 100 (5120000)
I0110 19:48:51.549458  2858 net.cpp:137] Memory required for data: 1027840096
I0110 19:48:51.549473  2858 layer_factory.hpp:77] Creating layer stage1_unit1_bn3_scale
I0110 19:48:51.549486  2858 net.cpp:84] Creating Layer stage1_unit1_bn3_scale
I0110 19:48:51.549494  2858 net.cpp:406] stage1_unit1_bn3_scale <- stage1_unit1_bn3
I0110 19:48:51.549504  2858 net.cpp:367] stage1_unit1_bn3_scale -> stage1_unit1_bn3 (in-place)
I0110 19:48:51.549571  2858 layer_factory.hpp:77] Creating layer stage1_unit1_bn3_scale
I0110 19:48:51.549854  2858 net.cpp:122] Setting up stage1_unit1_bn3_scale
I0110 19:48:51.549868  2858 net.cpp:129] Top shape: 8 64 100 100 (5120000)
I0110 19:48:51.549876  2858 net.cpp:137] Memory required for data: 1048320096
I0110 19:48:51.549887  2858 layer_factory.hpp:77] Creating layer stage1_unit1_conv1sc
I0110 19:48:51.549907  2858 net.cpp:84] Creating Layer stage1_unit1_conv1sc
I0110 19:48:51.549916  2858 net.cpp:406] stage1_unit1_conv1sc <- relu0_relu0_0_split_1
I0110 19:48:51.549927  2858 net.cpp:380] stage1_unit1_conv1sc -> stage1_unit1_conv1sc
I0110 19:48:51.550740  2858 net.cpp:122] Setting up stage1_unit1_conv1sc
I0110 19:48:51.550770  2858 net.cpp:129] Top shape: 8 64 100 100 (5120000)
I0110 19:48:51.550779  2858 net.cpp:137] Memory required for data: 1068800096
I0110 19:48:51.550792  2858 layer_factory.hpp:77] Creating layer stage1_unit1_sc
I0110 19:48:51.550808  2858 net.cpp:84] Creating Layer stage1_unit1_sc
I0110 19:48:51.550818  2858 net.cpp:406] stage1_unit1_sc <- stage1_unit1_conv1sc
I0110 19:48:51.550832  2858 net.cpp:380] stage1_unit1_sc -> stage1_unit1_sc
I0110 19:48:51.551254  2858 net.cpp:122] Setting up stage1_unit1_sc
I0110 19:48:51.551270  2858 net.cpp:129] Top shape: 8 64 100 100 (5120000)
I0110 19:48:51.551278  2858 net.cpp:137] Memory required for data: 1089280096
I0110 19:48:51.551293  2858 layer_factory.hpp:77] Creating layer stage1_unit1_sc_scale
I0110 19:48:51.551307  2858 net.cpp:84] Creating Layer stage1_unit1_sc_scale
I0110 19:48:51.551316  2858 net.cpp:406] stage1_unit1_sc_scale <- stage1_unit1_sc
I0110 19:48:51.551327  2858 net.cpp:367] stage1_unit1_sc_scale -> stage1_unit1_sc (in-place)
I0110 19:48:51.551403  2858 layer_factory.hpp:77] Creating layer stage1_unit1_sc_scale
I0110 19:48:51.553237  2858 net.cpp:122] Setting up stage1_unit1_sc_scale
I0110 19:48:51.553263  2858 net.cpp:129] Top shape: 8 64 100 100 (5120000)
I0110 19:48:51.553272  2858 net.cpp:137] Memory required for data: 1109760096
I0110 19:48:51.553287  2858 layer_factory.hpp:77] Creating layer _plus0
I0110 19:48:51.553303  2858 net.cpp:84] Creating Layer _plus0
I0110 19:48:51.553313  2858 net.cpp:406] _plus0 <- stage1_unit1_bn3
I0110 19:48:51.553324  2858 net.cpp:406] _plus0 <- stage1_unit1_sc
I0110 19:48:51.553337  2858 net.cpp:380] _plus0 -> _plus0
I0110 19:48:51.553392  2858 net.cpp:122] Setting up _plus0
I0110 19:48:51.553406  2858 net.cpp:129] Top shape: 8 64 100 100 (5120000)
I0110 19:48:51.553414  2858 net.cpp:137] Memory required for data: 1130240096
I0110 19:48:51.553421  2858 layer_factory.hpp:77] Creating layer _plus0__plus0_0_split
I0110 19:48:51.553432  2858 net.cpp:84] Creating Layer _plus0__plus0_0_split
I0110 19:48:51.553441  2858 net.cpp:406] _plus0__plus0_0_split <- _plus0
I0110 19:48:51.553452  2858 net.cpp:380] _plus0__plus0_0_split -> _plus0__plus0_0_split_0
I0110 19:48:51.553467  2858 net.cpp:380] _plus0__plus0_0_split -> _plus0__plus0_0_split_1
I0110 19:48:51.553537  2858 net.cpp:122] Setting up _plus0__plus0_0_split
I0110 19:48:51.553550  2858 net.cpp:129] Top shape: 8 64 100 100 (5120000)
I0110 19:48:51.553561  2858 net.cpp:129] Top shape: 8 64 100 100 (5120000)
I0110 19:48:51.553568  2858 net.cpp:137] Memory required for data: 1171200096
I0110 19:48:51.553575  2858 layer_factory.hpp:77] Creating layer stage1_unit2_bn1
I0110 19:48:51.553588  2858 net.cpp:84] Creating Layer stage1_unit2_bn1
I0110 19:48:51.553597  2858 net.cpp:406] stage1_unit2_bn1 <- _plus0__plus0_0_split_0
I0110 19:48:51.553609  2858 net.cpp:380] stage1_unit2_bn1 -> stage1_unit2_bn1
I0110 19:48:51.553989  2858 net.cpp:122] Setting up stage1_unit2_bn1
I0110 19:48:51.554003  2858 net.cpp:129] Top shape: 8 64 100 100 (5120000)
I0110 19:48:51.554011  2858 net.cpp:137] Memory required for data: 1191680096
I0110 19:48:51.554026  2858 layer_factory.hpp:77] Creating layer stage1_unit2_bn1_scale
I0110 19:48:51.554039  2858 net.cpp:84] Creating Layer stage1_unit2_bn1_scale
I0110 19:48:51.554049  2858 net.cpp:406] stage1_unit2_bn1_scale <- stage1_unit2_bn1
I0110 19:48:51.554059  2858 net.cpp:367] stage1_unit2_bn1_scale -> stage1_unit2_bn1 (in-place)
I0110 19:48:51.554126  2858 layer_factory.hpp:77] Creating layer stage1_unit2_bn1_scale
I0110 19:48:51.554349  2858 net.cpp:122] Setting up stage1_unit2_bn1_scale
I0110 19:48:51.554364  2858 net.cpp:129] Top shape: 8 64 100 100 (5120000)
I0110 19:48:51.554373  2858 net.cpp:137] Memory required for data: 1212160096
I0110 19:48:51.554391  2858 layer_factory.hpp:77] Creating layer stage1_unit2_conv1
I0110 19:48:51.554411  2858 net.cpp:84] Creating Layer stage1_unit2_conv1
I0110 19:48:51.554420  2858 net.cpp:406] stage1_unit2_conv1 <- stage1_unit2_bn1
I0110 19:48:51.554433  2858 net.cpp:380] stage1_unit2_conv1 -> stage1_unit2_conv1
I0110 19:48:51.555496  2858 net.cpp:122] Setting up stage1_unit2_conv1
I0110 19:48:51.555511  2858 net.cpp:129] Top shape: 8 64 100 100 (5120000)
I0110 19:48:51.555519  2858 net.cpp:137] Memory required for data: 1232640096
I0110 19:48:51.555531  2858 layer_factory.hpp:77] Creating layer stage1_unit2_bn2
I0110 19:48:51.555543  2858 net.cpp:84] Creating Layer stage1_unit2_bn2
I0110 19:48:51.555550  2858 net.cpp:406] stage1_unit2_bn2 <- stage1_unit2_conv1
I0110 19:48:51.555562  2858 net.cpp:380] stage1_unit2_bn2 -> stage1_unit2_bn2
I0110 19:48:51.555917  2858 net.cpp:122] Setting up stage1_unit2_bn2
I0110 19:48:51.555932  2858 net.cpp:129] Top shape: 8 64 100 100 (5120000)
I0110 19:48:51.555939  2858 net.cpp:137] Memory required for data: 1253120096
I0110 19:48:51.555953  2858 layer_factory.hpp:77] Creating layer stage1_unit2_bn2_scale
I0110 19:48:51.555966  2858 net.cpp:84] Creating Layer stage1_unit2_bn2_scale
I0110 19:48:51.555974  2858 net.cpp:406] stage1_unit2_bn2_scale <- stage1_unit2_bn2
I0110 19:48:51.555984  2858 net.cpp:367] stage1_unit2_bn2_scale -> stage1_unit2_bn2 (in-place)
I0110 19:48:51.556051  2858 layer_factory.hpp:77] Creating layer stage1_unit2_bn2_scale
I0110 19:48:51.556277  2858 net.cpp:122] Setting up stage1_unit2_bn2_scale
I0110 19:48:51.556291  2858 net.cpp:129] Top shape: 8 64 100 100 (5120000)
I0110 19:48:51.556299  2858 net.cpp:137] Memory required for data: 1273600096
I0110 19:48:51.556310  2858 layer_factory.hpp:77] Creating layer stage1_unit2_relu1
I0110 19:48:51.556324  2858 net.cpp:84] Creating Layer stage1_unit2_relu1
I0110 19:48:51.556330  2858 net.cpp:406] stage1_unit2_relu1 <- stage1_unit2_bn2
I0110 19:48:51.556341  2858 net.cpp:380] stage1_unit2_relu1 -> stage1_unit2_relu1
I0110 19:48:51.556896  2858 net.cpp:122] Setting up stage1_unit2_relu1
I0110 19:48:51.556923  2858 net.cpp:129] Top shape: 8 64 100 100 (5120000)
I0110 19:48:51.556931  2858 net.cpp:137] Memory required for data: 1294080096
I0110 19:48:51.556939  2858 layer_factory.hpp:77] Creating layer stage1_unit2_conv2
I0110 19:48:51.556960  2858 net.cpp:84] Creating Layer stage1_unit2_conv2
I0110 19:48:51.556970  2858 net.cpp:406] stage1_unit2_conv2 <- stage1_unit2_relu1
I0110 19:48:51.556984  2858 net.cpp:380] stage1_unit2_conv2 -> stage1_unit2_conv2
I0110 19:48:51.558043  2858 net.cpp:122] Setting up stage1_unit2_conv2
I0110 19:48:51.558060  2858 net.cpp:129] Top shape: 8 64 100 100 (5120000)
I0110 19:48:51.558068  2858 net.cpp:137] Memory required for data: 1314560096
I0110 19:48:51.558079  2858 layer_factory.hpp:77] Creating layer stage1_unit2_bn3
I0110 19:48:51.558091  2858 net.cpp:84] Creating Layer stage1_unit2_bn3
I0110 19:48:51.558099  2858 net.cpp:406] stage1_unit2_bn3 <- stage1_unit2_conv2
I0110 19:48:51.558112  2858 net.cpp:380] stage1_unit2_bn3 -> stage1_unit2_bn3
I0110 19:48:51.558483  2858 net.cpp:122] Setting up stage1_unit2_bn3
I0110 19:48:51.558497  2858 net.cpp:129] Top shape: 8 64 100 100 (5120000)
I0110 19:48:51.558509  2858 net.cpp:137] Memory required for data: 1335040096
I0110 19:48:51.558524  2858 layer_factory.hpp:77] Creating layer stage1_unit2_bn3_scale
I0110 19:48:51.558537  2858 net.cpp:84] Creating Layer stage1_unit2_bn3_scale
I0110 19:48:51.558545  2858 net.cpp:406] stage1_unit2_bn3_scale <- stage1_unit2_bn3
I0110 19:48:51.558555  2858 net.cpp:367] stage1_unit2_bn3_scale -> stage1_unit2_bn3 (in-place)
I0110 19:48:51.558620  2858 layer_factory.hpp:77] Creating layer stage1_unit2_bn3_scale
I0110 19:48:51.558825  2858 net.cpp:122] Setting up stage1_unit2_bn3_scale
I0110 19:48:51.558837  2858 net.cpp:129] Top shape: 8 64 100 100 (5120000)
I0110 19:48:51.558845  2858 net.cpp:137] Memory required for data: 1355520096
I0110 19:48:51.558856  2858 layer_factory.hpp:77] Creating layer _plus1
I0110 19:48:51.558869  2858 net.cpp:84] Creating Layer _plus1
I0110 19:48:51.558877  2858 net.cpp:406] _plus1 <- stage1_unit2_bn3
I0110 19:48:51.558885  2858 net.cpp:406] _plus1 <- _plus0__plus0_0_split_1
I0110 19:48:51.558898  2858 net.cpp:380] _plus1 -> _plus1
I0110 19:48:51.558935  2858 net.cpp:122] Setting up _plus1
I0110 19:48:51.558948  2858 net.cpp:129] Top shape: 8 64 100 100 (5120000)
I0110 19:48:51.558955  2858 net.cpp:137] Memory required for data: 1376000096
I0110 19:48:51.558961  2858 layer_factory.hpp:77] Creating layer _plus1__plus1_0_split
I0110 19:48:51.558972  2858 net.cpp:84] Creating Layer _plus1__plus1_0_split
I0110 19:48:51.558980  2858 net.cpp:406] _plus1__plus1_0_split <- _plus1
I0110 19:48:51.558990  2858 net.cpp:380] _plus1__plus1_0_split -> _plus1__plus1_0_split_0
I0110 19:48:51.559001  2858 net.cpp:380] _plus1__plus1_0_split -> _plus1__plus1_0_split_1
I0110 19:48:51.559056  2858 net.cpp:122] Setting up _plus1__plus1_0_split
I0110 19:48:51.559068  2858 net.cpp:129] Top shape: 8 64 100 100 (5120000)
I0110 19:48:51.559078  2858 net.cpp:129] Top shape: 8 64 100 100 (5120000)
I0110 19:48:51.559085  2858 net.cpp:137] Memory required for data: 1416960096
I0110 19:48:51.559092  2858 layer_factory.hpp:77] Creating layer stage2_unit1_bn1
I0110 19:48:51.559106  2858 net.cpp:84] Creating Layer stage2_unit1_bn1
I0110 19:48:51.559114  2858 net.cpp:406] stage2_unit1_bn1 <- _plus1__plus1_0_split_0
I0110 19:48:51.559123  2858 net.cpp:380] stage2_unit1_bn1 -> stage2_unit1_bn1
I0110 19:48:51.559450  2858 net.cpp:122] Setting up stage2_unit1_bn1
I0110 19:48:51.559463  2858 net.cpp:129] Top shape: 8 64 100 100 (5120000)
I0110 19:48:51.559469  2858 net.cpp:137] Memory required for data: 1437440096
I0110 19:48:51.559482  2858 layer_factory.hpp:77] Creating layer stage2_unit1_bn1_scale
I0110 19:48:51.559496  2858 net.cpp:84] Creating Layer stage2_unit1_bn1_scale
I0110 19:48:51.559504  2858 net.cpp:406] stage2_unit1_bn1_scale <- stage2_unit1_bn1
I0110 19:48:51.559514  2858 net.cpp:367] stage2_unit1_bn1_scale -> stage2_unit1_bn1 (in-place)
I0110 19:48:51.559573  2858 layer_factory.hpp:77] Creating layer stage2_unit1_bn1_scale
I0110 19:48:51.559794  2858 net.cpp:122] Setting up stage2_unit1_bn1_scale
I0110 19:48:51.559808  2858 net.cpp:129] Top shape: 8 64 100 100 (5120000)
I0110 19:48:51.559815  2858 net.cpp:137] Memory required for data: 1457920096
I0110 19:48:51.559828  2858 layer_factory.hpp:77] Creating layer stage2_unit1_conv1
I0110 19:48:51.559844  2858 net.cpp:84] Creating Layer stage2_unit1_conv1
I0110 19:48:51.559851  2858 net.cpp:406] stage2_unit1_conv1 <- stage2_unit1_bn1
I0110 19:48:51.559862  2858 net.cpp:380] stage2_unit1_conv1 -> stage2_unit1_conv1
I0110 19:48:51.561544  2858 net.cpp:122] Setting up stage2_unit1_conv1
I0110 19:48:51.561560  2858 net.cpp:129] Top shape: 8 128 100 100 (10240000)
I0110 19:48:51.561568  2858 net.cpp:137] Memory required for data: 1498880096
I0110 19:48:51.561576  2858 layer_factory.hpp:77] Creating layer stage2_unit1_bn2
I0110 19:48:51.561590  2858 net.cpp:84] Creating Layer stage2_unit1_bn2
I0110 19:48:51.561597  2858 net.cpp:406] stage2_unit1_bn2 <- stage2_unit1_conv1
I0110 19:48:51.561609  2858 net.cpp:380] stage2_unit1_bn2 -> stage2_unit1_bn2
I0110 19:48:51.561930  2858 net.cpp:122] Setting up stage2_unit1_bn2
I0110 19:48:51.561944  2858 net.cpp:129] Top shape: 8 128 100 100 (10240000)
I0110 19:48:51.561951  2858 net.cpp:137] Memory required for data: 1539840096
I0110 19:48:51.561964  2858 layer_factory.hpp:77] Creating layer stage2_unit1_bn2_scale
I0110 19:48:51.561977  2858 net.cpp:84] Creating Layer stage2_unit1_bn2_scale
I0110 19:48:51.561986  2858 net.cpp:406] stage2_unit1_bn2_scale <- stage2_unit1_bn2
I0110 19:48:51.561995  2858 net.cpp:367] stage2_unit1_bn2_scale -> stage2_unit1_bn2 (in-place)
I0110 19:48:51.562054  2858 layer_factory.hpp:77] Creating layer stage2_unit1_bn2_scale
I0110 19:48:51.562238  2858 net.cpp:122] Setting up stage2_unit1_bn2_scale
I0110 19:48:51.562252  2858 net.cpp:129] Top shape: 8 128 100 100 (10240000)
I0110 19:48:51.562258  2858 net.cpp:137] Memory required for data: 1580800096
I0110 19:48:51.562269  2858 layer_factory.hpp:77] Creating layer stage2_unit1_relu1
I0110 19:48:51.562281  2858 net.cpp:84] Creating Layer stage2_unit1_relu1
I0110 19:48:51.562289  2858 net.cpp:406] stage2_unit1_relu1 <- stage2_unit1_bn2
I0110 19:48:51.562299  2858 net.cpp:380] stage2_unit1_relu1 -> stage2_unit1_relu1
I0110 19:48:51.562466  2858 net.cpp:122] Setting up stage2_unit1_relu1
I0110 19:48:51.562484  2858 net.cpp:129] Top shape: 8 128 100 100 (10240000)
I0110 19:48:51.562492  2858 net.cpp:137] Memory required for data: 1621760096
I0110 19:48:51.562499  2858 layer_factory.hpp:77] Creating layer stage2_unit1_conv2
I0110 19:48:51.562515  2858 net.cpp:84] Creating Layer stage2_unit1_conv2
I0110 19:48:51.562525  2858 net.cpp:406] stage2_unit1_conv2 <- stage2_unit1_relu1
I0110 19:48:51.562536  2858 net.cpp:380] stage2_unit1_conv2 -> stage2_unit1_conv2
I0110 19:48:51.565580  2858 net.cpp:122] Setting up stage2_unit1_conv2
I0110 19:48:51.565596  2858 net.cpp:129] Top shape: 8 128 50 50 (2560000)
I0110 19:48:51.565603  2858 net.cpp:137] Memory required for data: 1632000096
I0110 19:48:51.565613  2858 layer_factory.hpp:77] Creating layer stage2_unit1_bn3
I0110 19:48:51.565627  2858 net.cpp:84] Creating Layer stage2_unit1_bn3
I0110 19:48:51.565635  2858 net.cpp:406] stage2_unit1_bn3 <- stage2_unit1_conv2
I0110 19:48:51.565645  2858 net.cpp:380] stage2_unit1_bn3 -> stage2_unit1_bn3
I0110 19:48:51.565973  2858 net.cpp:122] Setting up stage2_unit1_bn3
I0110 19:48:51.565985  2858 net.cpp:129] Top shape: 8 128 50 50 (2560000)
I0110 19:48:51.565992  2858 net.cpp:137] Memory required for data: 1642240096
I0110 19:48:51.566004  2858 layer_factory.hpp:77] Creating layer stage2_unit1_bn3_scale
I0110 19:48:51.566020  2858 net.cpp:84] Creating Layer stage2_unit1_bn3_scale
I0110 19:48:51.566027  2858 net.cpp:406] stage2_unit1_bn3_scale <- stage2_unit1_bn3
I0110 19:48:51.566036  2858 net.cpp:367] stage2_unit1_bn3_scale -> stage2_unit1_bn3 (in-place)
I0110 19:48:51.566097  2858 layer_factory.hpp:77] Creating layer stage2_unit1_bn3_scale
I0110 19:48:51.566270  2858 net.cpp:122] Setting up stage2_unit1_bn3_scale
I0110 19:48:51.566283  2858 net.cpp:129] Top shape: 8 128 50 50 (2560000)
I0110 19:48:51.566290  2858 net.cpp:137] Memory required for data: 1652480096
I0110 19:48:51.566300  2858 layer_factory.hpp:77] Creating layer stage2_unit1_conv1sc
I0110 19:48:51.566318  2858 net.cpp:84] Creating Layer stage2_unit1_conv1sc
I0110 19:48:51.566325  2858 net.cpp:406] stage2_unit1_conv1sc <- _plus1__plus1_0_split_1
I0110 19:48:51.566337  2858 net.cpp:380] stage2_unit1_conv1sc -> stage2_unit1_conv1sc
I0110 19:48:51.566788  2858 net.cpp:122] Setting up stage2_unit1_conv1sc
I0110 19:48:51.566802  2858 net.cpp:129] Top shape: 8 128 50 50 (2560000)
I0110 19:48:51.566808  2858 net.cpp:137] Memory required for data: 1662720096
I0110 19:48:51.566817  2858 layer_factory.hpp:77] Creating layer stage2_unit1_sc
I0110 19:48:51.566829  2858 net.cpp:84] Creating Layer stage2_unit1_sc
I0110 19:48:51.566838  2858 net.cpp:406] stage2_unit1_sc <- stage2_unit1_conv1sc
I0110 19:48:51.566848  2858 net.cpp:380] stage2_unit1_sc -> stage2_unit1_sc
I0110 19:48:51.567163  2858 net.cpp:122] Setting up stage2_unit1_sc
I0110 19:48:51.567175  2858 net.cpp:129] Top shape: 8 128 50 50 (2560000)
I0110 19:48:51.567183  2858 net.cpp:137] Memory required for data: 1672960096
I0110 19:48:51.567207  2858 layer_factory.hpp:77] Creating layer stage2_unit1_sc_scale
I0110 19:48:51.567221  2858 net.cpp:84] Creating Layer stage2_unit1_sc_scale
I0110 19:48:51.567229  2858 net.cpp:406] stage2_unit1_sc_scale <- stage2_unit1_sc
I0110 19:48:51.567239  2858 net.cpp:367] stage2_unit1_sc_scale -> stage2_unit1_sc (in-place)
I0110 19:48:51.567301  2858 layer_factory.hpp:77] Creating layer stage2_unit1_sc_scale
I0110 19:48:51.567473  2858 net.cpp:122] Setting up stage2_unit1_sc_scale
I0110 19:48:51.567487  2858 net.cpp:129] Top shape: 8 128 50 50 (2560000)
I0110 19:48:51.567494  2858 net.cpp:137] Memory required for data: 1683200096
I0110 19:48:51.567505  2858 layer_factory.hpp:77] Creating layer _plus2
I0110 19:48:51.567517  2858 net.cpp:84] Creating Layer _plus2
I0110 19:48:51.567524  2858 net.cpp:406] _plus2 <- stage2_unit1_bn3
I0110 19:48:51.567533  2858 net.cpp:406] _plus2 <- stage2_unit1_sc
I0110 19:48:51.567545  2858 net.cpp:380] _plus2 -> _plus2
I0110 19:48:51.567582  2858 net.cpp:122] Setting up _plus2
I0110 19:48:51.567595  2858 net.cpp:129] Top shape: 8 128 50 50 (2560000)
I0110 19:48:51.567601  2858 net.cpp:137] Memory required for data: 1693440096
I0110 19:48:51.567608  2858 layer_factory.hpp:77] Creating layer _plus2__plus2_0_split
I0110 19:48:51.567620  2858 net.cpp:84] Creating Layer _plus2__plus2_0_split
I0110 19:48:51.567628  2858 net.cpp:406] _plus2__plus2_0_split <- _plus2
I0110 19:48:51.567639  2858 net.cpp:380] _plus2__plus2_0_split -> _plus2__plus2_0_split_0
I0110 19:48:51.567651  2858 net.cpp:380] _plus2__plus2_0_split -> _plus2__plus2_0_split_1
I0110 19:48:51.567705  2858 net.cpp:122] Setting up _plus2__plus2_0_split
I0110 19:48:51.567718  2858 net.cpp:129] Top shape: 8 128 50 50 (2560000)
I0110 19:48:51.567728  2858 net.cpp:129] Top shape: 8 128 50 50 (2560000)
I0110 19:48:51.567735  2858 net.cpp:137] Memory required for data: 1713920096
I0110 19:48:51.567741  2858 layer_factory.hpp:77] Creating layer stage2_unit2_bn1
I0110 19:48:51.567755  2858 net.cpp:84] Creating Layer stage2_unit2_bn1
I0110 19:48:51.567764  2858 net.cpp:406] stage2_unit2_bn1 <- _plus2__plus2_0_split_0
I0110 19:48:51.567775  2858 net.cpp:380] stage2_unit2_bn1 -> stage2_unit2_bn1
I0110 19:48:51.568085  2858 net.cpp:122] Setting up stage2_unit2_bn1
I0110 19:48:51.568097  2858 net.cpp:129] Top shape: 8 128 50 50 (2560000)
I0110 19:48:51.568104  2858 net.cpp:137] Memory required for data: 1724160096
I0110 19:48:51.568116  2858 layer_factory.hpp:77] Creating layer stage2_unit2_bn1_scale
I0110 19:48:51.568130  2858 net.cpp:84] Creating Layer stage2_unit2_bn1_scale
I0110 19:48:51.568136  2858 net.cpp:406] stage2_unit2_bn1_scale <- stage2_unit2_bn1
I0110 19:48:51.568146  2858 net.cpp:367] stage2_unit2_bn1_scale -> stage2_unit2_bn1 (in-place)
I0110 19:48:51.568207  2858 layer_factory.hpp:77] Creating layer stage2_unit2_bn1_scale
I0110 19:48:51.568377  2858 net.cpp:122] Setting up stage2_unit2_bn1_scale
I0110 19:48:51.568389  2858 net.cpp:129] Top shape: 8 128 50 50 (2560000)
I0110 19:48:51.568397  2858 net.cpp:137] Memory required for data: 1734400096
I0110 19:48:51.568408  2858 layer_factory.hpp:77] Creating layer stage2_unit2_conv1
I0110 19:48:51.568423  2858 net.cpp:84] Creating Layer stage2_unit2_conv1
I0110 19:48:51.568431  2858 net.cpp:406] stage2_unit2_conv1 <- stage2_unit2_bn1
I0110 19:48:51.568444  2858 net.cpp:380] stage2_unit2_conv1 -> stage2_unit2_conv1
I0110 19:48:51.572790  2858 net.cpp:122] Setting up stage2_unit2_conv1
I0110 19:48:51.572813  2858 net.cpp:129] Top shape: 8 128 50 50 (2560000)
I0110 19:48:51.572819  2858 net.cpp:137] Memory required for data: 1744640096
I0110 19:48:51.572829  2858 layer_factory.hpp:77] Creating layer stage2_unit2_bn2
I0110 19:48:51.572844  2858 net.cpp:84] Creating Layer stage2_unit2_bn2
I0110 19:48:51.572852  2858 net.cpp:406] stage2_unit2_bn2 <- stage2_unit2_conv1
I0110 19:48:51.572865  2858 net.cpp:380] stage2_unit2_bn2 -> stage2_unit2_bn2
I0110 19:48:51.573177  2858 net.cpp:122] Setting up stage2_unit2_bn2
I0110 19:48:51.573189  2858 net.cpp:129] Top shape: 8 128 50 50 (2560000)
I0110 19:48:51.573195  2858 net.cpp:137] Memory required for data: 1754880096
I0110 19:48:51.573207  2858 layer_factory.hpp:77] Creating layer stage2_unit2_bn2_scale
I0110 19:48:51.573222  2858 net.cpp:84] Creating Layer stage2_unit2_bn2_scale
I0110 19:48:51.573230  2858 net.cpp:406] stage2_unit2_bn2_scale <- stage2_unit2_bn2
I0110 19:48:51.573238  2858 net.cpp:367] stage2_unit2_bn2_scale -> stage2_unit2_bn2 (in-place)
I0110 19:48:51.573297  2858 layer_factory.hpp:77] Creating layer stage2_unit2_bn2_scale
I0110 19:48:51.573457  2858 net.cpp:122] Setting up stage2_unit2_bn2_scale
I0110 19:48:51.573469  2858 net.cpp:129] Top shape: 8 128 50 50 (2560000)
I0110 19:48:51.573475  2858 net.cpp:137] Memory required for data: 1765120096
I0110 19:48:51.573485  2858 layer_factory.hpp:77] Creating layer stage2_unit2_relu1
I0110 19:48:51.573498  2858 net.cpp:84] Creating Layer stage2_unit2_relu1
I0110 19:48:51.573505  2858 net.cpp:406] stage2_unit2_relu1 <- stage2_unit2_bn2
I0110 19:48:51.573515  2858 net.cpp:380] stage2_unit2_relu1 -> stage2_unit2_relu1
I0110 19:48:51.576117  2858 net.cpp:122] Setting up stage2_unit2_relu1
I0110 19:48:51.576143  2858 net.cpp:129] Top shape: 8 128 50 50 (2560000)
I0110 19:48:51.576149  2858 net.cpp:137] Memory required for data: 1775360096
I0110 19:48:51.576156  2858 layer_factory.hpp:77] Creating layer stage2_unit2_conv2
I0110 19:48:51.576176  2858 net.cpp:84] Creating Layer stage2_unit2_conv2
I0110 19:48:51.576185  2858 net.cpp:406] stage2_unit2_conv2 <- stage2_unit2_relu1
I0110 19:48:51.576198  2858 net.cpp:380] stage2_unit2_conv2 -> stage2_unit2_conv2
I0110 19:48:51.579064  2858 net.cpp:122] Setting up stage2_unit2_conv2
I0110 19:48:51.579079  2858 net.cpp:129] Top shape: 8 128 50 50 (2560000)
I0110 19:48:51.579087  2858 net.cpp:137] Memory required for data: 1785600096
I0110 19:48:51.579097  2858 layer_factory.hpp:77] Creating layer stage2_unit2_bn3
I0110 19:48:51.579110  2858 net.cpp:84] Creating Layer stage2_unit2_bn3
I0110 19:48:51.579118  2858 net.cpp:406] stage2_unit2_bn3 <- stage2_unit2_conv2
I0110 19:48:51.579130  2858 net.cpp:380] stage2_unit2_bn3 -> stage2_unit2_bn3
I0110 19:48:51.579443  2858 net.cpp:122] Setting up stage2_unit2_bn3
I0110 19:48:51.579455  2858 net.cpp:129] Top shape: 8 128 50 50 (2560000)
I0110 19:48:51.579463  2858 net.cpp:137] Memory required for data: 1795840096
I0110 19:48:51.579475  2858 layer_factory.hpp:77] Creating layer stage2_unit2_bn3_scale
I0110 19:48:51.579488  2858 net.cpp:84] Creating Layer stage2_unit2_bn3_scale
I0110 19:48:51.579496  2858 net.cpp:406] stage2_unit2_bn3_scale <- stage2_unit2_bn3
I0110 19:48:51.579505  2858 net.cpp:367] stage2_unit2_bn3_scale -> stage2_unit2_bn3 (in-place)
I0110 19:48:51.579566  2858 layer_factory.hpp:77] Creating layer stage2_unit2_bn3_scale
I0110 19:48:51.579722  2858 net.cpp:122] Setting up stage2_unit2_bn3_scale
I0110 19:48:51.579735  2858 net.cpp:129] Top shape: 8 128 50 50 (2560000)
I0110 19:48:51.579741  2858 net.cpp:137] Memory required for data: 1806080096
I0110 19:48:51.579773  2858 layer_factory.hpp:77] Creating layer _plus3
I0110 19:48:51.579784  2858 net.cpp:84] Creating Layer _plus3
I0110 19:48:51.579792  2858 net.cpp:406] _plus3 <- stage2_unit2_bn3
I0110 19:48:51.579799  2858 net.cpp:406] _plus3 <- _plus2__plus2_0_split_1
I0110 19:48:51.579813  2858 net.cpp:380] _plus3 -> _plus3
I0110 19:48:51.579849  2858 net.cpp:122] Setting up _plus3
I0110 19:48:51.579860  2858 net.cpp:129] Top shape: 8 128 50 50 (2560000)
I0110 19:48:51.579867  2858 net.cpp:137] Memory required for data: 1816320096
I0110 19:48:51.579874  2858 layer_factory.hpp:77] Creating layer _plus3__plus3_0_split
I0110 19:48:51.579883  2858 net.cpp:84] Creating Layer _plus3__plus3_0_split
I0110 19:48:51.579890  2858 net.cpp:406] _plus3__plus3_0_split <- _plus3
I0110 19:48:51.579900  2858 net.cpp:380] _plus3__plus3_0_split -> _plus3__plus3_0_split_0
I0110 19:48:51.579913  2858 net.cpp:380] _plus3__plus3_0_split -> _plus3__plus3_0_split_1
I0110 19:48:51.579967  2858 net.cpp:122] Setting up _plus3__plus3_0_split
I0110 19:48:51.579977  2858 net.cpp:129] Top shape: 8 128 50 50 (2560000)
I0110 19:48:51.579986  2858 net.cpp:129] Top shape: 8 128 50 50 (2560000)
I0110 19:48:51.579993  2858 net.cpp:137] Memory required for data: 1836800096
I0110 19:48:51.579999  2858 layer_factory.hpp:77] Creating layer stage3_unit1_bn1
I0110 19:48:51.580010  2858 net.cpp:84] Creating Layer stage3_unit1_bn1
I0110 19:48:51.580018  2858 net.cpp:406] stage3_unit1_bn1 <- _plus3__plus3_0_split_0
I0110 19:48:51.580027  2858 net.cpp:380] stage3_unit1_bn1 -> stage3_unit1_bn1
I0110 19:48:51.580322  2858 net.cpp:122] Setting up stage3_unit1_bn1
I0110 19:48:51.580333  2858 net.cpp:129] Top shape: 8 128 50 50 (2560000)
I0110 19:48:51.580340  2858 net.cpp:137] Memory required for data: 1847040096
I0110 19:48:51.580353  2858 layer_factory.hpp:77] Creating layer stage3_unit1_bn1_scale
I0110 19:48:51.580365  2858 net.cpp:84] Creating Layer stage3_unit1_bn1_scale
I0110 19:48:51.580372  2858 net.cpp:406] stage3_unit1_bn1_scale <- stage3_unit1_bn1
I0110 19:48:51.580381  2858 net.cpp:367] stage3_unit1_bn1_scale -> stage3_unit1_bn1 (in-place)
I0110 19:48:51.580438  2858 layer_factory.hpp:77] Creating layer stage3_unit1_bn1_scale
I0110 19:48:51.580601  2858 net.cpp:122] Setting up stage3_unit1_bn1_scale
I0110 19:48:51.580613  2858 net.cpp:129] Top shape: 8 128 50 50 (2560000)
I0110 19:48:51.580626  2858 net.cpp:137] Memory required for data: 1857280096
I0110 19:48:51.580637  2858 layer_factory.hpp:77] Creating layer stage3_unit1_conv1
I0110 19:48:51.580651  2858 net.cpp:84] Creating Layer stage3_unit1_conv1
I0110 19:48:51.580658  2858 net.cpp:406] stage3_unit1_conv1 <- stage3_unit1_bn1
I0110 19:48:51.580669  2858 net.cpp:380] stage3_unit1_conv1 -> stage3_unit1_conv1
I0110 19:48:51.587129  2858 net.cpp:122] Setting up stage3_unit1_conv1
I0110 19:48:51.587150  2858 net.cpp:129] Top shape: 8 256 50 50 (5120000)
I0110 19:48:51.587157  2858 net.cpp:137] Memory required for data: 1877760096
I0110 19:48:51.587167  2858 layer_factory.hpp:77] Creating layer stage3_unit1_bn2
I0110 19:48:51.587182  2858 net.cpp:84] Creating Layer stage3_unit1_bn2
I0110 19:48:51.587189  2858 net.cpp:406] stage3_unit1_bn2 <- stage3_unit1_conv1
I0110 19:48:51.587199  2858 net.cpp:380] stage3_unit1_bn2 -> stage3_unit1_bn2
I0110 19:48:51.587488  2858 net.cpp:122] Setting up stage3_unit1_bn2
I0110 19:48:51.587500  2858 net.cpp:129] Top shape: 8 256 50 50 (5120000)
I0110 19:48:51.587507  2858 net.cpp:137] Memory required for data: 1898240096
I0110 19:48:51.587517  2858 layer_factory.hpp:77] Creating layer stage3_unit1_bn2_scale
I0110 19:48:51.587530  2858 net.cpp:84] Creating Layer stage3_unit1_bn2_scale
I0110 19:48:51.587538  2858 net.cpp:406] stage3_unit1_bn2_scale <- stage3_unit1_bn2
I0110 19:48:51.587546  2858 net.cpp:367] stage3_unit1_bn2_scale -> stage3_unit1_bn2 (in-place)
I0110 19:48:51.587604  2858 layer_factory.hpp:77] Creating layer stage3_unit1_bn2_scale
I0110 19:48:51.587757  2858 net.cpp:122] Setting up stage3_unit1_bn2_scale
I0110 19:48:51.587770  2858 net.cpp:129] Top shape: 8 256 50 50 (5120000)
I0110 19:48:51.587776  2858 net.cpp:137] Memory required for data: 1918720096
I0110 19:48:51.587786  2858 layer_factory.hpp:77] Creating layer stage3_unit1_relu1
I0110 19:48:51.587796  2858 net.cpp:84] Creating Layer stage3_unit1_relu1
I0110 19:48:51.587805  2858 net.cpp:406] stage3_unit1_relu1 <- stage3_unit1_bn2
I0110 19:48:51.587813  2858 net.cpp:380] stage3_unit1_relu1 -> stage3_unit1_relu1
I0110 19:48:51.587957  2858 net.cpp:122] Setting up stage3_unit1_relu1
I0110 19:48:51.587972  2858 net.cpp:129] Top shape: 8 256 50 50 (5120000)
I0110 19:48:51.587980  2858 net.cpp:137] Memory required for data: 1939200096
I0110 19:48:51.587985  2858 layer_factory.hpp:77] Creating layer stage3_unit1_conv2
I0110 19:48:51.588002  2858 net.cpp:84] Creating Layer stage3_unit1_conv2
I0110 19:48:51.588011  2858 net.cpp:406] stage3_unit1_conv2 <- stage3_unit1_relu1
I0110 19:48:51.588021  2858 net.cpp:380] stage3_unit1_conv2 -> stage3_unit1_conv2
I0110 19:48:51.599000  2858 net.cpp:122] Setting up stage3_unit1_conv2
I0110 19:48:51.599021  2858 net.cpp:129] Top shape: 8 256 25 25 (1280000)
I0110 19:48:51.599027  2858 net.cpp:137] Memory required for data: 1944320096
I0110 19:48:51.599037  2858 layer_factory.hpp:77] Creating layer stage3_unit1_bn3
I0110 19:48:51.599056  2858 net.cpp:84] Creating Layer stage3_unit1_bn3
I0110 19:48:51.599063  2858 net.cpp:406] stage3_unit1_bn3 <- stage3_unit1_conv2
I0110 19:48:51.599071  2858 net.cpp:380] stage3_unit1_bn3 -> stage3_unit1_bn3
I0110 19:48:51.599354  2858 net.cpp:122] Setting up stage3_unit1_bn3
I0110 19:48:51.599365  2858 net.cpp:129] Top shape: 8 256 25 25 (1280000)
I0110 19:48:51.599371  2858 net.cpp:137] Memory required for data: 1949440096
I0110 19:48:51.599382  2858 layer_factory.hpp:77] Creating layer stage3_unit1_bn3_scale
I0110 19:48:51.599395  2858 net.cpp:84] Creating Layer stage3_unit1_bn3_scale
I0110 19:48:51.599402  2858 net.cpp:406] stage3_unit1_bn3_scale <- stage3_unit1_bn3
I0110 19:48:51.599411  2858 net.cpp:367] stage3_unit1_bn3_scale -> stage3_unit1_bn3 (in-place)
I0110 19:48:51.599467  2858 layer_factory.hpp:77] Creating layer stage3_unit1_bn3_scale
I0110 19:48:51.599617  2858 net.cpp:122] Setting up stage3_unit1_bn3_scale
I0110 19:48:51.599628  2858 net.cpp:129] Top shape: 8 256 25 25 (1280000)
I0110 19:48:51.599634  2858 net.cpp:137] Memory required for data: 1954560096
I0110 19:48:51.599643  2858 layer_factory.hpp:77] Creating layer stage3_unit1_conv1sc
I0110 19:48:51.599658  2858 net.cpp:84] Creating Layer stage3_unit1_conv1sc
I0110 19:48:51.599664  2858 net.cpp:406] stage3_unit1_conv1sc <- _plus3__plus3_0_split_1
I0110 19:48:51.599675  2858 net.cpp:380] stage3_unit1_conv1sc -> stage3_unit1_conv1sc
I0110 19:48:51.600448  2858 net.cpp:122] Setting up stage3_unit1_conv1sc
I0110 19:48:51.600461  2858 net.cpp:129] Top shape: 8 256 25 25 (1280000)
I0110 19:48:51.600466  2858 net.cpp:137] Memory required for data: 1959680096
I0110 19:48:51.600474  2858 layer_factory.hpp:77] Creating layer stage3_unit1_sc
I0110 19:48:51.600486  2858 net.cpp:84] Creating Layer stage3_unit1_sc
I0110 19:48:51.600493  2858 net.cpp:406] stage3_unit1_sc <- stage3_unit1_conv1sc
I0110 19:48:51.600503  2858 net.cpp:380] stage3_unit1_sc -> stage3_unit1_sc
I0110 19:48:51.600780  2858 net.cpp:122] Setting up stage3_unit1_sc
I0110 19:48:51.600792  2858 net.cpp:129] Top shape: 8 256 25 25 (1280000)
I0110 19:48:51.600800  2858 net.cpp:137] Memory required for data: 1964800096
I0110 19:48:51.600809  2858 layer_factory.hpp:77] Creating layer stage3_unit1_sc_scale
I0110 19:48:51.600821  2858 net.cpp:84] Creating Layer stage3_unit1_sc_scale
I0110 19:48:51.600827  2858 net.cpp:406] stage3_unit1_sc_scale <- stage3_unit1_sc
I0110 19:48:51.600836  2858 net.cpp:367] stage3_unit1_sc_scale -> stage3_unit1_sc (in-place)
I0110 19:48:51.600888  2858 layer_factory.hpp:77] Creating layer stage3_unit1_sc_scale
I0110 19:48:51.601027  2858 net.cpp:122] Setting up stage3_unit1_sc_scale
I0110 19:48:51.601037  2858 net.cpp:129] Top shape: 8 256 25 25 (1280000)
I0110 19:48:51.601042  2858 net.cpp:137] Memory required for data: 1969920096
I0110 19:48:51.601052  2858 layer_factory.hpp:77] Creating layer _plus4
I0110 19:48:51.601061  2858 net.cpp:84] Creating Layer _plus4
I0110 19:48:51.601068  2858 net.cpp:406] _plus4 <- stage3_unit1_bn3
I0110 19:48:51.601075  2858 net.cpp:406] _plus4 <- stage3_unit1_sc
I0110 19:48:51.601085  2858 net.cpp:380] _plus4 -> _plus4
I0110 19:48:51.601119  2858 net.cpp:122] Setting up _plus4
I0110 19:48:51.601128  2858 net.cpp:129] Top shape: 8 256 25 25 (1280000)
I0110 19:48:51.601135  2858 net.cpp:137] Memory required for data: 1975040096
I0110 19:48:51.601140  2858 layer_factory.hpp:77] Creating layer _plus4__plus4_0_split
I0110 19:48:51.601150  2858 net.cpp:84] Creating Layer _plus4__plus4_0_split
I0110 19:48:51.601155  2858 net.cpp:406] _plus4__plus4_0_split <- _plus4
I0110 19:48:51.601164  2858 net.cpp:380] _plus4__plus4_0_split -> _plus4__plus4_0_split_0
I0110 19:48:51.601176  2858 net.cpp:380] _plus4__plus4_0_split -> _plus4__plus4_0_split_1
I0110 19:48:51.601228  2858 net.cpp:122] Setting up _plus4__plus4_0_split
I0110 19:48:51.601238  2858 net.cpp:129] Top shape: 8 256 25 25 (1280000)
I0110 19:48:51.601246  2858 net.cpp:129] Top shape: 8 256 25 25 (1280000)
I0110 19:48:51.601253  2858 net.cpp:137] Memory required for data: 1985280096
I0110 19:48:51.601258  2858 layer_factory.hpp:77] Creating layer stage3_unit2_bn1
I0110 19:48:51.601267  2858 net.cpp:84] Creating Layer stage3_unit2_bn1
I0110 19:48:51.601274  2858 net.cpp:406] stage3_unit2_bn1 <- _plus4__plus4_0_split_0
I0110 19:48:51.601281  2858 net.cpp:380] stage3_unit2_bn1 -> stage3_unit2_bn1
I0110 19:48:51.601547  2858 net.cpp:122] Setting up stage3_unit2_bn1
I0110 19:48:51.601557  2858 net.cpp:129] Top shape: 8 256 25 25 (1280000)
I0110 19:48:51.601563  2858 net.cpp:137] Memory required for data: 1990400096
I0110 19:48:51.601574  2858 layer_factory.hpp:77] Creating layer stage3_unit2_bn1_scale
I0110 19:48:51.601584  2858 net.cpp:84] Creating Layer stage3_unit2_bn1_scale
I0110 19:48:51.601590  2858 net.cpp:406] stage3_unit2_bn1_scale <- stage3_unit2_bn1
I0110 19:48:51.601598  2858 net.cpp:367] stage3_unit2_bn1_scale -> stage3_unit2_bn1 (in-place)
I0110 19:48:51.601655  2858 layer_factory.hpp:77] Creating layer stage3_unit2_bn1_scale
I0110 19:48:51.601810  2858 net.cpp:122] Setting up stage3_unit2_bn1_scale
I0110 19:48:51.601821  2858 net.cpp:129] Top shape: 8 256 25 25 (1280000)
I0110 19:48:51.601827  2858 net.cpp:137] Memory required for data: 1995520096
I0110 19:48:51.601836  2858 layer_factory.hpp:77] Creating layer stage3_unit2_conv1
I0110 19:48:51.601853  2858 net.cpp:84] Creating Layer stage3_unit2_conv1
I0110 19:48:51.601861  2858 net.cpp:406] stage3_unit2_conv1 <- stage3_unit2_bn1
I0110 19:48:51.601869  2858 net.cpp:380] stage3_unit2_conv1 -> stage3_unit2_conv1
I0110 19:48:51.612190  2858 net.cpp:122] Setting up stage3_unit2_conv1
I0110 19:48:51.612208  2858 net.cpp:129] Top shape: 8 256 25 25 (1280000)
I0110 19:48:51.612215  2858 net.cpp:137] Memory required for data: 2000640096
I0110 19:48:51.612224  2858 layer_factory.hpp:77] Creating layer stage3_unit2_bn2
I0110 19:48:51.612238  2858 net.cpp:84] Creating Layer stage3_unit2_bn2
I0110 19:48:51.612246  2858 net.cpp:406] stage3_unit2_bn2 <- stage3_unit2_conv1
I0110 19:48:51.612254  2858 net.cpp:380] stage3_unit2_bn2 -> stage3_unit2_bn2
I0110 19:48:51.612524  2858 net.cpp:122] Setting up stage3_unit2_bn2
I0110 19:48:51.612534  2858 net.cpp:129] Top shape: 8 256 25 25 (1280000)
I0110 19:48:51.612540  2858 net.cpp:137] Memory required for data: 2005760096
I0110 19:48:51.612550  2858 layer_factory.hpp:77] Creating layer stage3_unit2_bn2_scale
I0110 19:48:51.612562  2858 net.cpp:84] Creating Layer stage3_unit2_bn2_scale
I0110 19:48:51.612570  2858 net.cpp:406] stage3_unit2_bn2_scale <- stage3_unit2_bn2
I0110 19:48:51.612576  2858 net.cpp:367] stage3_unit2_bn2_scale -> stage3_unit2_bn2 (in-place)
I0110 19:48:51.612634  2858 layer_factory.hpp:77] Creating layer stage3_unit2_bn2_scale
I0110 19:48:51.612778  2858 net.cpp:122] Setting up stage3_unit2_bn2_scale
I0110 19:48:51.612790  2858 net.cpp:129] Top shape: 8 256 25 25 (1280000)
I0110 19:48:51.612797  2858 net.cpp:137] Memory required for data: 2010880096
I0110 19:48:51.612805  2858 layer_factory.hpp:77] Creating layer stage3_unit2_relu1
I0110 19:48:51.612814  2858 net.cpp:84] Creating Layer stage3_unit2_relu1
I0110 19:48:51.612820  2858 net.cpp:406] stage3_unit2_relu1 <- stage3_unit2_bn2
I0110 19:48:51.612828  2858 net.cpp:380] stage3_unit2_relu1 -> stage3_unit2_relu1
I0110 19:48:51.613224  2858 net.cpp:122] Setting up stage3_unit2_relu1
I0110 19:48:51.613243  2858 net.cpp:129] Top shape: 8 256 25 25 (1280000)
I0110 19:48:51.613248  2858 net.cpp:137] Memory required for data: 2016000096
I0110 19:48:51.613255  2858 layer_factory.hpp:77] Creating layer stage3_unit2_conv2
I0110 19:48:51.613270  2858 net.cpp:84] Creating Layer stage3_unit2_conv2
I0110 19:48:51.613277  2858 net.cpp:406] stage3_unit2_conv2 <- stage3_unit2_relu1
I0110 19:48:51.613289  2858 net.cpp:380] stage3_unit2_conv2 -> stage3_unit2_conv2
I0110 19:48:51.623149  2858 net.cpp:122] Setting up stage3_unit2_conv2
I0110 19:48:51.623168  2858 net.cpp:129] Top shape: 8 256 25 25 (1280000)
I0110 19:48:51.623175  2858 net.cpp:137] Memory required for data: 2021120096
I0110 19:48:51.623183  2858 layer_factory.hpp:77] Creating layer stage3_unit2_bn3
I0110 19:48:51.623195  2858 net.cpp:84] Creating Layer stage3_unit2_bn3
I0110 19:48:51.623201  2858 net.cpp:406] stage3_unit2_bn3 <- stage3_unit2_conv2
I0110 19:48:51.623210  2858 net.cpp:380] stage3_unit2_bn3 -> stage3_unit2_bn3
I0110 19:48:51.623468  2858 net.cpp:122] Setting up stage3_unit2_bn3
I0110 19:48:51.623479  2858 net.cpp:129] Top shape: 8 256 25 25 (1280000)
I0110 19:48:51.623486  2858 net.cpp:137] Memory required for data: 2026240096
I0110 19:48:51.623495  2858 layer_factory.hpp:77] Creating layer stage3_unit2_bn3_scale
I0110 19:48:51.623505  2858 net.cpp:84] Creating Layer stage3_unit2_bn3_scale
I0110 19:48:51.623512  2858 net.cpp:406] stage3_unit2_bn3_scale <- stage3_unit2_bn3
I0110 19:48:51.623517  2858 net.cpp:367] stage3_unit2_bn3_scale -> stage3_unit2_bn3 (in-place)
I0110 19:48:51.623572  2858 layer_factory.hpp:77] Creating layer stage3_unit2_bn3_scale
I0110 19:48:51.623708  2858 net.cpp:122] Setting up stage3_unit2_bn3_scale
I0110 19:48:51.623718  2858 net.cpp:129] Top shape: 8 256 25 25 (1280000)
I0110 19:48:51.623723  2858 net.cpp:137] Memory required for data: 2031360096
I0110 19:48:51.623731  2858 layer_factory.hpp:77] Creating layer _plus5
I0110 19:48:51.623742  2858 net.cpp:84] Creating Layer _plus5
I0110 19:48:51.623749  2858 net.cpp:406] _plus5 <- stage3_unit2_bn3
I0110 19:48:51.623754  2858 net.cpp:406] _plus5 <- _plus4__plus4_0_split_1
I0110 19:48:51.623764  2858 net.cpp:380] _plus5 -> _plus5
I0110 19:48:51.623795  2858 net.cpp:122] Setting up _plus5
I0110 19:48:51.623803  2858 net.cpp:129] Top shape: 8 256 25 25 (1280000)
I0110 19:48:51.623809  2858 net.cpp:137] Memory required for data: 2036480096
I0110 19:48:51.623814  2858 layer_factory.hpp:77] Creating layer _plus5__plus5_0_split
I0110 19:48:51.623822  2858 net.cpp:84] Creating Layer _plus5__plus5_0_split
I0110 19:48:51.623827  2858 net.cpp:406] _plus5__plus5_0_split <- _plus5
I0110 19:48:51.623836  2858 net.cpp:380] _plus5__plus5_0_split -> _plus5__plus5_0_split_0
I0110 19:48:51.623847  2858 net.cpp:380] _plus5__plus5_0_split -> _plus5__plus5_0_split_1
I0110 19:48:51.623893  2858 net.cpp:122] Setting up _plus5__plus5_0_split
I0110 19:48:51.623901  2858 net.cpp:129] Top shape: 8 256 25 25 (1280000)
I0110 19:48:51.623909  2858 net.cpp:129] Top shape: 8 256 25 25 (1280000)
I0110 19:48:51.623915  2858 net.cpp:137] Memory required for data: 2046720096
I0110 19:48:51.623919  2858 layer_factory.hpp:77] Creating layer stage4_unit1_bn1
I0110 19:48:51.623927  2858 net.cpp:84] Creating Layer stage4_unit1_bn1
I0110 19:48:51.623934  2858 net.cpp:406] stage4_unit1_bn1 <- _plus5__plus5_0_split_0
I0110 19:48:51.623940  2858 net.cpp:380] stage4_unit1_bn1 -> stage4_unit1_bn1
I0110 19:48:51.624191  2858 net.cpp:122] Setting up stage4_unit1_bn1
I0110 19:48:51.624202  2858 net.cpp:129] Top shape: 8 256 25 25 (1280000)
I0110 19:48:51.624207  2858 net.cpp:137] Memory required for data: 2051840096
I0110 19:48:51.624241  2858 layer_factory.hpp:77] Creating layer stage4_unit1_bn1_scale
I0110 19:48:51.624250  2858 net.cpp:84] Creating Layer stage4_unit1_bn1_scale
I0110 19:48:51.624258  2858 net.cpp:406] stage4_unit1_bn1_scale <- stage4_unit1_bn1
I0110 19:48:51.624264  2858 net.cpp:367] stage4_unit1_bn1_scale -> stage4_unit1_bn1 (in-place)
I0110 19:48:51.624317  2858 layer_factory.hpp:77] Creating layer stage4_unit1_bn1_scale
I0110 19:48:51.624449  2858 net.cpp:122] Setting up stage4_unit1_bn1_scale
I0110 19:48:51.624457  2858 net.cpp:129] Top shape: 8 256 25 25 (1280000)
I0110 19:48:51.624464  2858 net.cpp:137] Memory required for data: 2056960096
I0110 19:48:51.624471  2858 layer_factory.hpp:77] Creating layer stage4_unit1_conv1
I0110 19:48:51.624483  2858 net.cpp:84] Creating Layer stage4_unit1_conv1
I0110 19:48:51.624490  2858 net.cpp:406] stage4_unit1_conv1 <- stage4_unit1_bn1
I0110 19:48:51.624500  2858 net.cpp:380] stage4_unit1_conv1 -> stage4_unit1_conv1
I0110 19:48:51.642700  2858 net.cpp:122] Setting up stage4_unit1_conv1
I0110 19:48:51.642719  2858 net.cpp:129] Top shape: 8 512 25 25 (2560000)
I0110 19:48:51.642722  2858 net.cpp:137] Memory required for data: 2067200096
I0110 19:48:51.642730  2858 layer_factory.hpp:77] Creating layer stage4_unit1_bn2
I0110 19:48:51.642741  2858 net.cpp:84] Creating Layer stage4_unit1_bn2
I0110 19:48:51.642747  2858 net.cpp:406] stage4_unit1_bn2 <- stage4_unit1_conv1
I0110 19:48:51.642755  2858 net.cpp:380] stage4_unit1_bn2 -> stage4_unit1_bn2
I0110 19:48:51.642992  2858 net.cpp:122] Setting up stage4_unit1_bn2
I0110 19:48:51.643002  2858 net.cpp:129] Top shape: 8 512 25 25 (2560000)
I0110 19:48:51.643004  2858 net.cpp:137] Memory required for data: 2077440096
I0110 19:48:51.643013  2858 layer_factory.hpp:77] Creating layer stage4_unit1_bn2_scale
I0110 19:48:51.643023  2858 net.cpp:84] Creating Layer stage4_unit1_bn2_scale
I0110 19:48:51.643028  2858 net.cpp:406] stage4_unit1_bn2_scale <- stage4_unit1_bn2
I0110 19:48:51.643034  2858 net.cpp:367] stage4_unit1_bn2_scale -> stage4_unit1_bn2 (in-place)
I0110 19:48:51.643085  2858 layer_factory.hpp:77] Creating layer stage4_unit1_bn2_scale
I0110 19:48:51.643218  2858 net.cpp:122] Setting up stage4_unit1_bn2_scale
I0110 19:48:51.643226  2858 net.cpp:129] Top shape: 8 512 25 25 (2560000)
I0110 19:48:51.643230  2858 net.cpp:137] Memory required for data: 2087680096
I0110 19:48:51.643239  2858 layer_factory.hpp:77] Creating layer stage4_unit1_relu1
I0110 19:48:51.643247  2858 net.cpp:84] Creating Layer stage4_unit1_relu1
I0110 19:48:51.643254  2858 net.cpp:406] stage4_unit1_relu1 <- stage4_unit1_bn2
I0110 19:48:51.643260  2858 net.cpp:380] stage4_unit1_relu1 -> stage4_unit1_relu1
I0110 19:48:51.643388  2858 net.cpp:122] Setting up stage4_unit1_relu1
I0110 19:48:51.643399  2858 net.cpp:129] Top shape: 8 512 25 25 (2560000)
I0110 19:48:51.643405  2858 net.cpp:137] Memory required for data: 2097920096
I0110 19:48:51.643410  2858 layer_factory.hpp:77] Creating layer stage4_unit1_conv2
I0110 19:48:51.643421  2858 net.cpp:84] Creating Layer stage4_unit1_conv2
I0110 19:48:51.643427  2858 net.cpp:406] stage4_unit1_conv2 <- stage4_unit1_relu1
I0110 19:48:51.643436  2858 net.cpp:380] stage4_unit1_conv2 -> stage4_unit1_conv2
I0110 19:48:51.677491  2858 net.cpp:122] Setting up stage4_unit1_conv2
I0110 19:48:51.677515  2858 net.cpp:129] Top shape: 8 512 13 13 (692224)
I0110 19:48:51.677518  2858 net.cpp:137] Memory required for data: 2100688992
I0110 19:48:51.677528  2858 layer_factory.hpp:77] Creating layer stage4_unit1_bn3
I0110 19:48:51.677539  2858 net.cpp:84] Creating Layer stage4_unit1_bn3
I0110 19:48:51.677546  2858 net.cpp:406] stage4_unit1_bn3 <- stage4_unit1_conv2
I0110 19:48:51.677553  2858 net.cpp:380] stage4_unit1_bn3 -> stage4_unit1_bn3
I0110 19:48:51.677803  2858 net.cpp:122] Setting up stage4_unit1_bn3
I0110 19:48:51.677814  2858 net.cpp:129] Top shape: 8 512 13 13 (692224)
I0110 19:48:51.677816  2858 net.cpp:137] Memory required for data: 2103457888
I0110 19:48:51.677826  2858 layer_factory.hpp:77] Creating layer stage4_unit1_bn3_scale
I0110 19:48:51.677835  2858 net.cpp:84] Creating Layer stage4_unit1_bn3_scale
I0110 19:48:51.677841  2858 net.cpp:406] stage4_unit1_bn3_scale <- stage4_unit1_bn3
I0110 19:48:51.677847  2858 net.cpp:367] stage4_unit1_bn3_scale -> stage4_unit1_bn3 (in-place)
I0110 19:48:51.677901  2858 layer_factory.hpp:77] Creating layer stage4_unit1_bn3_scale
I0110 19:48:51.678026  2858 net.cpp:122] Setting up stage4_unit1_bn3_scale
I0110 19:48:51.678035  2858 net.cpp:129] Top shape: 8 512 13 13 (692224)
I0110 19:48:51.678040  2858 net.cpp:137] Memory required for data: 2106226784
I0110 19:48:51.678046  2858 layer_factory.hpp:77] Creating layer stage4_unit1_conv1sc
I0110 19:48:51.678061  2858 net.cpp:84] Creating Layer stage4_unit1_conv1sc
I0110 19:48:51.678067  2858 net.cpp:406] stage4_unit1_conv1sc <- _plus5__plus5_0_split_1
I0110 19:48:51.678076  2858 net.cpp:380] stage4_unit1_conv1sc -> stage4_unit1_conv1sc
I0110 19:48:51.679998  2858 net.cpp:122] Setting up stage4_unit1_conv1sc
I0110 19:48:51.680011  2858 net.cpp:129] Top shape: 8 512 13 13 (692224)
I0110 19:48:51.680014  2858 net.cpp:137] Memory required for data: 2108995680
I0110 19:48:51.680021  2858 layer_factory.hpp:77] Creating layer stage4_unit1_sc
I0110 19:48:51.680030  2858 net.cpp:84] Creating Layer stage4_unit1_sc
I0110 19:48:51.680037  2858 net.cpp:406] stage4_unit1_sc <- stage4_unit1_conv1sc
I0110 19:48:51.680043  2858 net.cpp:380] stage4_unit1_sc -> stage4_unit1_sc
I0110 19:48:51.680269  2858 net.cpp:122] Setting up stage4_unit1_sc
I0110 19:48:51.680277  2858 net.cpp:129] Top shape: 8 512 13 13 (692224)
I0110 19:48:51.680284  2858 net.cpp:137] Memory required for data: 2111764576
I0110 19:48:51.680292  2858 layer_factory.hpp:77] Creating layer stage4_unit1_sc_scale
I0110 19:48:51.680302  2858 net.cpp:84] Creating Layer stage4_unit1_sc_scale
I0110 19:48:51.680308  2858 net.cpp:406] stage4_unit1_sc_scale <- stage4_unit1_sc
I0110 19:48:51.680315  2858 net.cpp:367] stage4_unit1_sc_scale -> stage4_unit1_sc (in-place)
I0110 19:48:51.680359  2858 layer_factory.hpp:77] Creating layer stage4_unit1_sc_scale
I0110 19:48:51.680474  2858 net.cpp:122] Setting up stage4_unit1_sc_scale
I0110 19:48:51.680485  2858 net.cpp:129] Top shape: 8 512 13 13 (692224)
I0110 19:48:51.680490  2858 net.cpp:137] Memory required for data: 2114533472
I0110 19:48:51.680498  2858 layer_factory.hpp:77] Creating layer _plus6
I0110 19:48:51.680506  2858 net.cpp:84] Creating Layer _plus6
I0110 19:48:51.680510  2858 net.cpp:406] _plus6 <- stage4_unit1_bn3
I0110 19:48:51.680516  2858 net.cpp:406] _plus6 <- stage4_unit1_sc
I0110 19:48:51.680524  2858 net.cpp:380] _plus6 -> _plus6
I0110 19:48:51.680553  2858 net.cpp:122] Setting up _plus6
I0110 19:48:51.680562  2858 net.cpp:129] Top shape: 8 512 13 13 (692224)
I0110 19:48:51.680567  2858 net.cpp:137] Memory required for data: 2117302368
I0110 19:48:51.680570  2858 layer_factory.hpp:77] Creating layer _plus6__plus6_0_split
I0110 19:48:51.680579  2858 net.cpp:84] Creating Layer _plus6__plus6_0_split
I0110 19:48:51.680585  2858 net.cpp:406] _plus6__plus6_0_split <- _plus6
I0110 19:48:51.680593  2858 net.cpp:380] _plus6__plus6_0_split -> _plus6__plus6_0_split_0
I0110 19:48:51.680601  2858 net.cpp:380] _plus6__plus6_0_split -> _plus6__plus6_0_split_1
I0110 19:48:51.680658  2858 net.cpp:122] Setting up _plus6__plus6_0_split
I0110 19:48:51.680667  2858 net.cpp:129] Top shape: 8 512 13 13 (692224)
I0110 19:48:51.680673  2858 net.cpp:129] Top shape: 8 512 13 13 (692224)
I0110 19:48:51.680676  2858 net.cpp:137] Memory required for data: 2122840160
I0110 19:48:51.680681  2858 layer_factory.hpp:77] Creating layer stage4_unit2_bn1
I0110 19:48:51.680691  2858 net.cpp:84] Creating Layer stage4_unit2_bn1
I0110 19:48:51.680696  2858 net.cpp:406] stage4_unit2_bn1 <- _plus6__plus6_0_split_0
I0110 19:48:51.680702  2858 net.cpp:380] stage4_unit2_bn1 -> stage4_unit2_bn1
I0110 19:48:51.680918  2858 net.cpp:122] Setting up stage4_unit2_bn1
I0110 19:48:51.680927  2858 net.cpp:129] Top shape: 8 512 13 13 (692224)
I0110 19:48:51.680932  2858 net.cpp:137] Memory required for data: 2125609056
I0110 19:48:51.680940  2858 layer_factory.hpp:77] Creating layer stage4_unit2_bn1_scale
I0110 19:48:51.680948  2858 net.cpp:84] Creating Layer stage4_unit2_bn1_scale
I0110 19:48:51.680954  2858 net.cpp:406] stage4_unit2_bn1_scale <- stage4_unit2_bn1
I0110 19:48:51.680963  2858 net.cpp:367] stage4_unit2_bn1_scale -> stage4_unit2_bn1 (in-place)
I0110 19:48:51.681010  2858 layer_factory.hpp:77] Creating layer stage4_unit2_bn1_scale
I0110 19:48:51.681133  2858 net.cpp:122] Setting up stage4_unit2_bn1_scale
I0110 19:48:51.681145  2858 net.cpp:129] Top shape: 8 512 13 13 (692224)
I0110 19:48:51.681150  2858 net.cpp:137] Memory required for data: 2128377952
I0110 19:48:51.681157  2858 layer_factory.hpp:77] Creating layer stage4_unit2_conv1
I0110 19:48:51.681169  2858 net.cpp:84] Creating Layer stage4_unit2_conv1
I0110 19:48:51.681174  2858 net.cpp:406] stage4_unit2_conv1 <- stage4_unit2_bn1
I0110 19:48:51.681185  2858 net.cpp:380] stage4_unit2_conv1 -> stage4_unit2_conv1
I0110 19:48:51.715481  2858 net.cpp:122] Setting up stage4_unit2_conv1
I0110 19:48:51.715517  2858 net.cpp:129] Top shape: 8 512 13 13 (692224)
I0110 19:48:51.715521  2858 net.cpp:137] Memory required for data: 2131146848
I0110 19:48:51.715538  2858 layer_factory.hpp:77] Creating layer stage4_unit2_bn2
I0110 19:48:51.715553  2858 net.cpp:84] Creating Layer stage4_unit2_bn2
I0110 19:48:51.715559  2858 net.cpp:406] stage4_unit2_bn2 <- stage4_unit2_conv1
I0110 19:48:51.715570  2858 net.cpp:380] stage4_unit2_bn2 -> stage4_unit2_bn2
I0110 19:48:51.715827  2858 net.cpp:122] Setting up stage4_unit2_bn2
I0110 19:48:51.715837  2858 net.cpp:129] Top shape: 8 512 13 13 (692224)
I0110 19:48:51.715840  2858 net.cpp:137] Memory required for data: 2133915744
I0110 19:48:51.715849  2858 layer_factory.hpp:77] Creating layer stage4_unit2_bn2_scale
I0110 19:48:51.715860  2858 net.cpp:84] Creating Layer stage4_unit2_bn2_scale
I0110 19:48:51.715864  2858 net.cpp:406] stage4_unit2_bn2_scale <- stage4_unit2_bn2
I0110 19:48:51.715871  2858 net.cpp:367] stage4_unit2_bn2_scale -> stage4_unit2_bn2 (in-place)
I0110 19:48:51.715926  2858 layer_factory.hpp:77] Creating layer stage4_unit2_bn2_scale
I0110 19:48:51.716053  2858 net.cpp:122] Setting up stage4_unit2_bn2_scale
I0110 19:48:51.716061  2858 net.cpp:129] Top shape: 8 512 13 13 (692224)
I0110 19:48:51.716065  2858 net.cpp:137] Memory required for data: 2136684640
I0110 19:48:51.716073  2858 layer_factory.hpp:77] Creating layer stage4_unit2_relu1
I0110 19:48:51.716084  2858 net.cpp:84] Creating Layer stage4_unit2_relu1
I0110 19:48:51.716087  2858 net.cpp:406] stage4_unit2_relu1 <- stage4_unit2_bn2
I0110 19:48:51.716095  2858 net.cpp:380] stage4_unit2_relu1 -> stage4_unit2_relu1
I0110 19:48:51.716656  2858 net.cpp:122] Setting up stage4_unit2_relu1
I0110 19:48:51.716673  2858 net.cpp:129] Top shape: 8 512 13 13 (692224)
I0110 19:48:51.716677  2858 net.cpp:137] Memory required for data: 2139453536
I0110 19:48:51.716682  2858 layer_factory.hpp:77] Creating layer stage4_unit2_conv2
I0110 19:48:51.716699  2858 net.cpp:84] Creating Layer stage4_unit2_conv2
I0110 19:48:51.716706  2858 net.cpp:406] stage4_unit2_conv2 <- stage4_unit2_relu1
I0110 19:48:51.716715  2858 net.cpp:380] stage4_unit2_conv2 -> stage4_unit2_conv2
I0110 19:48:51.750659  2858 net.cpp:122] Setting up stage4_unit2_conv2
I0110 19:48:51.750679  2858 net.cpp:129] Top shape: 8 512 13 13 (692224)
I0110 19:48:51.750682  2858 net.cpp:137] Memory required for data: 2142222432
I0110 19:48:51.750690  2858 layer_factory.hpp:77] Creating layer stage4_unit2_bn3
I0110 19:48:51.750701  2858 net.cpp:84] Creating Layer stage4_unit2_bn3
I0110 19:48:51.750708  2858 net.cpp:406] stage4_unit2_bn3 <- stage4_unit2_conv2
I0110 19:48:51.750715  2858 net.cpp:380] stage4_unit2_bn3 -> stage4_unit2_bn3
I0110 19:48:51.750952  2858 net.cpp:122] Setting up stage4_unit2_bn3
I0110 19:48:51.750962  2858 net.cpp:129] Top shape: 8 512 13 13 (692224)
I0110 19:48:51.750965  2858 net.cpp:137] Memory required for data: 2144991328
I0110 19:48:51.750975  2858 layer_factory.hpp:77] Creating layer stage4_unit2_bn3_scale
I0110 19:48:51.750984  2858 net.cpp:84] Creating Layer stage4_unit2_bn3_scale
I0110 19:48:51.750989  2858 net.cpp:406] stage4_unit2_bn3_scale <- stage4_unit2_bn3
I0110 19:48:51.750994  2858 net.cpp:367] stage4_unit2_bn3_scale -> stage4_unit2_bn3 (in-place)
I0110 19:48:51.751039  2858 layer_factory.hpp:77] Creating layer stage4_unit2_bn3_scale
I0110 19:48:51.751163  2858 net.cpp:122] Setting up stage4_unit2_bn3_scale
I0110 19:48:51.751171  2858 net.cpp:129] Top shape: 8 512 13 13 (692224)
I0110 19:48:51.751175  2858 net.cpp:137] Memory required for data: 2147760224
I0110 19:48:51.751183  2858 layer_factory.hpp:77] Creating layer _plus7
I0110 19:48:51.751194  2858 net.cpp:84] Creating Layer _plus7
I0110 19:48:51.751199  2858 net.cpp:406] _plus7 <- stage4_unit2_bn3
I0110 19:48:51.751206  2858 net.cpp:406] _plus7 <- _plus6__plus6_0_split_1
I0110 19:48:51.751215  2858 net.cpp:380] _plus7 -> _plus7
I0110 19:48:51.751245  2858 net.cpp:122] Setting up _plus7
I0110 19:48:51.751253  2858 net.cpp:129] Top shape: 8 512 13 13 (692224)
I0110 19:48:51.751257  2858 net.cpp:137] Memory required for data: 2150529120
I0110 19:48:51.751262  2858 layer_factory.hpp:77] Creating layer bn1
I0110 19:48:51.751269  2858 net.cpp:84] Creating Layer bn1
I0110 19:48:51.751273  2858 net.cpp:406] bn1 <- _plus7
I0110 19:48:51.751282  2858 net.cpp:380] bn1 -> bn1
I0110 19:48:51.751495  2858 net.cpp:122] Setting up bn1
I0110 19:48:51.751504  2858 net.cpp:129] Top shape: 8 512 13 13 (692224)
I0110 19:48:51.751507  2858 net.cpp:137] Memory required for data: 2153298016
I0110 19:48:51.751516  2858 layer_factory.hpp:77] Creating layer bn1_scale
I0110 19:48:51.751524  2858 net.cpp:84] Creating Layer bn1_scale
I0110 19:48:51.751529  2858 net.cpp:406] bn1_scale <- bn1
I0110 19:48:51.751534  2858 net.cpp:367] bn1_scale -> bn1 (in-place)
I0110 19:48:51.751576  2858 layer_factory.hpp:77] Creating layer bn1_scale
I0110 19:48:51.751694  2858 net.cpp:122] Setting up bn1_scale
I0110 19:48:51.751703  2858 net.cpp:129] Top shape: 8 512 13 13 (692224)
I0110 19:48:51.751706  2858 net.cpp:137] Memory required for data: 2156066912
I0110 19:48:51.751713  2858 layer_factory.hpp:77] Creating layer fc8
I0110 19:48:51.751725  2858 net.cpp:84] Creating Layer fc8
I0110 19:48:51.751731  2858 net.cpp:406] fc8 <- bn1
I0110 19:48:51.751740  2858 net.cpp:380] fc8 -> fc8
I0110 19:48:51.755201  2858 net.cpp:122] Setting up fc8
I0110 19:48:51.755216  2858 net.cpp:129] Top shape: 8 2 (16)
I0110 19:48:51.755220  2858 net.cpp:137] Memory required for data: 2156066976
I0110 19:48:51.755229  2858 layer_factory.hpp:77] Creating layer fc8_fc8_0_split
I0110 19:48:51.755239  2858 net.cpp:84] Creating Layer fc8_fc8_0_split
I0110 19:48:51.755244  2858 net.cpp:406] fc8_fc8_0_split <- fc8
I0110 19:48:51.755251  2858 net.cpp:380] fc8_fc8_0_split -> fc8_fc8_0_split_0
I0110 19:48:51.755261  2858 net.cpp:380] fc8_fc8_0_split -> fc8_fc8_0_split_1
I0110 19:48:51.755306  2858 net.cpp:122] Setting up fc8_fc8_0_split
I0110 19:48:51.755314  2858 net.cpp:129] Top shape: 8 2 (16)
I0110 19:48:51.755318  2858 net.cpp:129] Top shape: 8 2 (16)
I0110 19:48:51.755321  2858 net.cpp:137] Memory required for data: 2156067104
I0110 19:48:51.755326  2858 layer_factory.hpp:77] Creating layer accuracy
I0110 19:48:51.755338  2858 net.cpp:84] Creating Layer accuracy
I0110 19:48:51.755344  2858 net.cpp:406] accuracy <- fc8_fc8_0_split_0
I0110 19:48:51.755349  2858 net.cpp:406] accuracy <- label_data_1_split_0
I0110 19:48:51.755355  2858 net.cpp:380] accuracy -> accuracy
…
